Python/RNN/models/MODELSLAYER3.pt (torch, 725955 bytes, 10 tensors)

fc1.weight f4 [50, 100]
00000000: d52b 8a3d eee5 a1bd 5300 33bd 16d8 4b3d
00000010: 4bdc c8bd 4b12 bb3d 60b6 e0bc b3b3 abbd
00000020: ab08 b83d 9071 4ebd 8308 2cbd 0d95 1fbd
00000030: 678b 9a3d 3872 ad3c 5cde eb3c 8283 3e3d
00000040: c8db 98bc 660e 9ebd 402e 463c aa9e 023d
00000050: d0bd fdbb 145b d13c 9a7c 80bd acb3 b9bc
00000060: 869d 013d 93e3 58bd 74ae bebc 33b2 1abd
00000070: e847 25bc ecf8 a93c 1246 273d 37e1 78bd
00000080: b05d 42bc e392 c0bd f870 c5bd 5050 fdbb
00000090: 468c 82bd ea29 8ebd 745a 18bd d0fd 71bd
000000a0: 5936 813d 9108 c03d 42c4 633d 78bf b93c
000000b0: 2ad0 353d b482 aabc 05db b3bd 08cd b5bc
000000c0: 131f 903d 87dc aa3d 75f3 8bbd 6abe 353d
000000d0: 6d0b 8b3d a019 833b e09a ac3c 1dbe 3dbd
000000e0: 8302 b83d 4ebb 013d 4e29 9dbd 1f35 9e3d
000000f0: 80e4 9ebb 5631 493d e888 a6bc c14f 853d
00000100: 45fc 933d f5cb babd 9cb3 d63c 4a80 9fbd
00000110: 20be db3b 988c 80bd 8c02 8b3c 008b b9bd
00000120: 25b9 c6bd df17 983d 88b9 85bc 9ec8 633d
00000130: 67b0 42bd c5f5 863d 60b3 af3c 56b0 123d
00000140: f44f 833c b4d9 0ebd 79a9 bf3d ccb2 0ebd
00000150: 986d 14bc 4069 93ba 07dd c4bd cc06 f03c
00000160: 0453 f03c 7bca b8bd d252 99bd 00d8 7838
00000170: f4d9 e9bc 0a16 383d b414 19bd 87a2 77bd
00000180: a32d ba3d 644e d73c 8174 8f3d e9c5 cb3d
00000190: c67a 1e40 4d3a 34be 3e02 0740 67cd 3240
000001a0: 7b22 13c0 d78b 05c0 26f6 ec3f e788 02c0
000001b0: 6a28 51bf ebbe 05c0 5c4a a440 1f5f 21bf
000001c0: c14e 5740 ce15 89c0 82c4 11c0 7adf c83f
000001d0: 91de 48bf 067f 0c40 5dcc b73e c14a 483f
000001e0: c549 86c0 43d4 de3f 1622 97bf 06be cfbf
000001f0: fe43 c8be 8b52 3bbe 97fa 37c0 9a1d 3040
00000200: ff4e 16bf 7037 08c0 0a23 5c3b 8c2b 7a3e
00000210: e1d3 28bf 8cfe 65c0 ddf1 d5bf de3c 42be
00000220: 8cf9 8c3e c7b2 2fc0 6d0b 7ac0 fa0e 08be
00000230: 5347 303e 9a48 a940 9a7c 79bf 5f33 b0bf
00000240: 5534 b8c0 d1df 9ec0 85e5 a2bf 5495 09c0
00000250: 002e a9bf eea4 a940 3bcd fac0 93e2 f3bf
00000260: f7ac abc0 c5df 94bc c289 4440 2d62 ae3f
00000270: 936e 4c3e e355 9140 9d3f 7540 fef2 b23f
00000280: dd96 71be e93d 07c0 110f f840 8800 edbe
00000290: 20fb 6840 8162 37c0 4360 74bf 2c2f 283e
000002a0: 367f 03c1 3919 96c0 89f5 3ac0 10ea 6d40
000002b0: 6a6f 0d3f 60b6 25c0 4b44 d8bd 8201 93bf
000002c0: d770 3040 3e38 91c0 58c5 04c0 cb1e f53f
000002d0: 54b8 243f 14ea ba3f 0f6c d4be bf77 b6bd
000002e0: de88 95c0 3cc4 a5bf ae2d 203f caf0 a83f
000002f0: 0cfe 573f b38f 41bb d423 7640 a0cb 5bbe
00000300: f177 6bc0 9319 1140 77b5 6a3f 9b76 5140
00000310: c366 5040 2be6 6d3f f65c 22c0 3411 e0bf
00000320: 68b9 a83e d9fb f2be 9bc5 e53e 60ea 4a40
00000330: 2a08 cabf 7033 5c40 9d3e 113f 1439 87c0
00000340: c26d 6c3f 4c9d cebf 87f5 9840 f515 a53f
00000350: 6039 2bbf a502 7540 5392 383f 1435 1e40
00000360: 4a62 ad3f 4490 9040 4f1d 0740 5ab8 803f
00000370: f1c4 2240 5919 6d40 6e00 b13e e83c 4a40
00000380: f832 5540 8230 c73e 2071 e73f fdf8 bf3f
00000390: ea9e 7e3f ec90 593f 1e72 a63f 526d 053d
000003a0: 6554 203e 8847 eabf 0d95 debe 4ce8 1140
000003b0: 211d 58bf bdba e6be 4c01 3ec0 198a 0cc0
000003c0: 3862 0340 41ef dc3f 57ef ee3f 814f 5cc0
000003d0: 6356 9a40 ac3f 4bc0 12e2 33bf da82 e8be
000003e0: 93ba d4bf 4c07 5040 289e 8040 3a9f 5a40
000003f0: b077 8c40 5cef 9f3e 5bbe 593d aaf0 aebf
0.067466415 -0.07905184 -0.04370148 0.049766622 -0.098076425 0.091343485 -0.027430713 -0.08383884
0.08986028 -0.05040127 -0.042000305 -0.038960505 0.0754612 0.021172628 0.028792553 0.046512134
-0.018659487 -0.0771759 0.012095988 0.031889595 -0.0077435747 0.025556125 -0.06273766 -0.022668682
0.031644367 -0.052951407 -0.023276545 -0.0377676 -0.010087945 0.020748578 0.04083831 -0.060761657
-0.011863157 -0.094030164 -0.09640688 -0.0077305213 -0.06374411 -0.06941588 -0.037195638 -0.059079945
0.06309194 0.09376634 0.055607088 0.022674307 0.044387974 -0.020814277 -0.08782009 -0.022192493
0.07037177 0.083428435 -0.06833545 0.044371046 0.06789289 0.0040008575 0.021069944 -0.046323884
0.08984854 0.03167277 -0.07673894 0.07724976 -0.0048490167 0.049119316 -0.020328954 0.065093525
0.07225851 -0.09120933 0.026208691 -0.07788141 0.0067060143 -0.06276816 0.016968988 -0.09059715
-0.09703282 0.07426428 -0.01632382 0.055611245 -0.04753151 0.065898456 0.021447837 0.0358127
0.016029336 -0.034875587 0.09358496 -0.034838483 -0.009059332 -0.0011246577 -0.0961247 0.029300116
0.02933646 -0.09022995 -0.074865 5.9328973e-05 -0.028546311 0.044942893 -0.03737326 -0.060457733
0.09090736 0.026282497 0.07004643 0.09949858 2.4762435 -0.17600365 2.1095119 2.7937868
-2.2989795 -2.0866601 1.8512619 -2.0396059 -0.8170229 -2.0897777 5.134077 -0.6303577
3.3641818 -4.2839117 -2.277619 1.56932 -0.7846461 2.195253 0.35898104 0.78239065
-4.196505 1.7408527 -1.1807277 -1.6229866 -0.39114374 -0.18293206 -2.8746698 2.7518067
-0.5871429 -2.1283836 0.003359022 0.24430674 -0.659483 -3.5936613 -1.6714436 -0.18968531
0.2753414 -2.7452867 -3.9069474 -0.13286963 0.17214708 5.2901125 -0.9745575 -1.3765677
-5.756388 -4.9648213 -1.2726294 -2.1497393 -1.3217163 5.301383 -7.8375525 -1.905352
-5.364864 -0.018173108 3.070908 1.3623711 0.19964056 4.541734 3.8320076 1.3980405
-0.23592706 -2.1131537 7.751839 -0.46289468 3.6403275 -2.8653872 -0.95459384 0.16424245
-8.218557 -4.690579 -2.9212363 3.717411 0.5524813 -2.5892563 -0.10559901 -1.1484835
2.7568872 -4.5381155 -2.074545 1.9150022 0.6434376 1.4602685 -0.41488692 -0.089095585
-4.6729574 -1.2950511 0.625697 1.3198483 0.8437202 -0.0029535114 3.8459368 -0.21464396
-3.6791956 2.267186 0.91683143 3.272864 3.256272 0.92929333 -2.536924 -1.750525
0.32953954 -0.4745777 0.44877324 3.170555 -1.5783741 3.4406395 0.56736165 -4.2257175
0.9235498 -1.6141753 4.7799716 1.2897326 -0.6688442 3.8282864 0.72098273 2.4719896
1.354562 4.5176105 2.1111639 1.005626 2.5432703 3.704672 0.3457064 3.1599674
3.331236 0.38904196 1.8081398 1.499786 0.99461234 0.8498676 1.3003576 0.03257496
0.15657194 -1.830308 -0.43473092 2.2798033 -0.8441945 -0.45064345 -2.9688292 -2.1959288
2.0528698 1.7260514 1.8666791 -3.4423525 4.8230453 -3.1757612 -0.7026683 -0.45412332
-1.6619438 3.2504454 4.019306 3.4159684 4.3896103 0.31237304 0.053160053 -1.3667195

fc1.bias f4 [50]
00000000: d5ca 89bd 4e01 b73c 1034 60be e35e 23bd
00000010: d762 1ebd bd90 1ebd ef58 e33d 6804 9abc
00000020: 8856 54bc 0acd 4fbd 0150 95bd 7338 353d
00000030: edba 88bd 07f4 52bc beff ea3d d824 f0bc
00000040: 6825 8b3d fe56 3ebe 5b7b 8f3e f5cd cbbd
00000050: 78e3 e63d eaad 33be 6730 78bd e0a6 103f
00000060: 7ae5 d4bc dc7d 22bb 0330 2ebe 560c bd3d
00000070: aa26 84bd edaf 0bbd f483 11bd f94b 68bd
00000080: ddce febd aa04 babd e0cc c43b 1568 213d
00000090: 5eee a4bd 1c64 503e 8d0e 5ebd 2a50 a9bd
000000a0: 2ae4 c7bd 18f2 90bd 5b3d 3b3d dddd d5bd
000000b0: 5961 bbbd c21e 39bd 9dd8 6bbd 4df3 7abb
000000c0: f431 a4bc 9162 99bd
-0.0672814 0.02233949 -0.2189486 -0.039885413 -0.03866848 -0.038712252 0.11100947 -0.01880093
-0.012960084 -0.05073265 -0.0729065 0.044243287 -0.06676278 -0.012875563 0.1147456 -0.029314443
0.06794244 -0.18587872 0.280238 -0.099513926 0.11273855 -0.17546812 -0.060593035 0.5650463
-0.02598833 -0.0024794256 -0.17010503 0.092308685 -0.06452687 -0.034103323 -0.03552623 -0.05671308
-0.124418 -0.09082921 0.0060058683 0.0394059 -0.080532774 0.20350689 -0.054213095 -0.08267243
-0.09760316 -0.07077426 0.04571281 -0.10442708 -0.09149427 -0.04519535 -0.057579625 -0.0038291991
-0.02004335 -0.07489503

attention.weight f4 [50, 1000]
00000000: 94b7 04c0 5ad7 2fbf 812f c4bf ad7b 0440
00000010: 721b 2fbf e06a 79bf 33ca 34be 8f53 bec0
00000020: 5ecc d13f f2db 113f b1e9 483e 7d8f cbbf
00000030: b7d4 f4bf 4ddc 08c0 f85a 9dbe 51b9 45bf
00000040: 2601 6dc0 9f61 4f3d 3597 34bf 71e5 48c0
00000050: 191d a9bf 06d2 44c0 63e1 d0bf 2a43 f6be
00000060: 04bd cd3f 30ab 32be f93d c6bf f633 65c0
00000070: 0958 11c0 ff63 683e c6c6 1abf eec8 e8bf
00000080: 027f ab3f 5b93 c73d f2ae 4ec0 1489 31c0
00000090: 961b dfbf 0baf 88bf 3788 8dbf 6601 833f
000000a0: bab4 f0bf d0c2 e0be 8708 21c0 4d29 50be
000000b0: e778 2d3f a983 39bf 44ff 10bf dcde af3f
000000c0: b291 403f 17ee 30c0 18e1 24c0 64ef 0140
000000d0: 51a2 b5bd 4a82 0f3e 8427 2c3d 71c8 8e3f
000000e0: de7d a23f 576c 48c0 d96e 5ec0 eeb8 eabf
000000f0: 9cbb 9fbf a8c0 1d40 3d21 f1bf c0ef 6ac0
00000100: ebe5 de3e 548f a8bf b327 81bf 696b 02c0
00000110: 5442 bcc0 d336 8fbe 7ef5 8abf 96c7 6ec0
00000120: 436c 9d3f ce0d 98bf 884d f7bf 03db 1fc0
00000130: 2915 07c0 8743 0740 8ad4 9a3d 6cc0 21bf
00000140: 2cf0 45c0 93f4 7bc0 e70b f6bf f0ef bdbf
00000150: bc38 11c0 2cee 6640 0f5e 8c3f 762e aabf
00000160: 711b 2ec0 a0fb 1bbf db30 093e 6bd6 1940
00000170: 2048 08be f185 02c0 ffab 25c0 f10a 97bf
00000180: b24a f9bf 0545 823d cffe c0bf e809 50c0
00000190: b649 76bf b01e 36be 00c6 43bf 9dcb 94bf
000001a0: 614d 88be 2bc4 643e 5eb7 00be 3661 01bf
000001b0: 172c 1c40 0131 c43d 053f cfbf 8ae1 f03f
000001c0: 04f3 9fbd da03 10c0 ec28 f9bf 734f 683f
000001d0: 45be 803f b868 05bf 1855 cf3e a1e8 d43e
000001e0: 8884 b6bf 835f b53e aae1 ce3e 3ea4 8f3e
000001f0: 6b12 e6be 046a 0e40 f767 163d 8f14 103f
00000200: 3cdb 603e 7755 f33f ce39 313e 823b cebe
00000210: b5cf 11be 79c9 fd3d 2398 dabe 59b6 56be
00000220: a81b 543f 219b 313f e4fc ad3e a594 b1be
00000230: c747 b2bf 1432 e03f 4431 85bf 2b8b d8bf
00000240: a593 2ebf ba84 8a3f 79c1 f33f 2e9c e93e
00000250: 503c 33c0 31b0 afbe 83fd 5ebe 7567 163f
00000260: beea 76bf 4fc2 0240 347a 63bf 54f6 ef3f
00000270: 9193 1140 c0f8 babf df04 433f 1023 d2bf
00000280: ddc1 5fbe 2b1f 09c0 b8e0 10bf 4f3e cb3f
00000290: 5ff6 5e3f 8f6f 4cbf 7969 07c0 8f0c babe
000002a0: 3175 d5be 9c2d aa3f 13c9 debf fb26 08c0
000002b0: 0e24 b73d 8c0a bb3f cad2 8a3e 80a0 9d3f
000002c0: 4e3b f6be b00e 0ac0 0605 00c0 e018 a7be
000002d0: 81be 0abf aad8 72c0 b266 0abe caf3 993f
000002e0: 835f 8bbf 80ee 1340 cc86 b8bd b66f b63e
000002f0: c572 153f 6ab3 67bf f53f 0d3f 3cd9 d0bc
00000300: 02a8 b53e 2731 923f 9a35 2040 26f8 f0be
00000310: 2148 07bf 0044 82bf 910d a4bf e87f 983f
00000320: 8b61 583f c882 3abe 52bb a53f 7873 31c0
00000330: ff3f 4f3f ad1a 273f 6316 da3e d2e1 2140
00000340: dba5 073e 967b ab3f 32e2 3abf 5ec8 2540
00000350: 667f 203f c8e8 ed3e 97bd 943f 5045 94bf
00000360: e83d 133e a6c7 debe 28a2 8dbf 4730 88bf
00000370: 535c 68bd d553 a93f 12a0 85bf bfad ed3f
00000380: 6468 0ebc 0d71 833e b8ec 113f 4001 de3e
00000390: 1b88 c7bf 1c34 8dbf b7c7 2e3f 001e 5540
000003a0: 79af 843f bab9 373e 7255 1940 7b2d debe
000003b0: 2848 84bf 71e3 933d 0ddd d9be b6d9 803f
000003c0: ec73 04bf 65f3 b3bf dbbe 023f 4ff5 dcbe
000003d0: d54f 9cbf 72a1 bebd c5c9 563f 60b1 9bbf
000003e0: 0d7d 9fbf 4878 f13f e771 ae3e 3d72 ac3e
000003f0: 863e b5bf 1c4d e7bf ed9d 91bf 46d5 603e
-2.0737047 -0.68687975 -1.5326997 2.0700486 -0.68401253 -0.97428703 -0.17655258 -5.9477
1.6390493 0.56976235 0.19620396 -1.5903164 -1.9127415 -2.138446 -0.30733466 -0.77235895
-3.703195 0.050630208 -0.70543224 -3.139004 -1.3212005 -3.0753188 -1.6318783 -0.48098117
1.6073308 -0.17448115 -1.5487663 -3.5812964 -2.2709982 0.22694395 -0.60459554 -1.8186319
1.3398135 0.09744903 -3.2294278 -2.7739916 -1.7430294 -1.0678419 -1.1057194 1.0234802
-1.8805153 -0.4389863 -2.5161455 -0.20328255 0.6776261 -0.7246652 -0.56639504 1.3739886
0.75222313 -2.7645319 -2.5762386 2.0302362 -0.0886885 0.14014545 0.042029873 1.115492
1.2694662 -3.1316125 -3.4755156 -1.8337686 -1.2479129 2.4648838 -1.8838269 -3.6708832
0.43534788 -1.316874 -1.009024 -2.0378058 -5.8830967 -0.27971515 -1.0856168 -3.7309318
1.2298664 -1.1879213 -1.9320536 -2.4977424 -2.1106665 2.1134965 0.0756007 -0.6318424
-3.092784 -3.9368026 -1.9222382 -1.4838848 -2.2690878 3.6082869 1.0966204 -1.3295429
-2.720425 -0.60930824 0.13397543 2.403712 -0.13308764 -2.0394251 -2.5886228 -1.1800214
-1.947592 0.06360821 -1.5077761 -3.2506046 -0.96206224 -0.17785144 -0.76474 -1.1624638
-0.26621535 0.22340457 -0.12569949 -0.5053896 2.440191 0.09579659 -1.6191107 1.8818829
-0.078100234 -2.250235 -1.9465613 0.9074623 1.0058066 -0.52112913 0.4049461 0.41583732
-1.4259195 0.35424432 0.40406543 0.28054994 -0.44935927 2.2252207 0.036720242 0.5628137
0.21958631 1.9010457 0.17307207 -0.40279776 -0.1423939 0.123919435 -0.42694196 -0.20967998
0.828547 0.6937733 0.33982003 -0.3468372 -1.3928155 1.7515283 -1.040566 -1.6917471
-0.6819404 1.0821755 1.9043418 0.45626968 -2.8005562 -0.3431411 -0.21776395 0.5875161
-0.9645194 2.0431097 -0.8885834 1.8747048 2.2746317 -1.4607162 0.7617931 -1.641695
-0.21851297 -2.1425273 -0.56592894 1.587839 0.8709468 -0.79857725 -2.1158125 -0.36337706
-0.41690972 1.3295169 -1.7405113 -2.1273792 0.08942424 1.4612594 0.27113944 1.2314606
-0.4809212 -2.1571465 -2.0003066 -0.32636166 -0.54196936 -3.7944741 -0.13515738 1.2027524
-1.0888523 2.311432 -0.090100855 0.35632104 0.5837825 -0.9050814 0.55175716 -0.02549421
0.35479742 1.142125 2.5032716 -0.47064322 -0.52844435 -1.0177002 -1.281664 1.1914034
0.8452384 -0.18213952 1.2947791 -2.7726727 0.80957025 0.6527508 0.42595205 2.529408
0.13246863 1.339709 -0.73001397 2.5903544 0.62694395 0.4646666 1.1620358 -1.1583652
0.14379084 -0.43511695 -1.1065111 -1.0639733 -0.056728672 1.3228709 -1.0439475 1.8568648
-0.008691881 0.25672188 0.5700183 0.4336033 -1.5588411 -1.1031528 0.6827349 3.329956
1.036605 0.17941943 2.3958402 -0.43394074 -1.033452 0.072211154 -0.4255146 1.006644
-0.5173938 -1.4058653 0.5107247 -0.43155906 -1.2211863 -0.09308137 0.83901626 -1.2163506
-1.2460037 1.8864832 0.34071276 0.33680907 -1.4159706 -1.8070407 -1.137632 0.21956357

attention.bias f4 [50]
00000000: d6db aebc c402 e03a 82ff 0bbd 76b8 8fbc
00000010: 0c58 de3d 9572 bcbc 108f 9dbc c909 37bd
00000020: 8283 bebc 165e 03bd 995f e5bd 6144 17bc
00000030: 22ea a9bd 444d d7bc 928b 78bc 0b20 2abd
00000040: 0e3a e0bc e33f 06bd 1257 2cbd 2618 f5bc
00000050: 7d6a eebd 3ec7 07bd ab8d b2bb 84df c5bd
00000060: c639 22bd 815d 1abd 23fa 81be 857e 82bd
00000070: 4d66 eabc 9210 f0bc 3cd0 8dbc d610 e3bc
00000080: 901a 21bd 1195 2e3f d089 f8bc cc63 b7bc
00000090: ed37 323f c2b6 debc cce4 bdbc 5440 fbbc
000000a0: 246a 873e 079b f4bd 0752 1bbd 6427 9cbd
000000b0: 3b05 0abe 95e6 04bd 19f5 803e 7455 9cbd
000000c0: e04c 4cbd 840f 10bd
-0.02134506 0.0017090668 -0.034179218 -0.017544013 0.10856637 -0.023003856 -0.019233257 -0.044687066
-0.023256067 -0.03207215 -0.111998744 -0.009232611 -0.082966104 -0.02628196 -0.015169995 -0.041534465
-0.027371433 -0.03277577 -0.042075224 -0.029918741 -0.11641405 -0.033148997 -0.005449017 -0.09661773
-0.03960588 -0.03768683 -0.25386152 -0.06371788 -0.028613234 -0.029304776 -0.017311208 -0.027717989
-0.039331973 0.6819621 -0.030339152 -0.022386454 0.69616586 -0.027186755 -0.023180388 -0.030670322
0.26448166 -0.119436316 -0.037920024 -0.07624701 -0.13478558 -0.032446463 0.25186995 -0.076334864
-0.049878 -0.035171047

attention2.weight f4 [25, 50]
00000000: 0456 3940 b048 823e 50b2 9cbd 88d5 63bd
00000010: a34c 62c0 cbdc afbd 8e66 d23d 6afb fc3d
00000020: 3625 40bd 9877 d13d 5f5e ab3f cce0 45bf
00000030: 7e80 833d 474e e4bd 9c70 12bd 4e88 f4bb
00000040: 6418 d4bd 732a 92bd 780f d53c 2433 633d
00000050: 44da 1c3e 70ab bb3d 2a73 2dbf 492f 113f
00000060: 9fdb 703d 008b 0fba 0314 1a40 e54f 093e
00000070: d46c 4d3d 7878 3bbd 301a 0abc 4469 9bbc
00000080: 61ba 12bc d2ff 01c0 2d86 91bd d895 d53d
00000090: 4148 813f 8ee3 e13d 061b 34bd 0c93 3e3d
000000a0: 60a3 b4bf b272 143f 767a 9f3d 9bf5 a43d
000000b0: ff84 8740 6ed9 0d3d ebbb 2340 c98d cd3d
000000c0: cf3f 0f3e da90 6d3d 711a 4cbc add8 6dbe
000000d0: 08d3 ec3b 1162 a4bd e86e 873c 0edd fb3d
000000e0: f483 8dbd c7d5 ebbd 307a 5b3c 84d3 89bc
000000f0: 5e26 06be db06 18bd ca12 2bbe 10b0 73bc
00000100: 4f67 0d3e c475 913d 0a14 f93d 4718 443d
00000110: 45b5 bfbd 9c67 adbd 5d47 553d 46b8 e9bd
00000120: 4573 e23c 6cc1 a43d 8ef7 d4bc a021 b73b
00000130: 619d 94bc 9975 c43d 4c1b b2bd 8ccd cabc
00000140: 00c1 44bd 22c6 81bd ce83 a33d e020 543d
00000150: 8eaf dc3d e69a f53d fb06 dbbd b7e3 08be
00000160: c4f2 013d f03e babd bb82 bfbd 4db0 80bd
00000170: d65a e13d 5adf 4c3d 6151 d4bd 959a c2bc
00000180: eac8 7fbd 170d 1a3a 6013 00be a853 5cbd
00000190: 292b df3c fc3e 86bc 73f3 a6bc 4039 5d3c
000001a0: 823e 2abe b756 e7bd 80b2 1e3b e05e d1bc
000001b0: 7872 b53c c712 babc 1ecd e6bd 79ff 033d
000001c0: d39c 903d 4c90 bfbc dcad 5cbd 9e16 9a3d
000001d0: e889 f5bc ed1f bf3d f086 00be 60fa a53c
000001e0: 17e2 ac3d ee7d e1bd 05aa 7a3d 1f7c 5fbd
000001f0: 37b5 82bd e4f7 c63d bd69 273b 269b abbd
00000200: 98f6 a7bc c67c 93bd 8ab5 9bbd 7f8a f9bd
00000210: c776 a0bd d4bc a1bd 6028 783d fa09 ca3d
00000220: 6c63 ba3c 5ae4 c3bd f1f1 063e 7621 dbbd
00000230: c1c5 8e3c f7a0 30ba 24b2 cc3d 6762 53bc
00000240: 92e8 56be 86ac c2bc 175b b0bd 0f08 733d
00000250: 5bfc 85bd 69ec 013e ae2d 02bd 908d 96be
00000260: 4126 893d 5400 38bd 7cd1 14be 68d5 fbbc
00000270: 7cf2 3bbd e6e7 fa3d 8e9f c73d 7195 b8bd
00000280: 222b 01be 70a2 86bb 1d31 edbd d7d6 89bd
00000290: 606f 48bc 401b f5bb 7609 e03d 74ad bf3d
000002a0: 1472 aabd f059 1b3c bd80 e0bc 6aa7 37be
000002b0: 42a1 acbd a153 203d eda5 653b 9a85 b8bd
000002c0: e7f2 56be 5799 c3bc 6c31 423d b88d 833c
000002d0: 22ae b63d 6fe5 0c3e f0d3 8dbd 21fe a83c
000002e0: d985 8e3d a0f5 d1bb c327 10be 3266 14bd
000002f0: 70d9 233d ac5e 293d cfad 4dba 262d d23c
00000300: 18cf 563d f496 05be 052b adbd 0b7c 8b3c
00000310: f74c 6b3c 4f8b 5e3c a838 ad3d 0a74 033e
00000320: 2bb1 eabf eba5 05c0 1a93 823d 3885 a5bd
00000330: 7387 bcc0 4039 abbb b085 b13c 882c f93c
00000340: 6390 d4bd 802e 943a 3702 80c0 ab23 833f
00000350: 327f a4bd 3a3b 4dbd 883f 13bd 6e26 e73d
00000360: 081e b2bc 4186 02be ca9c f03d 66bb f3bd
00000370: 9aa4 be3c bca9 e4bc 7475 2e40 5624 bebd
00000380: 0011 753c 0262 823d 0de3 04c0 e2cf 1ebd
00000390: da08 f63d f9a0 053e bc7f 703d d421 323d
000003a0: 9c7f 253d 35f6 a03d 8808 093d d7b0 0e3e
000003b0: be21 8cbf d09c 053c ee40 dabd 90a3 3c3d
000003c0: 5da8 8d3f 2cf5 80be 209e 1f3c c6fe e4ba
000003d0: de1a 9740 5881 183d e843 cebf 92e1 8d3d
000003e0: 52df f9bd 2822 8d3c 88f8 24be 7400 f5bd
000003f0: a32c 7c3d 48ed f03c 0b05 e6bd e6be b03d
2.895875 0.2544608 -0.07651198 -0.05562356 -3.5359275 -0.08587035 0.10273467 0.12352641
-0.046910487 0.10227889 1.3388175 -0.7729614 0.06420992 -0.11147743 -0.035751924 -0.007462538
-0.10356215 -0.07137003 0.026008353 0.055468693 0.15317637 0.091635585 -0.6775385 0.56712776
0.058803197 -0.00054757297 2.4074714 0.13409384 0.050152615 -0.045769185 -0.008429095 -0.018971093
-0.008955569 -2.031239 -0.0710567 0.10428971 1.0100175 0.11029731 -0.043971084 0.046526954
-1.4112358 0.5798751 0.077870294 0.08054658 4.234985 0.034631185 2.5583446 0.10036809
0.13989185 0.05799947 -0.012457476 -0.23227187 0.0072273053 -0.08026517 0.016532376 0.12298022
-0.06909934 -0.11515384 0.013395831 -0.016824491 -0.13100573 -0.037115913 -0.16706386 -0.01487352
0.1380894 0.0710254 0.12162025 0.047874715 -0.09360746 -0.084670275 0.05207001 -0.114121005
0.027642855 0.08044705 -0.02599695 0.005588725 -0.01814145 0.095927425 -0.08696613 -0.024756216
-0.04803562 -0.06336619 0.07984124 0.051789165 0.10775672 0.11992435 -0.10694691 -0.13368116
0.03172566 -0.090940356 -0.09351107 -0.06283627 0.11003654 0.050017692 -0.10367084 -0.023755351
-0.062447466 0.00058765843 -0.12507391 -0.05379072 0.02724226 -0.016387455 -0.020379758 0.013502419
-0.16625407 -0.112958364 0.002421528 -0.025557935 0.02214931 -0.022714032 -0.11269592 0.03222606
0.07061162 -0.023384236 -0.053876743 0.07523845 -0.029972985 0.09332261 -0.12551475 0.02026099
0.08441561 -0.11010347 0.0611973 -0.05456173 -0.0638222 0.0971525 0.0025545203 -0.083792016
-0.020503327 -0.07201533 -0.07602985 -0.12184619 -0.07835155 -0.07897344 0.06058538 0.09865184
0.022752486 -0.09565039 0.13178231 -0.106997415 0.01742828 -0.0006737853 0.09994915 -0.012901879
-0.20987156 -0.023763906 -0.08611124 0.059333857 -0.065422736 0.1268784 -0.031781845 -0.2940488
0.066967495 -0.044922188 -0.14533037 -0.030741408 -0.045885548 0.12251262 0.097472295 -0.09012879
-0.1261411 -0.0041087195 -0.11581633 -0.067304306 -0.012233585 -0.007480055 0.109393045 0.093592554
-0.0832254 0.009481892 -0.027405137 -0.17934957 -0.08429195 0.039142255 0.0035041526 -0.090098575
-0.20991097 -0.02387683 0.047410414 0.016058788 0.08919932 0.13759397 -0.069251895 0.02062899
0.06959123 -0.0064074546 -0.14077668 -0.036230274 0.040002286 0.04135005 -0.0007846029 0.025656294
0.052443594 -0.13045865 -0.08455471 0.017026922 0.014361612 0.013583018 0.08458072 0.12837234
-1.8335317 -2.0882518 0.06375714 -0.0808205 -5.8915343 -0.0052253306 0.021670192 0.030416742
-0.10379102 0.0011305362 -4.0002704 1.024526 -0.08032073 -0.05010531 -0.03594926 0.11286627
-0.021742836 -0.12746526 0.11748655 -0.11900978 0.023271848 -0.027912967 2.7259188 -0.09284274
0.014957666 0.0636635 -2.076358 -0.03877247 0.12013407 0.13049687 0.058715567 0.043489292
0.0404049 0.0785946 0.0334554 0.13934647 -1.0947797 0.008155063 -0.106569156 0.046054423
1.1067005 -0.2518705 0.00974229 -0.0017470948 4.7220297 0.037232727 -1.6114473 0.0692779
-0.12200798 0.017228201 -0.16110432 -0.11962977 0.061566006 0.02941002 -0.112314306 0.08630161

attention2.bias f4 [25]
00000000: 5021 96bf 24c6 96bd 5a38 e8bd 9835 36bd
00000010: e998 243f 3ba0 35bd cdc6 f7bd a616 62bf
00000020: 1b9c 85bf 4a4f 48be a180 fcbc 4f5f 69bf
00000030: 4207 00bf e383 12be 0b14 2abe 86b9 74bd
00000040: 190c ecbf 27fb 0abf ea13 a13e 99d5 57bf
00000050: 8b30 92bd 4647 c4bd 1f94 2ebe c395 31be
00000060: 8973 f0bd
-1.1728916 -0.07362011 -0.11338873 -0.044484705 0.6429582 -0.04434226 -0.12098465 -0.8831581
-1.0438265 -0.19561496 -0.030823054 -0.91161054 -0.50011075 -0.14308123 -0.16609208 -0.05974724
-1.8441192 -0.5428948 0.31460506 -0.843103 -0.07138165 -0.09583907 -0.17048691 -0.17342286
-0.117407866

fc2.weight f4 [25, 50]
00000000: e921 943f 1348 d33f 8536 d0be 4c6c 303d
00000010: de54 873f 5d07 ec3f 2690 78bf 232a e63f
00000020: 58bf 5dc0 25c8 0abe 21f5 dabf 4ac0 5b3f
00000030: 4655 8a3d 1875 a03d 7610 d93f 4a84 e4bd
00000040: b2ea 8c3f 3cff d440 cb61 813f 409a 0cbb
00000050: 08d4 35bf de99 9b40 4431 163f 618f c43e
00000060: e152 6440 acdb 8e3f a607 1040 d0ee 67bf
00000070: 6817 9fbc f0c1 ac3d 2b33 b9bd a4a5 c23f
00000080: 91d8 6fc0 b042 193f 2854 19bf 5f11 9c40
00000090: 9ae2 19bf f7bf 57bf d0b0 b83d 5c42 dc3d
000000a0: e217 eb3f e00c e4be 4e5e 653f 8ac5 9040
000000b0: 3279 193f d958 49c0 bd89 313f e702 b4bf
000000c0: 3adc f33d 0b07 e43e 8ad5 0dbe 2bdc ee3c
000000d0: 8950 08be d070 e63c 5ed6 fabb ea58 56bd
000000e0: 1187 3fbe 5144 afbd e034 5ebd d5e1 883c
000000f0: 96d6 dabd 6c80 003d 4c60 c1bd 0239 8f3d
00000100: 11da d63c f8d7 043d 8565 1f3c 23b9 5dbe
00000110: 2d5c 19be 6039 58bc df57 603d d538 19bd
00000120: 8397 adbd 6b1a bc3b 9d68 f6bb cc25 543d
00000130: 508b 5cbd 82fd 16be d33f efbd 5ea6 6abd
00000140: e019 9c3b 4273 0ebe 676c a4bd a3f1 69bd
00000150: e740 8e3c c4e0 a13b 54d3 18be fe32 3dbe
00000160: adec 073e 88af da3c 5931 c8bd 41af 8a3d
00000170: c6b0 c8bd 5ef0 c6bd caa3 8a3c 43bc babd
00000180: 0998 6cbd 4697 81bd 1818 e43c 7917 02be
00000190: fc4f 823e eda8 3ebe 349f 813f 4c28 a1bd
000001a0: 3f9d b73e b94c 03c0 4a64 fcbf c1d2 b340
000001b0: c56a 0941 1074 d9bd 9d81 85bd d10c 3040
000001c0: 072b 27be f0af 2f3d 80a6 f3be fd5a 95bd
000001d0: f022 eabe f802 34c0 92b1 8140 8a47 a33d
000001e0: 2f4c 793f 346e 44c0 90ad ab3e c4c5 7f3f
000001f0: 2fbf 5ebf b1c0 843f bb05 30c0 068d 40be
00000200: 8cda 7d3d 1a4d b23c aee3 8cbd 147b 173f
00000210: d4e7 193f 0ae6 67bf 8e1c 13c0 9c50 9341
00000220: ef55 5bbf 82b8 7c40 4ef9 ae3d 9c5a 7abd
00000230: e16b 603f 53bb dc3f d966 48c0 d366 f9bf
00000240: 7979 a73f 127f c8bf dc54 3c3d 4aed 373f
00000250: 0a2e 0bbd 3bd6 083f f42d a93d 0f43 60be
00000260: aa39 b9bd 5c39 7fbd a8fe 4bbd 0f32 003d
00000270: d029 77bd 5f87 cdbc 82b5 b43d 883d 06be
00000280: aca8 bbbd cbb1 1abe 497b e53c 99a0 ef3d
00000290: b6fe 84bd 8b27 dabd 3a0c 5b3a 9a4f f03d
000002a0: 7d96 13be 0f3a f1bd 668d 30be e04a bb3c
000002b0: 477b d7bd 71be 22be 7862 4b3d 8597 19be
000002c0: 1ff3 1abe 8c9a f0bd efbd bdbd 9444 01b8
000002d0: fa52 b03d 1ad8 3ebe 8931 e6bd 4ce3 ac3c
000002e0: be75 ef3c 46e8 bfbd fc2c 31be 709e d23d
000002f0: c8ca 00bd 307b a73c 2f3e 0dbe 7363 b7bb
00000300: 3a2e 003e fec9 363d 4877 56be 1d7d 0bbd
00000310: 11c0 a8bd 7b57 0dbe 805e d5bd 580c ab3b
00000320: 558c 55bd 7153 18be 7498 e93d 606f 5f3d
00000330: b4a0 b0bd 087b 0abe 1d37 da3d 0e4f e13d
00000340: 24b5 a2bd e97d 82bd ee82 a7bd 7dca 04be
00000350: b053 153c f75b 023e eb04 b3bd a86e ac3d
00000360: 8e18 24be e23d cc3b f6ab ebbd ca67 d83d
00000370: 52aa 3fbe e7cd 0ebd 36ee afbd ec25 ecbc
00000380: b0aa 813d 6fbc e1bd 6814 52bd 8d94 d13d
00000390: 7de5 e6bd 46ae a3bd 645d abbd 9969 183d
000003a0: e932 693d ea14 33bd c08f 95bb 036c 9fbd
000003b0: f069 9fbd 80b0 04be a837 b7bd 4e8e a3bd
000003c0: 60d9 0d3c ce5f ebbd 5058 00be 7b4c 8abd
000003d0: 9222 aa3b f5c0 913d 78c2 aabc c24b 9fbd
000003e0: 5e2c d43d 0234 babd c6d4 e53c 81a6 f7bd
000003f0: f85b 2c3d 007a 9cba 22d6 35bd f28e 0cbc
1.1572849 1.650637 -0.40666595 0.04307203 1.0572774 1.8439747 -0.97094953 1.7981609
-3.4648037 -0.13552912 -1.7106057 0.85840285 0.06754546 0.07834834 1.6958148 -0.11158045
1.1009123 6.6561565 1.0107969 -0.0021454245 -0.7102666 4.8625326 0.58668923 0.3839064
3.5675585 1.1160789 2.2504668 -0.90598774 -0.01942034 0.08435428 -0.09042963 1.52068
-3.7475932 0.5986738 -0.5989404 4.8771205 -0.6011139 -0.8427729 0.09018099 0.107548445
1.8366663 -0.44541073 0.8959702 4.5241137 0.59950554 -3.1460478 0.69350797 -1.4063386
0.11907239 0.44536623 -0.1385099 0.029157719 -0.13311972 0.028129965 -0.007654949 -0.05233089
-0.18703867 -0.08557952 -0.054249644 0.016709248 -0.1068546 0.031372473 -0.09442195 0.06993295
0.026227029 0.032432526 0.009728794 -0.21652655 -0.14976569 -0.013197273 0.0547713 -0.037407715
-0.08476164 0.005740454 -0.007519795 0.05179386 -0.053843796 -0.14745143 -0.116820954 -0.057287566
0.0047638267 -0.13911155 -0.080284886 -0.05711521 0.017364932 0.004940124 -0.14924365 -0.18476483
0.13273878 0.026695028 -0.09775037 0.06771708 -0.09799342 -0.09713815 0.016923804 -0.09117939
-0.05776218 -0.06327681 0.02784352 -0.12704267 0.25451648 -0.18619128 1.012671 -0.07869014
0.35862157 -2.0515578 -1.9718106 5.619477 8.588567 -0.1061784 -0.065188624 2.7507823
-0.16325007 0.042892396 -0.47587967 -0.07292745 -0.4572978 -2.8126812 4.052926 0.07972629
0.9738187 -3.0692263 0.33530855 0.9991114 -0.87010473 1.0371305 -2.7503498 -0.18803796
0.061976 0.02176528 -0.06879364 0.5917218 0.60119367 -0.90585387 -2.2986178 18.41436
-0.85678 3.9487615 0.08543645 -0.061121568 0.8766461 1.7244667 -3.1312773 -1.9484504
1.3083946 -1.5663779 0.045979366 0.7184645 -0.033979453 0.5345189 0.08260718 -0.21900581
-0.09044202 -0.06231056 -0.049803406 0.03129774 -0.06034261 -0.025088964 0.08823682 -0.1310941
-0.09163031 -0.15106885 0.028012889 0.117005534 -0.06493895 -0.106520735 0.0008356009 0.11733933
-0.14412875 -0.11778652 -0.17241439 0.022862852 -0.1052156 -0.1589296 0.049654454 -0.14999206
-0.15131806 -0.117482275 -0.092647426 -3.0819865e-05 0.086095765 -0.18637124 -0.11239917 0.021104477
0.029230949 -0.093704745 -0.17302316 0.10284126 -0.031443387 0.020444483 -0.13793252 -0.005596572
0.12517634 0.04462623 -0.2094394 -0.034054864 -0.08239759 -0.13802902 -0.10418415 0.0052199773
-0.052135784 -0.1487558 0.11406031 0.054549575 -0.08624402 -0.13523495 0.10655043 0.110014066
-0.07944706 -0.06371672 -0.0817927 -0.12967868 0.009114191 0.12730394 -0.087411724 0.084195435
-0.16024992 0.006232963 -0.11507408 0.10566671 -0.18717316 -0.034864333 -0.08590357 -0.028826676
0.06331384 -0.11022269 -0.051288992 0.10233412 -0.1127424 -0.079922244 -0.08367422 0.03721008
0.056933317 -0.043721117 -0.0045642555 -0.077842735 -0.07783878 -0.12957954 -0.089461625 -0.07986127
0.008657783 -0.11492883 -0.12533689 -0.06752869 0.0051921094 0.07116882 -0.020844683 -0.077781215
0.10360025 -0.09091951 0.02805556 -0.12092305 0.042079896 -0.0011938214 -0.044393666 -0.008579003

fc2.bias f4 [25]
00000000: 536e 04c0 3709 c5bd b2dc 1abf 81ee 0ebd
00000010: e819 99bd 065a 66bd 7290 1cbd acaa 9bbf
00000020: f2e0 9bbd db6d f7bd bf8f f4be 98cf 56bf
00000030: b4ca 483d 388b 313f 5090 06be 16ae 25be
00000040: 47e4 64bf 83f4 bd3f be8f ddbd b5cc a6bf
00000050: 113d 0cbe e096 313f 84e4 18be 3e47 7ebf
00000060: 553f 48bd
-2.0692337 -0.09620898 -0.60493004 -0.034895424 -0.07475644 -0.056238197 -0.03822369 -1.216146
-0.07611264 -0.120815 -0.4776592 -0.8391051 0.049021438 0.69353056 -0.13140988 -0.1617969
-0.89410824 1.4840244 -0.10818432 -1.3031222 -0.1369517 0.6937084 -0.14930922 -0.99327457
-0.048888523

fc3.weight f4 [4733, 25]
00000000: 34bc 02c2 99db bbbe d2e0 75c1 dc90 eabe
00000010: 66c9 57c1 b817 f5be 044d b1c1 c22b c0c1
00000020: c1fa 91c1 71bc da3c f850 8ec1 c315 40c1
00000030: 74b3 c5c1 4c24 28c0 b2a7 2dbd c5f0 c5c1
00000040: 48a4 88c1 c0b7 fdc0 3857 b0c0 f915 debf
00000050: 9c8e 78be 6954 e5c1 512b 13c1 2a38 5ac2
00000060: 9ef2 01be 800f a1c0 3740 18be f734 1ac1
00000070: 826e 6ebe 2445 c1c0 d5ba 2dbf 91e6 eac1
00000080: 098d 34c1 15d7 33c1 f807 dbbd f2d3 09c1
00000090: 9f3b 81c1 e071 46c1 453e 4fc2 1411 33bd
000000a0: 26c6 0dc1 3bbe 05c2 5940 03c1 d662 dfbe
000000b0: a1c3 37c2 bf27 69be e272 28c1 2476 65c1
000000c0: 4621 e8c0 cff8 9dbe 2dca aec1 0702 7abe
000000d0: 81bb d3c1 5585 f7bd dd5e 07c0 8eab 04bf
000000e0: 26e2 e6c0 8f58 d3c0 479b 13c1 893c acbd
000000f0: d572 aec1 7986 08c2 937b 26c1 df9d 95c1
00000100: 12f9 853c 23b8 1dc1 a1b0 06c1 4b34 e9c1
00000110: 50cd 14c1 f154 d9bf aaf4 a3bd d4ab 14c1
00000120: db0a 6ac2 7eef fcc1 a8df 8fbe c793 b8c1
00000130: 18ae 69be 0781 0ac2 46f3 59be c632 70c0
00000140: a21e 95be be51 64c1 193e d5c0 99e6 3ec1
00000150: 1d9c e7bd b8dc 07c2 4bef fbc1 d658 9bc1
00000160: e516 4cc1 997f 1bbe 514e abc0 9f5a 24c2
00000170: 81cb 2cc2 1079 12c1 b759 3abf 1cd3 a4be
00000180: c0a6 48c1 364d 54c1 d73b 11c1 e422 1ebe
00000190: e0c0 d0c1 60df 81be 4d39 1fc2 cbac d0be
000001a0: ac1e c5c0 344e 0dbf 641f 0fc1 196e 07c1
000001b0: 6ce6 8bc1 15ee 263d fa98 88c0 c64d f8c1
000001c0: 8453 a1c1 0cac dec1 c2a1 b3bd 6601 c8c0
000001d0: 0ab0 06c2 697d 1ac2 f683 b6c0 5866 50c1
000001e0: 7cea abbe 5a98 2dc1 1c87 f4c0 43a6 cdc0
000001f0: ed7e 3fbe b903 9dc1 1723 abbe 006d 11c1
00000200: 134a 21bf a7f7 9ac0 6f6d 04bf 808a 87c0
00000210: 755e 73c1 6505 2bc2 b40d cbbd 1b03 5ac1
00000220: 57e3 4cc1 1916 f5c0 9845 89c1 4f11 5abe
00000230: 0558 91c0 1973 d6c1 6d9d 39c1 ea4a 35c1
00000240: 745d 3dc2 325b cebe 7182 16c1 136b 45c1
00000250: e35d e03e 73da 72bd 2d98 03c1 03aa b7be
00000260: 6aef 06c1 2e36 e5be a510 1dc1 3548 debe
00000270: 4b5a 82c0 b423 28c1 8d3d 2bc2 84c5 8cbd
00000280: 0713 73c1 fc96 4fc1 f611 dbc0 c43b 6ac1
00000290: f07f bbbd bc59 21c1 7b85 95c0 4cfa 54c2
000002a0: 2fed bec0 667e 9ebf c287 63bd 1ecf dac1
000002b0: afa7 94c1 008b 14c1 04c6 71be 7d52 0ac1
000002c0: fcac ac3e c315 30c1 f401 94bd 314c b1c0
000002d0: b315 b33d 26a7 f8c0 b43d 02c1 b4bb 35c1
000002e0: 1bca 2dbe 98c5 e9c0 dfca 23c1 992a fdc0
000002f0: 8412 eac0 471a 9abd 0e12 bec0 0dc1 d6c0
00000300: c0ed 25c1 39fe 28c0 6dd3 16c1 02a1 0c3e
00000310: 6cf5 81c1 a785 fcc0 47ad 2cc1 792d e83d
00000320: 0b85 47c1 32b7 03bf e71b 29c2 4141 c1be
00000330: 7302 e2bf 43a1 79be 592f 5dc1 4235 81c1
00000340: e026 2bc1 0dc5 adbc cb16 dac0 7fd5 ebc0
00000350: 9922 41c0 f5ee 05c2 821c 073e 4fec d9c0
00000360: b8bd 37c2 fe83 dec1 7e29 e2c0 1372 06c1
00000370: 069a 9cbe d21b a6c0 e67a 01c2 3848 dcc1
00000380: a628 82be 1d4f 00c1 42de bb3c a5c3 a9c1
00000390: e690 83be c57e 7dc0 4cd7 dbbe 3394 04c1
000003a0: 5c64 46c1 2249 f1c0 7630 e3bd b816 a6c0
000003b0: 165c 14c1 7961 d3c0 3ece 05c1 9a98 753d
000003c0: e5ae e1c1 cc65 d3c0 0e98 3fc1 360a d9bf
000003d0: 9b13 a7c1 0041 c0bd 4647 3ec1 c1a5 e6c1
000003e0: 404e 18c2 bec4 1ebe 203d 60c1 d523 8f3b
000003f0: 93e5 cac0 f52a 29be 75af 57c0 70a8 6bbe
-32.683792 -0.36690977 -15.367388 -0.45813644 -13.48667 -0.47869658 -22.162605 -24.021366
-18.247438 0.026701184 -17.789536 -12.005313 -24.712624 -2.6272154 -0.042396255 -24.742563
-17.080215 -7.9286804 -5.510647 -1.7350456 -0.24273151 -28.666216 -9.198075 -54.554848
-0.12690207 -5.033142 -0.14868246 -9.637931 -0.23284343 -6.03969 -0.6786321 -29.362581
-11.284432 -11.24001 -0.10694879 -8.614244 -16.154112 -12.4028015 -51.81081 -0.04371746
-8.860876 -33.435772 -8.20321 -0.43630093 -45.941044 -0.22769068 -10.528048 -14.341343
-7.2540617 -0.30853888 -21.848719 -0.24414836 -26.466555 -0.12085978 -2.115165 -0.5182427
-7.215106 -6.6045604 -9.2254095 -0.08409984 -21.80607 -34.13132 -10.4051695 -18.702085
0.016354118 -9.857455 -8.418122 -29.150534 -9.300125 -1.6979047 -0.0800565 -9.29195
-58.5106 -31.61694 -0.28100324 -23.072157 -0.22820318 -34.626003 -0.21284208 -3.753099
-0.29124933 -14.269957 -6.6638303 -11.931298 -0.11309073 -33.965546 -31.491842 -19.418377
-12.7555895 -0.15185393 -5.35331 -41.088497 -43.198734 -9.154556 -0.72793144 -0.32192314
-12.54071 -13.26885 -9.077109 -0.15442997 -26.094177 -0.25365734 -39.805958 -0.4075683
-6.159994 -0.55197453 -8.945164 -8.464379 -17.48751 0.040754396 -4.268674 -31.037975
-20.16578 -27.834007 -0.08771087 -6.2501707 -33.671913 -38.62247 -5.7036085 -13.024986
-0.33577335 -10.849695 -7.641493 -6.4265456 -0.18700762 -19.626818 -0.3342521 -9.089111
-0.63003653 -4.842731 -0.5172948 -4.2356567 -15.210561 -42.75527 -0.09914723 -13.625758
-12.805503 -7.6589475 -17.158981 -0.21295665 -4.5419946 -26.8062 -11.600934 -11.33079
-47.341263 -0.40303952 -9.406846 -12.338641 0.4382163 -0.05929036 -8.224652 -0.35871896
-8.433451 -0.44767898 -9.816564 -0.43414465 -4.073522 -10.508717 -42.81011 -0.068736106
-15.192145 -12.974361 -6.8459425 -14.639591 -0.091552615 -10.084408 -4.672544 -53.24443
-5.966453 -1.2382324 -0.05554939 -27.351131 -18.581877 -9.283936 -0.23610693 -8.645139
0.33725727 -11.005313 -0.07226935 -5.5405507 0.08744373 -7.770404 -8.140064 -11.358326
-0.16971628 -7.3053703 -10.237029 -7.91145 -7.31476 -0.07524543 -5.939704 -6.711066
-10.370544 -2.6405165 -9.426618 0.13733295 -16.244835 -7.891315 -10.792304 0.11336798
-12.469981 -0.5145141 -42.27725 -0.37745097 -1.7656997 -0.24377923 -13.8240595 -16.151005
-10.696991 -0.021212125 -6.8152823 -7.3698115 -3.0177367 -33.483356 0.13194469 -6.8100963
-45.935272 -27.81445 -7.067565 -8.40285 -0.3058626 -5.190896 -32.370018 -27.535263
-0.25421637 -8.019315 0.02293313 -21.22053 -0.25696486 -3.9608624 -0.42937696 -8.286181
-12.399502 -7.5401773 -0.110932276 -5.1902733 -9.272482 -6.6056485 -8.362852 0.059959985
-28.210398 -6.6061764 -11.974623 -1.6956241 -20.884573 -0.09387398 -11.892401 -28.830935
-38.076416 -0.15504739 -14.014923 0.004368285 -6.340524 -0.16520293 -3.370084 -0.23013473

fc3.bias f4 [4733]
00000000: f875 1ec1 b00c d6c0 e40b 10c1 8792 4ec1
00000010: 5b71 49c1 44f8 3bc1 6fd1 8dc0 8918 75c1
00000020: bd18 0ac1 6878 51c1 6c61 60c1 b0ac 24c1
00000030: f5df f8c0 480f 2ac1 d788 56c1 dad2 37c1
00000040: 7a3d 32c1 36cc 3ec1 132c 60c1 4269 14c1
00000050: 86cc 5fc1 e1bd fcc0 3fa7 27c1 09e3 91c1
00000060: d286 32c1 0518 0ac1 95fc 28c0 0607 c0c0
00000070: dbc7 14c1 36f6 22c1 68fe 26c1 f781 81c1
00000080: c629 1bc1 c6a3 35c1 662e f6c0 e924 57c1
00000090: 5199 53c1 375f 15c1 6589 42c1 7288 23c1
000000a0: e1bc e1c0 3aba 4ac1 8a08 8ec0 7077 59c1
000000b0: ae3c 76c0 15ed 63c1 3f62 42c1 baaa 23c1
000000c0: 19e0 47c1 9fac 1dc1 6210 93c1 b834 3cc1
000000d0: 5bda 17c1 cb87 32c1 4da3 1fc1 e6a0 eac0
000000e0: d2af 37c1 5d67 11c1 bfe6 8ac0 7391 11c1
000000f0: f717 3dc0 6b9b 5ec1 00e4 1dc1 9ef6 32c1
00000100: b0cb 98c0 465a ffc0 4953 1ac1 094f 35c1
00000110: aaeb c2c0 1496 42c1 7cec a1c0 42fa b2c0
00000120: d3da 15c1 22ff 4dc1 f0bf 29c1 4531 b6c0
00000130: 9d26 2ac1 80c8 c4c0 2912 9fc0 c7ad 0bc1
00000140: ea08 8bc1 1a34 24c1 2a10 61c1 d19a 6ec1
00000150: 398e 1ec1 0a03 40c1 fa8a 00c1 6fd0 1fc1
00000160: e820 2ac1 3005 1dc1 6f7e 1ac1 c48e d9c0
00000170: d713 3cc1 7b50 dfc0 62ea 01c1 65f5 b8c0
00000180: ecf5 23c1 d09b 11c1 6a51 9ec0 35c5 18c1
00000190: 5cca 56c1 a37f 39c1 a86f 0ec1 2be0 06c1
000001a0: bd08 27c1 e150 25c1 5818 28c1 937d 36c1
000001b0: 4fc1 22c1 4646 fcc0 f6bb 7ac1 dee8 bac0
000001c0: 2905 1bc1 1067 3ec1 3c75 2ec1 15f6 3ac1
000001d0: 29f5 12c1 c7a3 4dc1 8574 44c1 f091 35c1
000001e0: 1b1e 60c1 efd1 03c1 ba44 dcc0 a571 23c1
000001f0: de1c 20c1 42b5 30c1 0ed7 3cc1 1eeb eac0
00000200: fa3e e8c0 3958 f4c0 66ea 14c1 d888 36c1
00000210: 9509 78c0 1d39 f1c0 f120 27c1 6a68 fcc0
00000220: b82c 09c1 f806 3fc1 de31 35c1 e8b1 42c1
00000230: 50b2 f7c0 75f6 2ec1 65ef 3bc1 892f 25c1
00000240: acf9 18c1 65ee 0dc1 b348 31c1 3d49 24c1
00000250: 6e06 15c1 35df 21c1 90b9 01c1 6fcc e9c0
00000260: 658d 3ac1 989b 0bc1 9928 26c1 7298 bac0
00000270: 5b83 33c1 8d04 40c1 422c 50c1 8aca 07c1
00000280: 4a16 f4c0 7ca7 dac0 905d 2ec1 9cad 1fc1
00000290: 109a 31c1 d20f cfc0 e773 00c1 984b 3ac1
000002a0: 2f8b 0ec1 8300 5cc1 4b30 7ec1 91ba c5c0
000002b0: a144 14c1 0b01 06c1 54fd 35c1 e75f 18c1
000002c0: 8da4 36c1 142a 3cc1 1f42 0dc1 d493 21c1
000002d0: 374b 57c0 a18a 2fc1 7b98 e6c0 8626 23c1
000002e0: 8d78 14c1 aefc 01c1 5880 32c1 cfbc 2dc1
000002f0: 5830 11c1 2f51 38c1 a9a2 2bc1 a9ff 13c1
00000300: 1fc1 2fc1 2675 1fc1 0eab 21c1 fb0e 11c1
00000310: 46c3 09c1 49f5 28c1 5395 c4c0 fe29 dfc0
00000320: ea37 85c1 c4c8 08c1 9d18 d0c0 4bca 13c1
00000330: c2db 04c1 0f83 f3c0 3ee9 0ec1 f739 05c1
00000340: d6b4 01c1 4232 08c1 331f c3c0 285e 94c0
00000350: f3fe 39c1 4698 0cc1 0e9f 2ec1 5959 1fc1
00000360: b114 35c1 e0f2 38c1 99ef 06c1 b7f5 23c1
00000370: 6d30 57c1 255f 15c1 44ef 36c1 8bdc 27c1
00000380: 54e1 f9c0 fb4f f7c0 a03c a0c0 db34 0bc1
00000390: 460e 11c1 4bf8 61c1 ddb3 20c1 d6cf 1dc1
000003a0: 2621 17c1 f9b0 28c1 7efc 9cc0 1357 eac0
000003b0: cfd4 46c1 9109 dfc0 98e5 32c1 b25b 25c1
000003c0: fcb5 18c1 a0b9 0ec1 b57f 1ac1 de6c 05c1
000003d0: 0c55 28c1 4de9 56c1 d7f4 58c1 23c0 27c1
000003e0: 29f2 b9c0 b69b 54c1 c84c 16c1 894e 26c1
000003f0: 7e33 1dc1 1f14 04c1 93f6 3cc1 2811 46c1
-9.903801 -6.689049 -9.002903 -12.910773 -12.590175 -11.748112 -4.4318156 -15.31849
-8.63104 -13.091896 -14.023785 -10.29216 -7.7773385 -10.628731 -13.408408 -11.488977
-11.140009 -11.924856 -14.01076 -9.275698 -13.9874325 -7.8981786 -10.478332 -18.235857
-11.157915 -8.630864 -2.6404164 -6.0008574 -9.298793 -10.18511 -10.437111 -16.18846
-9.697699 -11.352484 -7.693164 -13.446511 -13.224931 -9.335746 -12.158544 -10.220812
-7.0543065 -12.670465 -4.4385424 -13.59166 -3.8474536 -14.245381 -12.148986 -10.229181
-12.492211 -9.854644 -18.383 -11.762871 -9.490809 -11.158153 -9.977368 -7.332141
-11.480425 -9.087735 -4.3406672 -9.09801 -2.9545877 -13.912944 -9.868164 -11.185209
-4.774864 -7.9797697 -9.645333 -11.331796 -6.0912676 -12.16164 -5.0601177 -5.593049
-9.365924 -12.874788 -10.60936 -5.6935143 -10.634427 -6.149475 -4.970967 -8.729926
-17.379353 -10.26272 -14.066446 -14.912797 -9.909722 -12.000742 -8.03393 -9.988387
-10.633034 -9.8137665 -9.655868 -6.7986774 -11.754844 -6.9785743 -8.119722 -5.7799554
-10.2475395 -9.10054 -4.9474382 -9.548146 -13.424404 -11.593661 -8.90226 -8.4297285
-10.439633 -10.332246 -10.505943 -11.405658 -10.1721945 -7.8835783 -15.670889 -5.840926
-9.68876 -11.900162 -10.903622 -11.685079 -9.184854 -12.852485 -12.278447 -11.348129
-14.00735 -8.238753 -6.8833895 -10.215245 -10.007048 -11.044252 -11.802504 -7.341201
-7.2576876 -7.6357694 -9.307226 -11.408409 -3.8755848 -7.538222 -10.445542 -7.887746
-8.573418 -11.939201 -11.324675 -12.168434 -7.7405167 -10.93517 -11.745946 -10.324105
-9.560955 -8.870702 -11.080249 -10.26788 -9.31407 -10.116994 -8.107803 -7.3062053
-11.65952 -8.725487 -10.384912 -5.831109 -11.219569 -12.001111 -13.010805 -8.486948
-7.627721 -6.832945 -10.897842 -9.979885 -11.100113 -6.470681 -8.028296 -11.6434555
-8.90898 -13.750125 -15.88679 -6.179024 -9.266755 -8.375255 -11.374348 -9.523414
-11.415174 -11.760273 -8.828643 -10.098591 -3.3639657 -10.971345 -7.2061133 -10.196905
-9.279431 -8.124189 -11.156334 -10.858596 -9.074303 -11.51982 -10.727212 -9.249917
-10.984649 -9.966101 -10.104261 -9.066157 -8.610174 -10.559884 -6.143228 -6.973876
-16.652302 -8.549015 -6.5030046 -9.236888 -8.303652 -7.6097484 -8.931944 -8.326652
-8.106649 -8.51227 -6.0975585 -4.6364937 -11.624743 -8.787176 -10.913832 -9.959313
-11.317552 -11.559296 -8.4334955 -10.247489 -13.449323 -9.335729 -11.433414 -10.4913435
-7.808756 -7.7285132 -5.0074005 -8.700404 -9.065985 -14.123118 -10.043912 -9.863241
-9.445593 -10.543206 -4.905822 -7.323129 -12.426955 -6.969918 -11.181053 -10.334887
-9.54443 -8.920319 -9.656178 -8.339079 -10.520763 -13.431958 -13.559775 -10.484408
-5.8108106 -13.288015 -9.393745 -10.394174 -9.825071 -8.254912 -11.810199 -12.379189
