Python/RNN/models/MODELSLAYER5.pt (torch, 256259 bytes, 10 tensors)

fc1.weight f4 [10, 100]
0	0x402a60e2	2.6621633
1	0x4046e765	3.1078732
2	0xbedb8161	-0.42872146
3	0x4030560a	2.7552514
4	0xbff90dfa	-1.945739
5	0x3e849849	0.25897434
6	0xbfe4039b	-1.78136
7	0x3fe7fc08	1.8123789
8	0x40550cef	3.3289144
9	0x3ff91cc8	1.9461908
10	0x40053639	2.0814345
11	0xbf72d09f	-0.9484958
12	0x407c3b47	3.941118
13	0x3ea12eac	0.3148092
14	0xbf9461da	-1.1592362
15	0x400a93a5	2.1652615
16	0x4080fa9d	4.0305924
17	0xbf8abfec	-1.083982
18	0xbffe0c06	-1.9847419
19	0xbe87e6c5	-0.2654325
20	0x40727d5b	3.788901
21	0x405bd77c	3.4350271
22	0xbd980776	-0.07423298
23	0xbf0f048e	-0.55866325
24	0xbf27cc12	-0.6554576
25	0xbf6caf3d	-0.9245489
26	0x3ff9b06b	1.9506963
27	0x3ef573bf	0.4793987
28	0x3dabcb9d	0.083884455
29	0xc0554ef2	-3.3329434
30	0xc02646f9	-2.5980818
31	0x409529be	4.6613455
32	0xbfc29774	-1.520247
33	0x3ebc0ccf	0.36728522
34	0x3e896582	0.26835257
35	0x3ca8ec59	0.020620512
36	0x3f181d4f	0.5941972
37	0x3f78ee45	0.9723857
38	0x40b91275	5.783503
39	0x3fa3e448	1.2804041
40	0xbf41fa47	-0.7577252
41	0xbf6f484b	-0.93469685
42	0x3e4bff12	0.1992152
43	0xbf792816	-0.9732679
44	0x3fc445ed	1.533384
45	0x40059356	2.0871177
46	0x3fe201f9	1.7656852
47	0xbf6b8d62	-0.9201261
48	0x3fda4737	1.7052983
49	0x3e1e6cdd	0.15471216
50	0x3fcd0b60	1.6019096
51	0x4097367f	4.7254024
52	0xc0baaa43	-5.833284
53	0x401b934d	2.4308655
54	0xbf7beec0	-0.9841118
55	0x4030882b	2.758311
56	0x3f1a4a99	0.60270077
57	0x3fd08269	1.6289798
58	0xbf34ad1a	-0.7057663
59	0xc02f09cc	-2.734973
60	0x405574fc	3.3352652
61	0x40db20f4	6.8477726
62	0xbfa59aed	-1.2937905
63	0xbe90d128	-0.28284574
64	0xbfe45b49	-1.7840358
65	0x409674e7	4.7017703
66	0xbf93f5a7	-1.1559342
67	0xc0013978	-2.0191326
68	0x403f25db	2.9866855
69	0xc015185f	-2.3296125
70	0x4080c0d1	4.023537
71	0xbe9ddfd0	-0.30834818
72	0x40930028	4.593769
73	0x3f715d28	0.9428277
74	0xbf3599e4	-0.70937943
75	0x3fb43b75	1.4080645
76	0xc03fd07f	-2.9971006
77	0x3fac0c54	1.3441262
78	0x403bcbc5	2.934312
79	0xc03a69ba	-2.912703
80	0x3ea891d5	0.3292376
81	0x4014b92f	2.3238027
82	0x3fdafddd	1.7108723
83	0x40112927	2.2681367
84	0x3fb87ac8	1.441247
85	0xbfacba74	-1.3494401
86	0x3fd0711a	1.6284516
87	0x3ff53565	1.915692
88	0x3e899fab	0.2687963
89	0x3f2a4f1b	0.66526955
90	0xc01391b2	-2.3057675
91	0x4005b034	2.0888796
92	0x401b515b	2.4268405
93	0x4056ea72	3.3580594
94	0x40063315	2.0968678
95	0x3febba2d	1.8416191
96	0x3f9dd926	1.2331893
97	0xbf5ae5ca	-0.8550688
98	0x4009d58c	2.1536589
99	0xbf3d6f42	-0.7399789
100	0xbfc937a6	-1.5720108
101	0x408a13ec	4.314932
102	0xc03d4c31	-2.9577754
103	0x3f973137	1.1811894
104	0xc08bb99f	-4.366409
105	0x3ec4d58a	0.38444167
106	0xc09e3241	-4.9436345
107	0x3f579cb4	0.84223485
108	0x3fa03169	1.2515079
109	0xbed1a19a	-0.40943605
110	0x4066d01f	3.6064527
111	0xbf91586a	-1.1355107
112	0x40740a33	3.8131225
113	0xbd28568c	-0.041098163
114	0x3fd57e19	1.6679107
115	0xbf7ece6e	-0.99533737
116	0x3f980e34	1.1879334
117	0x40604ef2	3.5048184
118	0xc018df7f	-2.388641
119	0x40538cb4	3.3054628
120	0xbf807fdb	-1.0039018
121	0x40a127a6	5.03609
122	0x4074f99a	3.8277345
123	0xbf3d2336	-0.7388185
124	0xbe9c1d41	-0.3049107
125	0xbf8e0bfb	-1.1097406
126	0xc0b2ff2a	-5.593648
127	0x402cd461	2.7004626
128	0x3f70ea88	0.94107866
129	0xc032ec38	-2.7956676
130	0xc036fd2e	-2.8592029
131	0x406e1a2b	3.7203472
132	0x3e3eab29	0.1861998
133	0x3fb35d88	1.4012918
134	0x409f9db4	4.988001
135	0xc01669cf	-2.350208
136	0x40027c91	2.038853
137	0xc07bf1dc	-3.936637
138	0x40b08a0e	5.5168524
139	0xc0362734	-2.8461428
140	0x3eadbf0a	0.33934814
141	0xbe5b50df	-0.21417569
142	0x40792050	3.8925972
143	0xc02c629e	-2.693519
144	0x3fec9e71	1.8485852
145	0x4009f62f	2.1556509
146	0x3f5fb0a0	0.87378883
147	0x4052ee06	3.2957778
148	0x400a9d14	2.1658373
149	0x3faf9687	1.3717812
150	0xbdaf5c83	-0.08562567
151	0x40821a8a	4.0657396
152	0xc11fd900	-9.9904785
153	0xbfd44a83	-1.6585239
154	0x3f8680ad	1.0508019
155	0xbe5182bc	-0.20460027
156	0x40114203	2.269654
157	0x4019aa63	2.4010246
158	0xbfc16977	-1.511031
159	0xc09d0e5a	-4.908002
160	0x3fb18af1	1.3870527
161	0x40e1d166	7.0568113
162	0xc1089a46	-8.537664
163	0xbf6b18cd	-0.9183472
164	0xbf4a28fd	-0.78968793
165	0x3feeea59	1.8665267
166	0x4052204e	3.2832217
167	0x3c0cf586	0.008603459
168	0x40f6ba9c	7.7102795
169	0x40212c71	2.5183375
170	0x409e17bb	4.940397
171	0xc0083311	-2.1281168
172	0x40e84cce	7.2593756
173	0x403aefbd	2.9208825
174	0x3f7d9128	0.99049616
175	0xbf182e54	-0.5944569
176	0xbea22df8	-0.31675696
177	0x3ffca817	1.9738797
178	0x3f80cce6	1.006253
179	0xbf821295	-1.0161921
180	0x3e9f7443	0.31143388
181	0x3f92ffbe	1.1484296
182	0x4045fbac	3.0934858
183	0x3ff51e05	1.9149786
184	0x3fd0ea7b	1.6321558
185	0xbfa68db5	-1.3011996
186	0x3fdba3d8	1.7159376
187	0x3fe2f063	1.772961
188	0x402c89b7	2.6959054
189	0x3fba6889	1.4563152
190	0xc0d276c9	-6.577
191	0x3fbe10a0	1.4848824
192	0xc03d96cf	-2.9623296
193	0xbfa9f572	-1.3278029
194	0xc0076cbb	-2.1160114
195	0xbeb75948	-0.35810304
196	0xbfa338d5	-1.2751719
197	0xbd956115	-0.072939076
198	0x3e4313e7	0.19050561
199	0xbf582cf4	-0.84443593
200	0x3f0bd243	0.5461771
201	0xc0540ce8	-3.3132877
202	0x3f1494ee	0.5803975
203	0xbf92799f	-1.1443366
204	0x3fc08b46	1.5042503
205	0xbf6fb91a	-0.9364182
206	0x400b2822	2.1743245
207	0xc03665b1	-2.8499568
208	0x3ece9bcc	0.4035324
209	0xbe233c9f	-0.15941094
210	0xbf727395	-0.94707614
211	0x3e9fe650	0.31230402
212	0xbff97f1c	-1.9491916
213	0x3fef50d6	1.8696544
214	0xc03fcd44	-2.9969034
215	0x3f4580e6	0.7714981
216	0x3e6a2244	0.22864634
217	0x3fb4f5b9	1.4137489
218	0x408125b7	4.035854
219	0xbfa9387d	-1.3220364
220	0xbfa3341b	-1.2750276
221	0x3ef9c0eb	0.48779997
222	0xbfb417d5	-1.4069773
223	0xbf803817	-1.0017117
224	0x3f557316	0.8337873
225	0x405df372	3.4679837
226	0x400b4057	2.175802
227	0x3fc2b5e1	1.5211755
228	0xbe3bf295	-0.18354256
229	0x4017c5bb	2.3714435
230	0x40035ee9	2.0526679
231	0xc050b4ab	-3.261027
232	0xc00aa503	-2.1663215
233	0x3e9077cf	0.28216407
234	0xbfb01bf3	-1.375853
235	0x3fb6595a	1.4246018
236	0x3f13ce86	0.57737005
237	0x400fd5ef	2.2474325
238	0xc0ecc7c8	-7.3993874
239	0xbef51b94	-0.47872603
240	0x400cedd8	2.2020168
241	0x3e09c6c1	0.13454725
242	0x3f04f58f	0.5193719
243	0x3f9ee5f6	1.2413929
244	0xbf1cb7a4	-0.61217713
245	0x403aa820	2.9165115
246	0x3c3d8b41	0.011568845
247	0x3f9cf04e	1.2260835
248	0x3f333a8e	0.7001122
249	0x3f9fd6cb	1.2487425
250	0x3fe86e85	1.8158728
251	0xc0483886	-3.12845
252	0x4051d873	3.278836
253	0xbf694d20	-0.9113331
254	0x3e8fc6bb	0.28081307
255	0xbfb63971	-1.423628

fc1.bias f4 [10]
0	0x3db5894f	0.0886408
1	0x3ea8b523	0.32950696
2	0x3e856c71	0.26059297
3	0xbd92e355	-0.071722664
4	0xbc6c56c0	-0.01442498
5	0x3e98b826	0.29827994
6	0x3e807db9	0.2509592
7	0x3eb10726	0.34575766
8	0xbd967eb5	-0.07348386
9	0xbcf7e2d4	-0.030259527

attention.weight f4 [10, 1000]
0	0xb9c19980	-0.00036926195
1	0x3b3cdb50	0.0028817244
2	0xbcc3ae04	-0.023886688
3	0xbc741344	-0.014897171
4	0x3cfd8270	0.030945987
5	0x3cc073ea	0.023492772
6	0xbcaafd54	-0.02087275
7	0x3c9ec384	0.019380338
8	0xbc4bc8f6	-0.01243805
9	0xbc960ffa	-0.018318165
10	0x3cf56d2c	0.029959284
11	0xbcf318fd	-0.029675001
12	0xba03f120	-0.0005033184
13	0xbc859b6e	-0.016309466
14	0x3c83dd24	0.016096659
15	0xbc1ac3c4	-0.009446088
16	0x3cbb436a	0.022859294
17	0x3bbe8df8	0.005815264
18	0xbc50753c	-0.012723263
19	0xbb095bc8	-0.0020959247
20	0x3c2c4234	0.010513831
21	0xbc9764d0	-0.018480688
22	0x3c4b1d6c	0.012397151
23	0xbc892ba9	-0.016744452
24	0xbb968fe4	-0.00459479
25	0x3c9c5084	0.019081362
26	0x3cbb0268	0.022828296
27	0xbc5d5014	-0.013507862
28	0x3cadfd3e	0.02123892
29	0xbc9daa24	-0.019246168
30	0x3b0cb770	0.0021471642
31	0xbb164100	-0.0022926927
32	0xbc9642e2	-0.01834244
33	0xbc95a6c1	-0.018267991
34	0xbcad0978	-0.02112268
35	0xbca97998	-0.020687863
36	0x3cba86c0	0.022769332
37	0xbc90bd83	-0.017668491
38	0x3c46f400	0.012143135
39	0x3b817cc0	0.003951639
40	0xbd00805d	-0.031372417
41	0x3c274e88	0.010211594
42	0xbc647454	-0.01394375
43	0xbca4e24f	-0.020127444
44	0xbbef35d0	-0.007300116
45	0xbce3adc5	-0.02779282
46	0x3ce7db18	0.028302714
47	0xbc5d1630	-0.013494059
48	0xbc3646b2	-0.0111252535
49	0xb8abe800	-8.197129e-05
50	0x3c24b76c	0.010053497
51	0xbcbeec3a	-0.023306001
52	0xbcc9c1da	-0.024628568
53	0xbce7693d	-0.028248424
54	0x3c9f097c	0.019413702
55	0x3ae56ba0	0.0017503388
56	0xba94bd20	-0.0011347868
57	0x3b5c5ed0	0.0033625849
58	0xbcd0edb2	-0.025503967
59	0xbc7e19fe	-0.015509127
60	0x3c310640	0.010804713
61	0xbc7c9d36	-0.015418341
62	0x3cb45dce	0.022017386
63	0xbc2cc098	-0.010543965
64	0xbcf873f8	-0.030328736
65	0x3cdea0be	0.027176257
66	0xbc1f16d4	-0.0097100325
67	0x3cfbeec6	0.030753504
68	0x3c7d8780	0.0154742
69	0x3bd75210	0.006571062
70	0x3d00c150	0.031434357
71	0xbaf6aeb0	-0.0018820371
72	0x3d012208	0.031526595
73	0x3cda6e92	0.026664052
74	0x3bd21e50	0.006412305
75	0x3c91cdea	0.017798383
76	0x3c9ccc1a	0.019140292
77	0xbc5a753e	-0.013333617
78	0x3c84e9ce	0.016224768
79	0xbcdd1d80	-0.026991606
80	0xba767fa0	-0.0009403173
81	0xbbd54114	-0.006508002
82	0xbc820319	-0.015870618
83	0x3ca0fd10	0.01965192
84	0xbd0002b6	-0.031252585
85	0x3cf6fdac	0.030150257
86	0xbc00078a	-0.007814297
87	0x3c851a04	0.016247757
88	0xbbc859a4	-0.0061142016
89	0x3cc66736	0.024219137
90	0x3cd74df0	0.02628228
91	0x3d00039e	0.03125345
92	0xbcf590cc	-0.029976271
93	0x3c0605a0	0.008180052
94	0xbc88c61c	-0.016696028
95	0xbc8af041	-0.016960265
96	0xbc77d7f8	-0.015127175
97	0xbbfd6040	-0.007732421
98	0x3ba22118	0.0049477927
99	0xbc5b8f66	-0.013400888
100	0xbc2e45c2	-0.010636749
101	0x3c9f7352	0.019464169
102	0x3ca744c4	0.020418532
103	0x3c87530a	0.016519088
104	0xbc9b64be	-0.018968936
105	0xbb6cb9d0	-0.0036121495
106	0xbbeb8258	-0.007187169
107	0x3ce12a5e	0.027486023
108	0x3c570324	0.013123307
109	0xbcc3b1ce	-0.023888495
110	0x3ceee388	0.02916123
111	0xbba20fb0	-0.0049457178
112	0x3c786a6c	0.015162092
113	0xbc56e70e	-0.013116611
114	0x3c62533c	0.01381379
115	0xbcf5de09	-0.030013101
116	0xbcd6cf58	-0.026221916
117	0x3be9a538	0.0071302913
118	0xbcb67389	-0.022271888
119	0x3c9c2b76	0.019063693
120	0xbbedc5bc	-0.007256238
121	0x3bd6ff38	0.006561186
122	0xbcd5408a	-0.026031751
123	0x3c4da3a8	0.012551226
124	0x3c3c6de0	0.011500806
125	0xbc0d6a8c	-0.00863136
126	0xbcde22b1	-0.027116152
127	0xbbcefc34	-0.006316686
128	0xbccb62a7	-0.024827315
129	0xbce465b8	-0.027880535
130	0x3ab062a0	0.0013457127
131	0xbbc43d7c	-0.005988775
132	0x3c3a47bc	0.011369642
133	0x3cdd6cbe	0.027029391
134	0x3bd89330	0.006609343
135	0xbc11a5ec	-0.0088896565
136	0x3cfd9f8c	0.030959867
137	0xbcc9ef18	-0.024650142
138	0xbccb9e8e	-0.024855878
139	0x3bcd26c0	0.006260723
140	0xbc9a685a	-0.018848587
141	0xbc3dd7a6	-0.011587059
142	0xbce9e4cd	-0.028551484
143	0x3ced893a	0.028996099
144	0x3cbde542	0.023180608
145	0xbcaac3c2	-0.020845298
146	0x3cdca3ce	0.026933577
147	0xbcfdbba1	-0.030973257
148	0xbcc5f601	-0.024165155
149	0x3b3fd420	0.0029270723
150	0x3cd68f40	0.026191354
151	0xbc002fa2	-0.007823857
152	0x3c98694c	0.018604897
153	0x3a168d40	0.0005743094
154	0xbbd31850	-0.0064421073
155	0xbcc57f69	-0.024108605
156	0xbcd58eb0	-0.026069015
157	0x3c523118	0.012829088
158	0x3cc574ac	0.024103485
159	0xbcfdb85c	-0.030971698
160	0x3c24dc0c	0.010062229
161	0x3baeee80	0.00533849
162	0x3c69b764	0.014264915
163	0xbc1d36bc	-0.009595569
164	0xbca69e88	-0.020339265
165	0x3ac63b80	0.0015123934
166	0x3c865c3c	0.016401403
167	0x3cf91b24	0.03040845
168	0x3a567640	0.0008181073
169	0x3b3a60f0	0.0028439127
170	0xbce4c5f3	-0.02792642
171	0xbbc59db4	-0.0060307626
172	0xbcb0e1ac	-0.021591984
173	0x3cdfcd20	0.02731949
174	0x3c830356	0.015992802
175	0x3c399e2c	0.011329215
176	0xbc03d444	-0.008046214
177	0x3c3c0c2c	0.011477511
178	0xbbe7fbcc	-0.007079577
179	0x3ce1cc78	0.027563319
180	0xbce08fb7	-0.027412279
181	0xbc006ec0	-0.007838905
182	0xbc95e3a7	-0.01829703
183	0x3c245624	0.010030303
184	0x3c94038c	0.018068098
185	0x3ba0e070	0.0049095675
186	0xbae113a0	-0.0017171986
187	0xbcc0715a	-0.02349155
188	0xbc9b8294	-0.018983163
189	0x3c0be888	0.0085393265
190	0xbce5b628	-0.02804096
191	0xbc95819b	-0.018250277
192	0xbc3b2198	-0.011421584
193	0x3ca89b2a	0.0205818
194	0xbcfb12e9	-0.030648666
195	0x3bd518b8	0.006503191
196	0x3cce5ba8	0.02519019
197	0xbc1967e6	-0.00936315
198	0x3cec56fe	0.028850075
199	0xbc507904	-0.012724165
200	0xbb980e20	-0.0046403557
201	0xbc8041c7	-0.015656365
202	0x3cd53e5e	0.026030716
203	0x3c80cbda	0.015722204
204	0x3cbdfe18	0.02319245
205	0x3c92d3ba	0.017923225
206	0x3cb05d56	0.021528881
207	0x3bc96808	0.0061464347
208	0xbcce7198	-0.02520065
209	0x3cbe4992	0.02322844
210	0xbcace181	-0.021103622
211	0x3c8addec	0.016951524
212	0x3cbc0eaa	0.022956211
213	0x3c2370b4	0.009975601
214	0xbcf72e29	-0.030173378
215	0x3cc6662a	0.024218637
216	0xba1ea600	-0.00060519576
217	0x3c54570c	0.012960207
218	0x3cdf2a52	0.02724186
219	0xbc54e06e	-0.012992961
220	0xbce40285	-0.027833233
221	0xbc998c8e	-0.01874378
222	0x3c9439a4	0.018093891
223	0x3ac15700	0.001475066
224	0x3c485b64	0.0122288205
225	0x3cd8f984	0.026486166
226	0x3c43a228	0.0119405165
227	0xbcf7dea2	-0.030257527
228	0xbca0471a	-0.019565154
229	0xbb5e7510	-0.0033944286
230	0xbcdbbba7	-0.026822878
231	0xbd01446d	-0.031559397
232	0x3c8203f4	0.015871026
233	0x3ce477d0	0.027889162
234	0xbab02100	-0.0013437569
235	0x3be3cca0	0.0069518834
236	0xbca59a3c	-0.020215146
237	0x3b01a2b0	0.0019780807
238	0xbcb762c9	-0.022385972
239	0xbc8399d6	-0.016064566
240	0x3bec09e8	0.0072033294
241	0xbc7c9182	-0.015415551
242	0xbce36173	-0.027756428
243	0x3bf77888	0.0075522102
244	0x3bffc7e0	0.0078058094
245	0xbb7e8c38	-0.00388409
246	0x3ce14308	0.027497783
247	0x3cdec57e	0.027193781
248	0x3c350578	0.011048667
249	0xbcd98202	-0.02655125
250	0x3bbacfc0	0.0057010353
251	0x3b9f7608	0.0048663653
252	0x37677000	1.379475e-05
253	0xbce951a9	-0.028481321
254	0x3c8ee38a	0.017442483
255	0x3c6f9e78	0.014625184

attention.bias f4 [10]
0	0xbcd5b124	-0.026085444
1	0x3d5ddd9f	0.054166432
2	0xbcec2944	-0.02882827
3	0xbc987184	-0.018608816
4	0xb9315ef5	-0.0001691541
5	0x3f336a40	0.70084
6	0xbcf9b9dc	-0.030484132
7	0xbd0d3b45	-0.034480352
8	0xbbf31adc	-0.0074189734
9	0x3e1b5a5a	0.15171185

attention2.weight f4 [10, 10]
0	0xbe9f9343	-0.3116704
1	0xbf96fe2e	-1.179632
2	0xbe9ff3a8	-0.31240582
3	0xbc1dd1a0	-0.009632498
4	0xbe8ff55d	-0.28116885
5	0xbf1300d2	-0.57423127
6	0x3d4f1430	0.05055636
7	0x3d429988	0.0475097
8	0xbe1a5286	-0.15070543
9	0xbf769ac1	-0.96329886
10	0x3e93dfe1	0.28881744
11	0x40263e82	2.5975652
12	0xbd466f68	-0.04844609
13	0xbe995b7e	-0.29952615
14	0x40134732	2.3012204
15	0xbf45dd79	-0.77291065
16	0x3e9587cb	0.29205164
17	0x3e77faf2	0.24216822
18	0x3de1fe18	0.11034793
19	0xc0873313	-4.2249846
20	0x3e5d59be	0.21616265
21	0x40d82f88	6.755802
22	0xbdf2d70a	-0.11857422
23	0xbe9ec813	-0.3101202
24	0xbf0b5c65	-0.5443786
25	0x400aa7e3	2.166497
26	0x3e814bff	0.25253293
27	0xbcb26ade	-0.021779474
28	0x3e1b3484	0.15156752
29	0xbd5d40f7	-0.054017033
30	0x3e9b1a53	0.3029352
31	0xbe82f88c	-0.2558025
32	0xbd5435c8	-0.051809102
33	0x3e5685ae	0.20949432
34	0x3e1a4a5d	0.1506743
35	0x3e045c03	0.12925725
36	0x3e73763a	0.23775569
37	0xbe775f98	-0.2415756
38	0x3e91e6f1	0.28496507
39	0xbe2aa2d5	-0.16663678
40	0x3d7b8728	0.061408192
41	0x3ead0188	0.3379023
42	0x3e929885	0.28631988
43	0xbc37b100	-0.011211634
44	0x406ce51d	3.701484
45	0x3f1ddc00	0.6166382
46	0xbe8d2ead	-0.27574673
47	0xbd840e44	-0.064480335
48	0xbe2bb8e8	-0.16769755
49	0xbf6f680a	-0.93518126
50	0x3e95a5cb	0.29228052
51	0x3d891f1f	0.06695389
52	0xbdf0941a	-0.11746998
53	0xbe673d0a	-0.22581878
54	0x3fe95b6d	1.8231026
55	0xc04b556d	-3.177089
56	0xbe171326	-0.14753398
57	0xbdaca98b	-0.08430775
58	0x3dbc5d24	0.09197453
59	0x4085d5ea	4.1823626
60	0x3d970f3c	0.073759526
61	0xbe1e4d25	-0.15459116
62	0x3dca3d78	0.098750055
63	0x3b271b80	0.002549857
64	0x3c511e48	0.012763567
65	0x3e6bfd35	0.2304581
66	0xbc250140	-0.010071099
67	0x3e8fb4f6	0.2806775
68	0x3a89f400	0.0010524988
69	0xbc8c2f4e	-0.0171124
70	0xbdaff584	-0.0859175
71	0xbe23c23a	-0.1599206
72	0xbea09c35	-0.31369177
73	0xbe927dc9	-0.2861159
74	0xbe4e6f2c	-0.20159596
75	0xbdf6b0aa	-0.12045415
76	0x3e1f9b30	0.15586543
77	0xbd46c9b8	-0.048532218
78	0x3caa14c0	0.020761847
79	0x3da26930	0.07930219
80	0x3d159350	0.03651744
81	0xbf7453ae	-0.95440185
82	0xbe928c0d	-0.28622475
83	0xbd26f720	-0.04076302
84	0xbf9f3e98	-1.2440977
85	0x40222e43	2.5340736
86	0x3e3f42f6	0.18677887
87	0x3e2ebe1c	0.17064708
88	0x3e4c3af2	0.19944361
89	0x3f6d8bce	0.9279145
90	0xbe042fe1	-0.1290889
91	0x3f502114	0.81300473
92	0x3cca7620	0.02471453
93	0x3ea1a339	0.31569842
94	0x3ece42ed	0.40285435
95	0xc0465195	-3.0987294
96	0x3e5076f2	0.20357874
97	0x3d1931c0	0.03740096
98	0x3b118c80	0.0022208989
99	0x3ea1a826	0.315736

attention2.bias f4 [10]
0	0x3f1e2afe	0.6178435
1	0xbf181b71	-0.5941687
2	0xbca9663c	-0.020678632
3	0xbe8e5c48	-0.2780478
4	0xbea0080a	-0.31256133
5	0x3eaa15a3	0.33219633
6	0xbe98f9cb	-0.29878077
7	0xbdf6e62e	-0.12055622
8	0x3f6f1936	0.93397844
9	0x3ea75692	0.32683235

fc2.weight f4 [10, 10]
0	0x40cd5230	6.4162827
1	0x40686582	3.6311955
2	0xc0446b3f	-3.0690458
3	0xbe6c1cec	-0.23057908
4	0xbd99a89b	-0.07502862
5	0x3d338a8a	0.043833293
6	0x3f9f8659	1.2462875
7	0xc073f78b	-3.8119838
8	0xbd924450	-0.07141936
9	0x3bfa87bd	0.007645576
10	0x3d222ea5	0.039595265
11	0xbed585c2	-0.41703612
12	0x3f346f4e	0.7048234
13	0xbe9c68da	-0.30548745
14	0xbfe8f08e	-1.8198411
15	0xbdc9934e	-0.09842549
16	0xbfeedd18	-1.8661222
17	0x3f1d04f2	0.6133567
18	0xbe9d2c05	-0.30697647
19	0x3d25aca9	0.040447865
20	0x3d6c19d1	0.057641808
21	0xbe9cfc18	-0.30661082
22	0xbd3d97ce	-0.04628735
23	0x3e76990a	0.24081817
24	0xbe818b90	-0.2530179
25	0xbe3fb67a	-0.18721953
26	0x3d4bf1f8	0.049791306
27	0x3e711d6f	0.23546384
28	0xbe4fed35	-0.20305331
29	0xbdb2cc0e	-0.087303266
30	0xbfbe494e	-1.4866121
31	0x3fb47607	1.4098519
32	0xbb82510c	-0.0039769467
33	0xbd10f678	-0.0353913
34	0x3ed9622c	0.42457712
35	0x3f8bbbc0	1.0916672
36	0xbf9fd65f	-1.2487296
37	0xbf72e752	-0.94884217
38	0xbe13c675	-0.14431174
39	0x4075a7b0	3.8383598
40	0x3f726a20	0.94693184
41	0xbf8f6aac	-1.1204429
42	0xbfbec064	-1.4902463
43	0xbc775d60	-0.015097946
44	0xbf1a9350	-0.6038103
45	0x3f1f9431	0.623355
46	0x4020fff9	2.5156233
47	0xbec69f86	-0.38793582
48	0x3d2cff10	0.042235434
49	0x3ea42735	0.32061163
50	0x3e5e0d37	0.21684729
51	0xbd7fca89	-0.062449012
52	0x3f9d3351	1.2281286
53	0xbe871391	-0.26382115
54	0xbf258063	-0.6464903
55	0xbec9fe5e	-0.3945188
56	0xbf0842d6	-0.53226984
57	0x3f8ca0fa	1.0986626
58	0x3e088484	0.133318
59	0xbddf20be	-0.10894917
60	0x40187ea5	2.3827298
61	0x3e9cb530	0.30606985
62	0xc060bc36	-3.5114875
63	0xbe5722e6	-0.21009406
64	0x3f23f377	0.6404337
65	0x3ff52598	1.9152098
66	0x413c6064	11.773533
67	0xc08573be	-4.1703787
68	0x3d5c9b00	0.053858757
69	0x3f942a8f	1.1575488
70	0x3dff1b90	0.12456429
71	0xbca3ae81	-0.01998067
72	0x3daf80e4	0.08569506
73	0x3df89664	0.1213806
74	0x3dec237a	0.11530204
75	0x3d5ca518	0.053868383
76	0xbed8de8e	-0.42357296
77	0xbebc5bec	-0.3678888
78	0x3dcae674	0.09907237
79	0x3d932b57	0.07186001
80	0x404fdcff	3.2478635
81	0xbe84ecf7	-0.2596204
82	0x3e4db364	0.20087963
83	0xbe478417	-0.19483982
84	0xbf22aafc	-0.6354215
85	0x40d60f5e	6.689376
86	0x3f1a65c7	0.6031155
87	0x3e990d64	0.2989303
88	0xbd3c6e38	-0.04600355
89	0xbe4eb905	-0.20187767
90	0x3e77b15a	0.24188748
91	0xbe00e2e1	-0.12586547
92	0x3f1964f5	0.59919673
93	0xbd8f1d38	-0.06987995
94	0xbde17592	-0.11008753
95	0x3f1a05b1	0.60164934
96	0x3f0acb7e	0.54216754
97	0x3d95d14e	0.07315312
98	0x3dc32230	0.09528005
99	0xbf5e4119	-0.8681808

fc2.bias f4 [10]
0	0x3f51fdd1	0.8202792
1	0x3e00706e	0.12542889
2	0xbd64fee0	-0.05590713
3	0xbf4293a0	-0.7600651
4	0x3e3bbba3	0.18333296
5	0xbe4cbca7	-0.1999384
6	0x3d33d260	0.0439018
7	0xbed31da4	-0.41233552
8	0x3e2a0654	0.16603976
9	0xbeb3df06	-0.3513109

fc3.weight f4 [4733, 10]
0	0xc050f8ab	-3.2651775
1	0xc08eed86	-4.4664946
2	0xc079376a	-3.8940072
3	0x3d80b666	0.0628479
4	0xc09aee1b	-4.8415656
5	0xc07391b3	-3.8057678
6	0xc02c3873	-2.6909454
7	0x3e32d755	0.17464955
8	0xc0735cb0	-3.8025322
9	0xc098b0da	-4.7715883
10	0xc040eaa3	-3.014321
11	0xc093024b	-4.59403
12	0xc0678137	-3.6172616
13	0xbe3cebad	-0.18449278
14	0xc097d211	-4.744393
15	0xc07d9aea	-3.9625802
16	0xc02c702d	-2.6943467
17	0xbe4311d4	-0.1904977
18	0xc0762c9a	-3.8464723
19	0xc09605b2	-4.688195
20	0xc02f3f42	-2.738236
21	0xc0836128	-4.10561
22	0xc05eaba6	-3.4792266
23	0xbe42ae0d	-0.19011708
24	0xc0995806	-4.791995
25	0xc077476a	-3.8637338
26	0xc02dfe1c	-2.7186346
27	0xbe94da19	-0.29072645
28	0xc0656391	-3.584202
29	0xc0948a4b	-4.6418815
30	0xc04e342d	-3.2219346
31	0xc092317e	-4.5685415
32	0xc0761ff9	-3.8457015
33	0xbea240e8	-0.31690145
34	0xc0a64d75	-5.196955
35	0xc068ef8d	-3.639621
36	0xc03104ee	-2.765926
37	0x3d97eed5	0.074186005
38	0xc0764920	-3.8482132
39	0xc09f9cc5	-4.987887
40	0xc03c28f1	-2.9399989
41	0xc0893b6c	-4.2885036
42	0xc0735b27	-3.8024385
43	0xbe0771bb	-0.13226978
44	0xc0962c34	-4.692896
45	0xc0778795	-3.8676503
46	0xc037f942	-2.8745885
47	0x3e145306	0.14484796
48	0xc06aad3f	-3.666824
49	0xc09ab847	-4.834995
50	0xc02b6ebf	-2.6786344
51	0xc092f071	-4.5918508
52	0xc07fd594	-3.9974108
53	0xbe4ab909	-0.19797148
54	0xc09494d9	-4.64317
55	0xc080dd62	-4.0270243
56	0xc0363723	-2.8471153
57	0x3e4b0fd7	0.19830261
58	0xc0726f78	-3.7880535
59	0xc09b4235	-4.851832
60	0xbffdb577	-1.9821004
61	0x3d2eb488	0.042652637
62	0xbe7f9ca5	-0.24962099
63	0xbfabbe7b	-1.3417505
64	0xbf4291ce	-0.7600373
65	0xc01dbbed	-2.464595
66	0xc1633792	-14.201067
67	0xbe5ecb36	-0.21757206
68	0xbfd7ea9f	-1.6868476
69	0xbf5f8049	-0.8730512
70	0xbf27743e	-0.65411747
71	0xbf2bde74	-0.6713631
72	0xbfc249de	-1.5178792
73	0xbfb538d0	-1.4157963
74	0xbfe0aaab	-1.7552084
75	0xbf83e5af	-1.0304469
76	0xbf0defe3	-0.55444163
77	0xbe2dc6b5	-0.16970332
78	0xbf3c0101	-0.7343903
79	0xbf947b79	-1.1600181
80	0xc04a2f7f	-3.159149
81	0xc09144d4	-4.539652
82	0xc074a3a2	-3.8224874
83	0x3d5a706e	0.053329878
84	0xc0992dda	-4.786847
85	0xc073ce9b	-3.8094852
86	0xc02e39b0	-2.722271
87	0x3e2a96bf	0.16659068
88	0xc07286bb	-3.7894733
89	0xc092742f	-4.5766826
90	0xc0475642	-3.1146398
91	0xc0925b97	-4.5736804
92	0xc07e1a1f	-3.9703443
93	0xbcb2192c	-0.021740519
94	0xc09a0f89	-4.8143964
95	0xc066c2d3	-3.6056411
96	0xc023ef78	-2.561491
97	0x3e0ff1b6	0.14057049
98	0xc064f022	-3.5771565
99	0xc096d289	-4.7132
100	0xbf49f076	-0.7888254
101	0xbfab8329	-1.3399402
102	0xbfb012ed	-1.3755776
103	0xbfa7033d	-1.3047863
104	0xbf914625	-1.1349531
105	0xbf095435	-0.53644115
106	0xbf90bdbb	-1.1307901
107	0xbd6cfbc0	-0.057857275
108	0xbf0936e6	-0.53599393
109	0xbfad5abe	-1.3543317
110	0xc02e2f9b	-2.7216556
111	0xc09b7044	-4.8574543
112	0xc07d8320	-3.9611282
113	0xbdc20fe6	-0.09475689
114	0xc0981768	-4.752857
115	0xc06e9299	-3.7276976
116	0xc042d0b1	-3.0439875
117	0x3e5e367b	0.2170047
118	0xc06999a6	-3.650003
119	0xc09e6511	-4.949837
120	0xbf7d10fd	-0.9885405
121	0xc021726d	-2.522609
122	0xbfe50cf6	-1.789458
123	0xbfdec840	-1.7404861
124	0xbf24fbf8	-0.64446974
125	0xbf9d9964	-1.2312436
126	0xbe4b4f2e	-0.19854423
127	0x3de304f3	0.11084928
128	0xbf8bafce	-1.0913026
129	0xc0075fd7	-2.1152246
130	0xc030e94c	-2.7642393
131	0xc0839241	-4.1116033
132	0xc060375c	-3.5033789
133	0xbe9927aa	-0.29913074
134	0xc09a84b1	-4.8286977
135	0xc06aaffd	-3.6669915
136	0xc0236f56	-2.5536704
137	0xbe4fd7bc	-0.2029714
138	0xc071484f	-3.7700384
139	0xc09b0e9f	-4.845535
140	0xc04c5355	-3.1925862
141	0xc0969872	-4.706109
142	0xc08564eb	-4.168569
143	0x3e95920f	0.29212996
144	0xc09d33b5	-4.912562
145	0xc070e580	-3.7640076
146	0xc03174d0	-2.7727547
147	0x3e18d0af	0.14923356
148	0xc06f3c4b	-3.738055
149	0xc09f75fd	-4.983153
150	0xbf8bcf33	-1.0922607
151	0xbf04496d	-0.5167454
152	0xbfd04922	-1.6272318
153	0xbeb30ed6	-0.34972256
154	0xbfe6ca49	-1.8030483
155	0xbf20f963	-0.62880534
156	0xbfdd4654	-1.7287087
157	0xbe156eb3	-0.1459301
158	0xbee0252c	-0.4377836
159	0xbf8eb0fe	-1.1147764
160	0xc02fd4de	-2.7473674
161	0xc0851426	-4.1587095
162	0xc0657ba2	-3.585671
163	0x3e20569c	0.15658039
164	0xc0929b4e	-4.581458
165	0xc080836b	-4.016042
166	0xc0217297	-2.522619
167	0xbe8e0a6e	-0.27742332
168	0xc0693150	-3.6436348
169	0xc0977f75	-4.7343087
170	0xbf082ca2	-0.53193104
171	0xbf8b6664	-1.0890622
172	0xbef9d137	-0.4879243
173	0xc00cc6b5	-2.199628
174	0xbfb4b32f	-1.4117182
175	0xc01e125e	-2.469871
176	0xbf943a2b	-1.1580251
177	0xbe57a1af	-0.21057771
178	0xbfaa2d85	-1.3295141
179	0xbf91396e	-1.1345651
180	0xc034e4e5	-2.8264706
181	0xc091a310	-4.551155
182	0xc072685c	-3.7876196
183	0x3e400200	0.18750763
184	0xc0a0f20c	-5.0295467
185	0xc06de4a8	-3.717081
186	0xc03c269b	-2.9398563
187	0xbdb50fa7	-0.08840876
188	0xc071c21f	-3.7774732
189	0xc0928367	-4.5785403
190	0xc0344829	-2.8169043
191	0xc08e2de2	-4.443101
192	0xc06063bd	-3.5060875
193	0xbb0ac715	-0.002117579
194	0xc098c214	-4.773691
195	0xc074e113	-3.8262374
196	0xc020e8c4	-2.514207
197	0x3dff6d91	0.1247207
198	0xc0661e7d	-3.5956109
199	0xc08e97b4	-4.4560184
200	0xbfa7edaa	-1.3119404
201	0xbf7147f2	-0.94250405
202	0xbfaf09c8	-1.367486
203	0xbe84879a	-0.25884706
204	0xbfcc4517	-1.5958585
205	0xbf88d3b8	-1.0689611
206	0xbeba08cd	-0.3633484
207	0xbe31163e	-0.17293641
208	0xbf408bda	-0.75213397
209	0xc00b1ef6	-2.1737647
210	0xc040806b	-3.007838
211	0xc08941a8	-4.2892647
212	0xc062a091	-3.5410502
213	0xbdb7d074	-0.08975306
214	0xc09618c9	-4.6905255
215	0xc0716eb6	-3.7723823
216	0xc0365304	-2.8488169
217	0x3e597c2a	0.21238771
218	0xc0694e71	-3.6454127
219	0xc0a50260	-5.15654
220	0xc0329bc9	-2.7907584
221	0xc0917818	-4.54591
222	0xc058d5cd	-3.3880494
223	0xbe8c05d7	-0.27348205
224	0xc094d4af	-4.6509624
225	0xc075010e	-3.8281894
226	0xc0182c55	-2.3777058
227	0x3e2754a2	0.16340879
228	0xc069464d	-3.6449158
229	0xc095239f	-4.6605983
230	0xbf563456	-0.8367361
231	0xc0526812	-3.287602
232	0xbf15e101	-0.58546454
233	0xbfc3d548	-1.5299463
234	0xbfda5c94	-1.7059503
235	0xbf927646	-1.1442344
236	0xbee14ad0	-0.4400239
237	0x3c7059e3	0.014669868
238	0xbf8281f6	-1.0195911
239	0xbef0c7df	-0.4702749
240	0x3e95a796	0.2922942
241	0xc000f59e	-2.0149913
242	0xbf68509d	-0.90748006
243	0xbfeb2def	-1.8373393
244	0xbfd9ca88	-1.7014933
245	0xc0484a57	-3.1295373
246	0xbdfc2dc5	-0.12313417
247	0xbe3fffd4	-0.18749934
248	0xbff606e6	-1.9220855
249	0xc0436909	-3.0532858
250	0xbfbd1143	-1.4770893
251	0xbfaa415c	-1.3301196
252	0x3def1c4d	0.1167532
253	0x3d9b94aa	0.07596715
254	0xbfd931cb	-1.6968321
255	0xbff0641b	-1.878055

fc3.bias f4 [4733]
0	0xc057ad20	-3.3699417
1	0xc058c261	-3.386864
2	0xc06d1253	-3.7042434
3	0xc04527cf	-3.0805547
4	0xc066c629	-3.6058447
5	0xc0581634	-3.3763552
6	0xc001d0a3	-2.0283592
7	0xbfb707af	-1.429922
8	0xc065931e	-3.5871043
9	0xc06b4664	-3.6761713
10	0xc026d04e	-2.606464
11	0xc05d4309	-3.4572165
12	0xbf12a273	-0.5727913
13	0xc070168b	-3.751376
14	0xc04c584a	-3.1928887
15	0xbf6f0015	-0.933595
16	0xc06a5fbf	-3.6620939
17	0xbfa6388b	-1.2986006
18	0xc05907c6	-3.3910995
19	0xc06756b5	-3.6146672
20	0xc00a98bf	-2.165573
21	0xc060565c	-3.505271
22	0xc069b3df	-3.6516035
23	0xbfbb18e3	-1.461697
24	0xbfaa2483	-1.3292392
25	0xc04495d0	-3.0716438
26	0xbfc6938f	-1.5513781
27	0xbf16f756	-0.58971155
28	0xbf2af286	-0.6677631
29	0xc0828e39	-4.079861
30	0xc04c19c6	-3.189073
31	0xbbf05518	-0.0073343627
32	0xc0545b99	-3.3180907
33	0xc060d555	-3.5130208
34	0xc065af00	-3.5888062
35	0xc067e38b	-3.6232631
36	0xc06a8413	-3.6643112
37	0xc0668e43	-3.602433
38	0xc060a29a	-3.5099244
39	0xc053c651	-3.3089793
40	0xc05f0270	-3.4845238
41	0x3e63d882	0.2225056
42	0xc04fca4e	-3.2467227
43	0xc04cb707	-3.198671
44	0xc05956d2	-3.395924
45	0xbfce6473	-1.6124405
46	0xc058f8b2	-3.3901792
47	0xc0663776	-3.597135
48	0xbeca2246	-0.39479274
49	0xc0503507	-3.2532365
50	0xc068ea37	-3.6392953
51	0xc05f3f95	-3.4882557
52	0xc06edb59	-3.732138
53	0xc05c1eaa	-3.4393716
54	0xc0560e0e	-3.3446078
55	0xc04895cd	-3.134143
56	0xbfe6c717	-1.8029507
57	0xc0615257	-3.5206506
58	0xbfc3b53b	-1.5289682
59	0xc04c7113	-3.1944015
60	0xc067de97	-3.6229608
61	0xc0646b4e	-3.5690494
62	0xc067d733	-3.6225097
63	0xc06886ff	-3.6332395
64	0xc05c2f92	-3.4404035
65	0xc06dd953	-3.7163894
66	0xc065d5e9	-3.591181
67	0x3f493140	0.78590775
68	0xc051ade5	-3.2762387
69	0xc0648038	-3.5703259
70	0xc05f6e42	-3.4911046
71	0xbf99ae20	-1.2006264
72	0xc065a298	-3.588049
73	0xc0580547	-3.375322
74	0xc05d8f7f	-3.4618833
75	0xc07acf7a	-3.9189134
76	0xc0602878	-3.50247
77	0xc04441bb	-3.0665119
78	0xbf5c2342	-0.859913
79	0xc05f909a	-3.4932008
80	0xc05cd25a	-3.4503388
81	0xc0547d86	-3.3201613
82	0xc05ce41d	-3.451423
83	0xc05412f7	-3.3136575
84	0xc04b5f83	-3.1777046
85	0xc05dbfd9	-3.4648345
86	0xc05746fd	-3.3637078
87	0xc065f1b2	-3.592877
88	0xc05bcf46	-3.434526
89	0xc0606618	-3.5062313
90	0xc0672802	-3.611817
91	0xc058b977	-3.3863199
92	0xc056dc52	-3.3571973
93	0xc045b347	-3.0890672
94	0xc065cef7	-3.5907571
95	0xc06aaa61	-3.666649
96	0xc055fc28	-3.3435154
97	0xc06b3ba1	-3.6755145
98	0xc063fdaa	-3.5623574
99	0xc05a42b3	-3.410321
100	0xc0578a1f	-3.3678052
101	0xbf7dcfff	-0.991455
102	0xc074e853	-3.82668
103	0xc0753f04	-3.8319712
104	0xbf8ac649	-1.0841762
105	0xbf5bf65d	-0.85922796
106	0xc06112b7	-3.5167673
107	0xc04fc8fb	-3.2466419
108	0xc06cd379	-3.7004073
109	0xc06c84b0	-3.6955986
110	0xc0557607	-3.3353288
111	0xc073efe8	-3.8115177
112	0xc06f69f5	-3.740842
113	0xc0672218	-3.611456
114	0xc06c1316	-3.688665
115	0xbf72f91b	-0.94911355
116	0xc04d2f1d	-3.2060006
117	0xc05e91cf	-3.4776495
118	0xc06f4177	-3.7383707
119	0xc06ff978	-3.7496014
120	0xc06dced9	-3.71575
121	0xc0405791	-3.0053446
122	0xc047fab7	-3.1246774
123	0xc05f8968	-3.4927616
124	0xc0066b17	-2.1002862
125	0xc05576db	-3.3353794
126	0xc06f6b7d	-3.7409356
127	0xc050c10d	-3.261783
128	0xc076967a	-3.8529344
129	0xc049915a	-3.1494966
130	0xc063187e	-3.54837
131	0xc0659bb8	-3.5876293
132	0xc06fd756	-3.747518
133	0xc0747fd9	-3.8203032
134	0xc0507df5	-3.2576878
135	0xbf62cac5	-0.8859065
136	0xc075c5ac	-3.84019
137	0xc04b61f8	-3.1778545
138	0xc0643fcf	-3.5663946
139	0xc05682a8	-3.3517246
140	0xc04394dc	-3.0559607
141	0xc070f7df	-3.7651289
142	0xc06940c6	-3.6445785
143	0xbf9ac1ae	-1.2090356
144	0xc0651374	-3.5793123
145	0xc0578f45	-3.3681195
146	0xbf7ab4e4	-0.9793227
147	0xc059a18a	-3.4004846
148	0xc06f76b0	-3.741619
149	0xc073fd98	-3.8123531
150	0xc057c89e	-3.3716197
151	0xc06e31cd	-3.7217896
152	0xc05284ec	-3.289363
153	0xc05c5fc4	-3.443345
154	0xc05b56e9	-3.4271796
155	0xc049f0f9	-3.1553328
156	0xbffdd4ae	-1.983053
157	0xc066810f	-3.601627
158	0xbf24029d	-0.6406649
159	0xc05eb7a6	-3.479959
160	0xc06af27d	-3.6710503
161	0xc0513eee	-3.269466
162	0xc00d76c5	-2.210374
163	0xc06be165	-3.685632
164	0xc0767c90	-3.8513527
165	0xc0529420	-3.2902908
166	0xbef6b19e	-0.48182386
167	0xc06b2f39	-3.6747572
168	0xc060f530	-3.514965
169	0xc0594681	-3.3949282
170	0xc06578c5	-3.5854962
171	0xc0623f18	-3.535101
172	0xbec3f271	-0.38270906
173	0xbf5327b6	-0.8248247
174	0xbf173818	-0.5906997
175	0xc04f9f70	-3.2441063
176	0xc06564b1	-3.5842707
177	0xc0575bbb	-3.3649738
178	0xc06793db	-3.6183994
179	0xc0851ee6	-4.160022
180	0xbed8d64c	-0.42350996
181	0xc057b0cf	-3.3701665
182	0xc0644a89	-3.5670493
183	0xc05afff7	-3.4218729
184	0xc06cbda5	-3.699075
185	0xc05396a7	-3.30607
186	0xc0573308	-3.3624897
187	0xc07504da	-3.828421
188	0xbefc0b3b	-0.49227318
189	0xc0615d04	-3.5213022
190	0xc063c897	-3.559118
191	0xc063f10c	-3.5615873
192	0xc06172c8	-3.5226307
193	0xc062a14b	-3.5410945
194	0xbcdf3f06	-0.027251732
195	0xc05311d9	-3.2979643
196	0xc05e4efa	-3.4735703
197	0xc05c1772	-3.438931
198	0xc06290ab	-3.5400798
199	0xc04b7c7e	-3.1794734
200	0xc052953d	-3.2903588
201	0xc0518509	-3.2737448
202	0xc063e5a2	-3.5608907
203	0xc05c3236	-3.4405646
204	0xc06448e3	-3.5669487
205	0xc06375b3	-3.5540588
206	0xc04bc817	-3.1840875
207	0xc071af07	-3.7763078
208	0xc0684992	-3.6294904
209	0xc06b2477	-3.6741006
210	0xc0611584	-3.5169382
211	0x3dc9b876	0.09849636
212	0xc06b313a	-3.6748796
213	0xbf4d0a50	-0.8009386
214	0xc05cc08f	-3.4492528
215	0xc0784bbf	-3.8796232
216	0xc0507813	-3.2573287
217	0xc05e22a5	-3.4708645
218	0xbe371cdf	-0.17882107
219	0xc04a05b2	-3.1565976
220	0xc052fa90	-3.2965431
221	0xc04d39f6	-3.2066627
222	0xc0665534	-3.5989504
223	0xc044de30	-3.0760612
224	0xbf5c7b03	-0.861252
225	0xc08e9427	-4.455585
226	0xc062fedf	-3.546806
227	0xc07af7cd	-3.9213746
228	0xc06497aa	-3.5717568
229	0xc0720369	-3.7814581
230	0xc0537cc8	-3.304491
231	0xc0713a56	-3.7691855
232	0xc0628970	-3.5396385
233	0xc07763b3	-3.8654602
234	0xc069d661	-3.6537097
235	0xc0516d7d	-3.2723076
236	0xc04e65b2	-3.224957
237	0xc06fd110	-3.7471352
238	0xc063a77e	-3.557098
239	0xc0583c13	-3.3786666
240	0xc04ac683	-3.1683662
241	0xc0591477	-3.391874
242	0xc056196a	-3.3453012
243	0xc05842e9	-3.3790839
244	0xc06654bc	-3.5989218
245	0xc0524571	-3.2854884
246	0xc05a01c4	-3.4063578
247	0xc0614218	-3.519659
248	0xc05e609c	-3.4746466
249	0xbff825f4	-1.9386582
250	0xbf0172f9	-0.5056606
251	0xc05c6330	-3.443554
252	0xc059787c	-3.3979788
253	0xc060529d	-3.5050423
254	0xc0768333	-3.8517578
255	0xc04c644c	-3.1936216
