Python/RNN/models/MODELSLAYER4.pt (torch, 725955 bytes, 10 tensors)

fc1.weight f4 [50, 100]
0	0x3fe0df60	1.7568169
1	0xbfac2c34	-1.345099
2	0xc01ae00d	-2.419925
3	0xbea68cae	-0.32529205
4	0x3ce0df93	0.027450358
5	0xbf0a5320	-0.5403309
6	0x40040aae	2.0631518
7	0x3ff248ad	1.8928429
8	0x3e77b7d6	0.24191222
9	0x3f5e3404	0.8679812
10	0xbfde260c	-1.7355361
11	0x3f49b7e6	0.7879623
12	0x3f144db1	0.5793105
13	0xbf0cf6c9	-0.55064064
14	0x3d41d0cc	0.047318265
15	0x4056ba50	3.3551216
16	0x3fcfcc0a	1.6234143
17	0xbf4f3d77	-0.8095316
18	0xbfc43146	-1.5327537
19	0xbf6a6eb7	-0.9157519
20	0x3f3f8d8e	0.7482537
21	0x3fd7b401	1.6851808
22	0x3faaea3c	1.3352733
23	0x3caddb8b	0.02122285
24	0xbfd45c36	-1.659064
25	0x3e0b4dd3	0.13603906
26	0x3fc4e1f4	1.5381455
27	0xbf1f9f60	-0.6235256
28	0x3efa0b9b	0.4883698
29	0x3f92aa02	1.1458132
30	0x3fcdc397	1.6075314
31	0x3fa8f9ef	1.3201274
32	0x3f803c11	1.0018331
33	0x3f7a9f80	0.9789963
34	0xbe638dab	-0.22222011
35	0x3fe248a1	1.7678415
36	0xbeeea54d	-0.4661049
37	0xbfc6906b	-1.5512823
38	0xbe8dec27	-0.27719232
39	0x4029035c	2.64083
40	0xbf918e36	-1.1371524
41	0x3d82b536	0.063822195
42	0x3f8dd7df	1.1081504
43	0x3e4cd38a	0.20002571
44	0x3ef5d8bd	0.4801692
45	0xc00bc0f9	-2.183653
46	0x3f86d39d	1.0533329
47	0x3ffca93b	1.9739145
48	0xbe537637	-0.20650564
49	0xc01de39d	-2.4670174
50	0x3fa9ed3e	1.3275526
51	0xbe06afba	-0.13152972
52	0xbfd8f674	-1.6950212
53	0xbfadc029	-1.3574268
54	0x3ff10d55	1.8832194
55	0xbf517a25	-0.81827
56	0xbe2f9fab	-0.17150752
57	0x3f1aaf2c	0.6042354
58	0x3fdd3eb7	1.7284764
59	0x3fb706d9	1.4298965
60	0x3fa11aac	1.2586265
61	0x3ffc24d9	1.9698745
62	0x3f15b46d	0.5847843
63	0xbf335199	-0.70046383
64	0xbe01cd87	-0.12676059
65	0x3f429602	0.76010144
66	0xbe999652	-0.29997498
67	0xc018bd6c	-2.3865614
68	0x3ea573c2	0.3231488
69	0x3f79348f	0.97345823
70	0x3f30df27	0.69090503
71	0x3fca33ae	1.5797021
72	0x3fd9307a	1.6967919
73	0x3f899bbb	1.075065
74	0xbde1042b	-0.10987123
75	0xbe45fdc1	-0.1933508
76	0xbfccfeb8	-1.6015234
77	0x3f7ba322	0.98295796
78	0x3fb8895d	1.441692
79	0x3e033d48	0.12816346
80	0x3eae7c61	0.3407927
81	0x3ec25a0c	0.37959325
82	0x3e437de4	0.19090992
83	0x3f06fb28	0.52726984
84	0x3faa8b2d	1.3323723
85	0x3e7dcb01	0.24784471
86	0xbe85b6c4	-0.26116002
87	0x3fb9c0c3	1.4511951
88	0x3f13cff9	0.57739216
89	0xbf8d9448	-1.1060877
90	0xbeab09dc	-0.3340596
91	0x3d86d1a9	0.06582958
92	0x3d9d9752	0.07694878
93	0xbf462a5b	-0.7740838
94	0x3fde43d4	1.736445
95	0xbfc1e482	-1.514786
96	0x3fa93398	1.321887
97	0xbf9365b8	-1.1515417
98	0x4016512d	2.3487046
99	0xbf2f3f02	-0.6845552
100	0xbd59aa30	-0.05314082
101	0xbcbf7914	-0.023373164
102	0x3d9b7fa3	0.07592704
103	0xbd4789ad	-0.048715282
104	0x3d2b1386	0.041766666
105	0xbdaecb3b	-0.08534857
106	0xbdc90098	-0.098145664
107	0xbda84583	-0.08216383
108	0x3c94ae34	0.018149473
109	0x3c24a2f0	0.010048613
110	0x3d824371	0.0636052
111	0xbc5f6b80	-0.01363647
112	0xbcb8a06c	-0.022537433
113	0x3dba0ed9	0.09084863
114	0x3dbd06f1	0.092298396
115	0xbd7018e7	-0.0586175
116	0x3daa0087	0.08300882
117	0x3af4be00	0.0018672347
118	0x3b0761c0	0.0020657629
119	0x3cb93c28	0.022611693
120	0x3b96bed0	0.0046003833
121	0x3d3354d2	0.043782063
122	0xbd95cfab	-0.07315
123	0x3d84c3f9	0.06482691
124	0xbd50e373	-0.050998162
125	0xbd92071b	-0.071302615
126	0xbd0a4caa	-0.03376452
127	0xbdabdb9b	-0.08391496
128	0xbdc4d0d8	-0.09610146
129	0xbd8bc65d	-0.06824944
130	0x3ccae1a0	0.02476579
131	0xbc4baac0	-0.012430847
132	0x3d1ff8fa	0.039055802
133	0x3d244f16	0.040114485
134	0x3db6fd85	0.08935074
135	0x3d9ad283	0.07559683
136	0xbbc1fb30	-0.0059198365
137	0x3d59c862	0.053169616
138	0xbd8c7244	-0.06857732
139	0x3da7d2df	0.08194517
140	0x3c724568	0.014787056
141	0x3d1a741e	0.037708394
142	0xbd8af034	-0.06784096
143	0x3c495198	0.01228752
144	0xbd8f929a	-0.07010384
145	0xbd74bc3d	-0.05974983
146	0x3c7ba3f0	0.01535891
147	0xbdbbd97d	-0.09172342
148	0x3cd3f9cc	0.025875948
149	0xbd705ccd	-0.05868225
150	0xbc937f2c	-0.018004976
151	0xbc9feacc	-0.01952114
152	0x3b6de660	0.0036300644
153	0xbda57a2b	-0.08079942
154	0x3b681160	0.0035410747
155	0x3a98dc00	0.0011662245
156	0xbdbd8e5d	-0.09255669
157	0x3d92844f	0.07154142
158	0xbd89b56e	-0.06724058
159	0xbd5ee400	-0.054416656
160	0x3d3ec3ca	0.046573438
161	0xbd863042	-0.06552173
162	0x3da41bd9	0.08013124
163	0x3b0e7da0	0.0021742359
164	0x3d0d4cee	0.034497194
165	0xbd96d1a2	-0.07364203
166	0x3d2c6aba	0.04209397
167	0x3dc850c1	0.097810276
168	0xbbc7d160	-0.0060979575
169	0x3db8dc91	0.09026445
170	0xbdb6573b	-0.08903357
171	0xbc48cfa8	-0.01225654
172	0xbcd15578	-0.02555345
173	0x3c2f7570	0.010709152
174	0xbdc304e3	-0.095224164
175	0x3dad4739	0.0846085
176	0xbdbfafeb	-0.093597256
177	0xbd53f333	-0.051745605
178	0xbdae4587	-0.08509355
179	0xbd09308a	-0.033493556
180	0x3c9a6d18	0.018850848
181	0xbb407100	-0.0029364228
182	0x3dc7be85	0.097531356
183	0x3bfc8530	0.007706307
184	0x3d20031e	0.039065473
185	0xbda256db	-0.079267226
186	0x3d8f2c91	0.06990922
187	0xbd339dd7	-0.0438517
188	0x3d398e56	0.045301758
189	0xbdcc6132	-0.09979476
190	0x3da52881	0.08064366
191	0x3d988041	0.074463375
192	0x3d3f27fe	0.046669
193	0xbda874a3	-0.08225372
194	0x3cdb5b74	0.026777007
195	0xbd0d1a54	-0.034448937
196	0x3d751b8a	0.059840716
197	0xbdc29d1b	-0.09502622
198	0xbd558983	-0.052133095
199	0x3d9a1ce7	0.07525044
200	0x40344e27	2.81727
201	0xbf921023	-1.1411175
202	0x3f8c61b9	1.0967323
203	0xbda5b93c	-0.08091971
204	0xbee5f3f1	-0.44912675
205	0xbf8f8b92	-1.1214468
206	0xbf49c5c3	-0.78817385
207	0x3fb87be6	1.4412811
208	0x3fb050e4	1.3774686
209	0xbe33a281	-0.17542459
210	0xbf7dc75e	-0.99132335
211	0xbec6f8b4	-0.3886162
212	0xbf35f687	-0.71079296
213	0x3e926f06	0.2860033
214	0xbd238b53	-0.03992779
215	0xbe35f0b9	-0.1776761
216	0x3efbdfa5	0.49194065
217	0xbf96eeb1	-1.1791593
218	0xbeecd6d8	-0.46257663
219	0xbff15360	-1.8853569
220	0xbfa65263	-1.2993892
221	0x3f580b17	0.8439192
222	0xbfb4f679	-1.4137717
223	0xbecc35c5	-0.39884773
224	0xbee94892	-0.4556318
225	0x3f2f2e56	0.6843008
226	0x3f8aaac8	1.0833368
227	0xbd2e7790	-0.042594492
228	0xbfcf06ad	-1.6173912
229	0xbfba03b7	-1.4532384
230	0x3f15ff5c	0.5859277
231	0xbf4f4448	-0.80963564
232	0x3f305253	0.68875617
233	0x3e3fe32c	0.18739003
234	0xbf1994dd	-0.5999277
235	0xbea06600	-0.3132782
236	0x3f278b82	0.6544725
237	0xc0642b0a	-3.565127
238	0x3ef5efc1	0.4803448
239	0x3f6e8502	0.93171704
240	0xbeb2100d	-0.3477787
241	0xbfe0cf7c	-1.7563319
242	0xc00d06be	-2.2035365
243	0x3f292b37	0.66081566
244	0x3f90197f	1.1257781
245	0xc094d958	-4.651531
246	0xc01a2ea0	-2.4090958
247	0xbd54e09b	-0.051972013
248	0x3f6f0c59	0.93378216
249	0x3d38c5e0	0.045110583
250	0xc00fb7fb	-2.2456043
251	0x3ea0faea	0.31441432
252	0xbf1949ca	-0.5987822
253	0xbf745ea3	-0.95456904
254	0xbfca7b11	-1.5818807
255	0x3de423c4	0.11139634

fc1.bias f4 [50]
0	0xbc52efaa	-0.012874523
1	0xbd6c8e80	-0.057753086
2	0x3e107a61	0.14109184
3	0xbdc8baea	-0.09801276
4	0xbc6f45b2	-0.014604019
5	0xbdab6ad2	-0.08369984
6	0xbd019dac	-0.03164451
7	0x3c624d4d	0.013812375
8	0xbce44c80	-0.02786851
9	0xbda3b4c0	-0.0799346
10	0x3e151909	0.14560331
11	0xbc5cd3c3	-0.013478222
12	0xbd423293	-0.047411513
13	0xbd6ae693	-0.0573488
14	0xbd78a430	-0.060703456
15	0x3cacf222	0.021111552
16	0xbcb98f88	-0.022651449
17	0xbc28323f	-0.010265886
18	0xbbd16e4f	-0.0063913236
19	0x3f4ca8d1	0.79945093
20	0x3f303fb2	0.6884719
21	0xbc75e1e0	-0.015007466
22	0xbcc7c920	-0.024387896
23	0x3d662ac2	0.05619312
24	0x3d660be1	0.056163672
25	0x3de4cc0a	0.1117173
26	0xbd9479be	-0.07249783
27	0xbcdcce80	-0.026953936
28	0x3e1cb96b	0.15305106
29	0x3e698925	0.22806223
30	0xbdb2e0e3	-0.087343
31	0xbc44e613	-0.012017745
32	0xbc634daf	-0.013873502
33	0x3deff686	0.117169425
34	0x3e3e6ea0	0.18596888
35	0xbcb2f2ec	-0.02184435
36	0xbc9e3edf	-0.019317089
37	0x3c1eac48	0.00968463
38	0xbc7ae850	-0.015314177
39	0xbc8d52e2	-0.017251436
40	0x3e2d5770	0.16927886
41	0xbc9eb6c8	-0.019374266
42	0xbdc77aad	-0.097401954
43	0x3e1d1964	0.15341717
44	0xbd229817	-0.039695825
45	0x3e28ddfa	0.16490927
46	0xbd074404	-0.03302385
47	0xbcdf47d8	-0.027255937
48	0x3dd3da1a	0.10344334
49	0xbd217740	-0.039420366

attention.weight f4 [50, 1000]
0	0x3ded2415	0.11579148
1	0x3dc8ae8e	0.09798919
2	0xbd135314	-0.0359679
3	0x3cb9b7b8	0.022670612
4	0x3d0add28	0.033902317
5	0x3d0e84f0	0.034794748
6	0x3d9cafad	0.07650695
7	0x3c137087	0.008998997
8	0x3dd61f86	0.10455231
9	0x3cab1e4f	0.020888476
10	0x3dba9ee5	0.09112338
11	0x3dba426b	0.090946995
12	0x3ddf22ab	0.10895284
13	0xbcc2ed87	-0.023794902
14	0xbe03576e	-0.1282632
15	0x3dbdf1b8	0.0927462
16	0x3e0514fd	0.12996288
17	0x3c6c2a15	0.01441433
18	0x3d98f637	0.07468837
19	0x3d3f18ab	0.046654385
20	0x3dbf8425	0.093513764
21	0x3da1d303	0.079015754
22	0xbc88946d	-0.016672337
23	0x3db470f3	0.08810606
24	0x3e0cfecc	0.13769072
25	0x3d821891	0.06352342
26	0x3c0f8c41	0.0087614665
27	0xba26b884	-0.00063598924
28	0xbc23f035	-0.010006
29	0xbce19638	-0.02753745
30	0x3de998e9	0.114061184
31	0x3d91f2d0	0.07126391
32	0xbbe959e0	-0.0071213096
33	0x3dc624b3	0.096749686
34	0x3d7872b7	0.060656276
35	0x3d997cbb	0.074944936
36	0x3db74a60	0.08949733
37	0x3cbfbcd4	0.02340547
38	0x3d49ce49	0.049268994
39	0x3b72b614	0.0037034797
40	0x3c58de14	0.013236541
41	0x3dfa6062	0.12225415
42	0xbc3237f0	-0.010877594
43	0xbc82ff7f	-0.01599097
44	0x3c3a1258	0.011356913
45	0x3dbcc724	0.092176706
46	0x3dc5c577	0.09656804
47	0x3dcd83ed	0.100349285
48	0xbd3468d8	-0.0440453
49	0x3dd27c69	0.102776356
50	0xbc9a3a4b	-0.018826624
51	0x3d8e3509	0.069437094
52	0x3d42c00e	0.04754644
53	0x3dc8e840	0.09809923
54	0x3d87cdb3	0.06631031
55	0xb98e3caa	-0.0002712955
56	0x3d03f3f6	0.03221508
57	0x3dac4789	0.08412082
58	0x3de13d10	0.10997975
59	0x3c8e2099	0.017349528
60	0x3d1bfc58	0.03808245
61	0x3d3d5751	0.04622585
62	0x3d9d9bad	0.076957084
63	0x3d8327d1	0.06404079
64	0x3dca7f06	0.09887509
65	0xbdc20e6f	-0.09475409
66	0x3db45b0c	0.08806428
67	0x3d970d3d	0.07375572
68	0xbd107b26	-0.035273694
69	0x3dacf3e3	0.08444955
70	0xbbdc6c08	-0.0067267455
71	0x3dd2e8b3	0.1029829
72	0x3d609d19	0.05483732
73	0x3dc37846	0.09544425
74	0x3dd6abb7	0.10481971
75	0x3d92f0c7	0.07174831
76	0x3d10c341	0.03534246
77	0x3d626304	0.05527021
78	0x3db24913	0.08705344
79	0x3d6a0696	0.057135187
80	0x3db9d449	0.09073693
81	0x3d86a81b	0.06575032
82	0x3d86715a	0.06564589
83	0x3b2f67ef	0.002676483
84	0x3dd7d232	0.105381384
85	0x3de026f6	0.10944931
86	0x3d344a88	0.04401639
87	0x3d68519d	0.056718457
88	0x3cf8f857	0.030391855
89	0x3c2f2f49	0.010692426
90	0x3d9f4661	0.077770956
91	0xbd301723	-0.042990815
92	0x3dc4a6fc	0.09602162
93	0x3db382e0	0.08765197
94	0x3cfaa199	0.030594634
95	0x3b922331	0.0044597615
96	0x3d83ad22	0.06429507
97	0x3e01f049	0.12689318
98	0x3d6ec733	0.05829544
99	0x3dc36f91	0.09542764
100	0xbcc93eb5	-0.024566034
101	0xbad7692f	-0.0016434545
102	0x3d6e27f8	0.058143586
103	0xbdfcf0a9	-0.1235059
104	0xbcf77434	-0.030206777
105	0xbdb7dc83	-0.08977606
106	0xbcb1ff75	-0.021728257
107	0xbd5721b1	-0.052522365
108	0xbc9ce16e	-0.019150462
109	0xbd3bd784	-0.04585983
110	0xbd07e6eb	-0.033179205
111	0x3d022ab2	0.031779
112	0xbc2d0b41	-0.010561765
113	0xbe020ea6	-0.127009
114	0xbe647295	-0.22309335
115	0x3ca1466b	0.019686898
116	0x3d4d5c3d	0.050136793
117	0xbdc62e2c	-0.09676775
118	0xbceac51a	-0.028658438
119	0xbd8d1997	-0.068896465
120	0xbd1568de	-0.036476962
121	0x3d572cf2	0.052533098
122	0xbc2c277e	-0.010507463
123	0xbc0aa5a2	-0.0084623415
124	0x3d819c93	0.06328692
125	0xbd4558f2	-0.048180528
126	0xbdd12063	-0.102112554
127	0xbdbbae81	-0.09164143
128	0xbe0c3ad3	-0.13694315
129	0xbe243c76	-0.16038689
130	0xb7b1dbfa	-2.1202479e-05
131	0x3c89c9a1	0.016819777
132	0xbc715f6d	-0.014732224
133	0xbd38192c	-0.04494588
134	0xbd046e11	-0.03233153
135	0xbc92bdd2	-0.017912779
136	0xbc84c514	-0.016207255
137	0xbda21b8c	-0.079154104
138	0x3e17b719	0.1481594
139	0xbd749e16	-0.059721075
140	0xbd447e94	-0.047972277
141	0x3c872f51	0.016502054
142	0xbdc212df	-0.094762556
143	0xbe4d9aca	-0.20078579
144	0x3e2ff340	0.17182636
145	0xbd54a2f3	-0.051913213
146	0xbc28611b	-0.010277058
147	0x3cd1dc4b	0.02561774
148	0xbe2fb481	-0.171587
149	0x3c3bb45b	0.011456574
150	0xbde4ca34	-0.1117138
151	0xbd1e33a5	-0.03862347
152	0xbe021ef1	-0.12707116
153	0x3c3a7698	0.011380814
154	0xbcb9099e	-0.022587594
155	0xbd9377c8	-0.07200581
156	0xbd3eac30	-0.04655093
157	0xbc142039	-0.009040886
158	0xbca474d7	-0.020075245
159	0xbd98a6b6	-0.074536726
160	0xbb8540d2	-0.004066565
161	0xbdc83903	-0.09776499
162	0xbdd386d3	-0.1032845
163	0xbae8f556	-0.0017773311
164	0xbc830d64	-0.015997596
165	0xbdc79ac4	-0.09746316
166	0xbda05d1a	-0.07830258
167	0xbd0fbbd6	-0.035091244
168	0xbe0f525e	-0.13996264
169	0xbcfbb3f2	-0.030725453
170	0xbdce1908	-0.10063368
171	0x3d212c30	0.03934878
172	0xbd886421	-0.06659723
173	0x3bf75682	0.0075481543
174	0xbce0af9c	-0.027427487
175	0xbcc52a82	-0.02406812
176	0xbca9fb66	-0.020749759
177	0xbd0cca7c	-0.03437279
178	0x3c58bf6a	0.01322923
179	0x3d090b1b	0.033457857
180	0xbd34e1bc	-0.04416059
181	0x3c7d8727	0.015474117
182	0xbc57ecc9	-0.013179013
183	0xbdd77ed2	-0.10522236
184	0xbb8a2ba2	-0.004216627
185	0xbbb80d54	-0.005616823
186	0xbcda1f9b	-0.026626399
187	0xbd45f73c	-0.048331484
188	0xbd7818f1	-0.06057066
189	0xbd671756	-0.05641874
190	0xbd5e52c3	-0.054278146
191	0x3dad9a87	0.084767394
192	0x3b9686c0	0.0045937
193	0xbba3f985	-0.0050041103
194	0xbd795380	-0.060870647
195	0xbe2a68f5	-0.166416
196	0x3cee7b82	0.029111627
197	0x3d16309c	0.03666745
198	0xbcf80a4c	-0.030278347
199	0x3c8f41b6	0.017487388
200	0xbc44b980	-0.012007117
201	0xbd126fbf	-0.0357511
202	0x3d901eb6	0.07037108
203	0xbda9abb6	-0.082847044
204	0xbd089c76	-0.033352338
205	0xbd997757	-0.074934654
206	0x3d185f57	0.0372003
207	0xbd855acd	-0.065114595
208	0x3d220e4f	0.039564427
209	0xbc9c7b2a	-0.019101698
210	0x3b743da6	0.003726819
211	0x3d693e67	0.056944277
212	0x3d1332ab	0.035936993
213	0xbdb4b0cf	-0.08822786
214	0xbe454f97	-0.19268642
215	0x3c616386	0.013756638
216	0x3d6a148f	0.057148512
217	0xbd91fe56	-0.07128589
218	0xbd16af19	-0.03678808
219	0xbb425b3b	-0.0029656428
220	0x3cae97f9	0.0213127
221	0x3d6b2197	0.05740508
222	0x3bd21cb4	0.006412113
223	0xbcb484ba	-0.022035945
224	0x3d41ad8c	0.047284648
225	0xbcfc8052	-0.030822907
226	0xbd9caf83	-0.07650664
227	0xbdb4798d	-0.088122465
228	0xbe0aca38	-0.13553703
229	0xbe03b431	-0.12861706
230	0x3d4e71b6	0.050401412
231	0x3d423159	0.047410343
232	0x3cdccb9a	0.026952554
233	0x3d0509d1	0.032480065
234	0xbc85d67b	-0.016337624
235	0x3ca9cbe6	0.02072711
236	0xbccdeaeb	-0.025136432
237	0xbc916e22	-0.01775271
238	0x3dd8d41e	0.10587333
239	0xbc6a349d	-0.014294771
240	0xbd730582	-0.059331425
241	0x3d47fd14	0.04882534
242	0xbdbf21de	-0.093326315
243	0xbe1ba2a9	-0.15198769
244	0x3dfb01b9	0.12256188
245	0xbca85d4c	-0.0205523
246	0xbc27810c	-0.010223638
247	0x3d9ef645	0.07761816
248	0xbe067036	-0.13128743
249	0x3d0605a8	0.032720238
250	0xbdb00a1b	-0.085956775
251	0xbcee67ec	-0.029102288
252	0xbe1006eb	-0.14065139
253	0x3bb0c85e	0.0053949794
254	0xbcc70cb0	-0.024298042
255	0xbd9607ae	-0.073256835

attention.bias f4 [50]
0	0xbd4b32be	-0.04960894
1	0xbc7efdca	-0.015563438
2	0xbce22a68	-0.027608112
3	0x3e4b6c59	0.1986555
4	0xbce3cc4b	-0.027807375
5	0xbc7a2ee8	-0.015269972
6	0xbc92df48	-0.017928734
7	0xbcb02f94	-0.021507062
8	0xbccc3d62	-0.024931613
9	0x3d922518	0.07135981
10	0x3e96a127	0.29419824
11	0xbcdfd66a	-0.02732392
12	0x3e9e3e65	0.30906978
13	0xbcd24f9c	-0.025672726
14	0xbc61c81c	-0.01378062
15	0xbd319b6b	-0.04336111
16	0xbc76e570	-0.015069351
17	0xbd0bea03	-0.034158718
18	0xbd30e95e	-0.043191306
19	0xbd221f5e	-0.039580695
20	0xbc83f348	-0.016107216
21	0xbcf58396	-0.029969972
22	0x3dfab5ae	0.12241684
23	0xbd132fd8	-0.0359343
24	0x3ea63e2e	0.32469314
25	0xbd08558e	-0.033284716
26	0xbcd09384	-0.025460966
27	0xbd010754	-0.03150113
28	0xbc57aa8c	-0.01316322
29	0x3c94d1a3	0.018166369
30	0xbcf9bba1	-0.030484976
31	0xbbaafe2d	-0.0052182884
32	0x3c008bed	0.007845861
33	0xbbbb9fb5	-0.0057258257
34	0xbd9504e8	-0.072763264
35	0xbcca7a1e	-0.024716433
36	0xbdc9f7fd	-0.09861753
37	0xbd3433dd	-0.043994773
38	0x3e1d99a3	0.15390639
39	0xbd1ab5d9	-0.03777108
40	0x3a8c7b59	0.0010717913
41	0xbd40c39c	-0.047061548
42	0xbd01cadc	-0.031687602
43	0xbd2d0284	-0.042238727
44	0x3e2c709a	0.16839829
45	0xbcc16f9f	-0.023612795
46	0x3f37ac00	0.71746826
47	0xbcab6baf	-0.020925371
48	0xbd11f689	-0.035635505
49	0x3e063c1e	0.1310887

attention2.weight f4 [25, 50]
0	0xbe36a73c	-0.17837232
1	0x3d9818a6	0.07426576
2	0xbdff84b6	-0.124764845
3	0xbfc481b8	-1.5352087
4	0x3ddafedc	0.10693142
5	0xbb95d5c0	-0.0045726
6	0x3d36f1a4	0.04466404
7	0x3e042801	0.12905885
8	0x3de56eee	0.11202799
9	0xbe268e56	-0.16265234
10	0x3fbe16d3	1.4850715
11	0xbdde614f	-0.10858404
12	0x3e70dac1	0.23520948
13	0x3da70414	0.08155075
14	0xbd2c7e3c	-0.042112574
15	0x3deba655	0.11506335
16	0xbd98f9b9	-0.07469506
17	0xbdfee9dd	-0.1244695
18	0x3d5abf58	0.053405136
19	0xbe1bbdf4	-0.1520918
20	0xbce9bd00	-0.028532505
21	0x3da1769c	0.07883951
22	0x3fb26269	1.3936282
23	0xbe0b6dde	-0.1361613
24	0x3fcad440	1.5846024
25	0xbcec775d	-0.02886551
26	0x3d25b16c	0.040452406
27	0x3dda83d4	0.106696755
28	0x3e025db1	0.12731053
29	0xbe941394	-0.28921187
30	0xbe0f92ca	-0.1402084
31	0xbff666a5	-1.9250075
32	0x3ff12dbe	1.8842084
33	0xbf548bdd	-0.83025914
34	0x3fc2263c	1.5167918
35	0x3e0f238d	0.13978405
36	0xbe40f472	-0.18843248
37	0x3dff15a6	0.12455301
38	0x3f0c9006	0.5490726
39	0xbc1bf955	-0.009519895
40	0xbd6fd342	-0.05855108
41	0xbddcde44	-0.10784581
42	0xbc7aa9e9	-0.015299299
43	0xbd7e6722	-0.062110074
44	0x3f57af5b	0.84251946
45	0xbde48606	-0.111583754
46	0x3f45b7ed	0.77233773
47	0xbcaa06fc	-0.020755284
48	0x3e804652	0.2505365
49	0x3db03768	0.08604318
50	0xbc897c26	-0.016782831
51	0xbdd17d7e	-0.10229014
52	0xbdc4ed06	-0.09615521
53	0xbdf71f20	-0.120664835
54	0xbd524e32	-0.051344104
55	0xbd1e8eac	-0.03871028
56	0x3df9c492	0.12195696
57	0xbd8e54e5	-0.06949786
58	0x3e01693f	0.12637804
59	0xbdbff332	-0.09372558
60	0x3d22d44a	0.039753236
61	0x3b857a60	0.004073426
62	0x3cc8c483	0.024507767
63	0x3d4910bc	0.049088225
64	0xbd179eb0	-0.03701657
65	0xbcef9ec8	-0.029250517
66	0x3d91be7a	0.07116409
67	0x3db375ec	0.08762726
68	0x3d2ba27c	0.041903004
69	0x3c994938	0.018711671
70	0x3d84c406	0.06482701
71	0x3e007575	0.12544806
72	0x3de43a5d	0.111439444
73	0x3e0b0b57	0.13578545
74	0xbe01974a	-0.12655368
75	0x3e054856	0.13015875
76	0x3e0ae419	0.13563575
77	0xbcadcaa0	-0.021214783
78	0x3d747a98	0.059687227
79	0xbda1ad77	-0.07894414
80	0x3dacb644	0.08433202
81	0xbe1e7be6	-0.15476951
82	0xbde504ca	-0.11182554
83	0xbd200abe	-0.039072745
84	0xbb0b13d4	-0.0021221535
85	0x3d967790	0.073470235
86	0xbdca4577	-0.098765306
87	0x3d37a0a0	0.04483092
88	0xbe071458	-0.13191354
89	0x3cf88b0f	0.030339746
90	0x3ddeb07b	0.10873505
91	0xbe01a7f6	-0.12661728
92	0x3e2146f7	0.15749727
93	0xbdbdc97c	-0.09266946
94	0x3d186346	0.03720405
95	0xbcd413d8	-0.025888368
96	0x3d574a5e	0.052561156
97	0xbe107bd7	-0.14109741
98	0xbd22ae69	-0.03971711
99	0x3d3cb932	0.046075054
100	0xbe3ef09c	-0.18646473
101	0xbd42fbe8	-0.047603518
102	0xbd5b39a2	-0.05352176
103	0xbe803775	-0.2504231
104	0xbd24465e	-0.04010617
105	0x3d54ddc8	0.05196932
106	0xbdf9e44c	-0.12201747
107	0x3d84b6f6	0.064802095
108	0xbde86981	-0.11348248
109	0xbe59f2b1	-0.21283986
110	0x3d71b8b4	0.059014037
111	0x3d400742	0.04688192
112	0xbdc62fd0	-0.09677088
113	0x3d730d8c	0.05933909
114	0xbdea8fb0	-0.114531875
115	0x3cdbce9e	0.026831921
116	0x3d93ebda	0.072227195
117	0xbc81c288	-0.01583983
118	0x3d1cf3d0	0.038318455
119	0xbe011dec	-0.1260907
120	0x3d8ecf54	0.069731385
121	0xbdc5b10f	-0.09652912
122	0x3ddfe18b	0.10931691
123	0xbd936fc1	-0.0719905
124	0x3d006ea5	0.03135552
125	0x3e116aea	0.1420094
126	0x3e0cb66d	0.13741465
127	0x3df469c6	0.11934237
128	0xbe0a8fc3	-0.13531403
129	0xbd68a2ad	-0.056795765
130	0x3e0b2eb5	0.13592036
131	0xbe24e2d5	-0.16102155
132	0xbdc3602e	-0.09539829
133	0xbe1a444d	-0.15065117
134	0xbe020024	-0.12695366
135	0xbd1080b4	-0.03527899
136	0xbe8564fd	-0.2605361
137	0xbdaf4890	-0.08558762
138	0xbda4bb0a	-0.08043487
139	0xbd9f07b9	-0.07765145
140	0xbe20421d	-0.1565022
141	0xbd7858cc	-0.06063156
142	0xbd0b17a6	-0.0339581
143	0x3e00e7fd	0.12588497
144	0xbd922c83	-0.07137396
145	0x3d86c72e	0.06580959
146	0xbd07e6fb	-0.033179265
147	0x3da5d3b2	0.08097018
148	0xbcf14536	-0.029451948
149	0x3c4b6bd2	0.012415843
150	0x3d1c5a28	0.038171917
151	0x3c16af50	0.009197071
152	0x3d9638b4	0.07335034
153	0xbd87953b	-0.0662026
154	0xbad3b800	-0.0016152859
155	0x3c9b0ca8	0.018926933
156	0xbdb6a4b0	-0.089181304
157	0xbdf38bd6	-0.11891906
158	0x3db01246	0.085972354
159	0xbd005c22	-0.031337865
160	0x3d5b1c94	0.05349405
161	0x3d489332	0.0489685
162	0xbce4c065	-0.027923772
163	0x3d8e2708	0.06941038
164	0xbc40b7c0	-0.011762559
165	0x3d881581	0.066447265
166	0x3cb3d990	0.021954328
167	0xbc9b8024	-0.018982
168	0x3a90d480	0.0011049658
169	0xbd6deb44	-0.058085695
170	0xbd94b316	-0.072607204
171	0x3d640ac8	0.055674344
172	0x3dceaf81	0.100920685
173	0xbcabe73d	-0.020984286
174	0xbe8a5123	-0.27015027
175	0x3d9d1424	0.07669857
176	0xbd8c5d17	-0.06853693
177	0xbc3e1b30	-0.011603162
178	0xbc31c7e0	-0.010850877
179	0xbe6e27c5	-0.23257358
180	0x3da6f994	0.08153072
181	0x3d068c92	0.032848902
182	0x3dbe1d10	0.09282887
183	0xbe025fe6	-0.12731895
184	0xbbb1d03d	-0.0054264353
185	0xbd0d53ca	-0.034503736
186	0xbe5f9ae8	-0.21836436
187	0x3d0ce428	0.034397274
188	0xbe49e603	-0.19716649
189	0xbdfad9f9	-0.12248606
190	0xbc90e033	-0.017685032
191	0xbdd174ed	-0.1022738
192	0x3de814bb	0.11332079
193	0x3d924e4a	0.07143839
194	0xbe62c8a7	-0.22146855
195	0xbcbcb120	-0.023033679
196	0xbca77244	-0.020440228
197	0x3d81d0c0	0.06338644
198	0xbd926cb9	-0.071496435
199	0xbc881f10	-0.016616374
200	0x3c14f810	0.009092346
201	0x3c98d688	0.018656984
202	0x3d1f8038	0.03894064
203	0xb8bd11b6	-9.015521e-05
204	0x3dc4f234	0.09616509
205	0xbe03c08c	-0.1286642
206	0xbbcc2880	-0.006230414
207	0xbdef8330	-0.11694944
208	0xbe0765a6	-0.1322237
209	0xbd7a4038	-0.0610964
210	0x3da13e78	0.07873243
211	0xbd1d5d78	-0.038419217
212	0x3db970e9	0.09054739
213	0xbd0bc796	-0.034125887
214	0xbddb9995	-0.10722653
215	0xbe0a2917	-0.13492237
216	0x3dca2c24	0.098717004
217	0x36858000	3.97861e-06
218	0x3db4843a	0.08814283
219	0x3d818b22	0.063253656
220	0xbbe36fa0	-0.006940797
221	0xbd83b284	-0.064305335
222	0xbdcc7b7d	-0.09984491
223	0xbd5c29dc	-0.053750858
224	0xbdb6c038	-0.089233816
225	0x3e0d1915	0.137791
226	0xbdf0af0d	-0.11752138
227	0x3df731ee	0.1207007
228	0xbdfb9df0	-0.122859836
229	0xbd5fb792	-0.054618426
230	0x3e082bfb	0.13298027
231	0x3d4792e8	0.048724085
232	0x3c3e2720	0.011606008
233	0xbdc3fb8d	-0.09569464
234	0x3e0bd073	0.13653736
235	0x3dee33aa	0.11630948
236	0x3d246d08	0.040143043
237	0xbda714e8	-0.081582844
238	0x3d90c726	0.070692345
239	0xbdf3e8c4	-0.11909631
240	0xbd368036	-0.044555865
241	0x3dcd27d8	0.10017365
242	0xbd6776a2	-0.05650962
243	0x3b6033c0	0.0034210533
244	0xbc4f5374	-0.012654174
245	0x3bdadc80	0.0066791177
246	0xbd93f82c	-0.072250694
247	0x3b76eec0	0.0037678927
248	0xbdf020ab	-0.11724981
249	0x3d415f85	0.047210235
250	0xbcf3b18e	-0.02974775
251	0xbdfb5c76	-0.12273495
252	0x3db30cb4	0.08742657
253	0xbe829d06	-0.25510424
254	0x3b63ce00	0.0034760237
255	0x3e02ce3d	0.12773986

attention2.bias f4 [25]
0	0xbe2e691b	-0.17032282
1	0xbe20e885	-0.15713699
2	0xbc83e384	-0.016099699
3	0xbd8a5470	-0.067543864
4	0xbe0fa45d	-0.14027543
5	0xbd6f5424	-0.058429852
6	0xbf1da6b8	-0.6158252
7	0x3bcfbc28	0.0063395686
8	0xbd5fde36	-0.054655276
9	0x3dfdaba0	0.123862505
10	0xbd6944df	-0.056950446
11	0x3f1654fa	0.58723414
12	0xbdb4a5ca	-0.08820684
13	0x3c4b3846	0.012403553
14	0xbd237c62	-0.039913543
15	0xbd263d40	-0.040585756
16	0xbe0bf24f	-0.13666652
17	0xbda0f837	-0.07859843
18	0xbd8d893a	-0.069109395
19	0xbe6e4362	-0.23267892
20	0xbc9144d6	-0.017733019
21	0xbe023ca5	-0.12718447
22	0xbdbec5d1	-0.09315074
23	0x3d8c0e5e	0.06838678
24	0xbddb3d63	-0.10705068

fc2.weight f4 [25, 50]
0	0x3fb75b3f	1.4324721
1	0x3d16b07c	0.036789402
2	0x4029c1f5	2.6524632
3	0xbe39685a	-0.18106213
4	0xbf31d060	-0.6945858
5	0x3de662d2	0.11249317
6	0x3c2045f0	0.009782299
7	0xbe8c3ad4	-0.27388632
8	0xbcf8d7b8	-0.0303763
9	0xbebadab4	-0.36494982
10	0x3f127984	0.5721667
11	0xb9a8e294	-0.0003221227
12	0xbe3938bb	-0.18088047
13	0xbceabb6c	-0.028653823
14	0xbe0e921b	-0.13922922
15	0xbed9bc32	-0.42526394
16	0x3e0ba709	0.13637938
17	0x3c2a341b	0.0103883995
18	0x3f621489	0.88312584
19	0xbf9440d3	-1.1582283
20	0xbee38475	-0.44436994
21	0x3cf8d9f3	0.030377364
22	0x400f9b1c	2.2438421
23	0x3ecc9624	0.39958298
24	0x40012f96	2.0185294
25	0x3ea9598a	0.33076125
26	0x3e02a76d	0.1275918
27	0x3b2c6bc0	0.0026309341
28	0x3f98a3ce	1.1924989
29	0xbef14a95	-0.47127214
30	0x3d58c984	0.052926555
31	0x3e333f37	0.17504583
32	0x3f8406e1	1.0314599
33	0xbf626922	-0.8844167
34	0x3f669569	0.9007173
35	0xbddd5cb2	-0.10808696
36	0xbeaa9aa3	-0.33321103
37	0x3f457f55	0.7714742
38	0x3ed0fb98	0.4081695
39	0xbda6b4e8	-0.08139974
40	0x3fa00ec0	1.2504501
41	0xbe0a16fd	-0.13485332
42	0xbd1be02c	-0.038055584
43	0x3f677f5d	0.90428716
44	0x3fa80c48	1.3128748
45	0x3f466799	0.7750183
46	0x3fa7e642	1.3117144
47	0xbc2c0c50	-0.010500982
48	0x3eafd3a4	0.34341156
49	0xbc4d8bdc	-0.012545552
50	0x3fe3ef66	1.7807434
51	0xbcfa047c	-0.030519716
52	0x3fa1d0df	1.2641867
53	0xbeec4b7f	-0.4615135
54	0x408f56ec	4.4793606
55	0x3e043493	0.1291068
56	0x3d8df0c6	0.069306895
57	0x40739e45	3.806535
58	0xbd439786	-0.047751926
59	0xbfc24b1d	-1.5179173
60	0x3fd94b88	1.6976175
61	0xbd003365	-0.031299014
62	0xbfd748c5	-1.6819082
63	0xbb2da3c0	-0.0026495308
64	0x3dbcb426	0.09214048
65	0x40439bd1	3.0563853
66	0xbcf0fbc0	-0.029416919
67	0x3dd0d3ce	0.101966485
68	0x400356dd	2.0521767
69	0xbe8550b5	-0.26038137
70	0xbecac13a	-0.39600545
71	0xbd030248	-0.031984597
72	0x3e8f750f	0.28018996
73	0x403cbe1e	2.9491038
74	0x3ff16f61	1.8862115
75	0x40968c83	4.7046523
76	0xbd0d9cba	-0.034573294
77	0x3d6d95f4	0.058004335
78	0xbda8e531	-0.0824684
79	0xbfa5dc90	-1.2957935
80	0xbc6b61e0	-0.014366597
81	0xbf187be8	-0.59564066
82	0x3f9e8346	1.2383811
83	0xbe482db3	-0.19548683
84	0x3ea049e4	0.31306374
85	0x3e0d260f	0.1378405
86	0x402207ee	2.531734
87	0x3ff11962	1.8835871
88	0xbf97b374	-1.185164
89	0x3d4af7cf	0.049552735
90	0x3f3d2a3f	0.7389259
91	0x3e1518cc	0.1456024
92	0x3d52225d	0.051302303
93	0x3f5c46fa	0.860458
94	0xbf51979e	-0.81871974
95	0x3f11dfef	0.5698232
96	0xbe6d5542	-0.23177055
97	0xbd1f464e	-0.038885407
98	0xbbe4ee7d	-0.006986438
99	0xbf3f493b	-0.74721116
100	0xbc362ab0	-0.011118576
101	0xbdffd751	-0.1249224
102	0x3d9581a0	0.07300115
103	0x3c4aec30	0.012385413
104	0xbc307f80	-0.010772586
105	0xbd88b3eb	-0.06674942
106	0xbe1064b5	-0.14100917
107	0xbd75b8fc	-0.059990868
108	0x3dc78190	0.09741509
109	0x3da7c37c	0.081915826
110	0x3cdd9db0	0.02705273
111	0xbdc5778b	-0.09641942
112	0xbdd6d763	-0.104903005
113	0xbd89cac6	-0.06728129
114	0xbd0e1778	-0.03469035
115	0xbd275514	-0.04085262
116	0xbc277be0	-0.010222405
117	0xbe015f7d	-0.12634082
118	0xbdb8c394	-0.090216786
119	0x3d49f568	0.049306303
120	0xbdafe12d	-0.08587871
121	0xbb5f2940	-0.0034051687
122	0x3d3aa95c	0.04557167
123	0x3db4bf58	0.088255584
124	0xbddf682e	-0.109085426
125	0x3d78d520	0.060750127
126	0x3df12406	0.11774449
127	0xbce09450	-0.02741447
128	0x3e1021ed	0.14075442
129	0xbd27fc82	-0.041012295
130	0x3dbba69a	0.09162636
131	0x3d1e4ea0	0.0386492
132	0x3d5a85d8	0.0533503
133	0xbd3e948c	-0.046528384
134	0xbd9bf505	-0.07615093
135	0xbc62c3f0	-0.01384066
136	0xbd862798	-0.06550521
137	0xbdfb4daa	-0.122706726
138	0xbd628d38	-0.055310458
139	0xbde1dac1	-0.11028052
140	0xbdb341e4	-0.08752802
141	0x3cb5b578	0.022181258
142	0xbd3cd490	-0.046101153
143	0xbd9a99f8	-0.075488985
144	0xbd69f718	-0.057120413
145	0xbc4a70c0	-0.012355983
146	0xbccebe20	-0.025237143
147	0x3d79046c	0.060795233
148	0xbdea0a52	-0.1142775
149	0xbc846208	-0.016160026
150	0xbf230120	-0.6367359
151	0xbdeae64f	-0.11469709
152	0xc017ccb0	-2.3718681
153	0x40213a69	2.51919
154	0xbfc0c53c	-1.5060191
155	0xbde551a7	-0.111972146
156	0xbe101636	-0.14070973
157	0xbf86e3f5	-1.0538317
158	0xbd3a544c	-0.045490548
159	0xbdf1278f	-0.11775123
160	0xc01b1dc1	-2.423691
161	0x3daf53dd	0.085609175
162	0xbea74358	-0.32668567
163	0xbcf96ce8	-0.030447438
164	0x3daf09d0	0.085467935
165	0xc000c7c5	-2.012193
166	0x3d3c8a88	0.04603055
167	0xbd34f894	-0.044182375
168	0xbfb9d4a4	-1.4518018
169	0x3f6ebfea	0.9326159
170	0x3f7fe006	0.9995121
171	0xbd40b36d	-0.047046114
172	0x3fafba6a	1.3728764
173	0xc0000fb3	-2.0009582
174	0xc090018d	-4.5001893
175	0xc020aaf0	-2.5104332
176	0x3dbc8328	0.092047036
177	0xbaa67380	-0.0012699217
178	0xbf93aa8f	-1.1536425
179	0xc02eca5c	-2.731101
180	0x3d977804	0.07395938
181	0xbf8a1763	-1.0788387
182	0x3f17c95d	0.5929163
183	0x3d5eda75	0.054407556
184	0xbebb865f	-0.36625955
185	0x3deb896a	0.11500819
186	0xbee52df2	-0.44761616
187	0xbf5bd420	-0.8587055
188	0x3f11fd51	0.57027155
189	0x3dd185a5	0.10230569
190	0x40178632	2.3675656
191	0xbdac6bac	-0.08418974
192	0x3de78941	0.11305476
193	0xbfb24a24	-1.3928876
194	0x3df514d5	0.11966864
195	0xbf5ecb0f	-0.8702859
196	0xbe88b642	-0.26701552
197	0x3de384fe	0.111093506
198	0xc05a168b	-3.407626
199	0xbf0e448a	-0.5557333
200	0x3fde7018	1.7377958
201	0xbd8243ff	-0.063606255
202	0x3f47fed0	0.7812319
203	0x3ec85462	0.3912688
204	0xbf00dbd4	-0.5033543
205	0x3dce13e0	0.100623846
206	0x3d8c2fb4	0.06845036
207	0xbe4ff752	-0.20309189
208	0x3dfe46ae	0.12415825
209	0xbf07cb90	-0.53044987
210	0xbe8ed6ae	-0.27898163
211	0xbccbdee5	-0.024886558
212	0xbf4f1390	-0.80889225
213	0x3d780e68	0.060560614
214	0xbd844268	-0.064579785
215	0x3ea9f613	0.33195552
216	0xbdcc7044	-0.099823505
217	0xbcdc8055	-0.026916662
218	0x3fb9e9ac	1.4524436
219	0xbe8fe619	-0.28105238
220	0xbd58c419	-0.05292139
221	0xbc8080e8	-0.015686467
222	0x3e4b1aab	0.19834392
223	0xbfbdb631	-1.4821225
224	0xbf1544ea	-0.5830828
225	0xbfb32466	-1.3995483
226	0x3d8eb77c	0.069685906
227	0xbdc85e6a	-0.09783633
228	0x3e6e7f18	0.2329067
229	0xbf83cf8d	-1.0297714
230	0xbdd38702	-0.10328485
231	0x4047b74b	3.1205623
232	0x3f5053c8	0.8137784
233	0x401351b1	2.301861
234	0xbfe1a635	-1.7628847
235	0xbd6bbcb0	-0.057552993
236	0xbf14e4cd	-0.5816162
237	0x3fb053e8	1.3775606
238	0x3f1c009d	0.60938436
239	0xbc907798	-0.017635152
240	0x3f3805d7	0.7188391
241	0x3df46f62	0.11935307
242	0x3dc5f9e6	0.09666805
243	0x3fda1a79	1.7039329
244	0x3eb2d66c	0.34929216
245	0x3ee4d6f2	0.4469524
246	0xbd747030	-0.059677303
247	0xbdea2756	-0.11433284
248	0x3cada919	0.021198796
249	0xbfd04eae	-1.6274011
250	0x3f388bcf	0.7208833
251	0xbdcd5798	-0.10026473
252	0xbf9ba325	-1.2159163
253	0xbf8e52d1	-1.1119024
254	0x3f1a0e0f	0.601777
255	0x3d34fb48	0.044184953

fc2.bias f4 [25]
0	0xbe952cbe	-0.29135698
1	0x3d2aade3	0.041669738
2	0xbcff3478	-0.031152949
3	0x3f376324	0.7163565
4	0xbe21375f	-0.15743779
5	0xbd4ef2b6	-0.050524436
6	0xbdeff354	-0.11716333
7	0xbd4f09bb	-0.05054639
8	0x3dc09501	0.0940342
9	0xbbcaacf3	-0.006185168
10	0xbde3b17f	-0.11117839
11	0xbd81bc9f	-0.06334805
12	0xbc71289f	-0.0147191575
13	0x3d257dc6	0.04040315
14	0x3e18b30a	0.14912048
15	0x3e8791c1	0.2647839
16	0xbdea70db	-0.11447307
17	0xbdf0a6c6	-0.117505595
18	0xbe077630	-0.13228679
19	0xbeb936d6	-0.3617465
20	0xbed83152	-0.42225128
21	0xbe07b365	-0.13252027
22	0xbe3a498b	-0.18192117
23	0xbcc3c9f3	-0.023900008
24	0xbdc42b31	-0.095785506

fc3.weight f4 [4733, 25]
0	0xc0a7f442	-5.2485666
1	0xc096a51f	-4.7076564
2	0xbfad6c88	-1.3548746
3	0xc0f7171b	-7.7215705
4	0xc0ddc650	-6.930458
5	0xc08441a3	-4.1330123
6	0xc0cb89cc	-6.360571
7	0x3d8d9bd3	0.06914487
8	0xc09d9ae1	-4.925156
9	0xbfef824a	-1.8711636
10	0xc08a7383	-4.3266006
11	0xc0daf689	-6.8425946
12	0xc0300db3	-2.7508361
13	0xbfa0d3b2	-1.2564604
14	0x3e2cf79d	0.16891332
15	0xc0863567	-4.194019
16	0x3dabcc4b	0.08388575
17	0xbe3ea1f3	-0.18616466
18	0x3e075923	0.13217597
19	0xc04c70d1	-3.1943858
20	0xc0272207	-2.6114519
21	0xbd07a88b	-0.03311972
22	0xc0f7eaf2	-7.74743
23	0xc0a097fb	-5.0185523
24	0xbfdf018f	-1.7422351
25	0xc168a4d4	-14.540241
26	0xc0a8fde8	-5.2809944
27	0xbe888427	-0.26663324
28	0xc00dbc98	-2.2146358
29	0xc080abbb	-4.020963
30	0xc12672b6	-10.403006
31	0xc0dc7480	-6.889221
32	0x3d83f795	0.06443707
33	0xc1c3d3d7	-24.478437
34	0xbf3ecd81	-0.74532324
35	0xc109f71f	-8.622832
36	0xbfe7765a	-1.8082993
37	0xc17cf78a	-15.810434
38	0xc0425e3e	-3.037002
39	0xbea4a643	-0.32158098
40	0xc023bb3b	-2.5583026
41	0x3e157101	0.14593889
42	0xbd7daafa	-0.061930634
43	0xbe3ba1f5	-0.183235
44	0xc139a571	-11.602891
45	0xc13acea6	-11.675451
46	0xbe64f9fd	-0.22360988
47	0xc011ad0b	-2.2761867
48	0xbfd927dd	-1.696529
49	0xbf4cfc9e	-0.80072963
50	0xc09f8ed7	-4.9861865
51	0xc096fe07	-4.718509
52	0xbfa1cd1b	-1.2640718
53	0xc0f46407	-7.6372104
54	0xc0e223f4	-7.066889
55	0xc084487c	-4.133848
56	0xc0ce78e5	-6.4522576
57	0xbe27f676	-0.16402611
58	0xc09b18f5	-4.8467965
59	0xbff9c4e3	-1.951321
60	0xc090e144	-4.5274982
61	0xc0d1d61a	-6.5573854
62	0xc01e6a7a	-2.4752488
63	0xbfad795d	-1.3552662
64	0xbcdb3416	-0.026758235
65	0xc08106fe	-4.0321035
66	0xbd58587f	-0.05281877
67	0x3e07fb9d	0.13279577
68	0xbdcd010a	-0.10009964
69	0xc04bc60d	-3.183963
70	0xc03de7da	-2.967276
71	0xbe1bc746	-0.15212736
72	0xc0f4c843	-7.649446
73	0xc0980699	-4.7508054
74	0xbfd78f53	-1.6840614
75	0xc0a235b3	-5.069055
76	0xc0989ed2	-4.7693872
77	0xbfc1066f	-1.5080088
78	0xc0ee60a2	-7.449296
79	0xc0e26e29	-7.0759473
80	0xc08fad59	-4.4899106
81	0xc0ce58fb	-6.448362
82	0xbdca19df	-0.09868216
83	0xc0964f54	-4.6971836
84	0xc0034abd	-2.0514367
85	0xc08dc112	-4.429818
86	0xc0d4cece	-6.6502447
87	0xc02b01eb	-2.671992
88	0xbfac7cef	-1.3475627
89	0xbd11ebc9	-0.035625253
90	0xc085ff1e	-4.187392
91	0x3dc9bf6e	0.098509654
92	0xbe835777	-0.25652668
93	0x3e220e71	0.15825821
94	0xc03f07e0	-2.9848557
95	0xc03320ac	-2.7988691
96	0xbe4befb5	-0.1991566
97	0xc0f17427	-7.5454288
98	0xc0a17be0	-5.0463715
99	0xbfc46726	-1.5343978
100	0xc0a0c23d	-5.0237107
101	0xc09c6588	-4.887394
102	0xbfb270d0	-1.3940678
103	0xc0ee20c5	-7.4415
104	0xc0e57640	-7.170685
105	0xc08c0550	-4.3756485
106	0xc0cd5b52	-6.4173975
107	0x3dba2c45	0.09090475
108	0xc09f4928	-4.97768
109	0xc004d9d1	-2.0757945
110	0xc0933f17	-4.6014514
111	0xc0ddbbb5	-6.9291635
112	0xc0380809	-2.8754904
113	0xbfa85489	-1.3150798
114	0x3c16c68e	0.009202613
115	0xc084806e	-4.1406775
116	0xbdfd1b55	-0.12358729
117	0x3e056f8f	0.13030837
118	0x3c3e1f50	0.011604145
119	0xc03afaf5	-2.9215672
120	0xc037b7b0	-2.8705864
121	0xbe123aaf	-0.14280199
122	0xc0f342a4	-7.601885
123	0xc09dbdc5	-4.929415
124	0xbfd2f23f	-1.6480178
125	0xc0a5f7bf	-5.1864924
126	0xc0946582	-4.637391
127	0xbfa9db9b	-1.3270143
128	0xc0f5545d	-7.6665483
129	0xc0de099e	-6.938674
130	0xc08b5f0a	-4.3553514
131	0xc0cdf74c	-6.4364376
132	0x3d76de6c	0.06027071
133	0xc0967f9f	-4.7030787
134	0xc0013577	-2.0188882
135	0xc0889973	-4.2687316
136	0xc0d15f1f	-6.5428615
137	0xc027b9f5	-2.620725
138	0xbf94095b	-1.1565355
139	0x3e1446ff	0.14480208
140	0xc084cc79	-4.14996
141	0xbd90f3ef	-0.07077777
142	0xbd5d4a8b	-0.054026168
143	0x3e1f4155	0.15552266
144	0xc0475852	-3.1147656
145	0xc0339913	-2.806218
146	0xbde8711d	-0.113497
147	0xc0f29571	-7.5807424
148	0xc09aa954	-4.83317
149	0xbfe2e14e	-1.7725008
150	0xc184db3d	-16.60705
151	0xc00fd3af	-2.2472951
152	0xbf05f02e	-0.5231961
153	0xc0f8d7d5	-7.7763467
154	0xc00cb0e1	-2.1982958
155	0xc14865db	-12.524867
156	0xc02fb251	-2.7452586
157	0xbe69a6c9	-0.2281753
158	0xc0b6aacf	-5.7083507
159	0xbfcbaf84	-1.5912938
160	0xc1871913	-16.887243
161	0xc0490960	-3.1411972
162	0xc033c43f	-2.808853
163	0xbffa4182	-1.9551241
164	0xbd9122fa	-0.070867494
165	0xbf407c9d	-0.75190145
166	0xbe38ac76	-0.18034539
167	0xbdb458e0	-0.08806014
168	0xbe3eb497	-0.18623577
169	0xc13afc79	-11.686639
170	0xbf174bc9	-0.59100014
171	0x3ce6768d	0.028132701
172	0xc016836b	-2.351771
173	0xbfb309bf	-1.3987349
174	0xbefb32bc	-0.49062145
175	0xc01dd4c7	-2.466112
176	0xc061987d	-3.5249321
177	0xbdec5d14	-0.11541191
178	0xc0352c4e	-2.8308291
179	0xc033598d	-2.8023407
180	0xbfb7ae65	-1.4350096
181	0xc01be747	-2.435991
182	0xbeeaa82a	-0.45831424
183	0xbf575333	-0.84111327
184	0xbea5099e	-0.322339
185	0xc0064a90	-2.098301
186	0xc0124ade	-2.2858195
187	0xbfa29bc7	-1.270379
188	0xbf87411d	-1.0566746
189	0xbeef8523	-0.46781263
190	0xc06cccad	-3.6999924
191	0x3d1056bf	0.035238978
192	0x3cf90487	0.030397667
193	0xbcaaeb65	-0.020864198
194	0x3f47839b	0.7793519
195	0xbff21d10	-1.8915119
196	0xbe280da4	-0.16411453
197	0xc02f71c0	-2.7413177
198	0xc0306e66	-2.7567382
199	0xbcceb9a6	-0.025235008
200	0xc09ddd8e	-4.9332952
201	0xc0963d31	-4.6949697
202	0xbfbfab71	-1.4974195
203	0xc0f1ed02	-7.5601816
204	0xc0dee0a7	-6.9649234
205	0xc08e232d	-4.441794
206	0xc0cae301	-6.3402104
207	0x3e082e1a	0.13298836
208	0xc09e3aa2	-4.9446573
209	0xc00052a1	-2.0050433
210	0xc08d1859	-4.409222
211	0xc0d25977	-6.573421
212	0xc024899c	-2.570899
213	0xbf8bde8a	-1.0927289
214	0xbd31a85a	-0.043373443
215	0xc07ea51f	-3.9788282
216	0x3dd6c705	0.10487179
217	0xbe75d637	-0.24007498
218	0x3ca04640	0.019564748
219	0xc03c1ea1	-2.9393694
220	0xc02b00b8	-2.6719189
221	0xbde2ba59	-0.11070699
222	0xc0ec89fb	-7.3918433
223	0xc097507d	-4.728575
224	0xbfdd2a05	-1.7278448
225	0xc09d02cf	-4.906593
226	0xc092b1a2	-4.5841837
227	0xbf98a893	-1.1926445
228	0xc0ed305e	-7.412154
229	0xc0e09af3	-7.0189147
230	0xc0887401	-4.2641606
231	0xc0cd8c5b	-6.423383
232	0xbdd73ad2	-0.10509266
233	0xc09c5dd4	-4.8864536
234	0xbfe49810	-1.7858906
235	0xc08cc507	-4.399051
236	0xc0d7c44c	-6.742712
237	0xc02d1eac	-2.704997
238	0xbf826d40	-1.018959
239	0x3e20c248	0.15699112
240	0xc083b34c	-4.115637
241	0xbe1795bc	-0.14803213
242	0xbe408998	-0.18802488
243	0x3de3e1a2	0.111270204
244	0xc04bd9c2	-3.185166
245	0xc0349d48	-2.8220997
246	0xbd0464c1	-0.03232265
247	0xc0ee008c	-7.4375668
248	0xc0935752	-4.604409
249	0xbfc331c6	-1.5249565
250	0xbffdf130	-1.983923
251	0xc04998e0	-3.1499557
252	0xbc0904a7	-0.008362926
253	0xc0816cdf	-4.04454
254	0xbfade795	-1.3586298
255	0xbf86fa09	-1.0545055

fc3.bias f4 [4733]
0	0xc125c3d1	-10.360307
1	0xc05342c3	-3.3009498
2	0xc127c9a1	-10.486726
3	0xc1280f8d	-10.503797
4	0xc126a0b7	-10.414237
5	0xc1282193	-10.508197
6	0xc07a221e	-3.9083323
7	0xc0933d6d	-4.6012483
8	0xc1297c84	-10.592899
9	0xc12a3be3	-10.639621
10	0xc0872e31	-4.2243886
11	0xc1296fb1	-10.589768
12	0xc08f0e23	-4.4704757
13	0xc12b75ea	-10.716288
14	0xc128fc4a	-10.561594
15	0xc053965f	-3.306053
16	0xc1277a4c	-10.467358
17	0xbff494e8	-1.9107943
18	0xc1267ef9	-10.405999
19	0xc1261c30	-10.381882
20	0xc07610e4	-3.844781
21	0xc126d570	-10.427109
22	0xc12c71e0	-10.7778015
23	0xc072d28c	-3.7941008
24	0xc04d9bcb	-3.2126338
25	0xbf996fba	-1.1987221
26	0xc04a2690	-3.1586037
27	0xbf6800e8	-0.9062638
28	0xc0389856	-2.8842978
29	0xc128fd5a	-10.561853
30	0xc12afbb8	-10.686455
31	0xbf949cca	-1.1610348
32	0xc12867d2	-10.525347
33	0xc1295129	-10.5823145
34	0xc12758f3	-10.459216
35	0xc0918f6b	-4.548757
36	0xc12af874	-10.6856575
37	0xc1285198	-10.51992
38	0xc126e209	-10.430184
39	0xc1270f79	-10.4412775
40	0xc12957d2	-10.5839405
41	0xc004c2ce	-2.07439
42	0xc129818c	-10.594128
43	0xc03d02bf	-2.9532926
44	0xc129d92e	-10.615522
45	0xc0436726	-3.0531707
46	0xbff08ecd	-1.8793579
47	0xc12d4dfe	-10.831541
48	0xc077e16e	-3.8731341
49	0xbf5da5c3	-0.8658106
50	0xc12c2c6a	-10.760843
51	0xc0382e16	-2.8778129
52	0xc12aead2	-10.682329
53	0xbfed97d2	-1.8561957
54	0xc1298535	-10.595021
55	0xc127f781	-10.497926
56	0xc04314b1	-3.048138
57	0xc12a4f86	-10.644415
58	0xbff3d414	-1.9049096
59	0xc12962f2	-10.586657
60	0xc12adc13	-10.678729
61	0xc12797e3	-10.474582
62	0xc128747d	-10.5284395
63	0xc12a5864	-10.64658
64	0xc12c79b8	-10.7797165
65	0xc12ab28c	-10.668591
66	0xc1280f0b	-10.503673
67	0xbf6a31a4	-0.91481996
68	0xc129e44d	-10.6182375
69	0xc12871cf	-10.527785
70	0xc12b208b	-10.695445
71	0xc05503c8	-3.3283558
72	0xc1279e64	-10.47617
73	0xc129b5a9	-10.606851
74	0xc12a2a61	-10.635346
75	0xc12bc13e	-10.734678
76	0xc02a2122	-2.6582723
77	0xc129e243	-10.61774
78	0xc00caf5f	-2.1982038
79	0xc127042c	-10.438519
80	0xc127cc66	-10.487402
81	0xc12aba62	-10.670504
82	0xc12ab3ed	-10.668927
83	0xc12787b2	-10.470629
84	0xc0768817	-3.8520563
85	0xc1278620	-10.470245
86	0xc12a0ef4	-10.628651
87	0xc1276782	-10.46277
88	0xc127af30	-10.48027
89	0xc1282fa1	-10.511628
90	0xc12ab42e	-10.668989
91	0xc128e992	-10.557024
92	0xc12772d8	-10.465538
93	0xc12b50e3	-10.707248
94	0xc12b6640	-10.712463
95	0xc1273f79	-10.452996
96	0xc12b435e	-10.703947
97	0xc12c84df	-10.782439
98	0xc12a3eed	-10.640363
99	0xc12a73f3	-10.653308
100	0xc12aeae7	-10.682349
101	0xc06bad02	-3.6824346
102	0xc126a582	-10.415407
103	0xc128d6e1	-10.552461
104	0xbf931e4a	-1.1493618
105	0xc031c13b	-2.7774189
106	0xc12c1dc4	-10.757267
107	0xc1272bd6	-10.448202
108	0xc12c5158	-10.769859
109	0xc0369a37	-2.8531625
110	0xc03af59d	-2.921241
111	0xc128f0d2	-10.558794
112	0xc12bbaa3	-10.733066
113	0xc12b7604	-10.716312
114	0xc029009e	-2.6406627
115	0xc00fc450	-2.246357
116	0xc12cbad5	-10.795613
117	0xc12a008c	-10.6251335
118	0xc12b9657	-10.724204
119	0xc12b4814	-10.705097
120	0xc12862bc	-10.524105
121	0xc1274f81	-10.45691
122	0xc12c4412	-10.766619
123	0xc12c2284	-10.758427
124	0xc0798f69	-3.899378
125	0xc12a0bc8	-10.627876
126	0xc12809a8	-10.5023575
127	0xc12a3f58	-10.640465
128	0xc002394f	-2.0347478
129	0xc12b6baa	-10.713785
130	0xc1278f27	-10.472449
131	0xc129b13a	-10.605768
132	0xc12977e5	-10.591771
133	0xc128b43d	-10.5440035
134	0xc129aabb	-10.604182
135	0xc03816b9	-2.876387
136	0xc128f215	-10.559102
137	0xc129ec5a	-10.620203
138	0xc12988fe	-10.595945
139	0xc0365578	-2.8489666
140	0xc126d4f0	-10.426987
141	0xc12aad10	-10.667252
142	0xc126e28f	-10.430312
143	0xc02e099e	-2.719337
144	0xc126fffe	-10.437498
145	0xc12a0d82	-10.628298
146	0xc012e62f	-2.2952993
147	0xc12c5d6d	-10.772809
148	0xc127f1b9	-10.496514
149	0xc1284c52	-10.518633
150	0xc12b8ace	-10.721388
151	0xc12b2b39	-10.698052
152	0xc1298666	-10.595312
153	0xc12b6ad4	-10.713581
154	0xc12a8d1c	-10.659451
155	0xc12bfb0b	-10.74879
156	0xbfb9ef4c	-1.4526153
157	0xc1292728	-10.57206
158	0xc01614b0	-2.3450127
159	0xc12a8ad5	-10.658895
160	0xc12b12d0	-10.692093
161	0xc0046d09	-2.069155
162	0xc00ca912	-2.1978192
163	0xc1288ca6	-10.534338
164	0xc126a6d0	-10.415726
165	0xc1292d76	-10.573599
166	0xc0589902	-3.3843389
167	0xc129bc60	-10.60849
168	0xc128abdd	-10.541959
169	0xc12c2e1b	-10.761256
170	0xc12c1ff5	-10.757802
171	0xc12b7149	-10.7151575
172	0xc01f0347	-2.484575
173	0xbfd14267	-1.6348389
174	0xc0401953	-3.0015457
175	0xc127b240	-10.481018
176	0xc128bb47	-10.545722
177	0xc126870d	-10.407971
178	0xc12a346c	-10.637798
179	0xc089059b	-4.2819343
180	0xbfb835f0	-1.439146
181	0xc035919a	-2.8370118
182	0xc00cfeda	-2.203055
183	0xc1282dca	-10.511179
184	0xc1298828	-10.595741
185	0xc12c860d	-10.782727
186	0xc12b5042	-10.707094
187	0xc12bce7d	-10.737912
188	0xc0109486	-2.2590652
189	0xc129719e	-10.590239
190	0xc1295e4e	-10.585524
191	0xc128b0b7	-10.543143
192	0xc127bf7c	-10.484249
193	0xc1295927	-10.584266
194	0xc057e4ee	-3.3733478
195	0xc128c387	-10.547736
196	0xc12a70cd	-10.652539
197	0xc12b3b9d	-10.702054
198	0xc12ac5b8	-10.673271
199	0xc12ab8a6	-10.67008
200	0xc12c0cd6	-10.753134
201	0xc12b1627	-10.692908
202	0xc1275766	-10.4588375
203	0xc12c64b3	-10.774585
204	0xc12a3fa4	-10.640537
205	0xc12a3a19	-10.639184
206	0xc12aae70	-10.667587
207	0xc127d7f6	-10.490225
208	0xc129fce6	-10.624243
209	0xc12c2f47	-10.761542
210	0xc12b350e	-10.700453
211	0xbf988742	-1.1916277
212	0xc12810dd	-10.504117
213	0xbf7e9c1e	-0.99456966
214	0xc127fad8	-10.498741
215	0xc1264ad0	-10.393265
216	0xc12a3769	-10.638528
217	0xbf2a4d0e	-0.66523826
218	0xc0341d20	-2.8142776
219	0xc12abd9d	-10.671292
220	0xc12857bb	-10.521419
221	0xc127949f	-10.473784
222	0xc12a9eef	-10.663802
223	0xc12c189a	-10.756006
224	0xbfd037ca	-1.6267025
225	0xc02d2219	-2.7052062
226	0xc126270c	-10.384533
227	0xc128bd71	-10.54625
228	0xc059f569	-3.4056036
229	0xc1287c6c	-10.530376
230	0xc12a71c1	-10.652772
231	0xc129c8df	-10.611541
232	0xc125cafa	-10.362055
233	0xc1279f45	-10.476384
234	0xbf690654	-0.9102528
235	0xc12c69d3	-10.775836
236	0xc02bd060	-2.6845932
237	0xc1296de4	-10.589329
238	0xc12662fa	-10.399164
239	0xc0422899	-3.033728
240	0xc12743ab	-10.4540205
241	0xc126ea8e	-10.432264
242	0xc12b208c	-10.695446
243	0xc1272e6f	-10.448836
244	0xc126cb39	-10.424615
245	0xc12c58f6	-10.771719
246	0xc12c7891	-10.779435
247	0xc12a74c5	-10.653508
248	0xbff13685	-1.8844763
249	0xbfd23fc5	-1.6425711
250	0xc01a2d53	-2.4090164
251	0xc129f266	-10.621679
252	0xc127b6aa	-10.482096
253	0xc12a9159	-10.660485
254	0xc128ead0	-10.557327
255	0xc1274e07	-10.45655
