Python/RNN/models/model225.pt (torch, 179603 bytes, 10 tensors)

fc1.weight f4 [10, 100]
00000000: 3f20 0f3e 7c12 753f 0f93 933f cbc9 0cc0
00000010: d979 74c0 bc5c ccbf 1f12 4dbf 24fe 323f
00000020: 1ef6 b33e 8aae 47bf f7e6 cc3f eb1d b1be
00000030: 0f85 75bf 0198 6ac0 7be3 3c40 e72c 42c0
00000040: c96c 4abf 25a0 8c3f da13 2540 bbf8 8840
00000050: 2701 acc0 7291 e33f ea2c bc3e 456f 4e40
00000060: dd46 53be bc1d a6bf cc5b e6be b0bd 3ac0
00000070: fbb7 d63f b775 abbe 1cba 853f d9af 44c0
00000080: 57de ac3c 7b99 9e3f 481b bcbf 0ec7 06c0
00000090: ab1b ce3e cd21 2540 9154 c83f 3953 bcbf
000000a0: ba68 55c0 03e8 813e 6dc7 813e 646d bf3f
000000b0: 577e 4e3f d28e 2740 0bde 34c0 05f1 ffbf
000000c0: a3ed c03f e517 29c0 1e7a 403f 7444 9fbf
000000d0: d302 6d40 9d17 25c0 205c 293f c9fc 693f
000000e0: ce2f 8e3f 5e34 c23e dbd2 bcbd 9aee b83e
000000f0: 224d 13c0 c21a 0b40 3824 763f fe69 83bf
00000100: 1428 ae3e ec7b aabe ec28 5abe 31c0 173f
00000110: 4438 5c3f a880 30c0 0b59 003f e9d3 1bbe
00000120: d4c0 5cbf ee04 423d 0a12 96bf ffeb dabf
00000130: 04d1 f9be b2c4 4840 cb56 3cbf ba77 0cc0
00000140: 4f9d 983f 8891 51bf f6e0 22bf f223 883f
00000150: 2f9c 9fbf 5bf8 c73e a0af 1340 5bca 24bf
00000160: dc61 3f3f d1ff 7bc0 f9d3 03c0 c17e 853f
00000170: af76 d7bf bc1b 5540 2797 18c0 7d2b c3bf
00000180: dae1 1b40 9e38 e0bf 2633 e1be cdd5 66be
00000190: e675 a0bd ac4a e33c 0ab3 093d 5abd 743d
000001a0: cec8 7e3d 7a88 89bd f5b6 95bd 81f3 8e3d
000001b0: 3b39 cbbd 4214 babd e78c babd 9034 afbd
000001c0: 404b eb3a e03c 893c b782 b73d 94e3 d93c
000001d0: 4247 0a3d dd53 aa3d ec73 a43c 67eb b2bd
000001e0: 70a0 c9bd 288b 47bc f5d1 aabd 30e8 cb3b
000001f0: ee43 95bd 2d85 2bbd b4b1 ddbc 8a5f 393d
00000200: a015 35bb a6dc 4c3d 6cff 04bd 50d6 603c
00000210: 17cc 5ebd e07d b9bb ffcd 8d3d 4d3e 90bd
00000220: 6035 97bc 7ac4 0bbd f4a3 dabc 50ef 303c
00000230: 1e8b 553d 932f 67bd c440 d63c 6ade 12bd
00000240: 5f40 ba3d 2de5 22bd 173c 5cbd f4b1 c43c
00000250: bef2 90bd 118d 863d 0247 343d 603e a43b
00000260: a7e1 b4bd 5d5e 41bd 00e0 05ba f477 c2bc
00000270: 58e1 223c 02d9 513d 6b8b bc3d 35bd c6bd
00000280: bc33 e53c 52f0 373d 8823 e4bc 5927 ca3d
00000290: 3410 e9bc 1acd b3bd 42aa 1f3d a7ac cc3d
000002a0: d09d 8b3b ac9b aa3c 16a0 563d 202b eabc
000002b0: 99f5 853d 48d9 c9bd d3f1 c73d 682a f0bc
000002c0: 0313 9d3d 04cb f03c e265 1b3d 3af6 3e3d
000002d0: 5aa4 1d3d 4a32 b9bd e06c d8bc 846c ed3c
000002e0: 18ba a6bc 0a50 bdbd 2abc 273d e8d5 2ebc
000002f0: 6191 993d a43e 86bd d623 2b3d f8b1 83bd
00000300: f2d1 6e3d 2f28 9e3d 47fe 58bd 9462 8a3c
00000310: b0d0 7f3c 4247 9cbd b01a c23b eaa4 0c3d
00000320: 771d 12bc b799 963d c4c9 8abd c031 4d3d
00000330: c735 01bc 3dd0 4d3b ce2b a33d ec67 cd3d
00000340: 2bc7 f83c 5422 50bd c25c 36bd 9123 493d
00000350: 702a d0bd ce3f 593c 1411 80bd b972 75bd
00000360: c513 9e3d df7a ba3d 6f55 423d 7305 3ebc
00000370: c827 7b3d 45e4 ff3c 66e2 b4bd 6318 34bd
00000380: 6377 053c 2c62 af3c 745b dcbd 3815 a7bc
00000390: abd7 953c b5da 893d 9e8b a5bd cfbd c7bd
000003a0: ebe1 b13d 21b4 cbbc d01e 743d 17bc 38bd
000003b0: f88d 9fbb 7e99 0b3d 634a ce3b 0523 863d
000003c0: e6f9 4ebd c538 b63d 9431 413d f003 c8bd
000003d0: fe18 3f3d 929d 72bd 66d0 2c3d 682c 023d
000003e0: 6dd5 2c3d c24b 00be e3a8 92bd 1063 f33c
000003f0: 719e afbd 6e95 283c 26b7 9c3d 507e f3bc
0.13977145 0.9573133 1.1529254 -2.1998165 -3.819937 -1.59658 -0.80105776 0.6991904
0.3514871 -0.780007 1.6007985 -0.34593138 -0.95906156 -3.6655276 2.9513843 -3.0339906
-0.7907224 1.0986372 2.5793366 4.2803626 -5.3751407 1.7778761 0.36753017 3.2255414
-0.20632501 -1.2977824 -0.4499191 -2.9178276 1.6774896 -0.33488247 1.0447421 -3.073233
0.021102114 1.2390589 -1.4695826 -2.1058993 0.40255484 2.580188 1.5650808 -1.4712898
-3.334517 0.25372323 0.25347462 1.4955258 0.8066153 2.618092 -2.8260524 -1.9995428
1.5072521 -2.6420834 0.75186336 -1.2442765 3.7032974 -2.5795662 0.66156197 0.91401345
1.1108339 0.37930578 -0.09219905 0.3611954 -2.3015828 2.1735082 0.96149015 -1.0266721
0.34014952 -0.3329767 -0.21304673 0.59277636 0.86023355 -2.7578526 0.5013587 -0.15217556
-0.8623173 0.047367983 -1.1724255 -1.710327 -0.4879228 3.1370053 -0.73569936 -2.1948075
1.1923007 -0.8186269 -0.63624513 1.063597 -1.2469538 0.39056668 2.3075943 -0.6437127
0.74758697 -3.9374888 -2.0598128 1.0429307 -1.6833094 3.3298178 -2.3842256 -1.5247647
2.43566 -1.7517278 -0.43984336 -0.22542496 -0.07834987 0.027745567 0.03361801 0.059750892
0.06220322 -0.06715484 -0.07310287 0.069800384 -0.09923025 -0.09085895 -0.09108906 -0.085549474
0.0017951503 0.01675266 0.08960479 0.026597776 0.033759363 0.08316777 0.020074807 -0.08736306
-0.09845054 -0.0121791735 -0.083408274 0.0062227473 -0.07288347 -0.041875053 -0.027062275 0.04525713
-0.0027631298 0.050015114 -0.03247015 0.013722971 -0.054393854 -0.0056607574 0.06924056 -0.07043133
-0.018458068 -0.03412292 -0.026689507 0.010799244 0.052134626 -0.056441855 0.02615393 -0.03585664
0.09094309 -0.03976934 -0.053768244 0.024010636 -0.070775494 0.06569875 0.04401303 0.0050123185
-0.08832102 -0.047209132 -0.0005106926 -0.023738839 0.009941421 0.051232345 0.09206279 -0.09704057
0.02797877 0.04490692 -0.027848974 0.09870786 -0.028450109 -0.087793544 0.03898073 0.09993868
0.004260756 0.020826183 0.052398764 -0.028585017 0.06540985 -0.09855896 0.09762921 -0.029317096
0.07669642 0.02939368 0.03793896 0.04662154 0.038486816 -0.09042795 -0.026419103 0.028982408
-0.020352408 -0.09243782 0.04095093 -0.010671116 0.07498432 -0.065549165 0.041782223 -0.06430429
0.05830569 0.07722508 -0.052976873 0.016892709 0.01561372 -0.07630779 0.0059235916 0.03433696
-0.008918158 0.073535375 -0.06776765 0.050096273 -0.007886357 0.0031404637 0.079673395 0.10029587
0.030368408 -0.050813988 -0.044522054 0.049106184 -0.10164344 0.013259841 -0.062532574 -0.05992386
0.077186145 0.09105467 0.047444757 -0.011597979 0.061317235 0.031236777 -0.088322446 -0.04396857
0.00814614 0.021409117 -0.10759631 -0.02039586 0.018291315 0.06731168 -0.080832705 -0.09753
0.086856686 -0.024866166 0.059599698 -0.04510125 -0.004869219 0.03408193 0.0062954887 0.06549648
-0.05053129 0.08897547 0.047166422 -0.09766376 0.046654694 -0.059232302 0.04219093 0.03178063
0.042195726 -0.125289 -0.07161119 0.029710323 -0.08575142 0.010289533 0.0765212 -0.029723316

fc1.bias f4 [10]
00000000: 7e39 b53e d001 38bd 4769 0dbd 754b 043f
00000010: f2d9 8c3e e5fe c5bd cc17 373e d426 a0bc
00000020: 68b5 253f 2cd0 0ebd
0.35395426 -0.044923604 -0.03452423 0.5167764 0.2751003 -0.09667758 0.17880172 -0.019549765
0.6472993 -0.034866497

attention.weight f4 [10, 2000]
00000000: 2d22 25bc 4cf0 28bc 8726 973c f066 cbba
00000010: 70d3 563b befd 98bc 70d7 e1bb 1eff 1dbc
00000020: e209 3b3c 3640 3e3c ff88 4abc 7fb4 ad3c
00000030: b662 1d3c 0ea5 493c fdb6 8f3c 70e8 f03b
00000040: 7207 743c 1c7e e93b d35a 963c 1d37 843c
00000050: 5845 093b f7f4 8b3c fb1d a03c 93e8 843c
00000060: 2072 6d3b 4097 48bb 6899 203b 74b6 adbb
00000070: 2c4b b4bb e05c e3bb 0832 fb3b c81d 7fbb
00000080: 28e4 43bb 79e9 b6bc aae7 273c 94b0 f03b
00000090: caf9 f6bb 6398 8c3c bcf0 c73b 03b4 8e3c
000000a0: 2df2 b53c 88e0 793b d437 4dbc b926 8ebc
000000b0: 9653 493c 9892 063c 8c75 dbbb eab8 8dbc
000000c0: f2ff 4b3c 6d6f a63c 3f6b af3c f32e 08bc
000000d0: a1ff 84bc 40df 783a 5651 553c 7438 c63b
000000e0: b4c3 5cbc c0b3 cdba d168 89bc e865 0d3b
000000f0: d06a a73b d1fa 2ebc 0b16 04bc 20c0 b13b
00000100: 6a5b 463c 613b 48bc 6260 7b3c 50c0 a03a
00000110: 8084 563b 6e2c 8fbc 7066 c9ba c4f5 e43b
00000120: 10c4 d4bb 9d4f 31bc b086 023b ac3f 923b
00000130: 88b2 343b 683e 153b ea36 aabc 59c0 b53c
00000140: 58cd 593b 001e b539 c1a2 aebc 4486 f03b
00000150: d845 b13b 0e68 87bc 5599 833c c06b ffbb
00000160: f0ce aa3b bafe 7b3c e4e3 bfbb e182 983c
00000170: b864 93bc 6084 943a c806 653b fc8e d6bb
00000180: 117a 4bbc 2c8e 0cbc e361 a13c cb5a 9fbc
00000190: 533a 96bc 6c87 c0bc 317d 2cbc 5874 aa3d
000001a0: c85d 9bbc 1e4b 0dbc 8af8 a43d 399d 53bd
000001b0: 6db1 023c ab8a 803d ae21 6e3c 4f6d b33b
000001c0: d65a 66bd 8c72 4e3d 3189 a53c 5165 60bb
000001d0: 9c36 7e3b 353f 87bc e183 a7bc 1554 8dbc
000001e0: 8e87 943d a7b0 c93c 8db1 ac3c a346 e73c
000001f0: 3e08 8fbd 10f3 53bd 0bc7 d3bc 70fa 94bc
00000200: ad22 2bbd 8555 1f3c 97ec 8a3d f71c a5ba
00000210: 00c8 a43c 3c6e 18bd 5fbb 54bd 406f acbd
00000220: 8f94 d43d 9e55 dfbb f9c9 59bc 3a89 b4bb
00000230: 75e4 873d 0ae2 83bc 539c 573c abce 22bd
00000240: 1ad4 df3b b574 78bd 044f 3cbd 78f5 9f3d
00000250: 6ccc dabd 9ffa c7bc 2635 9cbd fc88 5fbd
00000260: 65ba 8f3d 97be c2bd 0fb5 553d 58f8 733c
00000270: 135a 7a3c 1f0f 2f3c deba 50bd 0065 003c
00000280: cfb2 483d d9cd 693a 385a a73c ab99 77ba
00000290: 870e a8bc 23be a93d 6341 c1bd ffb4 743d
000002a0: 4326 d53b 35f0 38bd f2d4 933d 9f73 153c
000002b0: e5c8 333d e4fd 253d d5b0 33bd b79d 063d
000002c0: e174 69bd 5c8d d2bd 4fa2 74bd 658c 303d
000002d0: ffdb c2bb 9948 543d ec04 8dbd ec4b a1bd
000002e0: 1b21 953c 3887 583d ca21 88bd 5ab9 863c
000002f0: b8fd 84bd b993 c73d 536d 893d a510 83bd
00000300: 63ee adbd d2d2 873b 4d75 7b3d 06e2 9c3c
00000310: 6ac4 babd a7b9 01bc 9685 5abd 86d6 27bc
00000320: 9c2f 08bc 9fc3 80bc 57cd 6c3c 573a 83bd
00000330: 0f41 063c 88e8 313d ea8d ad3c 24dd 45bc
00000340: 1375 043c c5f2 7ebc dff2 0c3c 151f 643d
00000350: cf1a b13b 9459 9d3c a255 7f3d b4a1 453d
00000360: cf90 88bb 1443 5d3c fa85 533c 3cf0 8d3d
00000370: 43ae ce3a 6560 86bb 3e13 993d a2ab 21bc
00000380: 8bd1 843c df32 4bbd d0df a13c a7ee 6dbd
00000390: 661f 593d 3429 93bd 40d3 863d f2af 90bb
000003a0: c056 43bd 233c 813d f182 193c 6a60 383d
000003b0: 03bf 853d 8085 4a3c c7f9 403d 4db5 aa3c
000003c0: c74b 8f3c 77c4 3cbc 3e2e 7c3c 3ca4 7e3b
000003d0: 5cf3 3abd 1d17 b73b f86f a2bb 3b91 77bc
000003e0: 486e fbbb da2f 82bc a987 543c 3118 a33d
000003f0: 9963 7f3c d2f2 fd3b 936c 6cbc 3d29 1bbc
-0.010078949 -0.0103111975 0.018450988 -0.0015518349 0.0032779835 -0.018675681 -0.006892137 -0.009643344
0.01141593 0.011611989 -0.012361764 0.021204231 0.009606054 0.0123074185 0.01754331 0.0073519275
0.014894353 0.007125629 0.018353855 0.016139561 0.0020945873 0.017084582 0.019545546 0.016224181
0.0036231354 -0.003060773 0.00245055 -0.005301291 -0.0055021252 -0.006938562 0.0076658763 -0.0038927663
-0.002989063 -0.022328125 0.010248104 0.0073452685 -0.0075371014 0.017162507 0.006101696 0.01741982
0.022210205 0.0038128216 -0.0125255175 -0.017352449 0.012287995 0.008213662 -0.0066973623 -0.017300088
0.012451159 0.020316804 0.021413444 -0.008311975 -0.016235175 0.0009493716 0.01301988 0.00604921
-0.013474394 -0.0015693828 -0.016773613 0.0021575633 0.0051091686 -0.0106799165 -0.008061896 0.0054245144
0.012106756 -0.012221188 0.015342804 0.0012264345 0.0032732785 -0.01747724 -0.0015365612 0.0069873054
-0.006493099 -0.010822204 0.0019916706 0.0044631567 0.0027572233 0.0022772793 -0.020778138 0.022186445
0.0033233967 0.00034545362 -0.021317841 0.0073402245 0.0054099374 -0.01652911 0.016064325 -0.007794827
0.005212657 0.015380556 -0.005856024 0.018617095 -0.017992362 0.0011330955 0.003494667 -0.006547807
-0.01241924 -0.008578818 0.019699996 -0.019452473 -0.018338358 -0.023502074 -0.010527895 0.08322972
-0.018965617 -0.008623866 0.080552176 -0.05166361 0.007976872 0.06276449 0.014534397 0.005475677
-0.05623897 0.05040221 0.02020702 -0.0034240077 0.0038789874 -0.016509632 -0.020448627 -0.017252007
0.072524175 0.024620367 0.021080757 0.028231924 -0.06983994 -0.051745474 -0.025851747 -0.018185824
-0.041781116 0.009724979 0.06783407 -0.0012597133 0.020114899 -0.037214503 -0.051936503 -0.08419657
0.10379898 -0.0068156263 -0.013292783 -0.0055095227 0.066353716 -0.016098995 0.013159829 -0.039747875
0.0068307044 -0.060658175 -0.045973793 0.07810491 -0.10683522 -0.024411498 -0.07627325 -0.054573998
0.07017974 -0.095090084 0.052174624 0.014890753 0.015280264 0.0106847575 -0.05095946 0.00783658
0.04899865 0.00089189183 0.020428762 -0.00094452006 -0.02051474 0.08288219 -0.094363 0.059742924
0.0065048053 -0.045150954 0.072183505 0.0091218045 0.04389276 0.040525332 -0.043869812 0.032865252
-0.05699623 -0.102808684 -0.059725102 0.04310264 -0.0059466357 0.051827047 -0.068857044 -0.07875809
0.018204262 0.05286333 -0.0664707 0.016445804 -0.064937055 0.09744973 0.06710305 -0.06399659
-0.08492734 0.004145005 0.061391164 0.019150745 -0.09119494 -0.007917798 -0.053350054 -0.0102440175
-0.008312132 -0.01571828 0.014453254 -0.06407612 0.008194222 0.04343465 0.021185834 -0.01207665
0.008084553 -0.01556081 0.008602827 0.055693705 0.005404807 0.019207753 0.062337525 0.048249915
-0.004167653 0.013504762 0.0129103605 0.06930587 0.0015768487 -0.0041008466 0.07474373 -0.009867581
0.0162132 -0.04960906 0.019760042 -0.058088925 0.05300846 -0.07185593 0.065832615 -0.0044155056
-0.047690153 0.06310298 0.009369598 0.045013823 0.06530573 0.01236093 0.047113206 0.020838404
0.017492188 -0.01152145 0.015391884 0.0038855216 -0.04564224 0.005587472 -0.0049571954 -0.015110309
-0.0076730587 -0.015891958 0.012971797 0.079635985 0.015587711 0.0077498937 -0.014430183 -0.009470281

attention.bias f4 [10]
00000000: 5cc7 95bd f9cb 683e ee1e 893a 9829 0ebe
00000010: e334 adbe 8c0a a93e 7750 903e 27d9 d13e
00000020: e49e 033f f49c bd3e
-0.073134154 0.2273406 0.0010461488 -0.13883054 -0.33829412 0.3301586 0.2818639 0.40985987
0.5141432 0.37033808

attention2.weight f4 [10, 10]
00000000: 1913 6f3e 12df 5fbe 9458 4d3c 627f 183e
00000010: 8353 8a3e 5e1a c13d 6b2f e540 c8cd 143e
00000020: 9bef ca40 ef90 343e 7cc8 0b3e 8c38 8abe
00000030: 2842 81bd 1210 4ebe 0465 bebd 406b 12bc
00000040: 28af 7bbe 65e6 18be e382 103e e0f6 89be
00000050: 608f 55be 7f7f 9bbf 0e0a 32bf 3415 153e
00000060: 9c9b 1840 7b44 963f 954f 80c0 4efc 16bf
00000070: 3d13 943e b0db 2740 7a72 89be a09e 40bd
00000080: 7f76 8fbe c122 83bd 41d8 06bd eacb 95bd
00000090: e630 6fbe fb88 95be cd21 84be 9343 243d
000000a0: 0e89 763e 1fa7 b73f 52c7 8bbe 0ce0 ad3e
000000b0: 893f 263e be48 e33e 3c56 7a3e 29e9 4dbd
000000c0: 4c27 cb3e 47c9 33bf 19c6 943e b4c6 743d
000000d0: 4789 d4bc 80fa 233d a2c2 18be 5a7e bb3d
000000e0: f868 5abd 52f6 82bd c871 61bd 1579 d4bc
000000f0: 58a7 2bbd 63f0 453f 0c97 033f 6cb6 8bbe
00000100: 1968 06bf 3f87 673f f215 d2bf a620 c53d
00000110: 269d f3bf 1140 e8be 1fa5 923e 30b6 8a3f
00000120: 4a87 f63f bba8 4bbe 42ac 0740 46e9 dcbe
00000130: e909 c23f 7dce 59bf 6bf0 e3bf dd29 173f
00000140: 33ea 07be 654e 213f 67f7 5e40 47e2 02bd
00000150: b7b2 81bf a093 74bf f640 e33d 021c b03f
00000160: 9f20 1bbf 7439 993f bf61 923e 00ab 343e
00000170: 3e63 3e3d dddb 343d 5a90 f03d 9800 b9be
00000180: 5109 813d 0d28 a7bc 7553 0fbe 02e7 09be
0.23347129 -0.21862438 0.012533326 0.14892343 0.2701684 0.09428857 7.1620383 0.14531624
6.3417487 0.17633413 0.13650697 -0.26996267 -0.063114464 -0.20123318 -0.09296611 -0.008936703
-0.24578536 -0.14931639 0.1411243 -0.26946163 -0.20855474 -1.2148284 -0.6954659 0.1455887
2.3844976 1.1739649 -4.0097146 -0.58978736 0.28920928 2.6227837 -0.2684515 -0.047026277
-0.28020093 -0.06403113 -0.03292108 -0.07314284 -0.23358497 -0.2920607 -0.25807038 0.040103506
0.2407572 1.4347876 -0.27300507 0.33959997 0.16235174 0.44391435 0.24446958 -0.050271187
0.3967842 -0.70229 0.29057387 0.05975981 -0.025944365 0.040033817 -0.14917997 0.09154959
-0.053322762 -0.06394638 -0.05504015 -0.025936643 -0.04190764 0.77319926 0.51402354 -0.27287614
-0.5250259 0.90440744 -1.6412947 0.09625368 -1.9032333 -0.4536138 0.28641602 1.0836849
1.9260037 -0.19888584 2.1198888 -0.43146724 1.5159274 -0.850807 -1.7807745 0.59048253
-0.13272934 0.63010246 3.4838502 -0.031954076 -1.0132664 -0.9553776 0.11096375 1.3758547
-0.6059665 1.1970658 0.285902 0.17643356 0.046481363 0.04415499 0.11746283 -0.36133265
0.06300605 -0.02040484 -0.1399668 -0.13467029

attention2.bias f4 [10]
00000000: f153 01bf 57b0 81be 471f 663f 06cb f6bd
00000010: f5fa 5abe f73e 50be 699a aebd b5b0 81be
00000020: be38 a8bf 6c68 89be
-0.5051871 -0.2532985 0.89891475 -0.120504424 -0.21384795 -0.20336519 -0.08525545 -0.2533013
-1.3142316 -0.2683748

fc2.weight f4 [10, 10]
00000000: 0047 e5be 7284 2dbf b45e bf3b fa70 8ec0
00000010: 4caa 9fbf b921 0c3e dbfa 6dc0 809d 983f
00000020: f9a2 d4be e574 1c3f 15d8 0940 846d d83e
00000030: 3d0a a13f e869 a9bf 1aa3 60c0 f58f 1740
00000040: 8dd8 9e3f 1c39 4d40 f603 f3bf af12 913c
00000050: 98e4 9cbf 217b 503e 3a28 6ebb 8bf8 5640
00000060: 9c74 9dc0 458a 1640 4f24 e9c0 381b 653e
00000070: a86e 11be fc73 8040 13c6 373f d3ba 453e
00000080: e5e5 a5bd 0196 a840 4369 9240 1f3e 39bf
00000090: 535d d43f cfcd 01bf 085a dbbf 7c33 5b3f
000000a0: d706 1b3f 08ad 1040 d267 2abf c106 20c0
000000b0: 6f86 0540 c08a 473f dcd0 1140 3b8a 99bf
000000c0: 1211 09c0 5297 e83f 23e0 2d41 977b 1cc0
000000d0: 1c9d 513f e705 4a40 502e 14be f504 0abf
000000e0: f785 aa3f adfe 76be 055f 79be 3ec5 aabd
000000f0: 1337 53bf 2b99 2f3e ba3a 09bf 2216 7040
00000100: f59b 6240 18ef dfbf d926 95be fa60 c93f
00000110: 7736 d93f bf93 a93e 2fb2 9d3f e5c8 833f
00000120: d0fc 2840 0a1d efbf ca9b 43c0 bbaf 883f
00000130: 58c2 79bf e613 e4bc 5d52 4dc0 58c4 f13f
00000140: c397 2a3e 016d 333e 4c4e d63d d6d2 9fbe
00000150: c3db 313d 9582 bdbe c8ec 91be bad5 3b3d
00000160: 43db 2bbe 789f 89be 2258 47c0 e8cb 32c0
00000170: 1e71 cd3f cc42 b43f 23fb 1440 604a 4440
00000180: f236 4bbf 2e39 7fbf fc23 c13e 8388 b33f
-0.4478073 -0.6778022 0.005840147 -4.451291 -1.2473845 0.13684739 -3.718436 1.1923065
-0.41530588 0.61115867 2.1538136 0.42271054 1.258125 -1.3235445 -3.509955 2.3681614
1.2409836 3.2066107 -1.8985584 0.017709104 -1.2257261 0.2035947 -0.0036339895 3.3589199
-4.9204845 2.3521893 -7.285682 0.22373664 -0.14202368 4.0141582 0.7178661 0.19309549
-0.081004895 5.268311 4.5753493 -0.72360414 1.659098 -0.50704664 -1.713685 0.85625434
0.6055731 2.260561 -0.6656467 -2.5004122 2.0863302 0.7794609 2.2783728 -1.199531
-2.141667 1.8171179 10.867221 -2.4450433 0.81880355 3.1566103 -0.14470792 -0.53913814
1.3322133 -0.24120589 -0.24352653 -0.08338402 -0.8250591 0.17148273 -0.53605235 3.7513509
3.5407689 -1.7494841 -0.291312 1.573272 1.6969746 0.33120534 1.2320002 1.0295683
2.6404305 -1.8680737 -3.0563836 1.0678629 -0.9756217 -0.02784152 -3.208152 1.8888044
0.16659455 0.1752205 0.10464153 -0.31215543 0.04342247 -0.3701369 -0.28500962 0.045858122
-0.1678286 -0.26879478 -3.1147542 -2.7936954 1.6050146 1.4082885 2.3278282 3.0670395
-0.79380715 -0.99696624 0.37722766 1.4026035

fc2.bias f4 [10]
00000000: 28a2 223e c515 113f 035d 2240 ba6c 86bf
00000010: caa0 9d3f 10e7 9cbf 594f adbf ea32 473f
00000020: 744b 81be a169 9bbf
0.1588217 0.5667384 2.536927 -1.0501931 1.2314694 -1.2258015 -1.353984 0.77812064
-0.2525288 -1.214161

fc3.weight f4 [2082, 10]
00000000: 5277 10c0 f7aa d4c1 c62f 3cbf 6d5d a8bf
00000010: bc1e bfc1 7f9d 96bf cfa0 cebf 8de7 1bc1
00000020: 60dd 68c1 8f92 c5bf a03a b9be 4cd0 7fc0
00000030: 83d1 09c0 f94a 2bc0 d445 16c0 ad02 11c0
00000040: c29c a7bf da3f 9dc1 8553 86c1 ea12 7fc1
00000050: f586 e8bf 075e 07c1 ad79 01c0 1b6d c4bf
00000060: 0a62 473f 4b15 dabf ff0d a1bf 3d41 3ac1
00000070: c75e 6cc1 a685 d0c0 505c f0bf 5e27 b5c0
00000080: 25b1 b8bf c479 b6bf 24cd 0bc0 d32f 82bf
00000090: 7ac7 62bf e4ce 92c1 624c b1c0 7ee9 2ac0
000000a0: a795 94bf a40e 95c1 d3f7 01bf 09ca c7bf
000000b0: 4271 aec0 91ac 94c1 b808 f6bf 2314 4cc1
000000c0: ecd1 55c1 39a4 d0bf 5207 18c0 e4a6 84c0
000000d0: 1910 65be 7e5d 67c0 4051 7ac0 3c66 a5bf
000000e0: 1606 0ec0 721a b7c1 c886 bbc1 568e 00c1
000000f0: 09b6 6cc0 b501 1ec0 7f08 17bf 81b3 e3bf
00000100: 3078 54c1 d651 86bf 86fe e3bf bf3f b0c1
00000110: 04fc a7c1 354a 36c0 66c5 e93e c5eb 23c0
00000120: dc3b a8bf 35ad 93c1 718a 89c0 ade0 90c1
00000130: 36b6 93c0 62aa 60c1 f78c 26c1 7a38 bcc0
00000140: 5ea2 12c0 f8a6 30c0 7c1f 13c0 b954 8bbf
00000150: 921b 07c0 5e46 84bf c97b 44bf d089 f7bf
00000160: 854c 4dc0 a266 cabf fe8a 23c0 0ece f1c0
00000170: 16e5 03bf 63ca 96bf 31b5 24c1 fadf 29c0
00000180: fe30 f6bf d49e 8dc1 1713 95c1 ce2f 00c0
00000190: 0b53 39c0 58cd 0bc0 75b5 d4bf 000d 84bf
000001a0: 26a9 09bf 1960 b7bf 593c 2bc0 3b38 40c1
000001b0: 6016 aec1 8670 aebf 05fc 09c1 832a 42bf
000001c0: de5e c7c0 4a4a c9c0 4423 9fc0 fa89 a3c0
000001d0: b56a 85c0 3b6b a0be 664e c5bf 26f8 33be
000001e0: e779 343f 02a3 19c1 e96f b1be 5b11 8ec0
000001f0: c458 90c1 3a4c 80c0 f464 bbbf bf2b 0ac1
00000200: 7497 4cc1 e619 1bc1 aeaa fbbf 6898 c2c1
00000210: a78b b3bf 6c02 b9bf 9187 40bf a3c7 cabf
00000220: bb37 c4bf 2289 b0c1 8415 98c1 c602 18c0
00000230: 595c d7bf a810 12c0 739e ebbe 3419 11c1
00000240: 9a07 a7bf e588 d6bf 62eb 8fc1 42f4 78c1
00000250: 6eb3 0fc1 2953 86c0 1131 cfbf 1d00 f1bf
00000260: 5039 0dc0 8dbc 40bf f5a8 02c0 a7c1 9cbf
00000270: dd9c 92bf 78cd 2cc0 4e2e 27c0 fd11 b3bf
00000280: 6d9c 64c0 d4be b7c1 1a6c bbbf b91b 66bf
00000290: 1c7a b7c1 10a6 6ebf 9fd6 a6bf c0ad 10c1
000002a0: a6fd 45c1 4528 bf3e 438f 26c0 88fd 9bc1
000002b0: 6302 2fbf 026e 0cc0 6869 03c1 30cf 94bf
000002c0: a151 28c0 dc7d 44c1 3641 7dc1 a580 63bd
000002d0: 6836 c4bf 8b73 1ac0 70df 07c0 7188 a9bf
000002e0: 4e33 87bf 4ef8 87bf 8139 f0bf 2900 7ac0
000002f0: 0cb4 dfbf 8d89 63bf 8aa8 70c0 5729 14c0
00000300: e7ef 4fbf 4b99 efc0 5990 46c0 2c33 febf
00000310: 08ba 8fc1 318b 06c0 5eec 54c1 ade3 07bf
00000320: 1446 66c1 ffdb 62c0 390a 76bf a7d5 e5bf
00000330: 10b6 46c0 429d b9bf 8cf5 55c0 bf9b 22c0
00000340: f144 64c1 74f7 9fbf c15e 0ec0 69f2 4fc0
00000350: fae2 d6bf d40e b9bf 7e6b b3bf fa0c 8ebf
00000360: 36a3 6bbf bea4 a7c0 3183 d9bf 5283 2ac0
00000370: d904 fbbf 3dbb aabf fba8 00c0 ba5f 25bf
00000380: 453f 07c0 f676 dcbf f6e4 49bf 1ed3 0ec0
00000390: bfb2 93c0 a05e f1bf 2d97 43c1 2112 69c0
000003a0: 0f41 4fbf 1e55 b2bf 905e 87bf c776 8cc1
000003b0: 9576 07c1 0acd fabf 4bc4 8fc0 f9db ccbf
000003c0: 91ec 5cc1 4570 25c1 b2f3 55bf 5f96 13c0
000003d0: 4ce5 0fc0 c68d 94c0 b1c4 1bc0 b22f 34c0
000003e0: e634 f0c0 676e aebf 71e4 6ec1 00ea 3dc0
000003f0: 9c91 bbbe 7807 a4c0 d83f 00c0 744b 55c1
-2.2572827 -26.583479 -0.73510396 -1.3153511 -23.890007 -1.1766814 -1.6142825 -9.744031
-14.554047 -1.5435351 -0.3617754 -3.9970884 -2.1534126 -2.676451 -2.348012 -2.2657883
-1.3094714 -19.656178 -16.790781 -15.942118 -1.8166186 -8.460456 -2.0230515 -1.5345796
0.7788397 -1.7037748 -1.2582396 -11.640927 -14.773139 -6.5163145 -1.8778172 -5.6610556
-1.442906 -1.425591 -2.1843958 -1.0170845 -0.8858563 -18.35102 -5.540574 -2.6705012
-1.160817 -18.632149 -0.50768775 -1.5608531 -5.4513254 -18.58426 -1.9221411 -12.754916
-13.36375 -1.6300117 -2.3754468 -4.1453724 -0.22369422 -3.6150813 -3.911209 -1.2921824
-2.2191215 -22.887913 -23.440811 -8.03475 -3.6986105 -2.4688542 -0.5899734 -1.7789155
-13.279343 -1.0493724 -1.7812049 -22.031126 -20.998055 -2.8482792 0.45658416 -2.5612652
-1.3143268 -18.459574 -4.2981496 -18.109705 -4.6159925 -14.041597 -10.409415 -5.881894
-2.29116 -2.760191 -2.2987967 -1.088523 -2.1110578 -1.0333974 -0.7675138 -1.9338932
-3.2077954 -1.5812571 -2.5553584 -7.556403 -0.5152143 -1.1780514 -10.294236 -2.6542954
-1.9233701 -17.702553 -18.634321 -2.0029178 -2.8956935 -2.1844082 -1.6617876 -1.0316467
-0.53773725 -1.4326202 -2.6755583 -12.013728 -21.760925 -1.362809 -8.624028 -0.7584612
-6.2303305 -6.2903185 -4.973055 -5.110593 -4.1692758 -0.3133181 -1.541455 -0.1757513
0.7049851 -9.602297 -0.34655693 -4.4396186 -18.043343 -4.009305 -1.4640183 -8.63568
-12.786976 -9.693823 -1.9661462 -24.324417 -1.4026994 -1.4453864 -0.7520686 -1.5842174
-1.5329508 -22.06696 -19.010506 -2.3751693 -1.6825057 -2.2822666 -0.46019325 -9.068653
-1.3049195 -1.6760527 -17.989933 -15.559633 -8.981306 -4.1976514 -1.6186849 -1.882816
-2.206623 -0.75287706 -2.0415623 -1.2246598 -1.1454121 -2.7000408 -2.6122012 -1.3989865
-3.5720475 -22.968178 -1.4642365 -0.8988605 -22.934624 -0.9322214 -1.3034247 -9.042419
-12.374426 0.3733541 -2.602494 -19.498795 -0.68363017 -2.1942143 -8.213234 -1.1625729
-2.6299822 -12.280727 -15.828421 -0.055542607 -1.5329103 -2.4133022 -2.1230125 -1.3244764
-1.0562532 -1.0622652 -1.8767549 -3.9062598 -1.7476821 -0.8888176 -3.7602868 -2.3150232
-0.81225437 -7.4874625 -3.1025603 -1.9859366 -17.965836 -2.1022456 -13.307707 -0.5308178
-14.392109 -3.5446775 -0.9610935 -1.7955827 -3.1048622 -1.4501116 -3.343112 -2.540756
-14.266831 -1.2497392 -2.2245333 -3.2491705 -1.6788018 -1.445765 -1.4017179 -1.109771
-0.92045915 -5.23886 -1.6993161 -2.6642652 -1.9610854 -1.333839 -2.0103137 -0.6459919
-2.1132367 -1.7223804 -0.7886499 -2.2316356 -4.6155696 -1.8857002 -12.224408 -3.6417315
-0.80958647 -1.3932226 -1.0575733 -17.557997 -8.466451 -1.9593823 -4.4927115 -1.600463
-13.807755 -10.33991 -0.83574975 -2.306053 -2.2483702 -4.6423063 -2.43388 -2.815411
-7.5064573 -1.3627442 -14.930772 -2.9674072 -0.3663453 -5.1259117 -2.0038967 -13.330921

fc3.bias f4 [2082]
00000000: 08a8 fabf 91bf 02bf edbf 0e3e 818c 1cbf
00000010: 82fe 8fbf 3580 d9bf f8f9 7fbf 79ab 96bd
00000020: 4af0 4fbe bb08 88bc 1295 e3bf 28da d8c0
00000030: 1faa e4bd 5604 3ebe a1f5 99bf 358f 00c0
00000040: eef9 e7bf 2dcb 8bbf 3420 15c0 4aa1 e5bf
00000050: b060 19c0 f0b6 d8bf 36a9 32c0 0840 21bf
00000060: a1ae b5bf afe2 a5bf d77e c1bf ccff 43c0
00000070: 929c f3bf 882f dcbe 733b d1bf d211 dec0
00000080: 7cc9 71bf dbd5 463f 8048 d6c0 a67e dfc0
00000090: 2553 c1bf f33a d0c0 4206 e3c0 bdfa e7bf
000000a0: 0614 443d cc5e e2c0 cf4a 00c0 11ea 533d
000000b0: 5a6f e3c0 f507 61c0 2b1a 72bf 7d08 2fbe
000000c0: 4ca9 d6c0 cb08 e2c0 24e0 d2c0 3a0d 4fbf
000000d0: 22d2 05c0 17a7 7ebf d302 f9be a1ca 58bf
000000e0: c119 8ebf 642b f5bf 03b9 d0bf 2c45 debf
000000f0: db31 1ac0 f987 bdbf 15b0 04c0 5eb0 85bf
00000100: c8eb 10c0 dbb9 a3bf 139e 4bc0 4e44 87bf
00000110: 159b fbbf 9cb4 e2c0 79d8 d8bf d45a 3abe
00000120: 5ef0 77bf af5a 013f c9bf 43bf cc68 eabe
00000130: 2a2f 10c0 84bc 34bf c22b 9ebf d9b8 a23f
00000140: c8c2 e03e cd9f ae3d 6be1 c6bf 2141 98bf
00000150: fe93 c6bf dcac 993c 6646 7e3d f8cb e9bf
00000160: 02ac 0ac0 0d06 033e 1065 4bbd a11b ddc0
00000170: 4d2c dbc0 fc0c 0dbf ca3f dbc0 cf66 d7c0
00000180: f6b0 4ec0 d4ae dac0 87ca 81bf e23c 91be
00000190: bb68 05bf 69aa 5ebe 9996 463d 15eb 9abf
000001a0: 2c70 6fbe 0b80 7cbf 0953 423f 51d0 c8be
000001b0: c5ee 87bf 61c0 ddc0 9c08 d2c0 fc5e d9c0
000001c0: f4e7 e0c0 65aa 61bf 0e2d dbc0 9806 dec0
000001d0: ffdb d3c0 905f 9b3e 2c72 a3bf 54c8 34bf
000001e0: 17bb 03c0 6fb2 92bf 3d85 24c0 60cd c0bf
000001f0: 3888 92bf 3984 59be 8d03 b6bf 74e9 143d
00000200: 4a82 f63d 836a a0bf 701f 38bf 6a09 e83f
00000210: 8f3b cf3c 9646 92bf 3a5d 013e 3cf3 c8be
00000220: 8a86 b1be 34bf 13bf d159 7abf 1476 4fbf
00000230: 4ac5 8bbc cc50 d83e 7316 85be 76b3 4dbf
00000240: 1904 bcbf 6536 03c0 6dc1 d23d c92f 81bf
00000250: 8126 debd 0ea8 4ebf 622f dfbf 3342 b23f
00000260: 84a7 b63e 8e33 303f 71b6 2a3e d2db 9d3d
00000270: dd46 783b 3c1b 74bf a38d f93d 8f1c 943f
00000280: bc75 7a3f 895e e5c0 84fb d9c0 d28b e1c0
00000290: b8b4 2cc0 5de3 d3c0 9c63 dcc0 06f4 32c0
000002a0: 4529 dec0 3dc8 e4c0 771b d9c0 638a dfc0
000002b0: 3d05 e2c0 0d27 d6c0 c882 ebbf 0d50 d8c0
000002c0: e41b d4bf 1e8c dcc0 40f8 e4c0 77d4 86bf
000002d0: 98bd 33bf 3982 99bf 8a77 cbbf ddcf a93f
000002e0: 4b82 7ebe a728 70bf 6d7d c8bf 12de d53e
000002f0: 7053 dcbe ba49 95bf 54a6 243d bd1c 9abf
00000300: f8bc d4bf a948 113f 7aec 04be cb5b 033c
00000310: 8544 d7bf 0a0c eebf 0a58 483e 69b8 a4be
00000320: 8f2f 2abf 4c3a a13e 8a80 6fbe d6d2 443f
00000330: 543b 803f 38e1 8abf 89eb df3e f87c d13d
00000340: 6757 ddc0 975b de3d 1f6a f9be 49b2 7f3e
00000350: 55b0 8fbf b5a5 83bf 5d89 a4bf daf6 463f
00000360: e0e7 6fbf 1374 7abf 2267 2d3e 3b38 98bf
00000370: 5411 203d 55b3 dfc0 b62c e9c0 f0da dbc0
00000380: 949c d7c0 9a00 3bc0 f5b4 8dbf 0562 dcc0
00000390: c794 e5c0 bac2 d4c0 a728 2abf 1e4e afbf
000003a0: 8bef 29c0 6fc6 c3bf b247 01c0 b9b1 f1bf
000003b0: eba0 dcbe f6e7 a1bf 3b5d 79bf 3c95 d9c0
000003c0: ad5e e2c0 dcba 0bc0 cf06 e2c0 64b2 dcc0
000003d0: c71d e4c0 b10e dac0 446a e7c0 fc99 d6c0
000003e0: baa8 31c0 b74e e6c0 1f71 73c0 c4f8 d7c0
000003f0: 0131 e6c0 72fc dec0 a3b4 e5c0 17fd e1c0
-1.9582529 -0.5107356 0.13940401 -0.6115189 -1.1249545 -1.6992251 -0.999908 -0.073569246
-0.20306507 -0.016605726 -1.7779868 -6.7766304 -0.111652605 -0.18556342 -1.2028085 -2.0087407
-1.8123147 -1.0921379 -2.3300905 -1.7939847 -2.3965263 -1.6930828 -2.7915778 -0.6298833
-1.4193918 -1.2959803 -1.5116833 -3.0624876 -1.9032156 -0.43005013 -1.6346267 -6.9396753
-0.94448066 0.7767007 -6.69635 -6.98421 -1.5103499 -6.507196 -7.094514 -1.8123394
0.04787066 -7.074072 -2.004566 0.051736895 -7.1073427 -3.5161107 -0.9457118 -0.17093082
-6.708166 -7.0635734 -6.589861 -0.8087956 -2.0909505 -0.9947371 -0.48634967 -0.8468419
-1.110161 -1.9153867 -1.6306461 -1.736486 -2.409293 -1.480712 -2.0732472 -1.0444448
-2.264391 -1.2791094 -3.181523 -1.056772 -1.9656702 -7.084547 -1.6941062 -0.1819871
-0.96851146 0.50529 -0.76464516 -0.4578308 -2.2528787 -0.7060015 -1.2357104 1.2712661
0.43898606 0.08526573 -1.5537542 -1.1894876 -1.5513914 0.018759184 0.062078856 -1.8265371
-2.1667485 0.12795277 -0.049656928 -6.9096227 -6.849158 -0.5509794 -6.8515368 -6.7313
-3.2295508 -6.8338413 -1.0139931 -0.28366762 -0.5211293 -0.21744694 0.048483465 -1.2102991
-0.23382634 -0.9863288 0.7590795 -0.39221433 -1.0619742 -6.9297338 -6.563551 -6.792845
-7.0283146 -0.88150626 -6.84925 -6.938305 -6.620605 0.30346346 -1.2769217 -0.70618176
-2.058294 -1.1460704 -2.5706322 -1.5062675 -1.1447821 -0.21241845 -1.4219834 0.03635545
0.120365694 -1.2532505 -0.7192297 1.8127873 0.025296954 -1.1427791 0.1263322 -0.39248073
-0.34672958 -0.5771363 -0.977933 -0.8103955 -0.017061848 0.42249143 -0.2599369 -0.8035196
-1.468875 -2.050195 0.10290799 -1.0092708 -0.10847188 -0.8072518 -1.7436335 1.3926452
0.3567468 0.68828666 0.16671158 0.07707943 0.0037884035 -0.95354056 0.12185218 1.1571215
0.978359 -7.16779 -6.8119526 -7.048318 -2.6985302 -6.6215043 -6.8871593 -2.796144
-6.942538 -7.149443 -6.7846026 -6.985643 -7.0631394 -6.692267 -1.8399286 -6.759772
-1.6571012 -6.892104 -7.155304 -1.0533589 -0.7021117 -1.1992866 -1.5895855 1.326656
-0.2485439 -0.9381203 -1.5663277 0.4177099 -0.43032408 -1.1663125 0.040197685 -1.204002
-1.6620169 0.56751496 -0.12980834 0.008017491 -1.6817786 -1.8597424 0.19564834 -0.32171944
-0.6647882 0.3148979 -0.23388878 0.7688421 1.0018106 -1.0849981 0.43734387 0.10228914
-6.916919 0.10857313 -0.48713776 0.24970354 -1.1225687 -1.0284945 -1.285442 0.77720416
-0.9371319 -0.97833365 0.16933873 -1.189216 0.039079025 -6.990641 -7.286708 -6.870476
-6.7378635 -2.9219117 -1.1070849 -6.8869653 -7.1744113 -6.6487703 -0.6646828 -1.3695714
-2.6552455 -1.5294932 -2.020001 -1.8882362 -0.4309152 -1.2648914 -0.97407883 -6.799467
-7.074057 -2.18328 -7.063331 -6.896776 -7.128635 -6.8142934 -7.231722 -6.706297
-2.7759233 -7.1971087 -3.8037794 -6.749117 -7.193482 -6.968316 -7.1783004 -7.0621448
