Python/RNN/models/MODELSLAYER12.pt (torch, 301199 bytes, 10 tensors)

fc1.weight f4 [20, 100]
00000000: 7807 293e c454 053e 153b 043b 487b 0b3e
00000010: 91d5 a4bd 2c82 33bd 0746 0f3e e69a 863d
00000020: f084 d3ba 39d5 063e da2e 88bd 4cf0 d43d
00000030: 8857 f53d 1159 4abd afed 133e 03f9 2b3d
00000040: b14e 8a3d 37cc c43d d5a3 3cbd 2775 cd3d
00000050: 2a8e 393e e798 773e 15f9 713d db04 333e
00000060: 186a 74bd d9aa 12bc 8296 923d 4eca 9b3c
00000070: 22ad 73bd 3720 043c 129e 26bd ef0a a9bc
00000080: 8a55 f7bc 77e7 963d 4597 a33d 0055 a53d
00000090: 18d0 06bc c14f 90bd e880 f7bc 93a4 a8bd
000000a0: c4cb 35bd dd5e e03d cb43 1fbd e481 a73c
000000b0: f816 033d b165 95bc 0735 283e 9308 8e3d
000000c0: 2249 1f3d 44c3 7cbd ad4f d23d 17c9 8f3c
000000d0: 8876 303e 95ee 243e f448 753d e481 e33d
000000e0: fe16 273e 4179 a93d 38a5 8c3d f682 473d
000000f0: a594 033e fa4d e03d faa9 9e3d cff2 b039
00000100: 81ae b33d 4707 b93d b77b 6ebd ef5e a23b
00000110: 69a2 8e3d c7db 8b3c 0fc3 253e 7e06 8e3d
00000120: 45e2 273e 460e ed3d 74b7 0b3e 4e0d 013e
00000130: 5734 293e 2468 673d dbf3 343d ebe4 11bc
00000140: 6d7f 063d d37d 9d3d 2ccb 2e3e de1b a03c
00000150: dd3b 903d 6bb1 ea3d 2dec 543e 040c c53b
00000160: c1d0 4dbc 1aa5 f53d 79af 953c 40e4 2e3e
00000170: 1b47 073e b901 283e 41aa 023e c1a0 ba3c
00000180: e174 213e b04c bf3d 1ef9 463d 8b1c 013e
00000190: 62f8 243d 0776 a23d 8a26 15bd 5809 16bc
000001a0: a571 94bd bda5 a3bd de2f 543d 9afd 663d
000001b0: ae79 5f3d d085 d0bb bc41 87bd 6bdb ca3d
000001c0: bf70 afbd 4503 a8bd 189c 733c 586e 68bc
000001d0: dd0f bebd b9e3 b53d 00cc 9938 fb50 c5bd
000001e0: 1f5b bb3d 50d7 1a3c 6a7a 333d 1800 2abc
000001f0: 90cd 58bc a71e ccbd 901e bbbd 57ef 1fbd
00000200: 45b0 94bd 005a de39 ac20 febc 836a a9bd
00000210: 9294 2e3d 6088 14bd 7813 b8bd cb35 bcbd
00000220: 003f 67bd b97c 8f3d 98ec 6b3c c0f0 a53c
00000230: ba09 04bd eae5 16bd c060 f7ba d2ba 86bd
00000240: 30a3 bbbb 2f11 b4bd 3087 ab3b 407b 4fbd
00000250: 9124 b53d 5865 69bc bd9d 50bd 1a2b 773d
00000260: ea6a 0c3d 4324 52bd 7608 08bd 8068 f1ba
00000270: c8e8 9e3c ee2d 92bd 5205 4a3d 1573 a1bd
00000280: 2888 8bbc 8118 9a3d 7d61 923d 08a1 b3bc
00000290: 203f 95bb 5803 56bc 028f 143d 9dcc 813d
000002a0: e115 843d f3b5 97bd 00b5 703c 32ef 7e3d
000002b0: fdef bc3d d62d 07bd 0004 d3bc 0559 b73d
000002c0: 6adb 243d eadd 66bd c036 71bc 00ee 09bd
000002d0: bdf9 52bd 5fff c5bd d263 583d 380f c1bd
000002e0: 30e7 633c 5b80 863d 2019 f2bc 56ae 97bd
000002f0: 82e8 1b3d b095 e53b 2d33 993d 6068 98bb
00000300: 1150 c03d d465 df3c af7b c4bd a5fe b5bd
00000310: e833 b63c 1f32 823d 4d64 c83d 406a d6bc
00000320: b738 0f3e 5972 e73d ef99 cfbc 92b5 c6bc
00000330: 48f1 973d 30b0 01be f2d7 8d3d 3ce7 d13d
00000340: 7f30 833d 1110 793d 026d f8ba 6b18 113d
00000350: 10a5 db3c 0b17 d33c e826 b93d b6fb ba3d
00000360: 468f 9a3d 67d5 803d f5e8 013e de8b d03d
00000370: 1d1d d53d 3a32 483e 829b 2cbe a949 a23d
00000380: ddcf b23d 82df bd3c 74e9 953d 69be f13d
00000390: 731f 2ebd 0f6d 9b3c 5ee9 003e c4ac 503e
000003a0: 330f 01bc 8a82 f1bc dbae 23bd 5a3f ae3d
000003b0: 2308 833d fa2b 453c f028 17bd 5b04 883d
000003c0: e080 173e 30fe 0c3e cdaf 1e3d 5a6d 5cbd
000003d0: 5797 fb3d aa0b ce3d b992 893d d744 b63d
000003e0: ba3e 2f3d 71ce 26bc 876a b1bd 6854 953d
000003f0: b15a b73d d9c4 9b3d 52ad 9e3d a223 0a3e
0.16506755 0.13020617 0.0020176817 0.13621247 -0.08048547 -0.043825313 0.13991557 0.06572513
-0.0016137641 0.13167275 -0.06649561 0.103973955 0.11979586 -0.049401347 0.14446138 0.041985523
0.067532904 0.096092634 -0.04605468 0.10032111 0.18120638 0.24179421 0.059075434 0.17482321
-0.05967149 -0.008951866 0.07157613 0.019017365 -0.059491284 0.008064321 -0.04067809 -0.020635096
-0.030192155 0.07368367 0.07987837 0.08072853 -0.008228324 -0.07046462 -0.030212834 -0.08234515
-0.04438378 0.10955594 -0.03888301 0.020447679 0.032004327 -0.018236967 0.16426478 0.06935229
0.038888104 -0.061709657 0.10269103 0.017551942 0.17232716 0.16106637 0.059884027 0.11108759
0.16317365 0.082750805 0.068674505 0.04870888 0.12849672 0.10952373 0.07747264 0.00033750242
0.08773518 0.09034591 -0.058223452 0.0049551646 0.06964571 0.017072571 0.1618769 0.06934832
0.16394909 0.11574988 0.136442 0.12602732 0.16523872 0.0564958 0.04417787 -0.008904676
0.032836366 0.07690015 0.17069691 0.019544538 0.07042668 0.11459621 0.20793219 0.0060133953
-0.012561978 0.11994381 0.018272148 0.17079258 0.13210718 0.16406907 0.12760259 0.022781732
0.15767242 0.09340799 0.04857742 0.12608545 0.04027594 0.07932668 -0.036413707 -0.009157501
-0.072482385 -0.079905964 0.051803462 0.056394197 0.054559402 -0.006363608 -0.06604335 0.09905132
-0.085664265 -0.082037486 0.014868759 -0.014186464 -0.092803694 0.08881325 7.3336065e-05 -0.096345864
0.09148239 0.009450749 0.043817915 -0.010375999 -0.013232604 -0.09966784 -0.09136689 -0.03904661
-0.07260183 0.00042410195 -0.031021439 -0.082722686 0.042622156 -0.03626287 -0.08988088 -0.09189948
-0.056456566 0.07006211 0.01439967 0.0202564 -0.03223584 -0.036840357 -0.0018873438 -0.06578602
-0.0057262406 -0.0879234 0.0052346215 -0.05065465 0.08844865 -0.014245354 -0.05093168 0.06034384
0.03428165 -0.051304113 -0.033211194 -0.0018417984 0.019398108 -0.07137667 0.04932148 -0.07883278
-0.017032698 0.07524205 0.07147501 -0.021927372 -0.004554644 -0.013062321 0.036269195 0.06337855
0.064494856 -0.07407751 0.014691591 0.062239833 0.09225462 -0.033002697 -0.025758743 0.08952526
0.040248312 -0.056363977 -0.014722526 -0.03367424 -0.0515077 -0.09667849 0.05282957 -0.09426731
0.0139101 0.065674506 -0.029552996 -0.07406299 0.038063534 0.0070063695 0.07480464 -0.0046511143
0.093902715 0.027270235 -0.09593903 -0.0888646 0.022241548 0.06357216 0.09784756 -0.02617371
0.13986479 0.11301107 -0.025341956 -0.024256501 0.074190676 -0.12664866 0.06925954 0.102491826
0.06405734 0.060806338 -0.0018953385 0.035423677 0.026812106 0.025767824 0.09040624 0.09130041
0.075468585 0.06290703 0.12686522 0.101829275 0.104059435 0.1955041 -0.16856197 0.07924206
0.08731053 0.023177866 0.07319918 0.11803896 -0.04251046 0.018972902 0.12589023 0.20378405
-0.007877159 -0.029481191 -0.039961677 0.08508177 0.06398036 0.012034411 -0.036904275 0.06641456
0.14795256 0.1376884 0.038741875 -0.053815223 0.12284725 0.100608185 0.06717438 0.08899849
0.04278443 -0.010181055 -0.086628966 0.0729149 0.08952845 0.07605905 0.07747902 0.13490155

fc1.bias f4 [20]
00000000: badf 703e 48d2 c0bd d902 473e e10e 7f3e
00000010: 20aa 8cbd 04d1 15bd 3b94 5f3e ebde a5bd
00000020: b684 763c 067a 08bd 4977 863e 19ca af3e
00000030: 2375 973e fe00 8b3e c334 3abd 5795 53bd
00000040: 6779 5dbd c20e 98bd 573a 62bd 3a74 27bd
0.23522845 -0.09415108 0.1943468 0.2490802 -0.06868386 -0.036576286 0.21833889 -0.08099159
0.015046289 -0.033319496 0.26262882 0.34333876 0.29581556 0.27149194 -0.045460474 -0.051656093
-0.054070856 -0.0742469 -0.05523142 -0.040882327

attention.weight f4 [20, 1000]
00000000: c8eb 96bc b4ba fd3c 84cb a2bc 900d f1ba
00000010: 180c d6bc 4052 b2ba d083 23bb e082 7fbc
00000020: 89a4 9abc 289f cfbc 8a3f 6ebc 402c b83c
00000030: b02e ca3c b018 71bc 16c5 43bc f0b4 efbb
00000040: f634 8c3c 2897 c23c a27c 47bc dc38 ef3c
00000050: 2de7 e7bc 70e1 9b3b ccb4 43bc 8048 da3c
00000060: 2cd7 32bc 906a f1bc da29 87bc 6c54 c0bc
00000070: 1ebd 08bc 5a45 05bc e0bd 2c3c f0dd 7abb
00000080: ec45 543c 1ca8 d03c be7c d3bc a081 b83b
00000090: 5a3e e73c 1ee1 f1bc bd66 cdbc 6b08 efbc
000000a0: 3056 3dbc 6802 64bc 99ce 98bc b839 ccbc
000000b0: 5c13 e0bc a658 4fbc 80cf cb39 34ba 7d3c
000000c0: 0074 c53b c43d 55bc d87c be3b 0c8d 8fbc
000000d0: 907a b23b 509f fe3c 1adc ac3c 78c5 563c
000000e0: a6b1 a23c 804f da3b 9aa7 b03c b23f bb3c
000000f0: bac9 f53c 74d2 ba3c 9c3b f03c c8ac e73b
00000100: eae1 b7bc 0e76 4dbc 80f5 9f39 60e3 363c
00000110: c683 a03c 79d2 8abc d20b 893c bccf 513c
00000120: d697 7dbc 4015 073b 4081 f43c 50c8 5f3b
00000130: f829 78bb caef 953c 4cfc 073c 7670 8d3c
00000140: d4c5 eabb a085 cb3b aa38 1dbc 24f2 ca3c
00000150: 0411 633c a4be d7bc 6bd6 e9bc 14cf b5bc
00000160: e205 29bc 7cbd 273c 30ad ddbc 1838 f6bb
00000170: 7c5f 82bc 308f 6ebc e415 0cbc e8ec d93c
00000180: 5c0a b93c 90ef bcba 70e7 71bb 302a 0abc
00000190: d6e1 843c 107c 8f3c f39d a4bc 5e5a 89bc
000001a0: 8b87 95bc 00cc f739 5065 8ebc 7c7b 89bc
000001b0: 049b b43c 7c2e 6a3c da99 4fbc 4a66 c3bc
000001c0: 5806 77bb f8f3 aabc 94fe f0bc 1e91 2dbc
000001d0: c81b 013d e9f3 cabc e4bc 003c 0ad5 ef3c
000001e0: a820 dc3b e0e3 05bb 1e8b 6bbc 906b 263b
000001f0: b874 d6bc 0490 eb3c b800 fd3c e8ce e3bb
00000200: 4fc2 f9bc 38be b33c 78a2 aabb fc44 4cbc
00000210: 68d8 61bc 8462 15bc 40b4 21bc 80bb e43c
00000220: d035 97bb ce68 6cbc f473 b73c 681b ad3b
00000230: 3c5f be3c 83f8 9ebc aecb d33c 783e 9fbb
00000240: 3afc 813c 88d4 c13c b6c8 c9bc 9eb8 e7bc
00000250: 0ad1 823c 20a0 6f3b 1090 a93c b0f2 a6ba
00000260: 80f8 40bc 972d d2bc 2e31 913c 7203 c03c
00000270: 724a 37bc cad7 da3c c0d8 33bc d8f8 07bb
00000280: 5856 28bc 27e9 ebbc 3361 ecbc 6434 7cbc
00000290: ec78 383c 86db 93bc 35bd f0bc f024 793b
000002a0: 5c33 a53c 48eb 273c f03e e5bc 7846 ecbb
000002b0: cef4 34bc bc8a 833c 6889 d93b 64dd f93c
000002c0: 900e 923b 40d2 5b3b 7c38 233c c0c1 c93a
000002d0: d429 b5bb b43a b4bc 603c c83b f1fe aabc
000002e0: 0073 b43b c0ac 083c d025 87bb 2087 6f3c
000002f0: 3023 9b3b e2d8 f23c 8601 e83c c4b6 a23c
00000300: 64e9 d23c 10ec ac3b 987e fb3b b0f5 363b
00000310: fe86 b93c ca2f 38bc 9b89 c0bc 40d5 d83c
00000320: d347 8bbc 2824 023c 5069 c53c ed48 f1bc
00000330: c001 023a 10c5 1f3c e01d 1bba c804 babc
00000340: 923f b73c be63 963c 40d2 6b3b e4ee 8dbc
00000350: 00c6 b03b 3164 c5bc f83f 8c3c 84c8 27bc
00000360: 6044 b83b e82b 51bc 808d b6bb 31b7 c4bc
00000370: f0af 5b3c 9220 e53c 5e85 823c f4c5 ea3c
00000380: 5047 0bbb 902f a1ba 5af8 923c 52dd b5bc
00000390: 8af7 cc3c 3d29 b7bc f848 6ebc 7f95 ecbc
000003a0: 4622 0fbc 4659 903c 98fe 183c 6b1b c9bc
000003b0: 166b 90bc fecf 1cbc 28fa 19bb bc0f c1bb
000003c0: 6075 d3bc a841 83bc 22a7 de3c b090 0f3c
000003d0: f89a 96bc 70ba e7bc c032 8c3c f69f 26bc
000003e0: 20b0 3f3c 8008 d6ba 3243 5fbc 6c7d 5cbc
000003f0: d44f b1bc baa3 b3bc 1edf d5bc d81e 08bc
-0.018422976 0.030972816 -0.019872434 -0.0018390883 -0.026128814 -0.0013604835 -0.0024950393 -0.015595168
-0.018877285 -0.025344446 -0.014541516 0.022482038 0.024680465 -0.014715359 -0.011948844 -0.0073152706
0.017115097 0.023753718 -0.012175711 0.029201917 -0.028308475 0.004757099 -0.011944961 0.026645899
-0.010915559 -0.029469758 -0.016499449 -0.023477755 -0.00834587 -0.0081342105 0.010543317 -0.0038279258
0.012956124 0.025470786 -0.025816318 0.005630687 0.028227974 -0.02952629 -0.025073403 -0.029178819
-0.011556193 -0.013916589 -0.018653201 -0.024929866 -0.027352981 -0.012655413 0.00038873777 0.015486289
0.006025791 -0.013015214 0.0058132224 -0.017523311 0.0054467395 0.031081825 0.021101046 0.013108604
0.0198601 0.006662309 0.021564294 0.02285752 0.030003417 0.02280543 0.029325299 0.0070701577
-0.022446591 -0.012540353 0.00030509755 0.011162609 0.019594084 -0.016946064 0.01672927 0.012805875
-0.015478095 0.0020612031 0.029846787 0.0034146495 -0.0037866812 0.018302817 0.008299898 0.01726554
-0.007164696 0.0062109977 -0.009596029 0.024773665 0.013859037 -0.026336022 -0.028544625 -0.02219347
-0.010316344 0.010238048 -0.027060121 -0.007514011 -0.015914671 -0.014560506 -0.008550141 0.026602224
0.022587948 -0.0014414657 -0.003691163 -0.00843291 0.016220968 0.017515212 -0.020094847 -0.016766723
-0.018253108 0.00047263503 -0.017382294 -0.016782515 0.022046573 0.014293309 -0.012670958 -0.023852486
-0.003769299 -0.020868286 -0.029418267 -0.010593681 0.031520635 -0.024774509 0.007857535 0.02927639
0.00671776 -0.0020430014 -0.01437643 0.0025393702 -0.026178703 0.028755195 0.030884132 -0.0069521554
-0.030488161 0.02194129 -0.005207356 -0.012467619 -0.013784505 -0.009117726 -0.009869635 0.027921438
-0.0046145692 -0.014429284 0.022394158 0.005282808 0.02323877 -0.019405609 0.025853958 -0.004859742
0.015867341 0.023660913 -0.02463184 -0.028286275 0.015968818 0.0036563948 0.020698577 -0.0012737121
-0.011777997 -0.025656505 0.017723646 0.023439143 -0.011187183 0.026714224 -0.01097697 -0.0020747688
-0.010274492 -0.0287977 -0.028854942 -0.01539335 0.011259299 -0.018049013 -0.029387096 0.0038016401
0.020166092 0.0102489665 -0.027984113 -0.007210549 -0.011044694 0.016057365 0.0066386946 0.030501075
0.0044573024 0.0033542067 0.009962197 0.0015392825 -0.005528668 -0.022000648 0.006110713 -0.020873519
0.005506873 0.008341968 -0.0041243806 0.014619619 0.0047344193 0.029644433 0.028321039 0.01986254
0.025746055 0.0052771643 0.0076750033 0.0027917437 0.022647377 -0.011241863 -0.023503115 0.026468873
-0.017002022 0.007943191 0.024098068 -0.029453719 0.0004959367 0.009751573 -0.00059172325 -0.022707358
0.02236918 0.018358108 0.0035983473 -0.017325826 0.005394697 -0.024095627 0.017120346 -0.010240678
0.0056233853 -0.012766816 -0.0055710673 -0.024013134 0.013408646 0.027969632 0.015932735 0.028658845
-0.0021252222 -0.00122975 0.017940689 -0.02220026 0.02502038 -0.022358531 -0.014543764 -0.028879879
-0.008736199 0.017620694 0.009338044 -0.024549207 -0.017629188 -0.009571074 -0.0023495052 -0.0058917683
-0.025812805 -0.016022518 0.027179305 0.0087625235 -0.018384442 -0.028287143 0.017114043 -0.010169974
0.011699706 -0.0016329437 -0.01362686 -0.013457637 -0.02164451 -0.021928657 -0.026107367 -0.008308135

attention.bias f4 [20]
00000000: 00e2 dabb ada1 adbc ec0f e9bb 8f96 7c3e
00000010: b0ab 25bc 1e06 a9bc 01fc 81bc ecc3 e0bb
00000020: 861c 68bc 6793 9dbb 2e84 e03d 9947 813e
00000030: f511 deba 0fe7 6a3e c053 3fbb f6e2 22bc
00000040: a70d 8abc 52a3 bfbc 0c62 caba 77ec fabc
-0.0066797733 -0.021195257 -0.0071124937 0.24666809 -0.010111734 -0.0206328 -0.015867235 -0.006859293
-0.014166957 -0.0048088315 0.10962711 0.25249937 -0.0016942607 0.22939704 -0.0029194206 -0.009941807
-0.016852213 -0.023393307 -0.0015440597 -0.030630333

attention2.weight f4 [10, 20]
00000000: 9057 afbc 09a9 47be 00fb a3bb 1208 f9bd
00000010: 60a9 2cbe 825c d1bd 3060 2b3e 0083 0d3b
00000020: 6089 9d3d 647a f03d a8b9 e73d 1e6f 2bbe
00000030: fcd7 143e 1a53 473e 00f0 2b38 34d7 343e
00000040: 1af6 c2bd e014 3ebc 882d d5bc 5024 0d3d
00000050: e8a1 38be e87f b53d 31f1 08be 9bf4 38be
00000060: 7825 b13c 84bb 31be cf54 f8bd f820 5e3e
00000070: 26ba 373e a893 15be 7881 da3d 128c 023e
00000080: a054 073e 10d9 7abc b803 2a3e d863 8fbc
00000090: 409d 7a3b 7e57 3a3e 3058 ef3c 1897 bbbc
000000a0: e4d4 383e 49b0 2d3e 2c2a 323e c356 d7bd
000000b0: 24ea 1fbe 8025 eb3d d85b 483e 576d 49be
000000c0: a884 203e 028e 0dbe f41d d53d 394b a63d
000000d0: ce03 263e bf06 d0bd 7730 4c3e bc3c 883d
000000e0: d68a 343e c21a 263e f5af 29be 68d6 b83d
000000f0: a840 8ebd e2e8 9abd bd7f 9fbc b173 5e3e
00000100: d098 fe3d 8cef c13d 2218 42be 95d4 31be
00000110: e8e3 e13d eccd d5bd 7b04 bd3d 2a0e b53e
00000120: 47e2 04be 5bc3 a93e 0cb6 083b 2ce0 cb3d
00000130: 6610 0e3e 00b8 e53d 99e1 4bbe a000 863d
00000140: fcdf e83d 78e7 9cbd e645 35be 28d4 a5bd
00000150: 1859 fdbd 0066 a13a bed4 0a3e 14aa 373e
00000160: e4f8 36be b4a8 f23d 5092 86bc 9ab2 a6bd
00000170: 1412 95bd 606a 923d d0ba 91bd 54ad 33be
00000180: a091 82bd 4459 e03d 76e9 003e 9e15 2c3e
00000190: ffdd 1fbe f2cf 0c3e 8246 45be 8c5e 543e
000001a0: 905e f33c 0042 003c fcf2 113e 94db 3abe
000001b0: cf65 27be 7f64 3e3d 1fb7 9bbd 73e1 e43d
000001c0: 6155 e43d cf4a 82bc 432e 1bbe 71c2 edbd
000001d0: 287e c63c fc3a 0fbe 8172 63bd c06b 103d
000001e0: 817e 2bbe 506b 0fbe 4a03 c9bd bcf5 dfbd
000001f0: a845 293e b86d 263d 2a62 a8bd 82f5 81bd
00000200: e849 b23d b811 083d 5d9e 21be 1880 a8bc
00000210: f823 073d 804d f03d c800 113e 5218 41be
00000220: 24fc 13be 4823 ba3d cf5e debd e01d f23c
00000230: 0a4a f2bd 10b9 563c 9ac0 12be f01c 12bc
00000240: 3b32 dfbd 9d38 3fbe ec7f babd a0dc 32be
00000250: 7612 60be ecbd 4c3e cc3d b03d e0bf 22bc
00000260: b0f0 d5bc a0c4 0dbe 2a09 a4bd c2fc 4c3e
00000270: 7af8 513e e0ac 23be 92b0 533e 14ba ad3d
00000280: b601 1b3e 5cdd af3d d6e3 353e e43c fbbd
00000290: a42f 6cbd 0e54 353e 10cc 263c 4862 babc
000002a0: 13ca 31be dafe 18be 9b96 01be 3a2f 3a3e
000002b0: a805 2c3d b61d 9abd 8444 0b3e 9271 3b3e
000002c0: 5026 d33d 8d06 53be 28c8 9b3d 58ac f0bc
000002d0: 80c3 f4bd 1504 713d 5108 5bbe 9655 663e
000002e0: a032 063d d809 553e f90a e6bd 3636 b1bd
000002f0: e0fe 41be c3b2 39bd 8522 bcbc 0910 b43e
00000300: a0a3 1e3e a49c 483e fc87 26be 4c47 923d
00000310: 1710 2ebe 0020 8a3d 090f 033e 3cb3 19be
-0.021404058 -0.19498076 -0.0050042868 -0.121597424 -0.16861486 -0.102227226 0.16735911 0.0021592975
0.07692218 0.11742094 0.11314708 -0.16741607 0.14535517 0.19465294 4.0993094e-05 0.17660218
-0.095195964 -0.011601657 -0.026022688 0.03445846 -0.18030512 0.08862287 -0.13373257 -0.1806206
0.021624312 -0.17356688 -0.12125551 0.21692264 0.17942104 -0.14607108 0.106692255 0.12748745
0.13215876 -0.015310541 0.16602981 -0.017503664 0.00382407 0.18197438 0.029216856 -0.022899196
0.18049961 0.16961779 0.173989 -0.10514595 -0.15616661 0.11481762 0.19566286 -0.19670616
0.15675604 -0.13823703 0.10406104 0.08119816 0.16212389 -0.10157537 0.19940363 0.06652209
0.17631087 0.16221145 -0.16571029 0.0902527 -0.06945926 -0.0756395 -0.01947009 0.2172382
0.124314904 0.09469518 -0.18954518 -0.1736625 0.11029798 -0.10439667 0.0922937 0.3536237
-0.12976943 0.33156857 0.0020860462 0.09954867 0.13873443 0.11216736 -0.19910277 0.06543088
0.11370847 -0.07661337 -0.17702445 -0.08097106 -0.12370509 0.0012313724 0.13557717 0.17935973
-0.17868382 0.11848584 -0.01642719 -0.08139534 -0.07278839 0.07149196 -0.0711571 -0.17546588
-0.06375432 0.10954526 0.12589058 0.16805121 -0.15612029 0.137512 -0.19265178 0.20739192
0.029708177 0.007828236 0.14252847 -0.18247825 -0.1634743 0.04648256 -0.07603287 0.111758135
0.11149097 -0.015904812 -0.15154366 -0.116093524 0.024230078 -0.13987345 -0.05552912 0.03525901
-0.16747476 -0.1400578 -0.098150805 -0.10935542 0.16530478 0.04063198 -0.08221848 -0.06345655
0.08705503 0.033220023 -0.15783067 -0.020568892 0.032993287 0.11733532 0.14160454 -0.18856934
-0.14451653 0.090887606 -0.10857927 0.029555261 -0.11830528 0.013105646 -0.14331284 -0.008918032
-0.108982526 -0.1867394 -0.091064304 -0.17466974 -0.21882042 0.19994324 0.08605537 -0.009933442
-0.026115745 -0.13844538 -0.080095604 0.20018294 0.20504943 -0.15983915 0.20672825 0.08482757
0.15137371 0.08587143 0.17762694 -0.12267473 -0.05766262 0.17707846 0.010180488 -0.022751942
-0.17362241 -0.14940968 -0.12655108 0.18182078 0.04199758 -0.07525198 0.13600355 0.18305042
0.10310042 -0.20607968 0.07606536 -0.029379055 -0.11951351 0.058841784 -0.21389891 0.22493586
0.032763124 0.20804536 -0.112325616 -0.08652918 -0.18944883 -0.045336496 -0.022965679 0.35168484
0.15492105 0.19591004 -0.16262811 0.07142505 -0.16998325 0.06744385 0.12798704 -0.15009779

attention2.bias f4 [10]
00000000: e4aa 4abd 4035 f8bb 65cd 973e a8d0 9a3e
00000010: 91f0 d2bd 5914 9d3e ae47 34be 082d b1bd
00000020: b0b0 4bbe cbee 0a3e
-0.04947938 -0.0075747073 0.2964889 0.30237317 -0.10299791 0.30679587 -0.17605469 -0.08651167
-0.1989162 0.13567655

fc2.weight f4 [10, 20]
00000000: 1fce c63e b8e2 36bd a1ea d53b 8c10 3e3e
00000010: a4de 873d 3eca 23be a1d0 403e ec56 df3d
00000020: 0489 bebd 3e0d 41be 7843 763e bf88 8d3e
00000030: 2875 ad3e fb7f 683e 447b d73c d0c5 2d3d
00000040: 8af4 1e3e 1826 d1bc f268 a5bd 39e8 4abe
00000050: 1fb7 823c 9fbc e3bb 842c ca3e 74d4 a43e
00000060: 303a 103c 2aa1 443e 4f06 883e 0200 25be
00000070: 83b0 4cbc ebb7 cabc 18fe 3e3e 01b9 7a3e
00000080: b9e0 873e 1687 af3d 037b 0bbd 4089 183e
00000090: 3016 ef3c 1944 44be e92a 2e3e 7052 ac3d
000000a0: f5d7 35be 3e27 103e 8865 47be 1861 1e3d
000000b0: 08f8 013d 009e 383d 5312 e7bd 8037 31bb
000000c0: cd44 e4bd bcb8 5bbd ed7f 35be 88c1 253d
000000d0: 9cc0 a6bd 44c3 0ebd e62f 14be 57a3 16be
000000e0: 50f4 aa3d 6253 643e d4c6 ca3d 68f0 493e
000000f0: d97e 893d c2d4 2cbe 8a30 c83e 263c cb3e
00000100: ecdf 8d3d f867 d23c 4722 983d 6078 003d
00000110: 8059 1cbc 0aec b7bd debc 783d 6b26 823e
00000120: e965 683e 90fd a83e 44c3 a73d 97a8 efbd
00000130: 8c83 6bbd 98d0 243d 2b42 47be 08a3 8a3c
00000140: f81e 863e 86ff 163e 6302 c03e 8e8e ae3e
00000150: 3a1a 37be d084 e93d 7658 3a3e 5630 243e
00000160: 101d f7bd c743 4b3e 4db1 043e 1741 7e3e
00000170: 9f77 c73e 6ade a03e 49c6 a9bc 904d 3abd
00000180: f063 98bd 74cf 0bbd 1a6c 2f3c bcb5 8fbd
00000190: 24bb 2c3d aeec 12be 4015 00bd ad1c 7cbd
000001a0: 0801 2bbe 4861 d5bc ffe0 4c3e 3098 eb3d
000001b0: a00c 743e 932c fc3d 0c18 f03c ab3b 943e
000001c0: 5729 9f3e f15f aa3e 0e7b c3bd d268 abbd
000001d0: 506a a83d 54bf 223e 3717 92bd 9c8a 063e
000001e0: 7a74 783e e379 bd3d 3a9c 823e 61b0 a13b
000001f0: f2e3 383e 80f0 e93c d8ff 1a3e a061 043c
00000200: c801 4cbe 9602 c83c bfbb 183e 13f9 c03e
00000210: 2eb8 ca3e 632f 4c3d 5db7 2fbd c143 5fbe
00000220: 4c67 a63d 701e 82bc 8e2c 9e3d 9c52 c93d
00000230: e433 21be 04df 5b3e 959f fabd 4898 1c3e
00000240: 60ba 4b3c ccd9 33be 48c7 5e3d 4065 a33d
00000250: 8668 4b3e 9c0c 9b3d f087 fc3c f01b fbbc
00000260: 1aa4 613e a475 45be e6be 033e 2690 b2bd
00000270: fcec 17bd 3661 a1bd 4049 273d 363e 323e
00000280: 3033 bcbc cc43 8d3d 4ab1 123e ec08 29bd
00000290: d857 22bd 49f5 4fbe 3480 4f3e cf08 4dbe
000002a0: 3851 4dbc 8674 41bd e654 873c 49b7 e1bd
000002b0: 118f 353d c02a bd3c 2b41 0dbc 00ad 3cbd
000002c0: 7013 3d3d 3c80 27be c8da 513e 80b6 c93d
000002d0: cac5 f33d 7234 423e 6234 87bc 5dc2 a63e
000002e0: 169b edbd 12bf dcbd dd85 a0bd 186f 1fbd
000002f0: a30f 353e 054b 27be e442 063e e82d 063e
00000300: ecec 873e 0276 283e 116c 9dbd d8a9 433e
00000310: e8f0 debc 0c45 67bd 8dab ba3b 3019 6e3c
0.38829133 -0.04464981 0.006528214 0.18561 0.06634262 -0.15995118 0.18829586 0.10905251
-0.093034774 -0.18852708 0.24049175 0.2764339 0.33878446 0.2270507 0.026303895 0.042424977
0.15522972 -0.02553086 -0.08076657 -0.19815148 0.01595646 -0.0069499756 0.39487088 0.3219334
0.0088029355 0.19202104 0.26567313 -0.16113284 -0.012493256 -0.024745902 0.18651617 0.24484636
0.26538637 0.085706875 -0.03405286 0.14896107 0.029185385 -0.19166602 0.17008556 0.08414161
-0.17758162 0.1407747 -0.19472325 0.038666815 0.03173068 0.045072556 -0.11282792 -0.0027041137
-0.11145935 -0.053642973 -0.17724581 0.04046777 -0.08142206 -0.03485419 -0.14471397 -0.14710747
0.0834738 0.22297433 0.09901205 0.19720614 0.067136474 -0.16878036 0.39099532 0.39694327
0.06927475 0.025684342 0.07428413 0.0313648 -0.009542823 -0.08980568 0.060726993 0.25419936
0.22695126 0.33005953 0.08191541 -0.11702078 -0.0574985 0.040237993 -0.19458835 0.016923442
0.26195502 0.14745912 0.3750182 0.34093136 -0.17881098 0.11402285 0.18197808 0.16034064
-0.1206609 0.19850074 0.1295826 0.24829517 0.3895845 0.31419688 -0.020724433 -0.045484126
-0.074409366 -0.03413339 0.010706926 -0.07017085 0.04217066 -0.14348099 -0.031270266 -0.061550785
-0.16699612 -0.026047364 0.20007704 0.11503637 0.23832941 0.12313189 0.029308341 0.28951773
0.31086227 0.33276322 -0.09544955 -0.08369602 0.082234025 0.15893298 -0.07133334 0.13138813
0.24263182 0.09251764 0.25509816 0.004934356 0.18055704 0.028557062 0.15136659 0.008079916
-0.19922554 0.024415296 0.1491537 0.3769003 0.39593643 0.04984988 -0.04289948 -0.2180319
0.08125171 -0.015883654 0.07723342 0.098302096 -0.15742451 0.21471792 -0.12237469 0.15292466
0.012434572 -0.17563552 0.05438927 0.07978296 0.19864091 0.075707644 0.030826539 -0.03065297
0.22035256 -0.19283158 0.1286579 -0.087189004 -0.03709124 -0.0787987 0.04084134 0.17406544
-0.022973627 0.06897697 0.14325443 -0.041268274 -0.039634556 -0.20308413 0.2026375 -0.20022891
-0.012531571 -0.047230266 0.016519975 -0.11021287 0.044325892 0.023091674 -0.008621494 -0.046063423
0.046161115 -0.16357511 0.20493615 0.09849262 0.1190296 0.18965319 -0.01650447 0.32570162
-0.11601846 -0.10778631 -0.078380324 -0.038924307 0.17681746 -0.16337211 0.13111454 0.1310345
0.26547945 0.16451266 -0.07686628 0.19107759 -0.027214482 -0.056462333 0.00569672 0.014532372

fc2.bias f4 [10]
00000000: a343 973e 3602 333e fa43 24be b0e1 123e
00000010: 4634 453e 5699 d63d 1371 b23e 41c9 34be
00000020: 4af6 e7bc 88b4 9e3e
0.2954379 0.17481312 -0.16041556 0.14343905 0.19258222 0.10478465 0.34851894 -0.17654897
-0.028315682 0.3099711

fc3.weight f4 [4733, 10]
00000000: 2009 08bc e2d8 9fbe dbb0 40bd 60c6 68bd
00000010: 6a3d 4fbe 141b 1cbe e3cf 84be 5a5e 6e3e
00000020: fccf 89bc c9f2 0e3e aeb3 20be e14c 1ebf
00000030: f548 92be f2a8 5abe f2ea a2be 0e0f c5be
00000040: 0095 96be 4801 703d e84a 54be dde6 4f3d
00000050: 10a7 01bf f165 8abf 2aec f2be 21d2 70bf
00000060: e77f 97bf 5a34 33bf 306b 04bf 7022 64bd
00000070: 0a46 a6be a5e5 4cbf 4e37 88bf 5f11 63bf
00000080: b81b 93be 0166 09bf 9464 3abf 718a 07bf
00000090: f9cc 0bbf c6aa 6c3e a691 d2bd 15fa 67bf
000000a0: e64c 17bf 11df 45bf 7716 45bf 5301 59bf
000000b0: 7885 9fbf f98e 76bf 1966 23bf c1f0 923e
000000c0: 0c09 77be 60ef 2cbf 3151 fdbd a60d c2be
000000d0: bb52 5ebe d96e 45be 69aa 0ebf b615 0abf
000000e0: 0843 81be 7cc1 90bd 0944 b3be 531b e8be
000000f0: e50f 79bf 250e 3bbf 5a82 3bbf 74bb 37bf
00000100: db7c 82bf 5dbd 17bf f3c3 1fbf fcc6 44be
00000110: 6292 fdbe c021 45bf e874 00bd d320 7ebd
00000120: 88ce bb3e 66fb 8b3e ecad 9d3e 6334 41be
00000130: 2302 9a3e 4a2f 6f3e 1324 b3be e8b7 94bc
00000140: 98df 24bf 6229 a6bf cf84 cfbe 1d8b fbbe
00000150: c309 7bbf 7bc0 2cbf cd48 3bbf c2f1 383e
00000160: 7098 cfbe eb4e 80bf ab50 2ebf d4da 63bf
00000170: 51e5 c2be 10a3 1ebf 2197 5bbf b2c1 0dbf
00000180: f421 72bf 1ccc 8fbe c92b febe 68be 6bbf
00000190: e7e0 c13e ab3a 863e 26d4 2ebd c622 6a3e
000001a0: d515 b63e 9167 f53d cc6b b13d cec7 71be
000001b0: 9b81 873e 4eb9 c1bd 424b 09bf efc1 88bf
000001c0: 427e 96be ae68 31bf 336c 90bf 016f 42bf
000001d0: 35f3 f6be 98e9 3bbe 2f17 75be 9443 34bf
000001e0: db4b 93be dae0 27be c0d1 0cbe 3851 80be
000001f0: 29a5 0dbc ce14 c9be 0e89 b9bd 3a1d 103e
00000200: a42a 95be 5eb3 8abe 6041 72bf dc00 73bf
00000210: f17a 06bf 5d63 08bf 1073 80bf 859c dcbe
00000220: 5d4b 45bf 3858 b23d 247f a2be e199 0abf
00000230: affe 82bf 4451 8fbf c213 02bf 609b 00bf
00000240: be8e 29bf 49fc 2cbf 9fbf 63bf ee20 46be
00000250: 4f56 b7be 0a06 85bf 5519 873e 7b27 243e
00000260: 2621 9abe 376d b23d cf57 293e 6923 783e
00000270: 23af b1be d236 b3bd 522e 7bbe 0585 7b3e
00000280: 95d5 3dbf 3157 87bf c6a1 13bf e772 3abf
00000290: ac13 82bf 7839 28bf 6383 55bf 9820 55bd
000002a0: 4809 b7be 9b5e 04bf 6fc7 b7bd a35b e53d
000002b0: c180 fcbd f85d bfbe 4afe 21be bae9 103e
000002c0: 6cc6 893d 50b2 9cbe abe1 bfbe e853 f03d
000002d0: 1070 40bf 0f40 84bf 821e 55bf e084 59bf
000002e0: c711 3abf 170b 3cbf f16e 5cbf 60a0 2cbe
000002f0: 71cf 3e3c f60b 0bbf aecf 82bf 0f10 4cbf
00000300: 10c5 edbe 65cc f8be bb0d a1bf d9e3 27bf
00000310: 4fbd 2cbf 595a 20be 5b00 09bf 8eee 39bf
00000320: a7b6 db3d f308 91be fb8c edbd 2a83 e63d
00000330: e7c7 0fbe 869c b2be 4a77 c53d de95 513e
00000340: 3b94 c2bc c774 eabe 629b 4ebf 51f9 8fbf
00000350: df72 71be a466 5ebf 9af8 93bf 4b45 14bf
00000360: 258d 58bf 0c8a 81bd ef08 0bbf 2840 51bf
00000370: 2ec2 5fbf db97 35bf 5663 cebe e174 01bf
00000380: ad19 5fbf 4196 6abf bcda 17bf 5e3d 34be
00000390: 63c1 0dbf c653 2cbf cd7a 443c 3791 bd3e
000003a0: e0a8 42be 7cbb 8ebc 57a6 25be 59a7 763e
000003b0: cd46 7bbe 3d47 3fbe 19a6 553e 524a 88be
000003c0: 7ece b33e 4a82 36be 767a 3ebe eee0 673d
000003d0: 588e f6bd 34cd 273e eebc 9ebd 4246 5cbe
000003e0: d094 333e ecce 653d c107 19be 54ce a7be
000003f0: 576b 0ebe 1c36 143e f753 ecbc 92bb 883d
-0.008302957 -0.31220156 -0.047043663 -0.05682981 -0.20238271 -0.15244704 -0.25939855 0.2327818
-0.016822807 0.13959803 -0.15693542 -0.6183606 -0.28571287 -0.2135351 -0.31819874 -0.38488048
-0.29410553 0.058594972 -0.207317 0.050757278 -0.5064554 -1.081236 -0.47445804 -0.9407063
-1.1835908 -0.7000176 -0.51726055 -0.055696905 -0.3247531 -0.8003791 -1.0641878 -0.8869838
-0.28732085 -0.5367127 -0.7280972 -0.5294562 -0.5460964 0.2311202 -0.102816865 -0.9061597
-0.5910171 -0.772935 -0.76987404 -0.84767646 -1.2462606 -0.9631191 -0.63827664 0.28699306
-0.24124545 -0.6755276 -0.12369002 -0.37901038 -0.21711247 -0.19280566 -0.55728775 -0.5393938
-0.25246453 -0.07068154 -0.35012844 -0.45333347 -0.9728988 -0.7306846 -0.73245776 -0.71770406
-1.0194353 -0.5927332 -0.6240837 -0.19216532 -0.49525744 -0.77004623 -0.03136149 -0.062043022
0.36681008 0.2734024 0.30796754 -0.1886764 0.30079755 0.23357883 -0.3498846 -0.0181541
-0.64403677 -1.2981379 -0.40531012 -0.49129573 -0.9806177 -0.674812 -0.7315796 0.18060973
-0.40545988 -1.0024084 -0.6809184 -0.8900578 -0.3806558 -0.61967564 -0.8577748 -0.5537368
-0.9458306 -0.2808541 -0.4964278 -0.9208741 0.378669 0.26216635 -0.04268279 0.22864828
0.35563532 0.11982644 0.08663139 -0.23611376 0.2646607 -0.09459172 -0.5363046 -1.0684184
-0.29393202 -0.69300354 -1.128302 -0.7595063 -0.48232427 -0.18350828 -0.23934625 -0.70415616
-0.2876881 -0.16394368 -0.13751888 -0.25061965 -0.008645334 -0.39273685 -0.09059344 0.14073649
-0.29134095 -0.2708997 -0.94631004 -0.94923186 -0.52531344 -0.53276616 -1.0035114 -0.43088165
-0.7706812 0.08708233 -0.31737626 -0.5414105 -1.0233973 -1.1196675 -0.508114 -0.50237083
-0.6623343 -0.67572457 -0.88964266 -0.19348499 -0.35808036 -1.0392468 0.26386514 0.16030686
-0.30103415 0.08712237 0.16537403 0.24232258 -0.3470393 -0.087506905 -0.24529389 0.24562462
-0.74154025 -1.0573484 -0.5766872 -0.7283158 -1.0162253 -0.6571269 -0.83403605 -0.052033037
-0.3574927 -0.51706856 -0.08973586 0.11199119 -0.12329245 -0.3737638 -0.1581966 0.1415166
0.06727299 -0.30604792 -0.37476858 0.11734754 -0.75170994 -1.0332049 -0.83249676 -0.84968376
-0.72683376 -0.7345442 -0.86106783 -0.16858053 0.011646138 -0.54315126 -1.0219629 -0.79712003
-0.4643941 -0.4859344 -1.2582315 -0.6558204 -0.6747636 -0.15659465 -0.5351617 -0.7262963
0.107281975 -0.2832714 -0.115991555 0.11255486 -0.140411 -0.34885043 0.09641893 0.20467326
-0.023752322 -0.4579222 -0.80705845 -1.124796 -0.23578976 -0.8687537 -1.1560242 -0.5791823
-0.8459037 -0.063251585 -0.54310507 -0.8173852 -0.8740567 -0.7093484 -0.40310162 -0.5056897
-0.87148553 -0.9163552 -0.5931814 -0.17601535 -0.5537321 -0.6731533 0.011992169 0.37024853
-0.19009733 -0.017423384 -0.16176735 0.24087276 -0.24538727 -0.18679519 0.20864142 -0.26619202
0.3511848 -0.17823139 -0.18601403 0.056610994 -0.12038869 0.16386873 -0.07750879 -0.21511176
0.17537236 0.05610554 -0.14944364 -0.32774603 -0.13908134 0.14473766 -0.028848631 0.06676401

fc3.bias f4 [4733]
00000000: ad8c 873c be0c b6be 722c e3be e491 44bf
00000010: ec5d cdbe e3ca cabe 16c6 c9be d034 453e
00000020: 920c 0bbf 1247 a8be dbaf 123e 3736 a8be
00000030: 017e 173e 96c4 0dbf 222d 38bf fa46 8dbe
00000040: b824 c4be 4680 adbe 98e6 2fbe e373 4ebe
00000050: ac26 d9bd 37ef 31bf 532d b4be e380 abbb
00000060: a36d 823e 6eee 67be f4f2 15bf 3345 aebe
00000070: 3145 0f3d 5963 2bbf e6b4 5dbe de1f e23c
00000080: 70b7 4bbe 88ea 08bf d65d a8be 7b77 0cbe
00000090: 10e0 03be 3395 3cbe 2963 5ebe 96e2 81bd
000000a0: 2f77 55bf 6271 0dbe a3f4 0cbf 80de 99be
000000b0: 01fd 5d3d 68ee 933e 7b88 293e 375b e4be
000000c0: 9f89 1c3e c2f8 eabe 4a13 c8be 0be4 30bf
000000d0: ca52 35bf 7644 48bf 6c72 dabe d085 32bf
000000e0: 2c06 3d3e 6de7 203e 9871 87be eea3 e6be
000000f0: 67d9 89be 28f7 87be 3b2e bfbe e0c3 8abe
00000100: dc01 00bf a56e f2be 77ef 2bbe f014 18bf
00000110: 0925 0abf 95b8 c3be 7cdf f0be 7f40 a93d
00000120: 0972 cdbe 5819 99be 9dc5 a0be ea83 9abe
00000130: 21e1 19bf cc9d 15bf 45e7 6e3e aef6 c8be
00000140: f1de f0be eb97 fcbe 641e 3bbf 36d4 c0be
00000150: 9715 08bf 39f0 45bf 8019 94be 9e5e 00bf
00000160: 7753 05bf 1298 4cbe 535a a5be 3911 2cbf
00000170: 2fd1 28bf 9bf7 4ebe 3716 3abf b6af 41bf
00000180: 6d1b fbbd c0bd 53be e2cd afbe 0bb4 cebe
00000190: a933 30bf ee61 81be 37a6 8cbe 66ed 27bf
000001a0: 7a35 38bd e6e0 4fbe c272 70be 4e98 38bf
000001b0: a19e 06bf ce3e 57be d2b5 5c3d 64ef 07bf
000001c0: 9429 0cbf 7b68 2cbf 39ac 713d 3644 9cbe
000001d0: 0517 09be fa41 c4be 23de 1dbf 10a6 bdbe
000001e0: 9eec 64be 865d d53d ef07 d5be d3e7 ffbe
000001f0: a08f c1bd 08ee a0be 27aa 36bf d685 6ebe
00000200: 0fdc ddbe 64db 17bf 5d94 b9be 1c07 24bf
00000210: 5697 96be c9dc 2ebf 89f1 0bbe c46c ecbe
00000220: cf05 2ebf e749 cebe 56d5 58be 2140 0dbf
00000230: bf96 86be 1fbc 1fbf 37d9 0ebf a4af 8ebe
00000240: a1a7 64be 74a2 98be d2c2 81be eb87 cbbe
00000250: 0a83 56be bde0 15bf 1716 a1be 6cbe d8be
00000260: ba94 acbe d141 0ebf 6de3 9bbe e055 03bf
00000270: 9b89 30bf 9544 f6be 8129 36bf fcc9 8ebe
00000280: 9a79 a0be c10a d1be e9f0 0c3d 6d0f c1be
00000290: 3334 18bf a53a 433d b6dc 9bbe 69ac 33bf
000002a0: f4d0 32bf fc00 eebe 1cfd e8be bd6a 12bf
000002b0: a35b 08bf 5c84 26bf 195b 24bf 39e8 34bf
000002c0: 553b 3ebf 11ac 04bf e5ae 4fbf b551 9ebe
000002d0: c349 f8be 35de dcbd a4aa b73c 9409 a9be
000002e0: 0bb0 99be 8d44 383d 2a72 84be b6af 2ebf
000002f0: 6815 573e 0aca 39bf 6bd4 10bf 695b ddbe
00000300: 4032 1bbf 6ae7 0fbf a158 993d 14d5 2cbf
00000310: 2ae1 8fbe cafa a2be 3314 fcbe a8f7 21bf
00000320: 2a7c e6be b227 4bbf d598 13bf 36b0 10bf
00000330: a8c4 5bbe 0875 bdbe 6376 ba3d 1a69 0cbf
00000340: 4aff 1abe 1975 1bbf dd95 09bf 2cf1 0bbf
00000350: cf2b 45bf a6a8 d4be 0312 19bf c40f 2ebf
00000360: 8aa3 37bf f6f6 2ebf 4060 a0be f920 f2be
00000370: 4849 663d 1654 0cbf d56b b8be d6a7 86be
00000380: a6e9 35bf b58b 41bf fabc 20be 7261 11be
00000390: 13bb 84be 5cea 15bf c21c 8dbe 6fbc 35bf
000003a0: 1b73 b0be ed73 0ebf 9185 1fbf c9a0 25bf
000003b0: 1b74 8dbe 8b41 2bbf 279e 28bf 22e7 41bf
000003c0: a4b8 28bf eec8 d4be 0c08 86be 823b e8be
000003d0: 6a6e e7bd 53c6 92be 06d1 0fbe 5394 35bf
000003e0: c40b 3d3d e6d1 8fbe 1c9d 353e 46a6 8bbe
000003f0: 163a 28bf d22d 3bbf 0772 36bf f79c 6fbe
0.016546572 -0.35556597 -0.44369847 -0.7678511 -0.4011072 -0.39607915 -0.3940894 0.19258428
-0.54316056 -0.32866722 0.14324896 -0.32853863 0.1479416 -0.5537809 -0.7194387 -0.27593213
-0.38309264 -0.33886927 -0.17177808 -0.20161395 -0.10603079 -0.6950564 -0.3519083 -0.0052338704
0.2547427 -0.22649547 -0.5857384 -0.3403717 0.034978095 -0.6694847 -0.21651039 0.027603086
-0.19894195 -0.53482866 -0.3288409 -0.13717453 -0.12878442 -0.1841629 -0.21717514 -0.06342046
-0.83384985 -0.13812783 -0.55060786 -0.30052567 0.05419636 0.28892827 0.1655597 -0.4460084
0.15286873 -0.45892912 -0.39077216 -0.69097966 -0.7082945 -0.78229463 -0.42665422 -0.6973543
0.18459386 0.15713282 -0.26453853 -0.45046943 -0.26923677 -0.26555753 -0.3733996 -0.27102566
-0.5000284 -0.4735004 -0.16790567 -0.5940695 -0.5396276 -0.38226762 -0.47045505 0.08264255
-0.40126064 -0.29902148 -0.31400767 -0.30178767 -0.60109144 -0.58443904 0.2333041 -0.39250702
-0.4704509 -0.49334654 -0.7309325 -0.37661904 -0.53157943 -0.77319676 -0.28925705 -0.50144374
-0.5208048 -0.19979885 -0.32295474 -0.6721378 -0.6594419 -0.20211641 -0.7269015 -0.7565874
-0.122610904 -0.20677853 -0.34336764 -0.40371737 -0.6882883 -0.25270027 -0.27470562 -0.65596616
-0.044972874 -0.20300636 -0.23481277 -0.721074 -0.525858 -0.21020052 0.053884335 -0.53099656
-0.54750943 -0.67346925 0.059002135 -0.3052079 -0.13387688 -0.38331586 -0.6166708 -0.37040758
-0.22355887 0.10418229 -0.41607615 -0.49981555 -0.094512224 -0.31431603 -0.7135338 -0.23293242
-0.43331954 -0.5931914 -0.36246005 -0.6407335 -0.29412335 -0.6830564 -0.13666357 -0.46176732
-0.67977613 -0.40290758 -0.21175131 -0.5517598 -0.26286885 -0.62396425 -0.55800194 -0.27868378
-0.2232957 -0.29811442 -0.2534395 -0.39752135 -0.20948425 -0.5854605 -0.31462166 -0.4233278
-0.3370722 -0.5556918 -0.3044695 -0.5130291 -0.6895997 -0.480992 -0.7115708 -0.27888477
-0.31342775 -0.40828517 0.034409437 -0.3770708 -0.5945465 0.04766335 -0.30441827 -0.7018495
-0.6985009 -0.46485126 -0.45505607 -0.5719412 -0.53264827 -0.65045714 -0.64201504 -0.70666844
-0.74309283 -0.5182505 -0.8112624 -0.30921713 -0.48493776 -0.1078457 0.022420235 -0.3301512
-0.30017123 0.04498725 -0.2586835 -0.68236864 0.2100426 -0.7257391 -0.56574124 -0.43233803
-0.6062355 -0.56212485 0.07487608 -0.6751263 -0.28101474 -0.31831962 -0.4923416 -0.6326852
-0.45016605 -0.79357445 -0.5765508 -0.56518877 -0.21461737 -0.3700335 0.09104612 -0.5484787
-0.15136448 -0.6072555 -0.537443 -0.54664874 -0.7701997 -0.4153492 -0.5979311 -0.67992806
-0.71733916 -0.6834558 -0.31323433 -0.4729078 0.05622223 -0.54815805 -0.3601977 -0.26299924
-0.71059644 -0.756038 -0.15697089 -0.14197329 -0.25923976 -0.5856073 -0.27561003 -0.7099065
-0.34462819 -0.5564564 -0.6231318 -0.64698464 -0.27627644 -0.66896886 -0.6586632 -0.75743306
-0.6590674 -0.41559547 -0.26178014 -0.453579 -0.11300357 -0.28666934 -0.1404458 -0.7092945
0.0461538 -0.28089827 0.17735714 -0.27275294 -0.6571363 -0.7311679 -0.7126774 -0.23399721
