Python/RNN/models/MODELSLAYER11.pt (torch, 301199 bytes, 10 tensors)

fc1.weight f4 [20, 100]
00000000: 8bd8 bf3f f34f e3be 95dc c7bf c19a 39be
00000010: 6baf 93bf 356b 9fbf e184 3c3f 22cd 063e
00000020: 562e 1cbe f1c7 3f3e 3267 24bf d1ee 573f
00000030: 8a9d 3dbe 5eeb b6bf 632c 333e fd10 b1bf
00000040: 45ff bd3f bde1 0ec0 df14 29c0 bfcf 263f
00000050: 600b 383f 4467 023f 39eb 8d3e 16ff cabf
00000060: 38bb 47c0 f183 63be 6ebc ce3f 090b 973d
00000070: 8394 b7bf ec9a 90bf 789b acbf 0150 b73f
00000080: 1b29 fa3f 1682 903d 8d29 b6bf 8d1f 80be
00000090: 1609 31be f3f4 bbbc 4533 a43f ae5d 0a40
000000a0: d8c0 4dbe bd2f 01bf c304 4f3f e0b5 6e3f
000000b0: 0b6a 913f b271 82be 3c3b a13f fa02 efbf
000000c0: 94ab 05be 50be 4cc0 e360 26bf 3841 08c0
000000d0: 2865 b4bf 57f3 5a3f 552b ca3f fd04 c5bf
000000e0: 724a a53e 512f 32bf 314b 91bf c3ef a9bf
000000f0: d0f5 013f a661 babe 5971 3c3f 3c8f 90bf
00000100: 4503 983f 7588 283f 531a 4dc0 fb34 703d
00000110: 1907 0f40 8dc3 3bbf 700f 7f3f 4ff7 1c3f
00000120: a39e 333f 49ae d4bd 4710 563f 17ca 553f
00000130: af05 173e 2758 1ebf 3afe 933e 2b92 f7bf
00000140: 9c27 16be 2d2c 96be 1ecb 07bf 9307 3bbf
00000150: b6bd 00c0 6154 4a3e a885 533f 6dd3 96bf
00000160: d3be 823f aa10 29c0 e4a8 14bf 8582 773f
00000170: 97b7 25bf c559 ae3e 67a0 06bf 1d2b 0c3f
00000180: 5ad5 413f 978e a4be 0250 6b3f d242 80bf
00000190: cd0a 9b3d 8b08 bfbd 68c3 7fbc fef2 4d3d
000001a0: 0018 7e3b 6dae 9e3d c288 393d 925b 533d
000001b0: f713 ca3d c0c3 ba3c 4383 c53d 3307 6cbd
000001c0: 92e2 1f3d 0881 e7bc d027 84bd 0264 85bd
000001d0: 8639 5e3d 8e32 703d f4eb da3c 6cc4 ef3c
000001e0: 9dfa 64bd 9a2c 4a3d c214 7c3d 477a 7fbd
000001f0: 92fc 4d3d d8b1 0c3c 01a6 8a3d 0c5e f3bc
00000200: c241 173d 66d6 533d e34d 75bd 2848 cbbd
00000210: e363 a93d e4d2 d43c 8024 b3bd d720 b7bd
00000220: 3d3b a63d f86d 9b3c 0963 bd3d 804c c8bb
00000230: de3f 503d 773b 2fbd 8a19 1abd e493 d73c
00000240: b076 bebb d2d7 793d e7bf bcbd 30d2 8dbb
00000250: aec7 073d 03fc 79bd 4df6 2fbd 6096 b9bb
00000260: e00f a0bb a204 0e3d 0040 0a39 87a7 65bd
00000270: 47e8 57bd 5d5d a43d 3e9b 383d 57f2 59bd
00000280: e264 5e3d 8cb7 d63c b07c 72bd bfd4 9e3d
00000290: 8403 f53c b083 1d3c 3012 9c3b 06e2 3b3d
000002a0: b077 64bd 34d0 8bbc 100e 08bd 000e 3a3b
000002b0: e3f3 acbd 4035 23bc 0081 36bb 78b0 d5bc
000002c0: fbda 8c3d 129a b3bd 0076 22bb 2814 87bd
000002d0: a408 e83c b0ef 02bd 960b 493d 695f ca3d
000002e0: 8a11 82bd 4585 bbbd 47e6 1fbd e210 ccbd
000002f0: 1b19 c2bd ab27 8f3d 6e00 a0bd c435 d33c
00000300: 608d ffbb acc4 ccbc 50e7 87bd e071 91bd
00000310: a37b c3bd 1b42 953d 891a 9a3d bdf4 57bd
00000320: 2bf9 a1bd 107a 733c 9946 a73d 50bc 65bd
00000330: ea20 053d 946b 95bc 1817 2bbc 694d c73d
00000340: c37b 92bd ece8 cdbc a302 5cbd 53ab c1bd
00000350: 5081 3abc e6fd 3c3d 3573 b63d e80c 6b3c
00000360: 344a ca3c c304 91bd 4c11 f63c cad3 12bd
00000370: a6dd 00bd 417c bf3d eb0d 9a3d 2ce6 14bd
00000380: 8247 253d daa3 273d a00f 84bd 8212 453d
00000390: 7a7d 413d 8297 4c3d abb5 9a3d 093d c83d
000003a0: 9d78 56bd 7679 253d 2717 38bd 04ea eb3c
000003b0: 40b5 7a3b 404b 053b 8026 733c c2bc 0d3d
000003c0: 476d c9bd 8002 1d3c 131c a73d 9001 5dbd
000003d0: baed 0f3d 7039 7bbd 0062 35bd da58 3ebd
000003e0: 01af a93d d01d 823b 8a91 16bd ad3d 9bbd
000003f0: 7763 8c3d bdb0 983d fd3f 94bd 9486 ec3c
1.4987959 -0.44396934 -1.5614191 -0.1812544 -1.1537908 -1.2454592 0.7364026 0.1316419
-0.15252051 0.18728615 -0.64219964 0.8434878 -0.18517128 -1.4290578 0.17497401 -1.383331
1.4843527 -2.232528 -2.6418989 0.65160745 0.71892357 0.5093882 0.27718523 -1.5859096
-3.120802 -0.222183 1.6151254 0.07375152 -1.4342197 -1.1297278 -1.3484945 1.432129
1.9543794 0.07056062 -1.423143 -0.2502407 -0.17288622 -0.02294395 1.2828146 2.1619678
-0.20093095 -0.5046347 0.8086664 0.9324627 1.1360487 -0.25477368 1.2596202 -1.8672783
-0.13053733 -3.1991158 -0.6499159 -2.1289806 -1.409337 0.8552756 1.5794474 -1.5392147
0.3228336 -0.6960345 -1.1351072 -1.3276294 0.50765705 -0.36402625 0.73610455 -1.1293712
1.1875998 0.65833217 -3.2047317 0.058644276 2.2348082 -0.7334526 0.9963293 0.6131486
0.70163935 -0.10384805 0.8361859 0.8351149 0.14748262 -0.6185326 0.28904897 -1.9341482
-0.14663547 -0.29330578 -0.5304431 -0.7305843 -2.011579 0.1975875 0.8262582 -1.1783272
1.0214485 -2.641642 -0.58070207 0.9668353 -0.6473326 0.34052864 -0.52588505 0.54753286
0.75716174 -0.32140037 0.9191896 -1.0020392 0.075704195 -0.09327801 -0.015610553 0.050280564
0.003877163 0.07748113 0.045296438 0.051601 0.09867089 0.022798419 0.09644177 -0.057624053
0.039034434 -0.02825977 -0.06452906 -0.065132156 0.054254077 0.058641963 0.02672384 0.029268466
-0.055903066 0.04935894 0.061543234 -0.062372472 0.050289698 0.008587323 0.06769944 -0.029707931
0.036927946 0.05171814 -0.05988873 -0.09925872 0.08271005 0.025979467 -0.08747196 -0.089418106
0.081167676 0.018973336 0.09247405 -0.006112635 0.05084216 -0.04278132 -0.037622012 0.026315637
-0.0058124885 0.060996838 -0.0921629 -0.004328035 0.033149414 -0.061031353 -0.0429595 -0.005663678
-0.004884705 0.034672387 0.00013184547 -0.05606797 -0.05271175 0.0802562 0.045069925 -0.05320963
0.054295428 0.026210569 -0.059200943 0.07755422 0.029908903 0.009613916 0.0047629103 0.04586985
-0.055778205 -0.017067052 -0.033216536 0.0028389692 -0.08444955 -0.009961426 -0.0027847886 -0.026085123
0.06877705 -0.08769621 -0.0024789572 -0.065956414 0.028324433 -0.031966865 0.049083315 0.09881479
-0.063510016 -0.091562785 -0.03903797 -0.09964158 -0.09477445 0.06989988 -0.07812582 0.025782473
-0.0077988356 -0.024996124 -0.06635916 -0.07101798 -0.09545066 0.07287999 0.075245924 -0.052723635
-0.07908853 0.014860645 0.08167762 -0.056087792 0.032502092 -0.018239774 -0.010442518 0.09731562
-0.07152512 -0.02513548 -0.053713452 -0.094565056 -0.01138337 0.046140574 0.08908693 0.014346339
0.024693586 -0.07080986 0.030037545 -0.03584651 -0.03146138 0.093498714 0.07522186 -0.03635232
0.0403514 0.040927745 -0.06448293 0.048113354 0.047238804 0.049949177 0.07554182 0.097772665
-0.05236112 0.040399037 -0.044943955 0.02879811 0.0038255006 0.0020339042 0.014840722 0.03460384
-0.09835296 0.009583116 0.081596516 -0.05395657 0.035138823 -0.061334074 -0.044282913 -0.046471454
0.082853325 0.003970839 -0.03675989 -0.07580123 0.06854909 0.07455585 -0.07238767 0.028872766

fc1.bias f4 [20]
00000000: 5fd1 0f3e 3030 04bd 98c0 81bd 076f d43d
00000010: e361 bbbd 631e d23d c082 77bc 8ca2 113e
00000020: b533 f53c 5db3 26bd 6973 dc3d a198 113e
00000030: 0a2e 253e c9ac e13d 02f0 c6bd 1a96 35bd
00000040: c03e 6dbd 74c0 2abc edc7 39bd 1de6 96bd
0.14044712 -0.032272518 -0.063355625 0.10372739 -0.0914953 0.10259702 -0.015106857 0.14222163
0.029931882 -0.040698398 0.107642 0.1421838 0.16130844 0.11019284 -0.097137466 -0.0443326
-0.05792117 -0.010421861 -0.04535668 -0.073681094

attention.weight f4 [20, 1000]
00000000: 3451 833c a6de 80bc 18df 85bc 0095 95bb
00000010: 0040 35b7 103f ccbc 386d f8bc 0e14 5ebc
00000020: 3e92 ba3c 5e76 863c 0fa9 dcbc fa53 cc3c
00000030: ccf8 f33c 04ed 653c 6073 bfba f4f7 4f3c
00000040: aef0 e0bc b82d 773c 6488 2f3c ac62 443c
00000050: 381d edbb e01e 823c 302f 45bb 3ca8 d7bb
00000060: c040 0e3c 0c8a d43c a4e1 9fbb d97a fbbc
00000070: cd02 c6bc b033 2ebc b06a 8cbb 3028 ff3c
00000080: e065 383b 9c6a 88bc aad4 87bc 1e36 c3bc
00000090: 0061 4cbc 90ac 853c 708f a1ba b01a b13b
000000a0: 7461 e33c 604c 15bc 5a3f 5fbc 90b7 9fbc
000000b0: 28d3 a93c 50ba b13c 9094 303c ee19 9e3c
000000c0: fed4 bebc 7913 8ebc f40f f03c 20e2 36ba
000000d0: cfab ffbc 2492 233c f36c e2bc 8f7d c8bc
000000e0: c041 0d3a 9045 693b 24f4 00bd 1c5f ba3c
000000f0: 08e9 c53c 0c2e fa3c ed2a 94bc c29e a03c
00000100: 98d5 a13b d02d a93b fee5 933c fd7e fbbc
00000110: 701c 4b3b 0625 aa3c 240e 843c 3c7f 333c
00000120: 4804 0ebc a09a ef3c fe69 da3c 005e 0b39
00000130: 58b5 d13b 3cb6 c2bc 76ee c63c 8459 363c
00000140: 9c22 b8bc 2491 f23c 85e4 9fbc 00dd 553b
00000150: f82a 99bc b8c6 e93c 6213 cd3c 1cc1 4a3c
00000160: 48a4 ad3b b8cd 1f3c 4165 fdbc 3ebe c0bc
00000170: c42d 493c 36a1 853c fadc c83c fa85 d3bc
00000180: 13d9 c4bc 0e0c 40bc b80c d73c a2df 973c
00000190: 87d7 3cbd 01ab a13e 6b81 f3bf 2802 39be
000001a0: f186 39bb 5142 0dbd bfd4 23be cf22 75be
000001b0: 9bb4 88be 401d 113e eaa2 673f 1f70 96be
000001c0: a6cd 0f3f 7b9a abbe a2a1 d8bf 3409 ebbd
000001d0: 9bf5 873e 2312 1a3d 0455 a63e 91a1 723e
000001e0: f9b0 29be e7c2 d53e 5797 afbf 9c99 e6bd
000001f0: d2a2 323e 47e0 f13d a3ff 0e3f b56f 023f
00000200: 8640 2a3f 9942 9f3e 952f 473e cbf6 0cbf
00000210: 28f3 40bf ac66 c83e 2564 ca3e b558 3f3f
00000220: 765c c83e c804 0dbe 1ff2 cc3e 070b c13f
00000230: dc2b c8bc a6bf 263c 4586 da3e d651 d53e
00000240: 5f3e 05c0 8ad4 813e 2bea d13e ca05 0fbe
00000250: 2f48 b1bc 6070 d93e 425d f9be 2573 a93e
00000260: 1e95 06bf 376c 773e e43e b9bd bbdf b5be
00000270: 8903 d93e 78f5 a93e 7998 25be f56e f5bb
00000280: e517 cd3d d927 c63e 5c30 41bf 579b 8cbd
00000290: 11e1 58be 73ef 8fbf 9e3f 403e 50aa 0f3f
000002a0: 1f70 093e d036 ae3e 80e0 5c3e 3321 453e
000002b0: d69f ccbe 10bb d23e d1e9 353f e04a 0c3e
000002c0: eada 93bf 5a63 a0bf 7be0 86bd 8ae3 31bf
000002d0: e79a 8e3e ed39 40bf 0275 3d3e 2def 8d3e
000002e0: df5c f1be bb4d 4f3f fe23 08be 0fec 133f
000002f0: 5dea 733e 8083 1abd 352a 373d 0de5 a83c
00000300: ed76 803e a4ca f8be 911c b53d 143d b03e
00000310: 3996 cc3d eb48 bd3e 1d5d 25be ab22 f6bd
00000320: 8c04 dabd 7438 1dbe 3157 103c 86e0 cfbd
00000330: b044 1e3e d2ea 93be 6287 8a3e c72b 943d
00000340: fe60 19bf 97e1 cabd e123 493e d55a bf3d
00000350: 2883 37be b531 7b3e c875 6bbd 1b16 04be
00000360: ccf3 143e 1364 04be c5c1 d2bd 8bc9 283e
00000370: f1ce 6c3c 3e54 2fbe 0357 0cbb 888e 53be
00000380: 82b6 5d3e 9449 a2be ae6c f13e d869 83be
00000390: 17b3 3e3d 94ef aebe 4e20 c6be f72a f9bd
000003a0: 9b07 003e 6623 b23d 3018 79bc a178 833e
000003b0: c9ed 93be 300f 393e 8507 d23d 88b1 253e
000003c0: a992 f83d c47e 523b 2c3c 933e 44c9 e83e
000003d0: 1fa2 89be 2306 a63e ecec ae3e 6aac 923e
000003e0: c4b5 41be f906 793d e265 cbbe 2294 ab3e
000003f0: 6905 89be 2c9a d0bc 57dd d9bd d5f3 e6bd
0.016029932 -0.015731167 -0.016341731 -0.0045648813 -1.0803342e-05 -0.024932414 -0.030325517 -0.013554586
0.022774812 0.016413864 -0.026936082 0.024942387 0.029781722 0.01403356 -0.0014606528 0.012693394
-0.027458515 0.015086584 0.01071367 0.011986416 -0.007236149 0.015883863 -0.003008794 -0.0065813344
0.00868243 0.025944732 -0.0048791934 -0.030698227 -0.024171257 -0.01063244 -0.004285179 0.031147093
0.0028136894 -0.016652398 -0.016580898 -0.023829516 -0.0124742985 0.016317636 -0.0012326073 0.0054047927
0.02775643 -0.0091124475 -0.013625944 -0.01949671 0.02073057 0.021695286 0.010777608 0.019299474
-0.023294922 -0.01734327 0.029304482 -0.0006976444 -0.031209854 0.009983573 -0.027639842 -0.024473934
0.00053885207 0.003559444 -0.03148283 0.02275043 0.02415897 0.030539535 -0.018086875 0.019606952
0.0049387924 0.005162932 0.018054005 -0.030700201 0.0030992292 0.020769607 0.016120024 0.010955628
-0.008668013 0.029248536 0.02666187 0.0001329109 0.0063997917 -0.023768537 0.024283629 0.011129741
-0.02247744 0.029610224 -0.019518146 0.0032632947 -0.018697247 0.02853714 0.025033657 0.012375142
0.005299125 0.009753637 -0.03093207 -0.023528215 0.012278978 0.016312223 0.024519432 -0.025820721
-0.02402929 -0.011721624 0.026251182 0.018539254 -0.04610398 0.31575778 -1.902387 -0.18067229
-0.002830919 -0.034487072 -0.15999125 -0.2393906 -0.2670029 0.14171314 0.9048296 -0.29382417
0.5617317 -0.33516297 -1.6924326 -0.11476365 0.2655457 0.037614953 0.32486737 0.23694445
-0.16571416 0.4175026 -1.371806 -0.112597674 0.17444924 0.11810356 0.5585882 0.509517
0.66504705 0.31105497 0.19451745 -0.55064076 -0.75371027 0.39140832 0.3952953 0.7474473
0.39133042 -0.13771355 0.40028474 1.508149 -0.024434976 0.0101775285 0.42680565 0.41663998
-2.0819318 0.25357467 0.40998968 -0.13967052 -0.021640865 0.42468548 -0.48703963 0.3309566
-0.52571285 0.24162374 -0.090451986 -0.35522255 0.4238551 0.3319509 -0.16171445 -0.0074900337
0.10014323 0.38702276 -0.75464416 -0.06865566 -0.21179606 -1.1244949 0.18774268 0.5611925
0.13421677 0.34026194 0.21570015 0.19250946 -0.39965695 0.41158342 0.710599 0.13700438
-1.1551182 -1.253032 -0.06585785 -0.6948782 0.27852556 -0.7508839 0.18501666 0.2772154
-0.47141168 0.8097798 -0.1329498 0.5778207 0.23819871 -0.037723064 0.044717986 0.020617032
0.25090733 -0.48592103 0.08843339 0.344216 0.0998959 0.36969694 -0.16148801 -0.12018331
-0.106453985 -0.15353566 0.008809851 -0.10150246 0.1545589 -0.2889009 0.27056414 0.07234912
-0.59913623 -0.09906309 0.19642593 0.09343497 -0.17921126 0.2453068 -0.05748537 -0.12899058
0.14546126 -0.129288 -0.10290865 0.16483133 0.014453636 -0.1712198 -0.0021414168 -0.2065984
0.21651652 -0.3169676 0.4715323 -0.2566669 0.046557512 -0.3416716 -0.38696522 -0.12166398
0.12502901 0.08698158 -0.015203521 0.2567797 -0.28892353 0.180722 0.102553405 0.16181004
0.12137348 0.0032119015 0.28756845 0.45466053 -0.268815 0.32426557 0.34165132 0.28647166
-0.18916994 0.060797665 -0.39726168 0.33511454 -0.2676194 -0.02546414 -0.1063792 -0.11276976

attention.bias f4 [20]
00000000: edce ccbd 7a81 b4bb ad91 173c a9cf 9f3c
00000010: dc67 51bc 3d8a aebc 5bb8 f9bc 9c86 87bc
00000020: 5399 943e 1aac 89bc d364 c6bc 1143 e4bc
00000030: fa9e bcbc f5c7 d6bd b6af a4bc 1064 0f3f
00000040: 76ab 45bb 0a62 1abd 2a90 0abc 34b9 b83b
-0.100004055 -0.005508599 0.00925104 0.0195082 -0.01278111 -0.021306152 -0.030483415 -0.016543679
0.29023227 -0.016805697 -0.024217999 -0.027864011 -0.023025025 -0.104873575 -0.020103317 0.5601206
-0.0030162013 -0.037691154 -0.008457223 0.0056373123

attention2.weight f4 [10, 20]
00000000: 7dfe 1fbe 4893 493e e73a 4bbd 38a5 2bbe
00000010: 089b 933d b433 29be 4040 8f3d 6a0c a9bd
00000020: 676d 44be f583 0abe 5247 59be 7ca6 95bd
00000030: 3ff9 2a3e fd76 0bbd 7846 143e 4485 20be
00000040: 265f 343d 28fa 703d 4051 afbc 44ed 08be
00000050: 739a 6d3f 1ce5 c3bd a8a9 f63f 9abf b1bf
00000060: f47d 57bd 3004 09bd 9c75 4a3e 487e f13d
00000070: 2b05 c03d d474 823d 8027 de3d 50ae 0b3e
00000080: 9ced 0240 994c 0c40 dce4 3c3e 4e39 91bf
00000090: dc27 863f 19dd a63c 58b4 37bd f3a4 c4bd
000000a0: 6c32 a43d fc04 ba3d 82db 8fbd fd14 92bd
000000b0: b290 c2bd 34d9 623e 90c4 18be 00a0 4c3e
000000c0: 34be 32be ca9e a9bd c000 f1bd 1e77 063e
000000d0: d0b3 483d 3e24 d0bd 70b8 463e a293 8b3d
000000e0: fb33 d7bd e1f9 5cbe 5292 80bd 8ebb 493e
000000f0: b0a8 f43c 184f 7e3d 1e0b 1fbe 0850 5e3d
00000100: f43c 64be f05f 613e 6e7b 9fbd b6a2 f2bd
00000110: b843 d03d 38cb c0bc 044e 183e e8f4 343d
00000120: a040 4e3c 048b c9bd c868 003d c0eb 363c
00000130: 7801 5f3e 14ff 913d 9487 a83d 967f 39be
00000140: c1df 123b a46e 483d e9ff 683d 88db f1bd
00000150: df7b e2bd 44f5 14bd 96af 603e 2f15 dbbd
00000160: ddfe 17bd 6c23 193e f6ec 203e e075 3dbd
00000170: ea40 8bbe 578d 873d bc63 c03d d64b 85be
00000180: cbb0 8d3d bb6b 443d d00c 4a3c a813 0a3e
00000190: c84a 1d3d 7cb1 05bd 7888 86bc 011e e5bd
000001a0: b4f2 553e 2046 65bc a888 ca3c f487 933d
000001b0: 3837 31bd 5cad a4bd 3ef4 59be ad4b 52be
000001c0: 209d 63bc 88a6 283e 7832 6c3d 3091 12be
000001d0: 1fd2 cfbd 800b cebc 5cda d3bd f01e 303d
000001e0: 7fec 733e 94f3 43be 94df 8cbd 3c7b 0240
000001f0: a7e4 4ebe b8ca ec3d 00b1 c43d f814 313e
00000200: 0c67 3ebf 181b 77bd a673 93bd f8d7 cabf
00000210: 08eb 97bf dcf7 973e d5b3 5fbe 5841 0a3f
00000220: 81a8 da3e f503 1c3c 8245 623e 47aa 3d3e
00000230: 813b 13bf efde 2a3e 8f1b afbc ef1d 90bf
00000240: b6e2 543e d392 ecbd dea2 3ebe d844 863d
00000250: 9d91 dfbe 87c7 61be c0a6 3e3c 7b87 0bc0
00000260: d769 bc3e c8d4 41bf e0c9 3a3d 0a80 bf3f
00000270: b4af 88bf 5b9c 283e d823 ce3d 1ef7 ac3d
00000280: abc0 3dbe a09e 1ebe ecee 22be 700f e9bc
00000290: 9837 16bd f828 81bc 6a16 5dbe 8e60 c6bd
000002a0: 20d9 653d 646b 113e 006a 503e 80a5 f1bc
000002b0: acb6 8c3d 96e2 0fbe 580a 4c3e ec04 73bd
000002c0: 7827 a23c ea5d a0bd b18d 4cbe 2ac1 c6bd
000002d0: 72de aebe 5b45 103e 978b e5bf fadc ab3e
000002e0: 3c6c 013e c28a 4d3e c066 063b 32be 48be
000002f0: 60c8 4240 c8cd c53c fafd afbd 9586 233f
00000300: 1fae a8bf 917d f53e d04e 3c3d a209 c73e
00000310: 0f33 87bf 74b9 ffbb 7e44 193e 3106 483d
-0.15624423 0.1968509 -0.04961672 -0.16762245 0.07207304 -0.1652363 0.069946766 -0.08254321
-0.19182359 -0.135269 -0.21218613 -0.07307145 0.16696642 -0.034049023 0.14480007 -0.15675837
0.044036053 0.058832318 -0.021401048 -0.1337176 0.92813796 -0.095651835 1.9270525 -1.3886597
-0.052610353 -0.03345126 0.19771427 0.11791664 0.09375986 0.063699394 0.10847378 0.13640714
2.0457525 2.1921751 0.18446678 -1.1345613 1.0480914 0.0203691 -0.044849724 -0.09601774
0.0801743 0.09082982 -0.0702429 -0.071329094 -0.09500255 0.22153169 -0.14918733 0.1998291
-0.17455369 -0.0828224 -0.11767721 0.13131377 0.048999608 -0.10163163 0.19406295 0.06815268
-0.10507961 -0.21579696 -0.062779084 0.19700453 0.029865593 0.06208715 -0.15531585 0.054275542
-0.22288877 0.22009254 -0.07787214 -0.11847441 0.10169166 -0.023534402 0.1487351 0.044178873
0.01258865 -0.09840968 0.031349927 0.011164606 0.21777904 0.071287304 0.082289845 -0.18115076
0.00224112 0.04893364 0.05688468 -0.118094504 -0.11058783 -0.036366716 0.2194198 -0.106974
-0.03710829 0.14954919 0.15715393 -0.046254992 -0.27197963 0.06618755 0.09394023 -0.2603442
0.06918486 0.047954302 0.012332156 0.13484061 0.038401395 -0.032639965 -0.016422495 -0.111873634
0.20893365 -0.01399377 0.024723366 0.072036654 -0.04326555 -0.08040878 -0.21284577 -0.2053668
-0.013892442 0.16469777 0.05766532 -0.14313197 -0.10147499 -0.025151968 -0.10344383 0.042998254
0.23820685 -0.19135886 -0.06878582 2.0387716 -0.20204411 0.11562103 0.096040726 0.17293155
-0.7437599 -0.060328573 -0.071997926 -1.5847158 -1.1868601 0.2968129 -0.21845944 0.54005957
0.42706683 0.009522428 0.22096828 0.18521987 -0.5751267 0.16686605 -0.021375446 -1.1259135
0.20789608 -0.11551442 -0.18616816 0.065561 -0.43665782 -0.2204877 0.011636436 -2.180144
0.367995 -0.75715303 0.04560268 1.496095 -1.067862 0.16465895 0.100654304 0.08445571
-0.18530528 -0.15490198 -0.15911454 -0.028449744 -0.036674112 -0.015766606 -0.21590582 -0.09686385
0.05611527 0.14201123 0.20352936 -0.029497862 0.068707794 -0.1405128 0.19925821 -0.059330866
0.01979421 -0.07830413 -0.19975926 -0.09704812 -0.34154087 0.14088957 -1.7933224 0.3356703
0.12638944 0.20072463 0.002050802 -0.19603804 3.04348 0.024145976 -0.08593364 0.6387723
-1.3178138 0.47947362 0.0459736 0.38874537 -1.0562457 -0.00780409 0.14967534 0.04883403

attention2.bias f4 [10]
00000000: c2b4 27bd 93ab 003f 6c5a f4bc 46f2 1fbe
00000010: 97d5 5cbe 1802 c6bd 9285 b5bd 78f6 ba3e
00000020: 7e55 3ebe e0ab 7f3f
-0.04094387 0.502618 -0.029828273 -0.15619764 -0.21565853 -0.09668368 -0.08863367 0.36516166
-0.185873 0.99871635

fc2.weight f4 [10, 20]
00000000: 0afe a53f 29fe 34bd 040e 99bd 4999 443f
00000010: 1ae2 2a3e b5e6 833e d804 e23d 4a45 2a40
00000020: 3a2c 003e 5f9e 34be 1e08 c43f d697 1240
00000030: 0c14 ef3f 25dd f53e 0c70 cc3d a78a d8bd
00000040: 5bb5 bebf 04f0 f4bd a07b 483d f4a5 1c3b
00000050: b155 59be e0d2 a73b 2bde bcbd 7c42 d2bd
00000060: aff3 3cbe c82c 053e 3cc4 c4bd 8571 27be
00000070: c8f0 78be d0b1 2f3e 50c7 5bbe 6e97 933d
00000080: 0dea f33d e6e2 423e 223c 283e 0c6e a33d
00000090: 5208 b9bd ef7a f8bd 46fb 373e 1cc7 33bd
000000a0: 2a6b 1b40 1c99 8a3d 4eb3 1dbe a324 7d3e
000000b0: 7405 44be acf0 5440 16a3 383e 1970 8a40
000000c0: ad98 813f 9040 fdbc 8ba0 0340 9ae2 5940
000000d0: 7ecb 203f c6c9 783f 08c8 b73d 2710 2cbd
000000e0: 12cf f6be 338d c7bd 98a1 2b3e 2d99 40be
000000f0: e0cb 80bc fa2a 123e 8020 4ebb 0a0b 0bbe
00000100: c056 26bb ce05 d9bd 5517 5abe e67b 32be
00000110: cfc3 01be 20a7 77bd 6c53 fdbd 1014 6bbc
00000120: 50da 45be b0ae acbc 8813 f03d 4adb c7bd
00000130: a210 413e 7450 e3bd ec1a 9dbd f27a 403e
00000140: 199f ce3e 040b 0b3d 1373 f7bd 1510 d53f
00000150: df0f f2bd 80c3 7e40 d8f2 ea3d fc11 4f40
00000160: 06a2 b53f c498 cfbd 585d ed3f 2959 fa3d
00000170: b11f 273f 93bc 7f3e 0850 0bbd 6daa 0bbf
00000180: 3363 163f 91c2 16bd 6828 873d f6fa f93d
00000190: bd80 28bf d07f 443a ff45 0ebe de7d c73e
000001a0: 40f9 e5bb 624d fbbd 8022 813b 8011 8b3f
000001b0: b48d e33f 7af5 013e 408d fa3f 09a3 2d3f
000001c0: 9a27 353f bdee 91bf f642 623e 9f9e e53f
000001d0: 408c 21bf 393e c6bc d8cc e8bd 8161 11be
000001e0: 1216 5f3f 8eaa 93bd f242 26be 7f37 6440
000001f0: 0857 28bd 0a96 16c0 68a8 e0bc 96d4 b63f
00000200: e6da 743f 0a41 b5bd 0d19 4040 ca73 863f
00000210: 5545 87bf a441 963e ec2f 1abe d683 0c3f
00000220: 3a91 c43e e865 61be d0eb db3d 062c 2cbe
00000230: ef2e 4a3f 6d3c 40bd 6d37 5fbe f475 7ebf
00000240: e870 3b3d c732 dabf 305d 4cbc 8538 3940
00000250: b482 febe e08f 7e3d ef53 4140 16c9 1b3f
00000260: c6a6 9fbd 2bb9 28be beae 223e 7d82 673f
00000270: abac 02bc 770f dfbd 74b4 2e3e f88f 353e
00000280: 5a25 933f 8079 a2bb 857c 77be cae9 433f
00000290: e0a7 14bc a0a0 b840 7443 903d 341b 9b3f
000002a0: ed8f d53f a9cb 40be 2da1 9a3f da4d 2e3e
000002b0: 2ced dabe 7d03 9d3f fc69 b63d 1454 aabe
000002c0: 3d5f b23f f5a9 06bd 980c e53d 55ba ff3c
000002d0: 1061 18be b07e 82bd 0c21 0abe e015 95bd
000002e0: 942b 13be 141f 17bd 84ca 19be 50a5 6b3c
000002f0: bffa e5bd 66fc 353e 305a 5c3d 0af1 603e
00000300: 6637 4fbe c897 cb3d 58a5 90bd 944c ab3d
00000310: 9b79 05be 98e6 5d3d b510 05be d83d 9e3c
1.2968152 -0.0441877 -0.074733764 0.76796395 0.16687813 0.25761953 0.1103608 2.660479
0.12516871 -0.17638539 1.5314977 2.2905173 1.8677993 0.48020282 0.09982309 -0.10573321
-1.4899095 -0.11959842 0.048946023 0.0023902627 -0.21224095 0.005121574 -0.09222063 -0.10266587
-0.18452333 0.13005364 -0.09607741 -0.16351898 -0.24310601 0.17157674 -0.2146275 0.07206617
0.11909876 0.19031867 0.16429189 0.07979974 -0.0903479 -0.12132823 0.17966947 -0.043891057
2.4284158 0.067674845 -0.1540043 0.24721007 -0.19142705 3.3271894 0.18030962 4.326184
1.0124718 -0.030914575 2.0566738 3.4044557 0.62810504 0.9718288 0.089737 -0.04200759
-0.48204857 -0.097437285 0.16760862 -0.18808432 -0.015722215 0.14274207 -0.0031452477 -0.1357843
-0.0025381297 -0.1059681 -0.21297963 -0.17430076 -0.12672351 -0.060462117 -0.12369427 -0.014348045
-0.19321561 -0.021079391 0.11722475 -0.09758623 0.18854001 -0.110993296 -0.076711506 0.187969
0.40355757 0.033946052 -0.120824955 1.6645533 -0.118194334 3.9806824 0.114721 3.2354727
1.4190071 -0.101365596 1.8544111 0.12224037 0.6528273 0.24974279 -0.03401187 -0.54556924
0.58745116 -0.036806647 0.06599504 0.1220607 -0.6582144 0.0007495852 -0.13893889 0.38963217
-0.0070182383 -0.12270619 0.0039408803 1.0864716 1.7777619 0.12691298 1.9574356 0.67826897
0.7076355 -1.1400982 0.22095856 1.7939032 -0.6310463 -0.024199592 -0.11367196 -0.14197351
0.8714305 -0.07210265 -0.16236475 3.5658872 -0.041098624 -2.3529077 -0.027424052 1.4283626
0.9564651 -0.08850296 3.001529 1.0504086 -1.0568033 0.29346955 -0.15057343 0.54888666
0.3839205 -0.2201153 0.10738337 -0.16813669 0.78977865 -0.046932627 -0.21798487 -0.9939873
0.045761973 -1.7046746 -0.0124733895 2.8940747 -0.49709094 0.06214893 3.020748 0.6085371
-0.077954814 -0.16476886 0.15886971 0.90433484 -0.007975738 -0.108916216 0.17061025 0.17730701
1.1495774 -0.0049583316 -0.24168594 0.7652861 -0.009073228 5.7696075 0.07044116 1.2117677
1.6684548 -0.1882769 1.2080437 0.17021886 -0.42759073 1.226669 0.08906934 -0.33267272
1.3935314 -0.032876927 0.11184043 0.03121678 -0.14880776 -0.0637182 -0.13489169 -0.07279563
-0.14372092 -0.036894873 -0.1501866 0.014382675 -0.11229467 0.17772064 0.053796947 0.21966949
-0.20235977 0.09941059 -0.07062787 0.083642155 -0.1303467 0.05417499 -0.12994654 0.019316599

fc2.bias f4 [10]
00000000: 9811 f8bd b022 45be 6af0 bbbe e288 48be
00000010: e647 35bf ecf5 2c3f ef3b f73c aba9 a63e
00000020: d0ed 01bf 849d 83bd
-0.12112731 -0.19251513 -0.3670686 -0.19583467 -0.70812833 0.67562747 0.030179946 0.3255132
-0.507535 -0.06426528

fc3.weight f4 [4733, 10]
00000000: 36ec 4cbe eb22 66bf aeb6 24bf d056 063d
00000010: 61a3 4bbf 194c 853e 2a2a 81c0 e965 dfbd
00000020: bedd c6bf 6e29 12c1 3617 bfc0 9cb3 adbd
00000030: aecd 03c1 2746 9cbe e35e d7c0 d2c8 afbf
00000040: 1d00 82c0 91a6 8ac0 5936 c4bf b852 a4c0
00000050: 1e92 31c0 bac6 9bc0 283f 23c0 4f2e 3ebe
00000060: 89b6 0bc0 2252 8cc0 b854 65c0 1d11 5dc0
00000070: d5cc c3c0 32d9 42c0 5dcb 2bc0 67a8 99c0
00000080: 9172 20c0 c07a b93d 7b59 19c0 55ec 86c0
00000090: 0285 60c0 b6b6 5dc0 4b2e cec0 8f3d 45c0
000000a0: 848a 21c0 60ea 99c0 c9ef 0cc0 6edc 9ebd
000000b0: 2406 18c0 12ce 83c0 a5bf 64c0 8b4b 6cc0
000000c0: 6f8c cfc0 0987 2ac0 e120 a5bd 6284 c4be
000000d0: 1a48 d0be 60a6 b6bc 50e8 bfbf 03be 75c0
000000e0: 8714 f9c0 fb09 97c0 8706 06c0 1214 24c0
000000f0: e386 29c0 f1f6 97c0 4be7 09c0 27c9 9a3e
00000100: d366 20c0 11d8 8bc0 2fd5 5ac0 dd64 73c0
00000110: 8129 d7c0 3d83 4bc0 37c0 0bbf c362 4dbf
00000120: 8101 1dbf e86e 76be f815 9cbf e813 17bf
00000130: 8eb8 b0be 6f99 c33e 5afa e3bf 09a8 96bf
00000140: 7fc7 41c0 6f72 96c0 698a 1ac0 0b6a 69be
00000150: 130a 05c0 cab8 89c0 397d 5ec0 1416 76c0
00000160: 3791 d8c0 1711 46c0 731e 43c0 39c7 9ec0
00000170: 91d8 0dc0 9c0b 393e b20c 05c0 8388 84c0
00000180: 74ab 75c0 148e 72c0 8c32 d3c0 3b98 36c0
00000190: f1bf d6bc f4f8 79bf ab0d 01bf ad6d 8d3e
000001a0: 86a4 533e 3719 4abf 9844 5cbf c378 8cbf
000001b0: f201 48bd efef 8abf ef35 3bc0 88e4 a0c0
000001c0: e963 15c0 3084 d1bc 09a5 21c0 7a0a 89c0
000001d0: 8c6f 65c0 2e2c 60c0 0626 c6c0 020e 34c0
000001e0: 1d13 a6bf 3b11 6ebf ab5f 11c0 802a de3b
000001f0: f602 06c0 ff78 febe c01b 07bf d4a3 e3be
00000200: 81b2 1fc0 4e8e 04bf 4df3 31c0 d3da 98c0
00000210: 2202 08c0 fe49 4f3e 3530 04c0 10e2 71c0
00000220: 4088 76c0 5a48 55c0 80e5 c2c0 8662 2dc0
00000230: d8bd 3fc0 be1f 98c0 eba9 17c0 9c3d e2bd
00000240: 511b 28c0 bf9e 82c0 9436 6cc0 90f8 71c0
00000250: 50f5 cec0 3e4c 36c0 ac56 37bf 08ed 53bf
00000260: aeaa c0be 387a 313d cb36 76bf 345a 8ebf
00000270: b9f2 ecbe c655 32bd 5d92 e3be 156f 2ac0
00000280: 908a 3bc0 c177 96c0 5341 1ac0 401d 80bd
00000290: d7dc 24c0 1d3e 82c0 0a57 62c0 6a5c 65c0
000002a0: 0a04 d0c0 f49b 33c0 b020 7bbe 8798 cebf
000002b0: 568a cabf e792 893e 1ce5 97bf d9ef 33bf
000002c0: ee8f 9fbe 5479 abbe 92e1 f8bf 75bf b9bf
000002d0: 2925 30c0 8179 9dc0 c0f7 13c0 0e81 453e
000002e0: 25d4 07c0 c190 78c0 6e81 71c0 3ce7 58c0
000002f0: 31e3 cbc0 6ffe 26c0 34e0 43c0 9413 98c0
00000300: 9460 26c0 466d 3abe df36 05c0 e584 79c0
00000310: b138 75c0 3f5e 66c0 9731 cfc0 c32b 2dc0
00000320: 476f 85bf bd4e 7abf a3da 88bf 565b 4e3e
00000330: 0328 24be 39e3 66bf c63e d4be b878 f2bf
00000340: 5821 26bf 8325 dbbf 15cd 2ac0 244c 9ec0
00000350: 10f5 14c0 51a5 913e 46f2 2bc0 caeb 86c0
00000360: 25d7 76c0 d22b 55c0 d9f6 cac0 bbc2 32c0
00000370: 907d 2bc0 4e28 a4c0 e13a 14c0 cb89 9ebe
00000380: bd82 28c0 4108 79c0 d170 72c0 bf8d 78c0
00000390: 9ceb c4c0 67bd 40c0 43cd a6be 84b5 65bf
000003a0: 5441 dc3d 38e0 313d a711 6dbf b9de 6bbf
000003b0: f5e5 09bf 7dd9 8bbf 7ed7 96bf bec2 1fbf
000003c0: 495c 35c0 ce51 cfbe 8c88 cfbf c699 31be
000003d0: 4530 16bf 710f 83bf 1e04 e7be 5d63 3ebf
000003e0: 08d4 c8be 0f93 533e bff7 253d 77f1 84bf
000003f0: 5b53 65bd 2cdf 42be 43d2 14be fda0 e1be
-0.20011982 -0.8989703 -0.6434125 0.032797635 -0.7954617 0.2603462 -4.036397 -0.1090811
-1.553642 -9.135115 -5.9715834 -0.084815234 -8.237715 -0.30522272 -6.730333 -1.373316
-4.062514 -4.332833 -1.5329086 -5.1350975 -2.7745433 -4.8680086 -2.5507298 -0.18572353
-2.183016 -4.385026 -3.5832958 -3.4541695 -6.118754 -3.0445065 -2.6842873 -4.801807
-2.5069926 0.09056616 -2.3960865 -4.216349 -3.5081182 -3.4642768 -6.443151 -3.0818822
-2.5240793 -4.80986 -2.2021353 -0.077568874 -2.3753748 -4.118905 -3.574197 -3.6921108
-6.485893 -2.664492 -0.08062912 -0.3838225 -0.4068001 -0.02229613 -1.4992771 -3.8397224
-7.783756 -4.7199683 -2.0941484 -2.563725 -2.6488578 -4.748894 -2.154742 0.30231592
-2.506276 -4.3701253 -3.4192617 -3.8030312 -6.7238164 -3.1798851 -0.5459017 -0.80228823
-0.6133042 -0.24065745 -1.2194204 -0.5901475 -0.34515804 0.38202998 -1.7810776 -1.177003
-3.0278013 -4.701469 -2.414698 -0.22794358 -2.07874 -4.3038073 -3.476393 -3.8450975
-6.7677264 -3.094793 -3.0487335 -4.961819 -2.2163432 0.18070835 -2.0788999 -4.141664
-3.8385897 -3.7899218 -6.5999203 -2.8530414 -0.026214572 -0.976455 -0.5041148 0.27622738
0.2066823 -0.78944725 -0.86042166 -1.0974354 -0.04882998 -1.0854472 -2.9251668 -5.027897
-2.334223 -0.025575727 -2.525698 -4.282529 -3.5849333 -3.5026965 -6.1921415 -2.813355
-1.2974583 -0.9299504 -2.271464 0.0067799687 -2.0939307 -0.49701688 -0.5277672 -0.44460928
-2.49527 -0.5177964 -2.780475 -4.776712 -2.1251302 0.2024307 -2.0654423 -3.7794228
-3.852066 -3.332541 -6.090515 -2.7091384 -2.9959621 -4.753875 -2.369746 -0.11046907
-2.6266673 -4.081878 -3.6908312 -3.780796 -6.4674454 -2.8484035 -0.71616626 -0.82783556
-0.37630218 0.043329448 -0.9617736 -1.1121278 -0.46278933 -0.04353883 -0.44447604 -2.66303
-2.9303322 -4.7021184 -2.410237 -0.06255579 -2.575979 -4.070082 -3.5365624 -3.5837655
-6.500493 -2.8063936 -0.24524188 -1.6140298 -1.5823467 0.2686989 -1.1866794 -0.70287853
-0.31164497 -0.33491004 -1.9443839 -1.4511553 -2.752268 -4.921082 -2.3119965 0.19287512
-2.1223233 -3.883835 -3.7735248 -3.3891134 -6.3714833 -2.6092794 -3.0605593 -4.75239
-2.5996447 -0.18205747 -2.081474 -3.8987362 -3.8315852 -3.5995023 -6.4748034 -2.705796
-1.0424584 -0.97776395 -1.0691723 0.2015203 -0.16030888 -0.90190464 -0.41454142 -1.894309
-0.6489463 -1.7120823 -2.6687672 -4.9467945 -2.3274574 0.2844644 -2.6866622 -4.216283
-3.8568814 -3.3307996 -6.342633 -2.7931354 -2.6795387 -5.12992 -2.3160937 -0.30964503
-2.6329796 -3.8911288 -3.7881358 -3.8836515 -6.153761 -3.0115602 -0.32578477 -0.89730096
0.10754648 0.043426722 -0.9260506 -0.9213672 -0.5386651 -1.0925747 -1.1784513 -0.6240653
-2.8337576 -0.404921 -1.6213546 -0.17343816 -0.58667403 -1.0239087 -0.4512033 -0.74370366
-0.39224267 0.20661567 0.040519472 -1.0386189 -0.055987697 -0.19030446 -0.14533333 -0.44068137

fc3.bias f4 [4733]
00000000: 5e65 6dbf 766a e9be 5006 8fc0 2cf6 99c0
00000010: dea5 95c0 f8ba 1dbf 10ef 94c0 e96c 82bf
00000020: 9b2d 96c0 6c46 8bc0 01ed c6bf d563 8fc0
00000030: b518 adbe ac5c 9fc0 8429 98c0 e426 92bf
00000040: 43c3 99c0 9721 3fbf 01e1 94c0 7a34 97c0
00000050: 5c63 42bf 0dc7 8fc0 5183 88c0 24ed b4bf
00000060: 654e 8cbf becf 5dbf a892 92c0 f0ad bfbf
00000070: f58c 07bf 0f0a 96c0 336d 8cc0 6b4c 9dbf
00000080: e23a 95c0 f427 99c0 a15b 8ec0 9a4f 9cbf
00000090: b79b 8bc0 926b 65be f97a 8dc0 6575 4ebf
000000a0: 9452 8ec0 30db 99c0 7f57 94c0 79d9 56bf
000000b0: f157 1bbf e220 84bf a116 65bf 2ab4 94c0
000000c0: 2f85 b5bf c4b9 89c0 7ac4 9cc0 72bf 90c0
000000d0: 9f1e 97c0 a050 94c0 bbb2 9bc0 2cd9 93c0
000000e0: 267a 0d3d 7a0e 31bf 6f6b 26bf 63b0 9cc0
000000f0: 2d7b 9ec0 2afa 90c0 7ac4 99c0 16ab 94c0
00000100: fea2 96c0 0f2d 9ac0 1ebe 44bf f222 97c0
00000110: 9990 8dc0 9154 9ac0 5190 8fc0 4099 1cbf
00000120: 9a85 98c0 a449 9bc0 a4fb 9ac0 efe8 99c0
00000130: 6ff2 90c0 2228 93c0 943c e9be 9df4 91c0
00000140: d019 89be 989e 96c0 a219 90c0 c47d 9cc0
00000150: 15f6 99c0 5e49 97c0 5bbe b7be c588 9cc0
00000160: 80f7 91c0 98be 8cc0 0f60 98c0 9827 97c0
00000170: 292a 9ac0 5654 91c0 9714 9ac0 056d 92c0
00000180: ead2 95c0 e31e 90c0 3e69 90c0 2ba0 93c0
00000190: be25 9dc0 f7de 80bf a8c5 92c0 22da 8dc0
000001a0: 7cbf b4bf de73 98c0 ec88 91c0 cf35 9bc0
000001b0: 18b5 93c0 4c1e 8bc0 131e 87be 8ed7 95c0
000001c0: 8009 a0c0 6fa9 98c0 1c02 56bf 5ba7 1abf
000001d0: 849c 8dc0 259b 9bc0 fda6 92c0 e0cd 8ac0
000001e0: bbe7 96c0 70c4 34bf 2199 91c0 5eea 97c0
000001f0: bb9e d6bf 13c7 92c0 b4fb 9dc0 0964 8ec0
00000200: 585a 1bbf 3016 90c0 c6bb 99c0 72dc 9ac0
00000210: 5fd1 95c0 74c4 8ec0 c5c5 8ac0 b797 8dc0
00000220: 7862 8fc0 b101 8ec0 22c5 98c0 e776 8ec0
00000230: 8733 95c0 d52e 99c0 a9f9 96c0 585a 9bc0
00000240: 8ca7 9bc0 f186 97c0 6621 92c0 4dd1 9ec0
00000250: 5648 9ac0 1ad5 93c0 f13d 2dbf 60b3 8dc0
00000260: 9237 98c0 c4fe 8fc0 61af 8dc0 3a2d 9bc0
00000270: 6c1f 95c0 31ca 8ec0 9932 91c0 5a4e 99c0
00000280: 0e3f 91c0 564d 91c0 b6d0 45bf 5bda 8fc0
00000290: 8b84 8ec0 8f08 38bf a63a 8bc0 9708 96c0
000002a0: 3e93 90c0 3c0c 99c0 2e45 94c0 878f 90c0
000002b0: 1fdc 94c0 b6a2 92c0 5d69 9bc0 551b 98c0
000002c0: ed53 9ac0 8d58 99c0 75a9 95c0 93e6 94c0
000002d0: ac72 8cc0 b7f9 15bf 07bf 4fbf 5d5f 96c0
000002e0: 253c 95c0 417b 87be 5b79 96c0 0a17 94c0
000002f0: d640 a7be ac4f 9ac0 bd8a 9fc0 e809 98c0
00000300: ef33 8cc0 e81d b13d 5789 a3bf d57c 9dc0
00000310: 75c2 98c0 613f 8fc0 21da 23bf 9cc6 98c0
00000320: 8b58 9bc0 ffa5 90c0 a5b2 90c0 2d86 97c0
00000330: e80b 8fc0 e3ee 9cc0 a2da c5be bccd 94c0
00000340: 7bd2 93c0 4f16 8cc0 38c6 99c0 0590 8ec0
00000350: 5e20 8cc0 ea87 8bc0 7023 8ec0 9649 8ec0
00000360: e880 90c0 15aa 9ac0 f959 4dbf 57be 98c0
00000370: 877f febe 2c78 9ec0 cfad 99c0 db07 9cc0
00000380: 5df6 9ac0 e3ec 8dc0 c3d1 8bbf 359e 99c0
00000390: 0e29 8cc0 00b2 8fc0 12e8 8ec0 8095 90c0
000003a0: f3d7 92c0 9cf7 9ac0 37f5 9cc0 d8aa 8cc0
000003b0: ec36 9bc0 0d1f 9ac0 0d02 96c0 efa9 9bc0
000003c0: 4631 94c0 18b8 9cc0 9d4b 8cc0 2c18 90c0
000003d0: d61f e2be da18 8fc0 56b7 8dc0 905d 98c0
000003e0: 8edf 25bf 898c c7be ab54 c1bf 9c59 a0c0
000003f0: 93a5 96c0 64cf 8dc0 ce79 8ec0 a8d4 9bc0
-0.927328 -0.45589036 -4.4695206 -4.8113003 -4.6764975 -0.61613417 -4.6541824 -1.0189487
-4.693067 -4.3523464 -1.5541078 -4.4809365 -0.33807912 -4.9800625 -4.755068 -1.1418118
-4.8050857 -0.7466063 -4.6524663 -4.725156 -0.7593286 -4.493048 -4.26603 -1.413487
-1.0961424 -0.86645114 -4.5804024 -1.4974957 -0.5294946 -4.688728 -4.38833 -1.2288946
-4.663438 -4.786127 -4.448685 -1.2211792 -4.362758 -0.22404316 -4.4212613 -0.8064788
-4.4475803 -4.8080063 -4.6356807 -0.83925587 -0.6068106 -1.0322535 -0.89487654 -4.6469927
-1.418127 -4.3039265 -4.898984 -4.52337 -4.722488 -4.634842 -4.8655677 -4.6202602
0.034540318 -0.69162714 -0.6500768 -4.8965316 -4.952536 -4.5305376 -4.805234 -4.6458845
-4.7073965 -4.8180003 -0.76852596 -4.723016 -4.423901 -4.822823 -4.4863667 -0.6117134
-4.766309 -4.8527393 -4.843218 -4.8096843 -4.529594 -4.598649 -0.4555403 -4.56111
-0.26777506 -4.7068596 -4.503129 -4.8903522 -4.8112893 -4.727706 -0.35887417 -4.8916955
-4.5614624 -4.398266 -4.761726 -4.723583 -4.8176465 -4.541545 -4.8150134 -4.575808
-4.6819963 -4.5037704 -4.512847 -4.6133018 -4.910857 -1.0068043 -4.586628 -4.4328775
-1.4120936 -4.764144 -4.547964 -4.8503184 -4.615856 -4.3474483 -0.26390132 -4.682563
-5.0011597 -4.770683 -0.8359697 -0.60411614 -4.425356 -4.8626885 -4.5828843 -4.337631
-4.7157874 -0.7061224 -4.5499425 -4.7473593 -1.6767191 -4.586801 -4.9369755 -4.4497113
-0.6068473 -4.5027084 -4.8041716 -4.83941 -4.681808 -4.461481 -4.336642 -4.42477
-4.48077 -4.4377065 -4.774064 -4.4520144 -4.66254 -4.786967 -4.717976 -4.8547783
-4.8642025 -4.7352223 -4.566577 -4.9630494 -4.82133 -4.6197634 -0.6767264 -4.4281464
-4.7567835 -4.4998493 -4.4276586 -4.849271 -4.6600857 -4.4621816 -4.5374265 -4.7908144
-4.538947 -4.5406904 -0.7727159 -4.4954047 -4.4536796 -0.7188806 -4.350909 -4.6885486
-4.517974 -4.7827435 -4.633445 -4.5175204 -4.6518703 -4.582362 -4.8566117 -4.7533364
-4.822745 -4.7920594 -4.6769357 -4.6531463 -4.388998 -0.5858416 -0.8115086 -4.699141
-4.663592 -0.26461223 -4.702314 -4.6278124 -0.32666653 -4.8222256 -4.985686 -4.7512093
-4.3813396 0.08648282 -1.2776288 -4.9214883 -4.7737374 -4.4764867 -0.64004713 -4.7742443
-4.8545585 -4.520263 -4.521807 -4.735129 -4.4702034 -4.904161 -0.38643366 -4.650114
-4.6194434 -4.377723 -4.8054466 -4.4550805 -4.378951 -4.360341 -4.441826 -4.4464827
-4.5157356 -4.833262 -0.8021541 -4.773235 -0.4970667 -4.9521694 -4.802467 -4.875959
-4.8425736 -4.435167 -1.0923389 -4.8005624 -4.3800116 -4.4904785 -4.465829 -4.5182495
-4.588861 -4.8427258 -4.9049335 -4.395855 -4.8504543 -4.8162904 -4.6877503 -4.864494
-4.631015 -4.8974724 -4.38423 -4.5029507 -0.44164914 -4.4717836 -4.42863 -4.761421
-0.6479424 -0.38974407 -1.5103964 -5.0109386 -4.7077117 -4.431566 -4.4523687 -4.869709
