Python/RNN/models/modelOGRE.pt (torch, 321311 bytes, 10 tensors)

fc1.weight f4 [35, 100]
0	0xc00be2cd	-2.1857178
1	0xbfc096ff	-1.504608
2	0x402280c0	2.5391083
3	0x3f59b2c3	0.85038394
4	0xbfff7af8	-1.9959402
5	0xc038a32f	-2.88496
6	0xbecf92aa	-0.40541583
7	0xbf0a129c	-0.53934646
8	0x3eba2586	0.36356753
9	0x3f08e038	0.5346713
10	0xbfb21c14	-1.3914819
11	0xc0068c59	-2.1023161
12	0xc0025e5f	-2.03701
13	0x3e20db0c	0.1570856
14	0x3f846fab	1.0346578
15	0x3de4e212	0.11175932
16	0xbf4b7ade	-0.79484355
17	0xbebec146	-0.3725683
18	0x3f1f888e	0.6231774
19	0xbf5c7d16	-0.86128366
20	0xbfbb485f	-1.4631461
21	0xbd9dd4f6	-0.07706635
22	0xbe4e4363	-0.20142893
23	0x3fc80b11	1.5628377
24	0xbf953f76	-1.1659992
25	0xbe03214e	-0.12805673
26	0x3e59e4dc	0.21278709
27	0x3f485314	0.7825177
28	0x3f20edb4	0.62862706
29	0xbf89c155	-1.0762125
30	0x3ee9aa05	0.45637527
31	0xbe26af13	-0.16277723
32	0x3ea7b4c4	0.327551
33	0x3eeb7daf	0.45994326
34	0x3f84a4f5	1.0362841
35	0xc05cc02c	-3.4492292
36	0x3f4ddfbf	0.80419534
37	0x3f04e5f6	0.5191339
38	0xbee963d6	-0.4558398
39	0x3f163e4f	0.58688825
40	0x3febb655	1.8415018
41	0x3eb4ba30	0.352983
42	0x3f5b5dc9	0.8568998
43	0x3f752d92	0.9577266
44	0x3f587849	0.8455854
45	0xbf9d4035	-1.228522
46	0xbeca027a	-0.39455014
47	0x3eef3762	0.4672194
48	0xbf1f20df	-0.6215953
49	0xbdef191b	-0.1167471
50	0xbefbd78d	-0.4918789
51	0xbec785af	-0.3896918
52	0x3f5d8676	0.86533296
53	0xbe1caa9e	-0.1529946
54	0x3e2222a2	0.15833524
55	0xbf130fb0	-0.5744581
56	0x3e991faa	0.2990697
57	0x3f812bdb	1.0091509
58	0xbeb5358f	-0.35392424
59	0x3e4dee31	0.20110394
60	0xbfadf627	-1.3590745
61	0x3f08f53f	0.53499216
62	0xbef28583	-0.47367486
63	0xbec638e6	-0.38715285
64	0x3fc6a393	1.5518669
65	0xbdd61bb6	-0.10454504
66	0x3e1d8577	0.15382944
67	0x3fc11dba	1.5087197
68	0x3d8c3729	0.068464585
69	0xbf972267	-1.1807374
70	0x3db38aa9	0.08766682
71	0x3f99c221	1.2012368
72	0x3f5d2466	0.86383665
73	0x3fdbf0db	1.7182878
74	0x3e99c6e4	0.30034554
75	0x3e69b671	0.22823502
76	0xc077d4f6	-3.872373
77	0x4044ade1	3.0731127
78	0xbfca701a	-1.5815461
79	0xbe2097d5	-0.1568292
80	0x400505d7	2.0784814
81	0x3f3183ff	0.69342035
82	0x3fb9a449	1.4503261
83	0x3f5def5b	0.8669335
84	0x3ffd2049	1.9775478
85	0xbf6e2818	-0.9302993
86	0x3f98f0a8	1.1948442
87	0xbfee852e	-1.8634393
88	0xbe2cbcce	-0.16868898
89	0xc078ac60	-3.885521
90	0xbf5c49f4	-0.86050344
91	0xbf4c5fdf	-0.7983379
92	0xbcf1aa5e	-0.029500183
93	0xbef66538	-0.481241
94	0x3dbacae0	0.091207266
95	0xbf93a488	-1.1534586
96	0x3ee1945a	0.44058496
97	0x3c082d19	0.008311533
98	0xbde612c9	-0.11234052
99	0x3e8cc53d	0.2749423
100	0xbd6d9847	-0.05800655
101	0x3cd7df74	0.026351668
102	0xbd97ba22	-0.07408549
103	0xbd471da3	-0.04861225
104	0x3dae4989	0.085101195
105	0xbd0de356	-0.034640633
106	0xbd5e85d7	-0.05432686
107	0x3d3ced0e	0.04612451
108	0xbcee05ec	-0.029055558
109	0xbdcb361f	-0.09922432
110	0x3c9ed200	0.019387245
111	0x3ce4c0bc	0.027923934
112	0x3dc7caeb	0.097555004
113	0x3d901fe9	0.070373364
114	0xbda90898	-0.08253592
115	0xbdc1b7ca	-0.09458883
116	0xbcacf7c0	-0.02111423
117	0xbcae062c	-0.021243177
118	0xbdaa9bae	-0.08330475
119	0xbd06e970	-0.032937467
120	0xbbec6200	-0.007213831
121	0xbdb3d1a3	-0.087802194
122	0xbdbc676a	-0.09199412
123	0xbdc6fc57	-0.09716099
124	0x3cd7ddb4	0.026350833
125	0x3d983063	0.07431104
126	0xbd562f70	-0.052291334
127	0xbce43ac0	-0.027860045
128	0x3da0f497	0.07859152
129	0x3b9f8a80	0.0048688054
130	0x3d90c2b5	0.070683874
131	0xbd72ad1a	-0.059247114
132	0x3cd16084	0.025558718
133	0xbd9ebe00	-0.077510834
134	0xbd139436	-0.036030017
135	0xbcd6c998	-0.026219174
136	0x3d8e6553	0.0695292
137	0xbbd38120	-0.006454602
138	0x3dca00c9	0.09863431
139	0xbc51dc40	-0.012808859
140	0x3d9f60d9	0.07782144
141	0x3cdd718c	0.027031682
142	0x3dc9f819	0.09861774
143	0x3dc05c59	0.09392614
144	0x3dbba773	0.09162798
145	0xbd9fc8da	-0.07801981
146	0xbd8e3e45	-0.06945471
147	0x3dc4654d	0.09589634
148	0xbb8a21d0	-0.0042154565
149	0x3d5e54b6	0.054280005
150	0xbd683c8d	-0.05669837
151	0xbc408028	-0.011749305
152	0x3d8f5241	0.069981106
153	0xbd9977da	-0.07493563
154	0xbd4f44e0	-0.050602794
155	0xbdb2c467	-0.08728867
156	0x3cca1918	0.024670169
157	0x3d71e792	0.059058733
158	0xbdaaf2ee	-0.083471164
159	0xbd2f4b5a	-0.04279647
160	0xbd87bc9e	-0.06627773
161	0xbd6bb6c7	-0.057547357
162	0x3cb24a0c	0.021763824
163	0xbdc5e830	-0.09663427
164	0xbd735b5d	-0.059413303
165	0x3c8064b4	0.015673019
166	0x3c78e190	0.015190497
167	0xbdad3953	-0.08458199
168	0xbd744a3d	-0.05964111
169	0x3be14920	0.0068751723
170	0xbda8b728	-0.08238059
171	0x3d1ea842	0.038734682
172	0xbda1549d	-0.07877467
173	0xbd69c073	-0.0570683
174	0x3d434426	0.047672413
175	0x3d56bc86	0.052425884
176	0xbd0768f4	-0.033059075
177	0x3ca6d2f4	0.020364262
178	0xbd769c07	-0.060207393
179	0x3d296aee	0.04136174
180	0xbc9dec20	-0.019277632
181	0x3c10af10	0.008830801
182	0x3d6f34f2	0.058400102
183	0x3da8c6e1	0.08241058
184	0xbd8f1705	-0.069868125
185	0xbc840a38	-0.016118154
186	0x3ccdbcfc	0.025114529
187	0x3cde63c4	0.027147181
188	0xbdbe2913	-0.09285178
189	0x3ca70b60	0.020391166
190	0xbdb13015	-0.08651749
191	0x3ca19c40	0.019727826
192	0x3a91c600	0.0011121631
193	0x3d7e0f56	0.062026344
194	0x3d1185d6	0.035528027
195	0xbce291f4	-0.027657486
196	0xbd99d536	-0.0751137
197	0xbd93e0ed	-0.072206356
198	0x3d89cb45	0.06728224
199	0xbd36fbcd	-0.04467373
200	0xbfbe47cd	-1.4865662
201	0xbecdb86a	-0.4017976
202	0xbfcd8475	-1.6056048
203	0x3f3022d1	0.68803126
204	0x3ef8aa88	0.48567605
205	0xbfbd5e66	-1.4794433
206	0xbfec5c0f	-1.8465594
207	0x404fec19	3.2487853
208	0xbf8b5021	-1.0883828
209	0x3f4ff755	0.81236774
210	0xbf732a85	-0.94986755
211	0x3d2f82ba	0.04284928
212	0xc00932b5	-2.14372
213	0xbf076976	-0.52895296
214	0x3f213ec5	0.62986404
215	0xbe1eff73	-0.15527134
216	0x3f5a361d	0.8523882
217	0xbfc33865	-1.5251585
218	0xbfa6f736	-1.3044193
219	0xbebb6152	-0.36597687
220	0xbecaa898	-0.39581752
221	0xbf8bac0c	-1.091188
222	0xbedcd492	-0.43130928
223	0x3ffcc970	1.9748974
224	0x4080e1d7	4.0275683
225	0x3fa3389a	1.2751648
226	0xbf081bc8	-0.5316739
227	0xbfef371a	-1.8688691
228	0xbdb451d4	-0.0880467
229	0xbf3fde00	-0.7494812
230	0x3f8d26a7	1.1027421
231	0x3e9b4b27	0.30330774
232	0x3f8e6d95	1.1127192
233	0x3f6161f4	0.8804009
234	0xbf530c33	-0.8244049
235	0xc02657c8	-2.5991077
236	0xbdffe19a	-0.12494202
237	0x3f9c544e	1.2213228
238	0x4003c1d7	2.058706
239	0xbf97673e	-1.1828382
240	0xc0608aaa	-3.5084634
241	0xc0081af8	-2.126646
242	0x3e9d8639	0.30766466
243	0x3e617642	0.22017768
244	0x3fa3bd3b	1.2792124
245	0xbed868b2	-0.42267376
246	0x3d8b9c41	0.068169124
247	0xbf0070fd	-0.50172406
248	0x3fca4b7b	1.5804285
249	0x3d0d923f	0.0345633
250	0x3f41a922	0.756487
251	0x3ff0f661	1.8825189
252	0x3f47dbfd	0.7807005
253	0x3f5430d9	0.82887036
254	0xbdeec476	-0.11658566
255	0x3ed0cc3b	0.40780815

fc1.bias f4 [35]
0	0x3e67ed02	0.22649005
1	0xbd74e32a	-0.059786953
2	0x3e9a3608	0.30119348
3	0x3e083767	0.13302384
4	0xbca0f314	-0.019647159
5	0xbd60f330	-0.05491942
6	0x3e1488c3	0.14505295
7	0x3e30cb9d	0.17265172
8	0x3e5f20b6	0.21789822
9	0xbd8ccdf3	-0.06875219
10	0x3e78ef30	0.24309993
11	0x3e75ae79	0.23992337
12	0xbd7ac5a3	-0.061223637
13	0x3e744eeb	0.2385823
14	0xbca0ef6c	-0.019645415
15	0x3eb24c5c	0.34823883
16	0xbd2ccad0	-0.042185605
17	0x3e85ebe2	0.26156527
18	0x3e78a6b7	0.24282347
19	0x3e027f10	0.12743783
20	0x3e465147	0.19366942
21	0xbd64ad9a	-0.05582962
22	0xbc6c4c86	-0.0144225415
23	0xbd75f863	-0.060051333
24	0x3e6a4f84	0.22881895
25	0x3ef826ae	0.4846701
26	0x3eb2552c	0.34830606
27	0x3e7377c9	0.23776163
28	0xbcacfa80	-0.021115541
29	0x3e58b326	0.2116209
30	0xbd54af7a	-0.05192516
31	0xbcd7a060	-0.02632159
32	0x3e70567d	0.23470493
33	0x3ea7f00a	0.32800323
34	0x3e42fde6	0.19042167

attention.weight f4 [35, 1000]
0	0xbcbc0b19	-0.02295451
1	0xbc1afaf2	-0.009459244
2	0x3b8fa280	0.004383385
3	0xbc6c4f9a	-0.014423275
4	0x3c43b364	0.0119446255
5	0xbbec0d9c	-0.007203771
6	0xbc8b8dff	-0.017035482
7	0xbc93f8d4	-0.018062986
8	0xbbc2b818	-0.005942356
9	0xbc9b456a	-0.018953998
10	0xbcc9c552	-0.024630222
11	0xbc297da4	-0.010344896
12	0xbcbcf9c9	-0.023068326
13	0x3cf39230	0.029732794
14	0x3c2d6d18	0.010585092
15	0x3b629f40	0.0034579784
16	0xbcd3cd80	-0.025854826
17	0x3cc8cb16	0.024510901
18	0x3c405e10	0.011741176
19	0xbcc7525a	-0.02433126
20	0x3c08cf54	0.008350212
21	0x3cbfb002	0.023399357
22	0x3ce8e312	0.028428588
23	0x3c6699e8	0.01407478
24	0x3c22a4dc	0.009927001
25	0xbc9903e4	-0.018678613
26	0xbcd4372f	-0.02590522
27	0xbb0f3190	-0.002184961
28	0x3c931ee0	0.017959058
29	0x3c9da176	0.01924203
30	0xbc06bb74	-0.008223403
31	0x3cd3a89a	0.025837231
32	0x3c251c6c	0.010077577
33	0x3ba3fd00	0.005004525
34	0x3c5ba55c	0.013406124
35	0xbcb2e336	-0.021836858
36	0x3cd49174	0.025948264
37	0x3c924196	0.01785354
38	0x3beb2e78	0.0071771704
39	0x3cd923c0	0.026506305
40	0x3c9bcee2	0.019019548
41	0xbbabce50	-0.0052431
42	0x3ceddf9c	0.02903729
43	0x3cfc4b80	0.03079772
44	0xbcf056c6	-0.029338252
45	0x3b2334e0	0.0024903342
46	0xbc8fb80c	-0.017543815
47	0xbc922ea5	-0.017844507
48	0x3b7a2250	0.0038167424
49	0x3c4148ec	0.011797171
50	0xbcafe704	-0.021472462
51	0xbc196286	-0.009361869
52	0xbcb9fe12	-0.022704158
53	0xbca35357	-0.0199372
54	0xbcead42b	-0.028665623
55	0xbc14b558	-0.009076439
56	0x3c39859c	0.011323359
57	0x3bfbe358	0.0076870136
58	0x3c0916b8	0.008367233
59	0x3c19181c	0.009344127
60	0xbad128d0	-0.0015957598
61	0xbb97cddc	-0.0046326946
62	0x3ca2ed46	0.019888531
63	0x3cbb602e	0.02287301
64	0xbce9e1f6	-0.02855013
65	0xbc2d99b8	-0.010595731
66	0x3ca96f74	0.020683028
67	0x3c98cdda	0.018652845
68	0x3cfe1fe4	0.031021066
69	0xbc962b0e	-0.018331077
70	0xbc5febd2	-0.013667064
71	0x3c1914bc	0.009343322
72	0x3cb9dc66	0.022688102
73	0xbc9b3df6	-0.018950444
74	0x3cc6468a	0.024203558
75	0x3c07af38	0.0082815215
76	0x3c5907ec	0.013246518
77	0x3c3686a8	0.011140503
78	0xbc8ad9c5	-0.016949544
79	0x3a334a00	0.0006839335
80	0x3cddd044	0.027076848
81	0xbcbd4476	-0.023103934
82	0xbc9e7fa2	-0.01934797
83	0xbcfd25a9	-0.030901747
84	0xbc3cc81c	-0.011522319
85	0xb89cd400	-7.478148e-05
86	0xbac239e0	-0.0014818273
87	0xbcbdc55c	-0.023165397
88	0xbc1a8696	-0.009431502
89	0xbc1a10cc	-0.009403419
90	0xbc081f56	-0.008308252
91	0x3b1f7ff0	0.0024337731
92	0x3be6b3e8	0.0070404895
93	0xbcebd3d4	-0.028787531
94	0x3b065e90	0.002050314
95	0xbc568db6	-0.01309531
96	0xbc3d5e30	-0.011558101
97	0xbcff4cfb	-0.031164637
98	0x3cb51934	0.022106744
99	0x3cfa6f6e	0.030570712
100	0x3d167171	0.03672928
101	0xbc643b48	-0.013930149
102	0x3d2f4f59	0.04280028
103	0x3c927e1e	0.017882403
104	0xbd3a74ca	-0.045521535
105	0x3d52f293	0.051500868
106	0xbce0c62a	-0.027438242
107	0x3d8879a1	0.06663824
108	0x3d5ee8b9	0.05442116
109	0xbcef8e49	-0.029242652
110	0x3c2383cd	0.009980154
111	0x3d0ec8e7	0.034859564
112	0xbd67b9cc	-0.056573674
113	0x3ca7cbd3	0.020482933
114	0x3d5307ef	0.051521238
115	0xbc9b418e	-0.018952157
116	0x3d301900	0.04299259
117	0x3d83126a	0.063999966
118	0x3d2e6719	0.04257879
119	0xbc804e80	-0.015662432
120	0xbd369cb8	-0.044583052
121	0xbc8eb0cc	-0.017418288
122	0xbb209420	-0.0024502352
123	0x3d1e47b1	0.03864259
124	0xbc7134a8	-0.014722027
125	0xbd17375e	-0.036918037
126	0x3c8e223a	0.017350305
127	0xbd27bd0e	-0.04095178
128	0xbc0f70a1	-0.00875488
129	0xbcafcac3	-0.021458989
130	0xbbebf3cb	-0.0072006932
131	0x3c2de395	0.010613342
132	0x3cf6ec7c	0.030142061
133	0x3d8bf216	0.068332836
134	0xbcd3b673	-0.025843835
135	0xbd03cc01	-0.032176975
136	0xbd090694	-0.03345354
137	0x3ccc8d92	0.02496985
138	0x3cbe868b	0.023257514
139	0xbcace3ba	-0.021104682
140	0xbb81a3fb	-0.0039563156
141	0x3c103fd1	0.0088042775
142	0xbd2d6ae0	-0.042338252
143	0xbd193174	-0.037400678
144	0xbbd9ab7f	-0.0066427584
145	0xbd10de2e	-0.035368137
146	0xbcad0211	-0.02111915
147	0xbd11028e	-0.035402827
148	0x3a82f974	0.0009992556
149	0xbc02573d	-0.00795537
150	0x3c92683d	0.01787197
151	0x3d419aca	0.04726676
152	0x3cc5e47b	0.0241568
153	0xbd0697d6	-0.032859646
154	0x3b56eb28	0.0032793973
155	0x3cbc57ee	0.022991147
156	0x3ca94d5a	0.020666767
157	0x3d83671a	0.064161494
158	0x3c50df7a	0.012748593
159	0x3ca66f48	0.020316735
160	0x3d3be816	0.04587563
161	0x3d6177fa	0.05504606
162	0x3c5b09a2	0.013368996
163	0xbaa60f57	-0.0012669367
164	0xbc460acf	-0.012087538
165	0x3cfbd8dd	0.030743057
166	0x3cd3cc9a	0.025854398
167	0xbc92f2bc	-0.01793801
168	0xbd6ad946	-0.057336114
169	0xbd8a6909	-0.06758315
170	0xbd610f57	-0.05494627
171	0xbd62ed5d	-0.05540215
172	0xbd354b74	-0.04426141
173	0x3cef15ed	0.02918526
174	0xbd16bb1f	-0.036799546
175	0xbcb88fc8	-0.022529498
176	0x3ca487da	0.02008431
177	0x3d763dbb	0.060117465
178	0xbd0c3078	-0.03422591
179	0xbcb6530a	-0.022256393
180	0xba92dad7	-0.0011204135
181	0xbd491186	-0.049088977
182	0x3d5b0883	0.053474914
183	0xbc945bfa	-0.018110264
184	0x3d855d93	0.065119885
185	0xbd73b74e	-0.059500985
186	0xbc905f6b	-0.017623624
187	0x3c2bba81	0.010481478
188	0xbd4189b4	-0.047250465
189	0xba72a240	-0.00092557445
190	0x3a20a3a1	0.0006127898
191	0x3c959592	0.018259797
192	0x3d3db0c1	0.046311144
193	0xbb1a7653	-0.0023569062
194	0x3d15baaf	0.03655499
195	0xbc40e77d	-0.011773941
196	0x3d78f3aa	0.06077925
197	0x3cede581	0.0290401
198	0xbd61a7ce	-0.05509167
199	0x3c468d30	0.012118623
200	0x3d6e5d04	0.058194175
201	0xbd217afd	-0.03942393
202	0x3d0c635a	0.034274437
203	0xbcb720ee	-0.02235457
204	0x3c8f0f1d	0.017463261
205	0xbd364f60	-0.04450929
206	0xbc1dacb6	-0.009623697
207	0x3d8aab8c	0.06771001
208	0xbc2dd407	-0.010609633
209	0x3ccac907	0.02475406
210	0x3c9b4da5	0.018957922
211	0xbd76d9c5	-0.060266275
212	0x3cd02618	0.02540879
213	0x3d16034d	0.03662424
214	0xbcd18e4a	-0.025580544
215	0xba10f83d	-0.00055301544
216	0xbd36e166	-0.04464855
217	0xbd2f86e3	-0.042853247
218	0x3d0bf1f8	0.034166306
219	0xbc2f75cd	-0.010709238
220	0xbd16c715	-0.036810953
221	0xbbfd67d5	-0.007733325
222	0xbc62f3ab	-0.01385204
223	0xbc02bb40	-0.007979214
224	0x3d293437	0.04130956
225	0x3d32bce7	0.043637183
226	0x3d452e7f	0.048140045
227	0xbcd5f166	-0.026116084
228	0x3c800a11	0.0156298
229	0xbd450da5	-0.048108716
230	0xbd56f5d0	-0.05248052
231	0x3d70190a	0.05861763
232	0x3cd53794	0.026027478
233	0xbc7c3527	-0.015393532
234	0xbd273d9f	-0.04083025
235	0xbd1cc413	-0.03827293
236	0xbc17a7cd	-0.009256315
237	0xbc189991	-0.009313957
238	0x3d8bb089	0.06820781
239	0x3a958e26	0.0011410161
240	0xbbb74ac4	-0.0055936296
241	0xbc832e50	-0.016013294
242	0xbd41028a	-0.047121562
243	0xbd7b8814	-0.06140907
244	0x3d1f7352	0.038928337
245	0x3d8bd9ad	0.06828628
246	0xbd4d2fe7	-0.05009451
247	0x3d39cd7a	0.045361973
248	0x3c896991	0.01677397
249	0xbcf84c73	-0.030309891
250	0x3d15df7f	0.036590096
251	0x3c45e82b	0.012079279
252	0x3c1e030b	0.00964428
253	0x3cf8925b	0.030343225
254	0x3ccb02bb	0.024781575
255	0x3d03928c	0.03212218

attention.bias f4 [35]
0	0xbd3f7a96	-0.046747766
1	0xbccb396f	-0.02480766
2	0xbbd9ba0d	-0.0066444934
3	0x3d024962	0.031808265
4	0xbc802bfa	-0.01564597
5	0x3daa5d15	0.08318535
6	0x3e977597	0.295819
7	0x3e0171c0	0.12641048
8	0xbcf3aac1	-0.029744508
9	0xbdb986be	-0.09058903
10	0x3dcba26b	0.09943088
11	0xbd2fe7bc	-0.04294561
12	0xbd28b0f2	-0.041184373
13	0x3df5a619	0.11994571
14	0x3eb2f602	0.34953314
15	0x3d8a7c3b	0.06761976
16	0xbd3253e7	-0.043537047
17	0x3d9f3ddf	0.07775473
18	0xbcc1f4ec	-0.023676358
19	0xbcb5a1c0	-0.022171855
20	0x3db3d584	0.08780959
21	0xbd4ffeed	-0.050780226
22	0xbd0c46c2	-0.034247167
23	0x3ecd6dc9	0.40122822
24	0x3e9cb46f	0.3060641
25	0xbdd7ab29	-0.10530693
26	0xbd58275a	-0.052771904
27	0x3eadf69d	0.33977214
28	0xbd934ce4	-0.071924
29	0xbd18e366	-0.03732624
30	0xbd2d49d4	-0.042306736
31	0xbcf642b3	-0.030061102
32	0x3ebd0f36	0.36925668
33	0xbd77e479	-0.060520623
34	0xbcc8e13e	-0.024521466

attention2.weight f4 [15, 35]
0	0x3d896deb	0.06710418
1	0x3dfbb274	0.122898966
2	0xbd109543	-0.035298597
3	0x3d115748	0.03548363
4	0xbdc69e2c	-0.09698138
5	0x3d8127a1	0.06306387
6	0x3d9d33ed	0.0767592
7	0xbe3e84da	-0.18605366
8	0x3df12d90	0.117762685
9	0x3d64868c	0.055792376
10	0xbde13629	-0.10996658
11	0x3de800fc	0.11328313
12	0x3e1159f2	0.14194468
13	0xbe201685	-0.1563359
14	0xbdf68141	-0.12036372
15	0xbe1c2423	-0.1524816
16	0x3af109d8	0.0018389774
17	0xbdf8722e	-0.12131153
18	0x3dd28c52	0.1028067
19	0xbd7f7892	-0.062370844
20	0xbdfdeb19	-0.12398357
21	0xbdb4f636	-0.088360235
22	0xbd125db5	-0.035733897
23	0xbdcec48a	-0.100960806
24	0x3d92599a	0.071459964
25	0xbd994132	-0.07483138
26	0x3e2b62ec	0.16736954
27	0xbb41cb17	-0.0029570514
28	0x3d93651e	0.07197021
29	0xbc7fb9d8	-0.015608273
30	0x3d8e31f4	0.069431216
31	0x3dd05d8c	0.10174093
32	0xbe3e1f34	-0.1856659
33	0xbe0e3b92	-0.13889912
34	0x3d49aa48	0.04923466
35	0xbe06680f	-0.13125633
36	0x3e10e2ef	0.14149068
37	0xbc72f078	-0.01482784
38	0xbb80f3ad	-0.0039352984
39	0xbd2772b0	-0.04088086
40	0xbe2dc691	-0.16970278
41	0x3f0e3b16	0.5555891
42	0x3e80dae5	0.25167003
43	0xbdcadf6f	-0.09905898
44	0x3f21b289	0.6316305
45	0xbf07258f	-0.52791685
46	0x3c3f92b0	0.011692688
47	0xbdd12883	-0.10212805
48	0xbe48a192	-0.19592884
49	0xbd88bea3	-0.06676986
50	0xbe41fec0	-0.18944836
51	0x3e835f90	0.25658846
52	0x3d6e6a05	0.058206577
53	0x3e0d05a3	0.13771681
54	0x3e12ebc4	0.1434775
55	0xbde9558e	-0.113932714
56	0xbe297313	-0.16547804
57	0xbdeaefb8	-0.11471504
58	0xbe52a026	-0.20568904
59	0x3dd203f1	0.10254658
60	0xbd60a39e	-0.054843538
61	0xbd8f3b14	-0.0699369
62	0x3df652a4	0.12027481
63	0xbc57fd2c	-0.0131829195
64	0xbca6cab3	-0.020360326
65	0x3dc1bad0	0.0945946
66	0x3dcfa7a0	0.10139394
67	0x3d748a02	0.059701927
68	0x3dc560ce	0.09637605
69	0xbe2e81d5	-0.17041714
70	0xbc96c303	-0.018403536
71	0x3d6c464b	0.057684224
72	0xbd6c9aae	-0.0577647
73	0xbf741377	-0.953422
74	0xbf5ba568	-0.85799265
75	0xbf0f6edf	-0.5602855
76	0x3f87077e	1.0549161
77	0xbe5f0eeb	-0.21783035
78	0x3df9a608	0.12189871
79	0xbfce3688	-1.6110392
80	0xbeabb3a7	-0.335355
81	0xbdbcff38	-0.092283666
82	0xbe1bd233	-0.15216903
83	0xbf2d3f2a	-0.67674506
84	0x3f34c68d	0.70615464
85	0x3f35aa66	0.7096313
86	0xbeae19e7	-0.34004137
87	0xbf373c13	-0.7157604
88	0xbe1af854	-0.15133792
89	0xbe21ca20	-0.15799761
90	0x3f33f47a	0.70294917
91	0xbd8cc6c5	-0.0687385
92	0x3be1f31e	0.006895437
93	0x3d0b24ff	0.03397083
94	0x3caa778b	0.020808956
95	0xbd32c32d	-0.043643165
96	0x3dc837e4	0.09776285
97	0xbc644dd5	-0.013934572
98	0x3c97acaa	0.01851495
99	0x3d89a972	0.06721772
100	0x3e0dd6c4	0.13851458
101	0x3e2ad8fc	0.16684335
102	0xbb9e35e4	-0.0048282016
103	0xbd9c18be	-0.07621907
104	0x3d97ac8c	0.074059576
105	0x3d873ec7	0.06603771
106	0x3d032792	0.03202016
107	0x3fc58ed0	1.5434208
108	0xbf8354a8	-1.026021
109	0xbe31be46	-0.1735774
110	0x4019e259	2.4044402
111	0xbee1c32c	-0.44094217
112	0x3e86d8bc	0.2633723
113	0x3c6a9f30	0.01432018
114	0xbfa73fb6	-1.3066318
115	0x3f27c76d	0.65538675
116	0xbd7ecef9	-0.062209103
117	0xbcdb834a	-0.026796002
118	0x3d5bbd60	0.0536474
119	0x3eb3fd2d	0.35154095
120	0xbe840bf3	-0.25790367
121	0x3f01f803	0.5076906
122	0xbebee19b	-0.37281498
123	0xbd8d8071	-0.06909264
124	0x3d812385	0.06305603
125	0x3fe71e0e	1.8056047
126	0x3d1d044a	0.03833417
127	0x3dee5007	0.11636358
128	0xbf1ffdd2	-0.62496674
129	0xbfeccc60	-1.849987
130	0xbcbc0c68	-0.022955135
131	0x3df71d1f	0.12066101
132	0x3ec59165	0.3858749
133	0xbdae49e4	-0.08510187
134	0xbe20e1f1	-0.1571119
135	0xbda82d08	-0.08211714
136	0x3d9e8b4e	0.07741414
137	0xbfd3cf43	-1.6547626
138	0x3d8f619a	0.07001038
139	0xbe0594a8	-0.13044989
140	0x3e0a27fc	0.13491815
141	0x3dcbda91	0.099537976
142	0x401ca729	2.4477026
143	0xbfa54e05	-1.2914435
144	0x3fd648d2	1.6740973
145	0xbe2c956d	-0.16853876
146	0x3eba114d	0.36341324
147	0xc020bb0f	-2.5114172
148	0x3d6ec110	0.058289587
149	0xbfc054aa	-1.5025837
150	0x3f745b89	0.9545217
151	0x3d7ea4fa	0.062169053
152	0xbdb7c5b4	-0.08973256
153	0x3fc8a003	1.5673832
154	0x3f094f0c	0.5363624
155	0xbe85318f	-0.26014373
156	0x3f862dc6	1.0482719
157	0x40193d51	2.3943675
158	0xbd549566	-0.05190029
159	0x400bd9a9	2.18516
160	0x3f8b3ca6	1.0877883
161	0xbe0b33f4	-0.13594037
162	0xbe379154	-0.17926532
163	0xbe703704	-0.23458487
164	0xbfd328df	-1.6496848
165	0x3e2b5dfc	0.16735071
166	0x3d8f9717	0.0701124
167	0xbefed3a7	-0.49770853
168	0x3d8448bf	0.06459188
169	0xbd6c6d27	-0.057721283
170	0x3e162913	0.14664106
171	0x3e149cac	0.1451289
172	0xc0191195	-2.3916981
173	0xbde93e40	-0.11388826
174	0x3d7bb9b9	0.061456416
175	0xbdfb7c38	-0.12279552
176	0x3cb94548	0.022616044
177	0xbdffc13a	-0.12488027
178	0x3c2f54d0	0.010701373
179	0xbe58c240	-0.2116785
180	0xbd93c39b	-0.07215043
181	0xbdf89624	-0.12138012
182	0x3d9f2c95	0.07772175
183	0xbe2698e0	-0.16269255
184	0x3d2b5bb4	0.0418355
185	0xbe4018d9	-0.18759479
186	0xbe27ecff	-0.16399
187	0xbdf4c14f	-0.11950933
188	0xbe5c28b0	-0.21499896
189	0xbe18ac4d	-0.14909478
190	0xbd1f5198	-0.038896173
191	0xbdb32214	-0.08746734
192	0x3dddd483	0.10831549
193	0x3df5ae21	0.11996103
194	0x3da283ff	0.079353325
195	0x3dfe359b	0.12412568
196	0x3e218108	0.15771878
197	0xbbc1b50c	-0.005911475
198	0x3dbcc8ce	0.09217988
199	0xbd0b6226	-0.03402915
200	0x3e1bf991	0.15231921
201	0xbdc07891	-0.09397996
202	0xbde561c5	-0.11200289
203	0xbd961bf5	-0.07329551
204	0x3e0c6b21	0.13712741
205	0x3bfb4480	0.007668078
206	0xbe01094d	-0.12601204
207	0x3de02c0b	0.109459005
208	0x3ccb4628	0.024813727
209	0x3dcbe12c	0.099550575
210	0xbd009a7a	-0.03139732
211	0x3c99647f	0.018724678
212	0x3c373f54	0.011184532
213	0x3f98ffb3	1.1953033
214	0xbc064a23	-0.0081963865
215	0x3e7db573	0.24776249
216	0x3f372953	0.7154743
217	0x3fd2ae7f	1.6459502
218	0xbd54b486	-0.051929973
219	0xbed89fd5	-0.42309442
220	0xbf3e849b	-0.7442109
221	0xbde430b6	-0.111421034
222	0xbdce0d5a	-0.1006114
223	0x3f0151bd	0.5051535
224	0x3d7c34cf	0.0615738
225	0xbe45a33b	-0.19300549
226	0xbf7b7b40	-0.9823494
227	0x3e958195	0.29200426
228	0xbcaa6f65	-0.02080507
229	0x3f1a9555	0.6038411
230	0xbed620fe	-0.41822046
231	0x3daebb72	0.08531846
232	0x3e021b06	0.12705621
233	0xbe6fe2a9	-0.23426308
234	0x3e542152	0.20715836
235	0x3dc7448c	0.09729871
236	0x3ac98c7c	0.0015376951
237	0xbf148ac3	-0.58024234
238	0x3d8665c7	0.06562381
239	0xba4f49c3	-0.00079074147
240	0x3e1f4cb4	0.15556604
241	0x3cc479c8	0.023983851
242	0xbe5ce591	-0.21571948
243	0xbe161cb2	-0.14659384
244	0x3e00bb05	0.12571342
245	0xbddb550d	-0.107095815
246	0x3d92cb5f	0.07167696
247	0x3f43d00f	0.7648935
248	0xbd5b3516	-0.053517424
249	0x400eee20	2.233284
250	0xbfc1d0bc	-1.5141826
251	0xbded5e74	-0.11590281
252	0xbfd45da1	-1.6591073
253	0x3d1e5874	0.038658574
254	0x404ebcec	3.2302809
255	0xbf15578c	-0.5833671

attention2.bias f4 [15]
0	0x3cb86991	0.022511275
1	0xbdf19a15	-0.11796967
2	0x3dbc6390	0.091986775
3	0xbd40b86b	-0.047050875
4	0x3f600824	0.8751242
5	0xbc931fa0	-0.017959416
6	0xbeaa95b0	-0.33317327
7	0x3f4c732d	0.79863244
8	0x3d8ceb5e	0.0688083
9	0x3cb586a3	0.022158926
10	0x3d889e96	0.06670873
11	0xbce5cd7a	-0.02805208
12	0x3ea291d6	0.3175189
13	0xbdef3f6b	-0.11682018
14	0x3dcbcd07	0.09951215

fc2.weight f4 [15, 35]
0	0xbfd72d41	-1.6810685
1	0x3c7141d0	0.014725164
2	0xbedd0f76	-0.43175858
3	0xbdda1a8a	-0.10649593
4	0x3f80bb1f	1.0057105
5	0x3fa4dccd	1.2879883
6	0xbed498fc	-0.41522968
7	0x3f585608	0.84506273
8	0xbebf7a70	-0.373981
9	0x3fa1dcc9	1.2645503
10	0xbeda74cb	-0.4266723
11	0xbffa92ec	-1.9576087
12	0xbd64afa8	-0.05583158
13	0x3fd0b558	1.6305342
14	0x3ee446d4	0.44585288
15	0x3f8c8b4c	1.098001
16	0x3f0a189a	0.5394379
17	0x3f5a1570	0.8518896
18	0x3e303bca	0.17210308
19	0xbe17ccd4	-0.1482423
20	0xbf9e1915	-1.2351404
21	0xbe167bac	-0.14695615
22	0x3dac7b71	0.08421982
23	0x3e1d433b	0.15357678
24	0xc00261a6	-2.03721
25	0x3f927110	1.1440754
26	0x3e249b65	0.16074903
27	0xbf65f7bb	-0.8983113
28	0xbdea19a5	-0.114306726
29	0x3fba336d	1.4546944
30	0xbdd83321	-0.10556627
31	0xbd97ad76	-0.07406132
32	0xbfe7c532	-1.8107054
33	0xbf32afa0	-0.6979923
34	0xbfc98b80	-1.5745697
35	0xc0134d6a	-2.3016
36	0xbdfdf2b6	-0.12399809
37	0x3f41dd5c	0.7572839
38	0x3f83c2ee	1.0293863
39	0xbe959c39	-0.2922075
40	0xbcef89d0	-0.029240519
41	0x3f8c9beb	1.0985082
42	0x3e239348	0.15974152
43	0xbfa21fb1	-1.2665921
44	0x3f4c42aa	0.7978922
45	0x3e5cfa59	0.21579875
46	0x3ee35dc6	0.4440748
47	0x3d8ae05b	0.06781074
48	0xbedff94d	-0.4374489
49	0xbf620a20	-0.882967
50	0xbf70faf9	-0.94132954
51	0x3f94dd3c	1.1630015
52	0x40648ef0	3.5712242
53	0x4056b54b	3.3548152
54	0xbe07c1c5	-0.13257511
55	0x3f192afa	0.598312
56	0x3d8426ea	0.06452735
57	0xbda72374	-0.08161059
58	0xbe466997	-0.19376217
59	0xbf8c57d2	-1.0964301
60	0xbf06d76f	-0.52672476
61	0xc0065f86	-2.0995803
62	0x4050ca0c	3.262332
63	0x3d8d99c8	0.06914097
64	0xbe0f9eec	-0.14025468
65	0x3c496a2f	0.012293383
66	0x3d790bb9	0.060802195
67	0x3f5a1c7f	0.8519973
68	0x4073dd01	3.810364
69	0x3ff3272a	1.8996327
70	0x3f92596a	1.1433537
71	0xbdcebac2	-0.10094215
72	0xbf4cca12	-0.79995835
73	0x3f116413	0.56793326
74	0xbf237ded	-0.6386402
75	0xbf675157	-0.9035849
76	0x403f28ce	2.9868655
77	0xbd605caf	-0.05477589
78	0x3f80cb1f	1.0061988
79	0x3f927057	1.1440533
80	0x3ee8d239	0.45472887
81	0x407144e8	3.7698307
82	0xbdb8d865	-0.09025649
83	0x3e9bb7de	0.30413717
84	0x3d83f345	0.06442884
85	0xc00b21df	-2.1739423
86	0xbeb4c8ed	-0.35309544
87	0xbf1e2522	-0.6177541
88	0x40988c25	4.7671075
89	0x3f53ae85	0.8268817
90	0x3f7c2fa0	0.9851017
91	0x3e012077	0.1261004
92	0xbc9ab733	-0.018886184
93	0xbf07c363	-0.5303251
94	0x3f80c560	1.0060234
95	0x3ee03a59	0.43794516
96	0x3f24daba	0.6439625
97	0xbfff68f9	-1.995391
98	0x3bcb1d83	0.0061985864
99	0xbf3005f3	-0.6875908
100	0xbdaa6398	-0.08319777
101	0xbbc54d2e	-0.0060211634
102	0x3f099a88	0.5375142
103	0x3fe516f2	1.7897627
104	0x40276754	2.6156816
105	0x3ff7ce2d	1.9359795
106	0x3e061e88	0.13097584
107	0x3ff93466	1.9469116
108	0x3efc2ae5	0.49251476
109	0xbe52be0d	-0.20580311
110	0x4008e6e7	2.1390932
111	0x3ef4bedf	0.47801873
112	0x3ecab0a4	0.3958789
113	0x3f00c2e5	0.50297385
114	0xbf13f1ee	-0.5779103
115	0x3f025e51	0.50925165
116	0xbf702a7c	-0.93814826
117	0xbe1a4bce	-0.1506798
118	0x3e6916e8	0.22762644
119	0xbf3b3b13	-0.73137015
120	0xbf3b8312	-0.7324687
121	0x3f646b82	0.89226544
122	0xbd61f216	-0.05516251
123	0x3f7eacbf	0.9948234
124	0xbe6e76d5	-0.23287518
125	0x3fc4709c	1.5346866
126	0x3c447331	0.011990354
127	0xbdfe0ba3	-0.12404563
128	0xbf2a3f10	-0.66502476
129	0xbfbfde47	-1.4989709
130	0xbee5e4b1	-0.4490104
131	0x400145de	2.0198894
132	0xbdf73236	-0.12070124
133	0xbc754e6f	-0.014972313
134	0xbec38e5b	-0.38194546
135	0xbd995675	-0.074871935
136	0xbd3eb7b2	-0.046561904
137	0xbf855720	-1.0417213
138	0x3ef6d16a	0.48206645
139	0x3f731c9a	0.9496552
140	0xbe297023	-0.16546683
141	0xbbe195e0	-0.0068843216
142	0xbe7dbc81	-0.2477894
143	0xbe035927	-0.12826978
144	0x3d3e4f5b	0.046462398
145	0xbc844b83	-0.016149288
146	0x3db1e26f	0.08685767
147	0xbe35139e	-0.17683265
148	0x3d352f23	0.044234406
149	0x3d589635	0.052877624
150	0x3d9af948	0.07567078
151	0xbd94a047	-0.07257133
152	0x3e1f3f7b	0.1555156
153	0xbda76412	-0.08173384
154	0xbde3c69b	-0.11121865
155	0xbe662aac	-0.22477216
156	0xbe295706	-0.16537103
157	0xbd087e0b	-0.03332333
158	0xbc8a3f13	-0.01687578
159	0xbe516e3b	-0.20452206
160	0xbe662bca	-0.22477642
161	0xbda77a59	-0.08177633
162	0xbceee71e	-0.02916294
163	0x3ddeb1a1	0.10873724
164	0xbd184128	-0.037171513
165	0xbde01e3f	-0.10943269
166	0xbdfd8017	-0.12377947
167	0xbe04b528	-0.1295973
168	0x3e041f45	0.12902553
169	0xbdf47a31	-0.11937369
170	0x3deade78	0.11468214
171	0xbd337f1f	-0.043822404
172	0xbe6f3f04	-0.23363882
173	0x3d5e46d1	0.054266755
174	0xbe40da9e	-0.18833396
175	0x3fa40b3d	1.281593
176	0x3d99d24a	0.075108126
177	0xbfbe8cbe	-1.4886701
178	0x3f84b713	1.036837
179	0xbdad4a43	-0.0846143
180	0x3fb24c94	1.392962
181	0x3e5fb8a6	0.21847782
182	0x3f813b52	1.0096228
183	0x3f241b43	0.641041
184	0x3fcada95	1.5847956
185	0xbfa20d8a	-1.2660382
186	0xbe557ac6	-0.20847616
187	0xbd8c9632	-0.06864585
188	0x3eff5b89	0.49874523
189	0xbeb13fad	-0.34618893
190	0x3ee63682	0.4496346
191	0xbf1b0a98	-0.6056304
192	0xbed6f960	-0.41987133
193	0x3e92569b	0.285817
194	0x3ea14451	0.31497434
195	0xbf0a2174	-0.53957295
196	0x3d975359	0.07388944
197	0x3e066460	0.13124228
198	0xbf874aeb	-1.0569738
199	0x3e5f92ec	0.2183339
200	0xbcb05948	-0.021526948
201	0x3fc073db	1.5035356
202	0xbeb2b404	-0.34902966
203	0xbd641a5d	-0.055689204
204	0x3f0c1f6d	0.5473545
205	0xbd6bf192	-0.057603426
206	0xbd8bb391	-0.06821359
207	0xbf4ef2ce	-0.8083924
208	0xbf80a7f9	-1.0051261
209	0x3c3b1d80	0.011420608
210	0x4023b1ec	2.5577345
211	0x3bb98d07	0.0056625637
212	0x3f6532c4	0.8953059
213	0x3ee2b01f	0.44274995
214	0xbcc10c73	-0.023565507
215	0xbee01092	-0.43762642
216	0x3fae3b23	1.3611797
217	0x4040462a	3.0042825
218	0x3f161b95	0.58635837
219	0xbf44f1ca	-0.7693144
220	0xbf8ce7b3	-1.1008209
221	0x3ec9b8d8	0.39398837
222	0xbc1a5c71	-0.009421454
223	0x3f9ff47d	1.2496487
224	0xbb4ece8e	-0.0031556222
225	0xbfd41ce3	-1.6571316
226	0xbd71dd40	-0.05904889
227	0x4002abe4	2.0417414
228	0x3f83664b	1.0265592
229	0x3dabadb6	0.08382742
230	0x3f7a1b33	0.9769775
231	0xbd7bd3f8	-0.061481446
232	0xbdde80bf	-0.108644
233	0x3dd3389f	0.10313534
234	0x3f93a027	1.153325
235	0xbef5bd99	-0.47996214
236	0xbec22e10	-0.37925768
237	0xbf6e7d33	-0.9315979
238	0xbd0a6f0c	-0.03379731
239	0xc0328b54	-2.789754
240	0xbdf22a30	-0.11824453
241	0xbd96f7ed	-0.07371507
242	0x3dfb2c8a	0.122643545
243	0xbfea0498	-1.8282652
244	0x4052521f	3.2862623
245	0x3d498cad	0.049206425
246	0xbe210ec2	-0.15728286
247	0x3d6d57b3	0.057944965
248	0x3d9bcdbf	0.07607602
249	0x3e276273	0.16346149
250	0xbe3cfab8	-0.18455017
251	0x3bd57012	0.006513604
252	0xbdcbad8d	-0.099452116
253	0x3d908b60	0.07057834
254	0x3e3a704f	0.18206905
255	0x3da7c079	0.08191008

fc2.bias f4 [15]
0	0x3f07283c	0.5279577
1	0xbe9e2200	-0.30885315
2	0xbe976964	-0.29572594
3	0xbea1053d	-0.3144931
4	0xbd31c793	-0.04340322
5	0x3bad002c	0.0052795615
6	0xbe3d3c5d	-0.18480058
7	0xbe004ff3	-0.12530498
8	0xbd68e82c	-0.05686204
9	0x3da6ff0a	0.081541136
10	0xbd998f77	-0.07498067
11	0x3c6bfef3	0.014404046
12	0x3a5c6992	0.0008408065
13	0xbd554296	-0.052065454
14	0xbe1a2435	-0.15052874

fc3.weight f4 [2496, 15]
0	0xbfc0a429	-1.5050098
1	0xc10ac63c	-8.673397
2	0xbf0ab847	-0.54187435
3	0xbf9e50e6	-1.2368438
4	0xbfc04a42	-1.5022662
5	0xc073b3b3	-3.807843
6	0xbf0a953d	-0.5413397
7	0xc0c88998	-6.266796
8	0xbf562b64	-0.8365996
9	0xbfd0393f	-1.626747
10	0xbfc742e6	-1.5567291
11	0xbf854cc1	-1.0414048
12	0xc00c2c3a	-2.1901994
13	0xbf9d9a54	-1.2312722
14	0xc00de9bd	-2.2173913
15	0xbfd6ba83	-1.6775669
16	0xc14aef29	-12.683389
17	0xbee43626	-0.44572562
18	0x3e01ccb3	0.12675743
19	0xc03a8a1e	-2.91468
20	0xbf504afb	-0.8136441
21	0xc03897ce	-2.8842654
22	0xc0f25d8d	-7.57392
23	0xbf94be0e	-1.16205
24	0xc03e4bd5	-2.9733784
25	0xbec242d9	-0.37941626
26	0xbfd231a6	-1.6421402
27	0xbf0c3c48	-0.5477948
28	0xc043b138	-3.0576916
29	0xc0429916	-3.0405936
30	0xc07bb9a7	-3.9332063
31	0xbfc2af6a	-1.5209782
32	0xc00ce18e	-2.2012668
33	0xbf71662a	-0.94296515
34	0xbfdef63a	-1.7418892
35	0xbf32c937	-0.6983828
36	0xc02fc79e	-2.7465587
37	0xbfb5ab03	-1.4192814
38	0xbf848e68	-1.0355959
39	0xbf91ad10	-1.138094
40	0xbe00e102	-0.12585834
41	0xbfb581dd	-1.4180256
42	0xc00375c3	-2.0540626
43	0xbf15d300	-0.58525085
44	0xbf81432d	-1.0098625
45	0xbfa9b71c	-1.3259006
46	0xbe86e90d	-0.2634968
47	0xc11f11fc	-9.941891
48	0xbf9e43ed	-1.2364479
49	0xbee9c84b	-0.45660624
50	0xbfed3ded	-1.8534523
51	0xc028a4aa	-2.6350503
52	0xbfd32991	-1.649706
53	0xc01329d6	-2.2994285
54	0xbe18cbaa	-0.14921442
55	0xbe52a4f8	-0.20570743
56	0xc0be604c	-5.949255
57	0xc0144800	-2.3168945
58	0xbe8e1cd3	-0.27756366
59	0xc01be908	-2.436098
60	0xc02b2b46	-2.6745162
61	0xc00bbf53	-2.1835525
62	0xc02874ff	-2.6321409
63	0xc02ce2ae	-2.7013354
64	0xc0672eba	-3.612227
65	0xbdc3a601	-0.09553147
66	0xc02d10c2	-2.7041478
67	0xbfdeab4f	-1.7396029
68	0xc08a3a1d	-4.319594
69	0xbeb08e96	-0.34483784
70	0xbfe7f023	-1.8120159
71	0xbfd411a9	-1.656789
72	0xc094765e	-4.639449
73	0xc001814a	-2.0235162
74	0xbeab08f9	-0.33405283
75	0xbf824d05	-1.0179754
76	0xbf776e50	-0.966527
77	0xbffc4ff9	-1.9711906
78	0xbef4ff2a	-0.47850925
79	0xbf7e0744	-0.99229836
80	0xc0049a9f	-2.0719373
81	0xbe6d7dae	-0.23192474
82	0xbf95bef1	-1.1698896
83	0xc04ccd91	-3.2000468
84	0x3fe9d141	1.8266984
85	0xc0ab7ee6	-5.3592405
86	0xbfdfbc5e	-1.747936
87	0xc06554f8	-3.583311
88	0xc0be8618	-5.953869
89	0xbfc48b69	-1.5355045
90	0xc1615217	-14.082541
91	0xbe97f4bf	-0.29678914
92	0xc0d2dee0	-6.5897064
93	0xc112d242	-9.176332
94	0xc0ee259c	-7.442091
95	0xc0744e5e	-3.8172832
96	0xc03d54c5	-2.958299
97	0xc0a76de0	-5.2321625
98	0xbe86d454	-0.26333869
99	0xbf6f1408	-0.9338994
100	0xc14293fc	-12.161129
101	0xc0207b04	-2.5075083
102	0xbf27090d	-0.65248185
103	0xbee2fc0b	-0.4433292
104	0xbf81e15b	-1.0146898
105	0xc026e9e0	-2.6080246
106	0xbfed4b28	-1.8538561
107	0xc0389909	-2.8843405
108	0xc02046e4	-2.5043268
109	0xc0665888	-3.5991535
110	0xbd3f12fd	-0.046648968
111	0xc01b2152	-2.4239087
112	0xbfef3b05	-1.8689886
113	0xc088b09e	-4.2715597
114	0xbdebacff	-0.11507606
115	0xbfe00bf7	-1.7503651
116	0xbfea10d6	-1.8286388
117	0xc08bafa1	-4.365189
118	0xbff01e87	-1.8759316
119	0xbe56536e	-0.20930263
120	0xc0195684	-2.3959055
121	0xbd651b0c	-0.055933997
122	0xbf53b63a	-0.8269993
123	0xc0422e7c	-3.0340872
124	0xbef166c1	-0.47148708
125	0xc01055f6	-2.2552466
126	0xbee7116b	-0.45130476
127	0xbf50fc88	-0.8163533
128	0xc05760da	-3.3652864
129	0xbed26b2c	-0.4109739
130	0xc03b35fa	-2.9251695
131	0xc04fa9a1	-3.2447283
132	0xc084e3ae	-4.152793
133	0x3f228c97	0.63495773
134	0xc0834055	-4.101603
135	0xc030b952	-2.761311
136	0xbff8944f	-1.942026
137	0xc02d8bc7	-2.7116563
138	0xc0280934	-2.6255617
139	0xc054dd9a	-3.3260255
140	0xbe87cc84	-0.2652322
141	0xc024522d	-2.5675156
142	0xbff25e36	-1.8935001
143	0xc0881c7d	-4.2534776
144	0xbec25b31	-0.379602
145	0xc00605c6	-2.0941024
146	0xbfe41f7a	-1.7822106
147	0xc09cc493	-4.898996
148	0xbfed3b58	-1.8533735
149	0xbe545619	-0.20735969
150	0xc02e0bf1	-2.7194788
151	0xc0099064	-2.149438
152	0xc02e4fe7	-2.7236269
153	0xc0289fae	-2.634746
154	0xc0606767	-3.5063112
155	0xbea7d493	-0.3277937
156	0xc01a50c6	-2.41118
157	0xbfd3efbd	-1.6557537
158	0xc08fa5fd	-4.4890122
159	0xbd2f2829	-0.04276291
160	0xc000ee80	-2.014557
161	0xbfd23863	-1.6423458
162	0xc0967ee8	-4.7029915
163	0xbff00e3e	-1.8754346
164	0xbec71326	-0.38881797
165	0xc01c37f9	-2.4409163
166	0xc0030a4e	-2.047504
167	0xc02fa433	-2.744397
168	0xc0309141	-2.7588656
169	0xc06c44a3	-3.6916893
170	0xbd27b245	-0.040941495
171	0xc034b097	-2.8232782
172	0xbffd3b10	-1.978365
173	0xc08d93ed	-4.4243073
174	0xbe3bac27	-0.1832739
175	0xbff4ed31	-1.9134885
176	0xbfd21f48	-1.6415796
177	0xc090f1f2	-4.5295343
178	0xbff389c7	-1.9026421
179	0xbe65fc56	-0.2245954
180	0xc01fa9ad	-2.4947312
181	0xbfe0c75a	-1.7560837
182	0xc029fb20	-2.6559525
183	0xc02ffcd7	-2.7498071
184	0xc05cb6c0	-3.4486542
185	0xbe05ca40	-0.13065434
186	0xc015f3c2	-2.3430028
187	0xbfe3809a	-1.7773621
188	0xc08b9a06	-4.3625517
189	0x3d91d2e9	0.07120306
190	0xc000befb	-2.0116565
191	0xbfea25ee	-1.8292825
192	0xc093d681	-4.6199346
193	0xbff71ce7	-1.9305695
194	0xbeac04f1	-0.3359752
195	0xc028d9d2	-2.6382947
196	0xbfeb3d73	-1.8378128
197	0xc0204345	-2.5041058
198	0xc021cb8e	-2.528049
199	0xc0614b4c	-3.5202208
200	0xbcf76aac	-0.030202232
201	0xc0203ee9	-2.5038397
202	0xbfdfaad1	-1.7474004
203	0xc08d3841	-4.413117
204	0xbe28bc69	-0.16478123
205	0xbfeab0af	-1.833517
206	0xbfe4ffbc	-1.7890544
207	0xc08e9cfe	-4.456664
208	0xbfe6d17a	-1.8032677
209	0xbe306f10	-0.17229867
210	0xc01bc545	-2.4339154
211	0xc011ee96	-2.2801871
212	0xc02e9450	-2.7278023
213	0xc022681c	-2.5376043
214	0xc06d683b	-3.7094867
215	0xbc1003ed	-0.0087899985
216	0xc02f5d66	-2.7400756
217	0xc001d1b3	-2.028424
218	0xc084150f	-4.1275706
219	0xbeb1b725	-0.3471004
220	0xbff1a233	-1.8877624
221	0xbff6ec66	-1.9290893
222	0xc08f5059	-4.478558
223	0xbfe0a01d	-1.7548863
224	0xbe789e16	-0.24279055
225	0xc009b4b9	-2.1516554
226	0xbeca9bb3	-0.39571914
227	0xbff40147	-1.906289
228	0x3efe02ff	0.4961166
229	0xbf72aa31	-0.9479094
230	0xbef87366	-0.48525542
231	0xc034127f	-2.813629
232	0xc0466eb0	-3.1005058
233	0xc0894625	-4.2898126
234	0x3f4468f5	0.7672265
235	0xbe72ad8c	-0.23699015
236	0xc052ea16	-3.2955375
237	0xc00d33fa	-2.2062974
238	0xc0055cdc	-2.0837927
239	0xbf34f326	-0.70683515
240	0xc02b0f71	-2.6728175
241	0xc00dea23	-2.2174156
242	0xc0339208	-2.805788
243	0xc0299fe6	-2.6503844
244	0xc066d125	-3.6065152
245	0x3d8ea258	0.06964558
246	0xc0225899	-2.5366576
247	0xbfd0d8b9	-1.6316139
248	0xc0853042	-4.162141
249	0x3d973b66	0.07384376
250	0xc000def2	-2.0136075
251	0xbfdd26ff	-1.7277526
252	0xc096c33b	-4.711332
253	0xbfe4dfbe	-1.7880781
254	0xbe9938a0	-0.29926014
255	0xbf5c8ae8	-0.86149454

fc3.bias f4 [2496]
0	0xbfa50850	-1.2893162
1	0xbf916b14	-1.1360803
2	0xbf2e7697	-0.68149704
3	0xc0082d36	-2.1277595
4	0xc022b9c3	-2.542588
5	0xc0079d38	-2.1189709
6	0xbf03e9a9	-0.5152841
7	0xc023cbd7	-2.5593164
8	0xc0353d4e	-2.8318667
9	0xc0141e01	-2.3143313
10	0xc01955fd	-2.3958733
11	0xc018086a	-2.3755136
12	0xc02a4677	-2.6605508
13	0xc032d622	-2.7943196
14	0xc014b9ab	-2.3238323
15	0xc04b7761	-3.1791613
16	0xc02b8738	-2.680128
17	0xbef895cb	-0.48551783
18	0xc022bf45	-2.5429242
19	0xc01cb04f	-2.448261
20	0xc02f4217	-2.7384088
21	0xbffe3e13	-1.9862694
22	0xc029872a	-2.6488748
23	0xc0075a02	-2.1148686
24	0xc016d810	-2.3569374
25	0xc0049537	-2.0716074
26	0xc0155c4b	-2.333758
27	0xc0310eeb	-2.7665355
28	0xc0194125	-2.394601
29	0xbfb594e6	-1.4186065
30	0xc01d4ce3	-2.4578178
31	0xc02fb627	-2.7454927
32	0xc02376d3	-2.5541275
33	0xbed5d9d6	-0.41767758
34	0xbf6dafc7	-0.9284634
35	0xc0163d9f	-2.347511
36	0xc03bff62	-2.9374623
37	0xc030fde1	-2.7654955
38	0xc021fd56	-2.5310874
39	0xc033e1ad	-2.8106492
40	0xc01b1658	-2.4232388
41	0xc02e8e8f	-2.727451
42	0xc01b0c15	-2.4226124
43	0xc0276ade	-2.6158977
44	0xc02803ea	-2.625239
45	0xbfd28196	-1.6445796
46	0xc01ed882	-2.4819646
47	0xc011f6a8	-2.2806797
48	0xc01e1c8d	-2.4704926
49	0xc02c4f7e	-2.6923518
50	0xbfcfab4f	-1.6224154
51	0xbfa80413	-1.3126243
52	0xc03080cb	-2.757861
53	0xbf2f4fb8	-0.68481016
54	0xc0347931	-2.819897
55	0xc01d3c71	-2.456814
56	0xbf79ec65	-0.97626334
57	0xc024c141	-2.5742953
58	0xc018f31c	-2.3898382
59	0xc03e0088	-2.9687824
60	0xbf6c0123	-0.92189234
61	0xbfe4e89e	-1.7883489
62	0xc033fa2a	-2.8121438
63	0xc020762f	-2.5072134
64	0xc041560c	-3.020877
65	0xbfcf8022	-1.6210978
66	0xc0273613	-2.6126754
67	0xc01a562e	-2.41151
68	0xbfc88761	-1.5666314
69	0xbfdb6a32	-1.7141783
70	0xbfd0bd8d	-1.6307846
71	0xbfb7aead	-1.4350182
72	0xc029afa1	-2.6513445
73	0xbf9f23d4	-1.2432809
74	0xbfa64a8c	-1.29915
75	0xbf04af69	-0.51830155
76	0xc02bddfd	-2.685424
77	0xc005a8e6	-2.0884337
78	0xc01ea56f	-2.4788473
79	0xc02da5f5	-2.7132542
80	0xbfbf8ad8	-1.4964247
81	0xc0260386	-2.593965
82	0xc032da5c	-2.7945776
83	0xc01dfac2	-2.46843
84	0xc018a6bd	-2.385177
85	0xc00394fe	-2.0559688
86	0xc01c5a8a	-2.443026
87	0xc037fa89	-2.8746665
88	0xbf0f036b	-0.5586459
89	0xc019dbe2	-2.4040456
90	0xc02874ed	-2.6321366
91	0xbf863e19	-1.0487701
92	0xbf9c6387	-1.2217873
93	0xc02b9940	-2.6812286
94	0xc01fc97e	-2.496673
95	0xc018ceac	-2.3876143
96	0xc022b2e2	-2.5421681
97	0xc00f62e2	-2.2404103
98	0xc0156e1f	-2.3348463
99	0xc034f9ab	-2.8277385
100	0xc02affcf	-2.6718633
101	0xc029e6ab	-2.6547039
102	0xc0216134	-2.5215578
103	0xc02ae0ea	-2.6699777
104	0xc0372d5f	-2.8621442
105	0xc015e185	-2.3418896
106	0xc021e89f	-2.529823
107	0xc01f87d0	-2.4926643
108	0xc0305ff1	-2.7558558
109	0xc030ec4e	-2.764423
110	0xc0143e88	-2.3163166
111	0xbec9e872	-0.39435154
112	0xc02014a3	-2.5012596
113	0xc03aac1c	-2.9167547
114	0xc038390a	-2.8784814
115	0xc01c9b43	-2.4469764
116	0xc0328c21	-2.7898028
117	0xc01e979d	-2.4780037
118	0xc0204a60	-2.5045395
119	0xc028c55c	-2.6370459
120	0xbeb390a5	-0.35071293
121	0xc0339570	-2.805996
122	0xc01cf1af	-2.4522512
123	0xc028a8e5	-2.6353085
124	0xc030cfb4	-2.7626772
125	0xc01fe90b	-2.4985988
126	0xc00a85f7	-2.1644266
127	0xc0115c3d	-2.2712548
128	0xc01a763e	-2.413467
129	0xc016b38a	-2.3547082
130	0xc02b18e6	-2.6733947
131	0xc01752d3	-2.3644302
132	0xc03043e7	-2.7541444
133	0xc0310411	-2.7658732
134	0xc02be58d	-2.6858857
135	0xc037c39a	-2.8713136
136	0xc030d824	-2.7631922
137	0xc0291acf	-2.6422613
138	0xc0283b55	-2.6286213
139	0xc0292a46	-2.6432052
140	0xc0290da8	-2.6414585
141	0xc02b59cb	-2.6773555
142	0xc02c087d	-2.688018
143	0xc026e79c	-2.6078863
144	0xc03193a3	-2.774636
145	0xc026af9e	-2.6044688
146	0xc015866d	-2.3363297
147	0xc01e3624	-2.4720545
148	0xc0229d7e	-2.5408626
149	0xc0323b17	-2.7848566
150	0xc02a6104	-2.6621714
151	0xc01bff3a	-2.4374528
152	0xbf8d008c	-1.1015792
153	0xc0175d14	-2.365056
154	0xc031838b	-2.7736537
155	0xc02f9175	-2.743253
156	0xc02d0bba	-2.7038407
157	0xc01b0f40	-2.4228058
158	0xc02e048e	-2.719028
159	0xc01741e0	-2.3633957
160	0xc02d6ae6	-2.7096496
161	0xc02de437	-2.7170541
162	0xc030ec9b	-2.7644413
163	0xc0263f52	-2.5976148
164	0xc022b44f	-2.5422552
165	0xc025455b	-2.5823581
166	0xc025113e	-2.5791774
167	0xbd9441e4	-0.0723913
168	0xc01da38f	-2.4631078
169	0xc018d0fb	-2.3877552
170	0xc023aa5e	-2.5572734
171	0xc02a2ed8	-2.659109
172	0xc028f783	-2.640107
173	0xc028662c	-2.631236
174	0xc01d1a17	-2.4547174
175	0xc0217ad2	-2.5231214
176	0xc02d5f4b	-2.7089412
177	0xc01a2a83	-2.4088447
178	0xc035652f	-2.8343008
179	0xc02a4cd1	-2.6609385
180	0xc025ddb1	-2.591656
181	0xbfc14a7f	-1.5100859
182	0xc031e898	-2.7798214
183	0xc032fec5	-2.7968
184	0xc018363a	-2.3783097
185	0xbfac9859	-1.3483993
186	0xc01a2706	-2.4086318
187	0xc0224b05	-2.5358288
188	0xc01a2af9	-2.4088728
189	0xc01b5dba	-2.4275956
190	0xc02d2ef0	-2.7059898
191	0xc01cac6c	-2.4480238
192	0xc02eb354	-2.7296953
193	0xc026ae2c	-2.6043806
194	0xc02d23d0	-2.7053108
195	0xc010af0f	-2.2606847
196	0xc01bef00	-2.4364624
197	0xc01b7b2e	-2.4293933
198	0xc03464f9	-2.818663
199	0xc0338463	-2.8049552
200	0xc029ade7	-2.6512392
201	0xc030530f	-2.7550695
202	0xc028a899	-2.6352904
203	0xc0199e97	-2.4003046
204	0xc02bc274	-2.6837435
205	0xc0199009	-2.3994162
206	0xc029b372	-2.6515775
207	0xc01cd17f	-2.4502866
208	0xc032b011	-2.7919962
209	0xc0291f04	-2.642518
210	0xc0131615	-2.2982228
211	0xc015ff34	-2.3437014
212	0xc02d2b05	-2.7057507
213	0xc0276f8b	-2.616183
214	0xc002d112	-2.0440106
215	0xc02e9d25	-2.7283413
216	0xc034021e	-2.8126292
217	0xbfdfe11c	-1.7490573
218	0xc01b5043	-2.4267738
219	0xc0286718	-2.6312923
220	0xc022b653	-2.5423782
221	0xc0361bc0	-2.8454437
222	0xc0342d9b	-2.8152835
223	0xc01978d2	-2.3979993
224	0xc034d511	-2.8255045
225	0xbfafa87a	-1.372329
226	0xc0198fde	-2.399406
227	0xbfac63f7	-1.3468007
228	0xc0199a52	-2.400044
229	0xc02b33e5	-2.6750424
230	0xc02136c5	-2.5189679
231	0xbeec6180	-0.46168137
232	0xc0289eb3	-2.6346862
233	0xc0240589	-2.5628378
234	0xc014bdb8	-2.3240795
235	0xc01fddc0	-2.4979095
236	0xbee8cfb2	-0.4547096
237	0xc01333de	-2.3000407
238	0xc0125887	-2.2866533
239	0xc01f9c1e	-2.4939036
240	0xc015f756	-2.3432212
241	0xc0259e90	-2.587803
242	0xc018bc0d	-2.3864777
243	0xc01ce142	-2.4512486
244	0xc028fba8	-2.6403599
245	0xc02778f4	-2.6167574
246	0xc023fa1e	-2.562141
247	0xc02863a5	-2.6310818
248	0xc01a67b5	-2.4125798
249	0xc033495f	-2.8013532
250	0xc0275b3c	-2.6149435
251	0xc01d74c5	-2.460252
252	0xc022c48f	-2.543247
253	0xc025df59	-2.591757
254	0xc02a8389	-2.6642783
255	0xc028bd42	-2.6365514
