Python/RNN/models/model22.pt (torch, 139527 bytes, 10 tensors)

fc1.weight f4 [10, 100]
0	0x3fc4fd4c	1.53898
1	0x3f935cdb	1.1512712
2	0xbf2f5164	-0.6848357
3	0xbffd6fcc	-1.9799743
4	0xc0b65e26	-5.6989927
5	0x3ea4ecb4	0.3221184
6	0xbed9e319	-0.42556074
7	0x3e869528	0.26285672
8	0xbf4d979c	-0.8030946
9	0xc013edcc	-2.311389
10	0xbffa9b89	-1.9578716
11	0xbfc2d68e	-1.5221727
12	0xbecba0a7	-0.39771006
13	0x3fa0ed95	1.2572504
14	0x40fbf6a0	7.8738556
15	0xbf2ae435	-0.66754466
16	0x40076534	2.115552
17	0x3faa8238	1.332099
18	0xbf437aeb	-0.7635943
19	0x3ec3b678	0.3822515
20	0xc0b32b7e	-5.599059
21	0xbfb1f5cd	-1.3903137
22	0xbe3bf675	-0.18355735
23	0x3f91c240	1.1387405
24	0x40a731ed	5.2248445
25	0xbfa63d27	-1.2987412
26	0xbdf0d973	-0.11760225
27	0xc082b068	-4.084034
28	0x3f169aab	0.58829755
29	0x4058093b	3.3755634
30	0x3dbaa5c0	0.091136456
31	0x3fcf86d5	1.6213022
32	0xc0127755	-2.2885334
33	0x40414e64	3.0204096
34	0x3fe92d0d	1.8216873
35	0xbf077b8f	-0.5292291
36	0x3eaacf5e	0.33361334
37	0xbf7cc0b8	-0.98731565
38	0xbee88bfe	-0.45419306
39	0xbfc21c04	-1.51648
40	0xc09d7877	-4.920955
41	0x4000e534	2.0139894
42	0xbf9fb09b	-1.2475771
43	0x3ff65b7b	1.9246668
44	0xc04261c0	-3.0372162
45	0xbf84d042	-1.0376055
46	0xc045d6d9	-3.0912383
47	0x3f896c5b	1.0736192
48	0xc009ce3a	-2.153212
49	0xc06c4d9a	-3.6922364
50	0x40097aff	2.148132
51	0x40107804	2.2573252
52	0x4087cb41	4.2435613
53	0xbd7c7fd8	-0.06164536
54	0x3f5d757f	0.8650741
55	0xc003b83d	-2.05812
56	0xbe38b24a	-0.18036762
57	0x401a4020	2.4101639
58	0x3f943ca5	1.1581007
59	0x3fc198f9	1.5124809
60	0x402017cb	2.5014522
61	0x40149158	2.321371
62	0xbfdfd0f4	-1.7485642
63	0xbfb4fbde	-1.4139364
64	0x401a0d9c	2.4070807
65	0x3f09d407	0.53839153
66	0x3ff6941e	1.9263952
67	0x3f992ed1	1.1967412
68	0x3f768c5d	0.9630793
69	0xbe6404d1	-0.22267462
70	0xbebdff16	-0.37108678
71	0xbe853cf9	-0.2602308
72	0x3f4af594	0.7928097
73	0xbfd52830	-1.6652889
74	0xc08b6270	-4.3557663
75	0xc038ca9d	-2.8873665
76	0x3f3313ec	0.69952273
77	0x3f648249	0.892613
78	0x40639ed9	3.5565703
79	0xbf89a75c	-1.0754199
80	0xc0493cc8	-3.1443348
81	0xc00e0594	-2.2190905
82	0xbfbc4746	-1.4709251
83	0xc02767e7	-2.6157167
84	0xbfd995b7	-1.6998814
85	0xc016470d	-2.3480866
86	0xbff585a5	-1.918141
87	0x3f824330	1.0176754
88	0xbda67c28	-0.0812915
89	0xbf31c45f	-0.69440264
90	0xbfa26a83	-1.2688755
91	0x3ea0cd48	0.31406617
92	0x3f86bbe2	1.0526087
93	0x3eb4d665	0.3531982
94	0xbf53085c	-0.8243463
95	0xc02b0cf6	-2.672666
96	0x403b65b9	2.9280837
97	0x3fa9c287	1.326249
98	0xbf86a650	-1.0519505
99	0xbe932721	-0.2874079
100	0xbcc50263	-0.02404899
101	0x3b0552d7	0.0020343566
102	0xbd839d89	-0.06426532
103	0xbd3a8165	-0.045533556
104	0x3d47bc2d	0.048763443
105	0xbb10ed25	-0.0022114005
106	0xbcfbf9eb	-0.030758819
107	0x3ba17679	0.004927453
108	0xbccc8da0	-0.024969876
109	0xbd6d8e8f	-0.057997283
110	0x3daa8e3d	0.08327911
111	0xbaef65ba	-0.001826457
112	0x3c3f2a38	0.011667781
113	0xbc1ca506	-0.009560829
114	0xbd9cdc35	-0.07659189
115	0x3c8a70d0	0.016899496
116	0xbcb193af	-0.021676866
117	0x3d292bfa	0.041301705
118	0x3d900198	0.07031554
119	0xbd100a94	-0.035166338
120	0xbdab5f02	-0.08367731
121	0x3c0a74fd	0.008450744
122	0xbda7fdcd	-0.082027055
123	0xbccc6c0c	-0.024953865
124	0x3ca01e82	0.019545797
125	0xbc5ccb1f	-0.013476162
126	0xbdab7b9a	-0.083731845
127	0x3d74e612	0.059789725
128	0xbdb7efcd	-0.08981285
129	0xbc4fbd04	-0.012679342
130	0x3d076b5e	0.033061378
131	0xbc6c0eed	-0.014407855
132	0xbd9a2a29	-0.07527573
133	0x3db999aa	0.09062512
134	0x3da775bc	0.08176753
135	0xbc6facb2	-0.014628576
136	0xbd000bc8	-0.031261235
137	0x3c5e3130	0.013561532
138	0xbc93eb59	-0.018056558
139	0xbdae458d	-0.085093595
140	0xbd9ec2a4	-0.077519685
141	0xbdba2ad8	-0.09090203
142	0x3d58fc15	0.05297478
143	0xbd5902ab	-0.05298106
144	0x3bfb251c	0.007664336
145	0xbd89b94a	-0.06724794
146	0x3bc8dd0b	0.006129866
147	0xbd61658b	-0.05502848
148	0xbd875ec8	-0.06609875
149	0x3dab69ad	0.083697654
150	0x3d8def71	0.069304354
151	0x3d3cf1f1	0.04612917
152	0xbd3440e4	-0.044007197
153	0xbd36b7d3	-0.044608902
154	0x3d0005d4	0.031255558
155	0x3db89941	0.09013606
156	0x3d93500e	0.071930036
157	0x3db19836	0.0867161
158	0xbc13c610	-0.00901939
159	0x3cf1d87c	0.029522173
160	0x3ce4846d	0.027895177
161	0x3d5bae70	0.053633153
162	0x3d76b0bb	0.060227137
163	0xbc7c9f22	-0.0154188
164	0x3de4ddec	0.11175141
165	0x3d82df68	0.063902676
166	0x3db2ae0e	0.087246045
167	0xbc42954f	-0.011876418
168	0x3ccc2882	0.02492166
169	0x3d08752e	0.033314876
170	0xbc5a4e73	-0.013324368
171	0x3d4b6aeb	0.04966251
172	0x3c818ce0	0.015814245
173	0x3cf9bdce	0.030486014
174	0x3c91c7ac	0.017795406
175	0x3d889c50	0.06670439
176	0xbc9c7445	-0.01909841
177	0x3d8ea825	0.06965665
178	0xbd88faaf	-0.06688439
179	0x3da93d47	0.08263641
180	0xbc6a3422	-0.014294656
181	0x3c7e0adb	0.015505518
182	0x3c4682f6	0.012116184
183	0xba0ca9e9	-0.0005365895
184	0x3da222b0	0.07916772
185	0xbdb3f17b	-0.08786293
186	0x3d37681e	0.04477703
187	0x3d560e5f	0.0522598
188	0x3d982d86	0.07430558
189	0xbc9ed459	-0.019388365
190	0x3dcb3cc5	0.099237
191	0x3cf26576	0.029589396
192	0x3d9e7cfb	0.07738682
193	0xbbce0b02	-0.0062879333
194	0x3cbabdaa	0.022795517
195	0x3cd20a0b	0.025639554
196	0x3cff4ce3	0.031164592
197	0x3db237a4	0.08702019
198	0x3d4e11f3	0.050310086
199	0x3d23c8bd	0.03998636
200	0x3eacb2c5	0.3373014
201	0xc046b621	-3.1048663
202	0xc0703b86	-3.753633
203	0xbf68b012	-0.9089366
204	0xc01ab256	-2.4171348
205	0xbfd8f300	-1.6949158
206	0xc0420166	-3.0313354
207	0x4016d441	2.356705
208	0xc02b6073	-2.6777618
209	0x3fd84098	1.6894712
210	0x3fb481a8	1.4102068
211	0x3fa455d7	1.2838696
212	0xbfe379e2	-1.7771571
213	0x400415b1	2.063824
214	0x3faf6874	1.3703752
215	0xc0463881	-3.0971987
216	0x3d19eb5f	0.037577983
217	0x3f8b78e9	1.0896274
218	0x401b18a5	2.4233792
219	0x400388f9	2.0552351
220	0xbef05664	-0.4694091
221	0x3f5716c6	0.84019125
222	0x3fbcbd8b	1.4745344
223	0x40394c2a	2.8952737
224	0x3f16c8c8	0.5890012
225	0x3fe3f8a6	1.7810256
226	0x3ef3468f	0.4751477
227	0xbf96a65f	-1.1769522
228	0x40fccd8d	7.9000916
229	0xbf786cb6	-0.9704088
230	0x3e3d443b	0.18483059
231	0xc00bf719	-2.1869566
232	0x3e89c9d1	0.26911786
233	0x40263c7e	2.5974422
234	0xbd746119	-0.059662912
235	0xc011d8aa	-2.2788491
236	0x400cb487	2.1985185
237	0xbe399035	-0.18121417
238	0x402c5cf5	2.6931736
239	0xbf5e979a	-0.86950076
240	0xc0cf3fef	-6.4765544
241	0x3ea75756	0.3268382
242	0x3fdb61be	1.7139204
243	0xbf480ca3	-0.7814428
244	0xbfb8a17c	-1.4424281
245	0x402580f4	2.5859957
246	0xc0256a49	-2.5846121
247	0xc012cabb	-2.2936237
248	0xbf96df24	-1.1786847
249	0xc001c449	-2.0276053
250	0xc00fa7a1	-2.2446063
251	0x3fe9def5	1.8271166
252	0xc03c8519	-2.9456236
253	0x3f9964e6	1.1983917
254	0xc0384bbe	-2.879623
255	0x40311188	2.766695

fc1.bias f4 [10]
0	0x3ec36453	0.3816248
1	0xbcaae274	-0.020859934
2	0x3f098f5a	0.5373436
3	0xbc97fc26	-0.018552851
4	0xbd99df20	-0.07513261
5	0xbd93ac5d	-0.0721061
6	0x3f245ccf	0.64204115
7	0xbd5bdbd0	-0.053676426
8	0xbce2c0b8	-0.027679786
9	0xbd8120de	-0.06305097

attention.weight f4 [10, 1000]
0	0x3c1a1d2c	0.009406369
1	0xbcb97e94	-0.022643365
2	0x3c678fec	0.014133435
3	0xbb069038	-0.0020532738
4	0x3cec290e	0.02882817
5	0xbca949f4	-0.020665146
6	0x3b2ba4d0	0.0026190765
7	0x3c8b19d0	0.016980082
8	0x3cb61818	0.022228286
9	0x3c98288c	0.018574022
10	0xbc48c2ce	-0.012253476
11	0xbc96f62a	-0.018427927
12	0xbb9c04d4	-0.0047613177
13	0xbc39fb44	-0.01135141
14	0x3c9820f6	0.018570404
15	0x3cc249e2	0.02371687
16	0x3ce66718	0.02812533
17	0x3ca9612e	0.020676222
18	0x3c9a05ca	0.018801589
19	0xbc4400ee	-0.011963112
20	0x3ca56658	0.020190403
21	0xbcc82cf6	-0.024435502
22	0xbc3c8a40	-0.011507571
23	0x3c47e208	0.012199886
24	0x3ccf0bae	0.025274124
25	0x3ce39300	0.027780056
26	0xbc685634	-0.014180709
27	0x3c4a4b14	0.012347002
28	0xbbdcd26c	-0.0067389514
29	0x3bed0df8	0.007234331
30	0xbc870564	-0.016482063
31	0x3c9ca0e0	0.01911968
32	0xbc2fce0a	-0.010730276
33	0x3b813dc0	0.0039441288
34	0x3cef54ee	0.029215302
35	0x3cbed588	0.023295179
36	0xbcadb98b	-0.021206638
37	0xbcb29b42	-0.021802548
38	0xbcec5266	-0.028847884
39	0x3c6a1ea8	0.014289536
40	0x3cabaf28	0.020957544
41	0xbca965b8	-0.020678386
42	0xb8f4a600	-0.000116657466
43	0x3cb720fa	0.022354592
44	0xbc44746c	-0.011990648
45	0x3c4c5408	0.0124712065
46	0xbc8b8b59	-0.01703422
47	0x3ccda982	0.025105242
48	0x3b3979d0	0.0028301366
49	0xbb637ab8	-0.0034710597
50	0xbd008f3c	-0.0313866
51	0x3ccfa5e0	0.02534765
52	0xbc986944	-0.018604882
53	0xbcc54018	-0.024078414
54	0x3b1b5190	0.0023699738
55	0x3c113594	0.008862872
56	0xbcd8dbe8	-0.026472047
57	0xbcdd09dd	-0.026982242
58	0x3cf7fdac	0.030272327
59	0x3c18f768	0.00933633
60	0xbc6d6e44	-0.014491621
61	0x3caf2722	0.021380965
62	0x3c8a0996	0.016850274
63	0x3cbca096	0.023025792
64	0x3d00afb4	0.031417564
65	0x38d17000	9.986758e-05
66	0x3cd79048	0.026313916
67	0x3caed9aa	0.021344025
68	0x3c77f0e8	0.01513312
69	0xbca9b6d4	-0.020717062
70	0x3c3b6b6c	0.011439186
71	0xbc6110a6	-0.013736879
72	0x3c95a198	0.01826553
73	0x3afacba0	0.0019134171
74	0x3cd7b1f6	0.026329976
75	0xbce9fca9	-0.02856286
76	0x3c9b74f4	0.018976666
77	0x3a4ea240	0.00078824535
78	0x3c8794c8	0.016550437
79	0xbcc021f0	-0.023453683
80	0x3c898970	0.016789168
81	0xbc2e1772	-0.010625707
82	0x3cc427fe	0.023944851
83	0xbbcaf3e8	-0.0061936267
84	0xbc631de4	-0.013862107
85	0x3b437130	0.0029822104
86	0xbc955866	-0.018230628
87	0xbc5a62f2	-0.013329254
88	0xbce70a3a	-0.028203119
89	0xbc62e30a	-0.013848076
90	0x3cc1e46c	0.02366849
91	0xbccfddde	-0.02537435
92	0x3c29250c	0.010323774
93	0xbce621be	-0.028092261
94	0x3b024500	0.0019877553
95	0x3c02de74	0.007987607
96	0x3b229700	0.0024809241
97	0x3bdda2f0	0.0067638084
98	0xbca451aa	-0.020058472
99	0x3b7b2d10	0.003832642
100	0x3d1c97e8	0.038230807
101	0xbe575e17	-0.21031986
102	0x3b308dd9	0.0026940017
103	0xbd0f9db6	-0.035062514
104	0xbebc0b95	-0.36727586
105	0x3e66dc69	0.22545017
106	0x3eb9e845	0.3631002
107	0xbd97d981	-0.074145325
108	0xbf17c4ba	-0.59284556
109	0x3ed379c2	0.4130383
110	0xbe373245	-0.1789027
111	0x3e68fed4	0.22753459
112	0xbf263104	-0.6491854
113	0x3e9986c5	0.29985633
114	0xbe87d977	-0.265331
115	0x3e8a2eca	0.26988822
116	0xbebff562	-0.374919
117	0x3f2465ca	0.6421782
118	0x3e7cfff0	0.24707007
119	0x3d61f27e	0.0551629
120	0xbce5b757	-0.028041525
121	0x3e817909	0.25287655
122	0x3e77ce13	0.24199705
123	0xbf601f62	-0.87547886
124	0x3f18d4a9	0.59699494
125	0xbf1aa351	-0.6040545
126	0xbe9b3691	-0.30315068
127	0x3f03af1f	0.5143909
128	0xbd023520	-0.031788945
129	0xbef19338	-0.47182631
130	0x3db5eb83	0.08882811
131	0x3cb39df2	0.0219259
132	0xbe1bd5d3	-0.15218286
133	0x3eac9cca	0.3371337
134	0x3ed0c703	0.40776834
135	0x3f408b86	0.75212896
136	0xbdc5b24a	-0.096531466
137	0x3ea9c7ba	0.33160192
138	0xbe583e59	-0.21117534
139	0x3ea6f421	0.3260813
140	0x3d148e04	0.03626825
141	0x3d44b905	0.04802801
142	0xbf132cef	-0.5749044
143	0xbe7db657	-0.24776588
144	0x3ed01106	0.40637988
145	0x3cd1b82e	0.025600519
146	0x3ee4e33f	0.44704625
147	0xbe23386d	-0.15939493
148	0x3e8d0caa	0.27548724
149	0xbccb8c11	-0.024847062
150	0xbf5310bb	-0.82447404
151	0xbe07b257	-0.13251625
152	0xbf12a99c	-0.57290053
153	0xbeabe0fe	-0.33570093
154	0x3e91bde1	0.2846518
155	0x3e024197	0.12720333
156	0x3e215415	0.15754731
157	0x3efdaad6	0.495444
158	0x3f290792	0.66027176
159	0xbe123a4f	-0.14280055
160	0x3ed59466	0.41714782
161	0x3dd4e0e9	0.10394461
162	0xbe92519a	-0.28577882
163	0x3e8558fe	0.26044458
164	0x3e7cb181	0.24677087
165	0x3e223a8a	0.15842643
166	0xbcce1fa9	-0.025161581
167	0x3e1f3a56	0.15549597
168	0xbe888fc7	-0.26672193
169	0xbdee0521	-0.11622072
170	0x3cbe5c1c	0.02323728
171	0x3ec8ac71	0.39194062
172	0xbf187404	-0.59552026
173	0xbea2b73b	-0.3178042
174	0x3e055bc3	0.13023286
175	0x3e8d2c44	0.27572834
176	0x3f11fc19	0.57025295
177	0x3f28463a	0.6573216
178	0x3e944a03	0.28962716
179	0xbe23a22d	-0.15979834
180	0x3edb448f	0.42825744
181	0x3ed8effe	0.423706
182	0xbe27ac9f	-0.16374443
183	0x3eb659be	0.35615343
184	0x3ed2d41a	0.41177446
185	0xbeeb9305	-0.46010605
186	0xbe218b7f	-0.1577587
187	0x3f238253	0.63870734
188	0xbedfa519	-0.43680647
189	0xbe0032bb	-0.12519352
190	0xbf12fc5f	-0.5741634
191	0x3eec005b	0.4609402
192	0x3ead23f1	0.33816484
193	0x3d54b268	0.051927954
194	0x3e557cba	0.2084836
195	0x3e9152e7	0.28383562
196	0xbf526537	-0.8218569
197	0xbe88395c	-0.26606262
198	0xbe8f864f	-0.28032157
199	0xbc0614db	-0.008183683
200	0x3f559d5c	0.83443236
201	0x3c927202	0.017876629
202	0x3ef48040	0.47754097
203	0xbdfa25ec	-0.12214264
204	0xbed1dec8	-0.4099028
205	0x3e98850a	0.29789
206	0x3e01ab8c	0.12663096
207	0x3ea84f1c	0.32872856
208	0xbfa7660c	-1.3078017
209	0x3ef3308c	0.47497976
210	0xbd348548	-0.04407242
211	0xbdf7a610	-0.12092221
212	0x3f811d8a	1.008714
213	0x3e17650f	0.14784645
214	0x3eddfbca	0.43356162
215	0x3e322fc2	0.1740103
216	0x3d9a3bfa	0.07530971
217	0x3f154699	0.5831085
218	0x3ea2894a	0.31745368
219	0x3fc039c9	1.5017635
220	0xbf1f8b23	-0.6232168
221	0xbe8a9d66	-0.2707321
222	0xbdaf2585	-0.08552078
223	0xbf72948d	-0.9475792
224	0xbf18e01f	-0.5971698
225	0xbf71d4e7	-0.9446549
226	0xbe890708	-0.26763177
227	0xbde6abb6	-0.1126322
228	0x3e9e7d65	0.30955043
229	0x3e8a832b	0.27053198
230	0x3f3538ed	0.70789987
231	0xbf5de92b	-0.8668391
232	0xbdc16e37	-0.0944485
233	0xbf7e8c90	-0.9943323
234	0x3f263482	0.6492387
235	0x3eef1d2a	0.46701938
236	0x3dd8eb01	0.105916984
237	0xbf9fc82b	-1.2482961
238	0xbd7e0aca	-0.062022008
239	0x3eb9c492	0.36282784
240	0xbec5c70c	-0.38628423
241	0xbf022e66	-0.5085205
242	0xbda00d32	-0.07815017
243	0xbe057951	-0.1303456
244	0x3e8618bd	0.2619075
245	0xbf0cbdd1	-0.54977137
246	0x3f1664eb	0.5874774
247	0xbe0068f3	-0.12540035
248	0x3ebe153c	0.37125576
249	0x3f207efd	0.6269377
250	0x3eea03e3	0.4570609
251	0x3e0d9302	0.1382561
252	0xbf091f89	-0.53563744
253	0x3f192f20	0.5983753
254	0xbe2c5d95	-0.16832574
255	0x3edd9cb8	0.4328363

attention.bias f4 [10]
0	0xbec39ca2	-0.3820544
1	0xbcf2b9e0	-0.029629648
2	0xbd334765	-0.04376926
3	0xbcb87028	-0.022514418
4	0xbdaedcac	-0.085381836
5	0x3f02650e	0.5093545
6	0xbcde87e6	-0.02716441
7	0x3f33e530	0.7027159
8	0x3eac6d0b	0.33676943
9	0xbc1fbe50	-0.009749964

attention2.weight f4 [10, 10]
0	0x40d9d403	6.8071303
1	0xbdd3bb88	-0.10338503
2	0x3d1a8d07	0.03773215
3	0x3e1acae2	0.15116456
4	0x3e9d2ebb	0.30699715
5	0x4015dbf9	2.341551
6	0xbe64fa40	-0.22361088
7	0xbf2bb2e6	-0.6706985
8	0x3fa90425	1.320439
9	0xc0ef971e	-7.487197
10	0x41473a6b	12.451762
11	0xbe3d7745	-0.18502529
12	0x3e648ff0	0.22320533
13	0xbc565f00	-0.013084173
14	0xbc46cb14	-0.012133379
15	0x3fbb684e	1.4641206
16	0xbe36b13a	-0.17841044
17	0xbeab0f3b	-0.33410057
18	0xc00ace7d	-2.168853
19	0x3f808695	1.0041071
20	0xbd178b80	-0.036998272
21	0x3ded5458	0.11588353
22	0xbe36c621	-0.17849018
23	0xbdeca6dc	-0.115552634
24	0x3e7470e2	0.23871186
25	0xbd938466	-0.072029874
26	0xbe0dbb97	-0.13841091
27	0xbe3e2643	-0.18569283
28	0xbdb1ac8a	-0.08675487
29	0xbda97e57	-0.082760505
30	0x3e4dc1ee	0.2009351
31	0x3de523d4	0.11188474
32	0x3e4d852a	0.2007033
33	0x3e25d69a	0.16195145
34	0x3d72d608	0.059286147
35	0xbd4894b8	-0.048969954
36	0x3e4075ba	0.18794909
37	0xbe509b15	-0.20371659
38	0xbe24b155	-0.16083272
39	0xbe78c2d4	-0.24293071
40	0x3e6f5928	0.23373854
41	0x3d68a690	0.05679947
42	0xbe99016b	-0.29883894
43	0x3d609f10	0.054839194
44	0x3e809deb	0.25120482
45	0xbf2a0395	-0.66411716
46	0xbd127130	-0.035752475
47	0x3f21c69c	0.6319368
48	0xbf77d844	-0.9681437
49	0xc01dbed5	-2.4647725
50	0x3efeb687	0.49748632
51	0xbc9d33c0	-0.019189715
52	0x3e8c1db3	0.2736641
53	0xbcb7b240	-0.022423863
54	0xbe685e6a	-0.22692266
55	0xbfff6062	-1.9951289
56	0x3e9894cd	0.29801026
57	0xbfdc05b5	-1.7189242
58	0x4084c4f6	4.149043
59	0x3fdd4bbf	1.7288741
60	0x3e7b9e4e	0.24572107
61	0x3e9dde85	0.3083383
62	0x3e645daa	0.22301355
63	0x3e94c949	0.29059818
64	0x3dc06380	0.09393978
65	0xbc82f300	-0.015985012
66	0xbe820af9	-0.25398996
67	0xbde9e57d	-0.114207245
68	0x3e4de2b5	0.20106013
69	0xbdd43728	-0.10362083
70	0xbec1f4e5	-0.37882152
71	0x3ca7f020	0.020500243
72	0xbccf0410	-0.025270492
73	0x3e6f885a	0.23391858
74	0xbe1de93c	-0.15421003
75	0xbec21f92	-0.3791471
76	0xbe951556	-0.2911784
77	0x3f2c21b7	0.67238945
78	0xc033a2fe	-2.8068233
79	0xbec36b8a	-0.38167983
80	0x3f607b54	0.87688184
81	0xbe5e9c32	-0.21739271
82	0xbe06a477	-0.13148676
83	0xbe7e9a17	-0.24863468
84	0xbe2251fc	-0.15851587
85	0xc010f5f5	-2.265012
86	0xbd1960d8	-0.037445873
87	0x408d0d75	4.4078927
88	0x3f2b0af9	0.6681362
89	0xbf25a6a6	-0.6470741
90	0x3feeee5c	1.8666492
91	0x3e345562	0.17610696
92	0x3d9d49cd	0.07680092
93	0xbe80ac02	-0.25131232
94	0xbda00a12	-0.07814421
95	0xbfad66d6	-1.3547008
96	0x3d93aaf8	0.07210344
97	0xbdc0e665	-0.09418944
98	0x3fedd977	1.858199
99	0xc03de68d	-2.9671967

attention2.bias f4 [10]
0	0x3e12f4ab	0.14351146
1	0x3ef4024e	0.47658008
2	0xbbf3b02a	-0.007436772
3	0xbe79b7e2	-0.24386552
4	0x3e703a52	0.23459747
5	0x3f400b33	0.7501709
6	0xbe953101	-0.2913895
7	0xbf10f42d	-0.5662258
8	0xbcffd063	-0.031227296
9	0x3f52a83a	0.82287943

fc2.weight f4 [10, 10]
0	0x4024569c	2.5677862
1	0x3e8da097	0.27661583
2	0x3fcca8a9	1.5988971
3	0xbe86e74c	-0.2634834
4	0x3e875447	0.26431486
5	0x3fb12b86	1.3841407
6	0x3f8a4fe2	1.0805628
7	0xbf3032dd	-0.6882761
8	0xbec03b9c	-0.37545478
9	0xbfbdafe5	-1.4819304
10	0x40069705	2.1029675
11	0x3e5b044e	0.21388361
12	0xc021b4e2	-2.5266652
13	0x3e8bd55c	0.27311218
14	0xbec0ab27	-0.3763058
15	0x3ff10e10	1.8832417
16	0x411e3ea0	9.890289
17	0xbf835c03	-1.0262455
18	0xc02d0c79	-2.7038863
19	0x3fb0ee2f	1.3822688
20	0x40aee621	5.465592
21	0xbd44bb28	-0.04803005
22	0x3e7d1a6a	0.24717107
23	0xbd8631b8	-0.06552452
24	0x3e90d1c6	0.28285044
25	0x40337030	2.8037224
26	0xc01cc1e3	-2.449334
27	0x3ff06a23	1.878239
28	0x3f9e4bda	1.2366898
29	0xbf2983f0	-0.66216946
30	0x3f7c4f9f	0.9855899
31	0xbe6e276a	-0.23257223
32	0x408ac51d	4.3365617
33	0xbdfcfa46	-0.12352423
34	0x3e7ed16b	0.24884574
35	0xbf830f2c	-1.0239005
36	0xc097276c	-4.7235622
37	0xbeac9cb3	-0.33713302
38	0xbea80d61	-0.32822707
39	0x405f375b	3.4877536
40	0x40adbaa2	5.4290323
41	0x3da2315b	0.0791957
42	0x40cd64e1	6.4185643
43	0xbdf2783a	-0.11839338
44	0xbce84a1b	-0.028355649
45	0xc0409add	-3.009452
46	0xbf08e06b	-0.53467435
47	0xc0134bba	-2.301497
48	0xc024dcac	-2.5759687
49	0x3ff8ab3d	1.9427258
50	0xbea9658e	-0.33085293
51	0xbe9a7211	-0.3016515
52	0xbe9bbd4b	-0.30417857
53	0x3e61649a	0.22011033
54	0x3dd05488	0.10172373
55	0x3e410605	0.18849953
56	0xbe1097a9	-0.14120354
57	0x3cd0266d	0.025408948
58	0x3c9a113f	0.018807052
59	0xbc601667	-0.013677216
60	0x408292e9	4.0804334
61	0xbe28c56b	-0.16481559
62	0xbe711a09	-0.23545088
63	0xbe895d2e	-0.26828903
64	0x3dab717c	0.08371255
65	0x3e8ce7a0	0.27520466
66	0xbfc995d3	-1.5748848
67	0xbea0e6f3	-0.314262
68	0xbed69ddc	-0.41917312
69	0x409a1ec1	4.816254
70	0xc0838bef	-4.1108317
71	0xbe7a9378	-0.24470317
72	0x4123046d	10.1885805
73	0xbde9e00a	-0.11419685
74	0x3dc00a42	0.093769565
75	0x3fcdb657	1.6071271
76	0xc005bb4e	-2.0895572
77	0x3c957beb	0.018247565
78	0x3f057b7e	0.5214156
79	0xbf2b2b2c	-0.6686275
80	0x3eace9df	0.3377218
81	0xbe121f41	-0.14269735
82	0x3f11f4f7	0.5701441
83	0xbe1b20df	-0.15149258
84	0x3e90737f	0.28213117
85	0x3f8ae47d	1.0850979
86	0xbf4775c3	-0.77914065
87	0xbeef094b	-0.46686777
88	0xbfe12325	-1.758885
89	0xbf698f14	-0.91233945
90	0x4096474f	4.6962047
91	0xbe314b3a	-0.17313853
92	0x3f71b2b5	0.9441331
93	0x3d25421d	0.040346254
94	0x3de4d20e	0.11172877
95	0xbfab0d58	-1.3363447
96	0xc033120f	-2.7979772
97	0xbec1fdf3	-0.3788906
98	0xbe10a38f	-0.14124893
99	0xbfb6e04e	-1.4287202

fc2.bias f4 [10]
0	0xbffa5901	-1.9558412
1	0xbf104cce	-0.56367195
2	0xbf9c2637	-1.2199162
3	0xbe974535	-0.29544988
4	0x3f548e82	0.8302995
5	0xbe1e5c47	-0.15464889
6	0xbe2c6f8f	-0.16839431
7	0x3f8b3ff3	1.0878891
8	0xbf14be5b	-0.5810296
9	0x3fd5fed9	1.6718398

fc3.weight f4 [2082, 10]
0	0xc14abdf2	-12.671373
1	0xc0992125	-4.785296
2	0x3e961d17	0.2931907
3	0xbffe4f78	-1.9868002
4	0xc0ed6a06	-7.4191923
5	0xc1af7bc4	-21.935432
6	0xc04d95a0	-3.2122574
7	0xbf5934e1	-0.8484631
8	0x3e9bd634	0.30436862
9	0xc13370aa	-11.215006
10	0xbffdc1ba	-1.9824746
11	0xc050b153	-3.260823
12	0xc0eb69ee	-7.356681
13	0xc0611733	-3.517041
14	0xc1e7f3e0	-28.99408
15	0xc1b1d6c3	-22.229864
16	0xc1b494f1	-22.572725
17	0x3f66677d	0.9000166
18	0xbf61d64d	-0.8821762
19	0xbe8937d7	-0.26800415
20	0xbfc22869	-1.5168582
21	0xbfdb5023	-1.7133831
22	0xc054fec6	-3.3280501
23	0x3f31c778	0.6944499
24	0xbfc8ab7b	-1.5677332
25	0xc159b1c4	-13.6059
26	0xc050fbd1	-3.2653697
27	0xbf893139	-1.0718147
28	0xc0058a18	-2.0865536
29	0xc0c1f295	-6.060862
30	0x3f1d355f	0.6140956
31	0xbfc6037d	-1.5469815
32	0xbf66b35b	-0.90117425
33	0xc0a765b2	-5.231164
34	0xc08de42e	-4.434104
35	0xbffe7e71	-1.9882337
36	0xbf973d6d	-1.1815621
37	0xc03ca64e	-2.9476504
38	0xc09c28d6	-4.879985
39	0xbee17c39	-0.44040087
40	0xc16dc737	-14.861136
41	0xbf9fb0a3	-1.247578
42	0x3e7ff5f1	0.24996163
43	0xbfbb3406	-1.4625251
44	0xc18b7d04	-17.436043
45	0xc1908eb1	-18.069674
46	0xc0bc34d1	-5.8814473
47	0xc196efec	-18.86715
48	0x3f01e63a	0.5074192
49	0xc184386c	-16.52755
50	0xc180e836	-16.113384
51	0xc028c6de	-2.637138
52	0xbfca116a	-1.5786564
53	0xc180e533	-16.111914
54	0xc0ef1121	-7.470841
55	0xc1bb90dd	-23.445734
56	0xc09bc399	-4.8676267
57	0x3f80a81d	1.0051304
58	0xbd4a83a1	-0.049441937
59	0xc19ec0a9	-19.844072
60	0xc08d5bc9	-4.4174542
61	0xbf888086	-1.0664222
62	0xbffd6a67	-1.9798096
63	0xc1b240f1	-22.28171
64	0xbebbbcaf	-0.36667392
65	0xc1e67926	-28.809155
66	0xc029fcb0	-2.6560478
67	0xbf3bb5c0	-0.73324203
68	0xc10f475c	-8.954922
69	0xc16f3dc9	-14.952584
70	0xbfe0b8f8	-1.7556448
71	0xbf78dbd9	-0.9721046
72	0xc11d8934	-9.845997
73	0xc11e9ab0	-9.9127655
74	0xc0ea609a	-7.324292
75	0xc1af9198	-21.94609
76	0xc1db8bf0	-27.443329
77	0xbf771140	-0.96510696
78	0xc02c3050	-2.6904488
79	0xc000b947	-2.0113084
80	0xbf01358f	-0.5047235
81	0xbfb838ca	-1.4392331
82	0xc002d1eb	-2.0440624
83	0xc04e232b	-3.2208965
84	0xbffb7b94	-1.9647088
85	0xc0d64df5	-6.6970162
86	0xbf0e3241	-0.5554543
87	0xc00866f0	-2.1312828
88	0xbfe9a027	-1.8252
89	0xc06b014f	-3.6719549
90	0xbfdac96a	-1.7092717
91	0xc0214556	-2.519857
92	0xc01c5c46	-2.443132
93	0xbf277b0e	-0.6542214
94	0x3f86d318	1.0533171
95	0xc1b27c36	-22.31065
96	0xc1a94ce5	-21.162546
97	0x3a2669fe	0.00063481915
98	0xc0c854f4	-6.2603703
99	0xc151bedd	-13.1090975
100	0xc0659ad5	-3.5875752
101	0xbf73996f	-0.95155996
102	0xbf24f77c	-0.6444013
103	0x3f5455f4	0.82943654
104	0xbfd59f0e	-1.6689165
105	0xc1aad4c6	-21.353893
106	0xbfdd0afb	-1.7268976
107	0xc04ee7cb	-3.2328975
108	0xc0ff4bbc	-7.977995
109	0xc0cdd317	-6.432018
110	0xc08d2a0b	-4.411382
111	0xc0a02698	-5.004711
112	0xc0235e9a	-2.552649
113	0xc0a5e04e	-5.183631
114	0xc0935f6e	-4.605399
115	0xbf8d6331	-1.1045896
116	0xc05e7d61	-3.4764025
117	0xc0414e3d	-3.0204003
118	0xc08a48bb	-4.321378
119	0xc06ce532	-3.701489
120	0xbf762ae5	-0.961592
121	0xbffd9fb0	-1.9814358
122	0xbf3adb41	-0.72990805
123	0xc20c2a00	-35.041016
124	0xbfcb8dde	-1.590267
125	0xc1edc16f	-29.71945
126	0xc221cc88	-40.449738
127	0xc01719de	-2.3609538
128	0xbfd708a1	-1.6799508
129	0xbe5a38e2	-0.21310762
130	0xbf94fa3a	-1.1638863
131	0xc0e70f35	-7.2206063
132	0x3ee67943	0.4501439
133	0xc1f81f9b	-31.015432
134	0xc07d0906	-3.9536757
135	0xc0b917c1	-5.7841496
136	0xc024de1a	-2.576056
137	0xbfdb4512	-1.7130454
138	0xbfef7dbf	-1.871025
139	0x3f33bd35	0.7021058
140	0xbea527ca	-0.3225692
141	0xbf9d7a49	-1.2302943
142	0xbe652030	-0.2237556
143	0xc020b7a0	-2.5112076
144	0xc1788634	-15.532764
145	0xc1965bfd	-18.794916
146	0xc1973a80	-18.903564
147	0xc1af65a0	-21.924622
148	0xc07cff6d	-3.95309
149	0xbcd4c968	-0.025974944
150	0xbf269c00	-0.6508179
151	0xbfad4b12	-1.3538535
152	0xc033572d	-2.8021958
153	0xbf3fb957	-0.7489218
154	0xc00b5175	-2.1768467
155	0xc0681947	-3.6265428
156	0xbfc6c33e	-1.5528333
157	0xbffb56cb	-1.9635862
158	0xc0307696	-2.757238
159	0xbfd4e683	-1.6632847
160	0xc107929d	-8.473294
161	0xbf93babb	-1.1541361
162	0xbf9967ac	-1.1984763
163	0xc177b69a	-15.48208
164	0x3ebe6b0a	0.3719104
165	0xc1a71b1c	-20.888237
166	0xbf086aab	-0.5328776
167	0xc14e9c64	-12.913181
168	0xc0dd300a	-6.912114
169	0xbfcec085	-1.6152502
170	0xc1623582	-14.138063
171	0xbfcdb736	-1.6071537
172	0xc09dcd02	-4.9312754
173	0xbf2b7f48	-0.6699109
174	0xbf41a2e2	-0.75639164
175	0xc187bf43	-16.96839
176	0xc0201a80	-2.5016174
177	0xbe8adf68	-0.2712357
178	0xc11d4350	-9.828934
179	0xc0af3a31	-5.4758534
180	0xbed5a89b	-0.41730198
181	0xbfde74fb	-1.737945
182	0xc03b4b5c	-2.9264746
183	0xbd75f6dd	-0.06004988
184	0xbf88941f	-1.0670203
185	0xc08ad9fe	-4.3391104
186	0xbfe73bcf	-1.8065127
187	0xbfee7189	-1.8628398
188	0xc046ec94	-3.1081896
189	0xc06173c1	-3.52269
190	0xc15fee97	-13.995749
191	0xbfe21a7c	-1.7664332
192	0xc061e4c7	-3.5295885
193	0x3a5b2b10	0.0008360604
194	0xbe5fd891	-0.21859957
195	0xc1314664	-11.079685
196	0xbfa12f8d	-1.2592636
197	0xbf8d3395	-1.1031367
198	0xc1ac246f	-21.51779
199	0xc1be0e08	-23.756851
200	0xc0a09628	-5.0183296
201	0xc0a1f189	-5.0607343
202	0xc039b7db	-2.9018466
203	0xc0afbddf	-5.4919276
204	0xc08f1f98	-4.4726067
205	0xbf959571	-1.1686231
206	0xc0628fe2	-3.540032
207	0xc03b5ea9	-2.9276526
208	0xc0789092	-3.8838239
209	0xc08185f6	-4.0476027
210	0xc1181b11	-9.506608
211	0xbfffb969	-1.9978458
212	0xbd9c5d1b	-0.07634946
213	0xc0c88810	-6.266609
214	0x3e7a9a6b	0.24472968
215	0xc0affc4b	-5.4995475
216	0xbff12320	-1.8838844
217	0xc014342f	-2.315685
218	0xc0c1bb6f	-6.05413
219	0xbfbe4c1e	-1.4866979
220	0xc05ea022	-3.4785237
221	0xbfaa4629	-1.3302661
222	0xbfdf27a9	-1.7433978
223	0xbf90f849	-1.1325771
224	0xbfbf26bf	-1.4933699
225	0xc0f7dc7d	-7.745665
226	0xc006aa89	-2.1041586
227	0xc013fd66	-2.3123412
228	0xc01f6912	-2.490788
229	0xbfd4444b	-1.6583341
230	0xc08f41ae	-4.4767675
231	0xc094f093	-4.654367
232	0xc03eff45	-2.9843304
233	0xc0a85c0f	-5.2612376
234	0xc089cf0f	-4.3065257
235	0xbfb54a81	-1.4163362
236	0xc06a56d7	-3.6615503
237	0xc027f40c	-2.6242704
238	0xc081aa41	-4.052033
239	0xc07cb397	-3.9484613
240	0xc08e2661	-4.442185
241	0xc09bcdf2	-4.86889
242	0xc03c6cda	-2.9441438
243	0xc0a4c2fd	-5.1488023
244	0xc07c3a48	-3.9410572
245	0xbfc963a9	-1.5733539
246	0xc074e360	-3.8263779
247	0xc013bd91	-2.3084452
248	0xc0782437	-3.8772104
249	0xc0650992	-3.5787091
250	0xc08b5bc7	-4.3549533
251	0xc09204f7	-4.563106
252	0xc03423b3	-2.814679
253	0xc0a56bf3	-5.1694274
254	0xc081775d	-4.0458207
255	0xbfc7e336	-1.5616214

fc3.bias f4 [2082]
0	0xbf164e7f	-0.58713526
1	0xbfbcdd35	-1.4755007
2	0xbf816026	-1.0107467
3	0xc00497e3	-2.0717704
4	0xbfa34b9e	-1.2757452
5	0xc0021f5a	-2.0331635
6	0xbfff3d69	-1.9940616
7	0xc0475422	-3.11451
8	0xc0473dc8	-3.1131458
9	0xc0020f5c	-2.0321875
10	0xbfc63045	-1.5483481
11	0xc0854f91	-4.1659627
12	0xc0275b76	-2.6149573
13	0xbeee57e0	-0.46551418
14	0xbd969e0d	-0.073543645
15	0xc033290c	-2.7993803
16	0xc010949a	-2.25907
17	0xbf9b7a62	-1.2146723
18	0xc0a274f4	-5.0767765
19	0xbfc13aa1	-1.5096017
20	0xc083b4b3	-4.115808
21	0xbe951c35	-0.29123083
22	0xbf4e2e2f	-0.8053922
23	0xc091a569	-4.5514417
24	0xc09a1205	-4.8146996
25	0xc092a3aa	-4.5824785
26	0xc09246b6	-4.5711317
27	0xc0936d3f	-4.6070857
28	0xc021ffcf	-2.5312383
29	0xc048d11d	-3.1377633
30	0xc0628c01	-3.5397952
31	0xc08851a2	-4.259965
32	0xc03f0e03	-2.9852302
33	0x3f809577	1.0045613
34	0xc091f05a	-4.56059
35	0xbf840110	-1.0312824
36	0xc09788b3	-4.735437
37	0xc096e326	-4.715228
38	0xc089fac5	-4.3118615
39	0xc010c29d	-2.2618783
40	0xc038c91d	-2.887275
41	0xc088dd3e	-4.277007
42	0x3d3c1bb5	0.04592486
43	0xbfcde040	-1.6084061
44	0xc087154d	-4.22135
45	0xbff43fb3	-1.908194
46	0xc026ea58	-2.6080532
47	0xc0940013	-4.625009
48	0xc088425f	-4.258102
49	0xc090a266	-4.519824
50	0xc08a3ffc	-4.3203106
51	0xc0649266	-3.5714355
52	0xbf6ac981	-0.9171372
53	0xbf9d742b	-1.2301077
54	0xbda7cfbf	-0.08193921
55	0xbf2340bd	-0.6377066
56	0xc038d58a	-2.8880334
57	0xc00273d0	-2.0383186
58	0x3e763d65	0.24046858
59	0xc088725d	-4.2639604
60	0xc08a0566	-4.313159
61	0xc0969c20	-4.706558
62	0xbfcf4aed	-1.619474
63	0xc080e597	-4.028026
64	0xc0959b14	-4.6751804
65	0xc0904da0	-4.5094757
66	0xbfdff24e	-1.749582
67	0xc00194f5	-2.0247166
68	0xbf450a86	-0.7696918
69	0xc090db1c	-4.5267467
70	0xc025e294	-2.5919542
71	0xc009f60e	-2.155643
72	0xbfd27f32	-1.6445067
73	0xbfc4dd7c	-1.5380092
74	0xbfa24cad	-1.267965
75	0xbf1a410a	-0.6025549
76	0xc0932431	-4.598168
77	0xbf381c7c	-0.71918464
78	0x3f90237f	1.1260833
79	0x3dff8bd1	0.1247784
80	0xbf2fb128	-0.68629694
81	0xbf8e57b5	-1.1120516
82	0xbf54d659	-0.8313957
83	0xbdd4cf1d	-0.10391066
84	0xc086a3c8	-4.207493
85	0xc086e2f9	-4.2152066
86	0xc08592da	-4.174176
87	0xc02ad622	-2.6693196
88	0xc08eeae0	-4.4661713
89	0xc0916067	-4.543018
90	0xc092abe2	-4.583482
91	0xc094b1f1	-4.6467214
92	0xc08bf51d	-4.373671
93	0xc08d3a43	-4.413362
94	0xc08c243b	-4.3794227
95	0xc091b982	-4.553895
96	0xbfefbf18	-1.8730192
97	0xc085a525	-4.1764092
98	0xbf1ac50d	-0.60456926
99	0xbf8f808c	-1.1211104
100	0x3fdb60f1	1.7138959
101	0xbe857590	-0.26066256
102	0xc0146790	-2.318821
103	0xbf3041b3	-0.6885025
104	0xc0952a4f	-4.6614146
105	0xc098afb3	-4.7714477
106	0xbfc3286f	-1.5246714
107	0xc08d0e21	-4.4079747
108	0xc08ae02d	-4.339865
109	0xc089101b	-4.283216
110	0xc0896679	-4.293759
111	0xc08c21d8	-4.3791313
112	0xc08228cd	-4.0674806
113	0xbff8a19e	-1.9424322
114	0xbf942fde	-1.1577108
115	0xc0916713	-4.5438323
116	0xc097c987	-4.7433505
117	0xc08a306e	-4.318412
118	0xc02a55a6	-2.6614776
119	0xbfa2ac4f	-1.2708834
120	0xc029925c	-2.649558
121	0xc0913a63	-4.5383773
122	0xbf529e55	-0.82272846
123	0xc0177251	-2.3663523
124	0xc08a6c6b	-4.3257346
125	0x3f9cb344	1.2242208
126	0xc0237a2a	-2.5543313
127	0xbfbe0f90	-1.4848499
128	0xbe0f428a	-0.13990226
129	0xc090d3c0	-4.5258484
130	0xc0889b50	-4.268959
131	0xc08cd5c0	-4.4010925
132	0xc08cc206	-4.3986845
133	0xc0863f09	-4.1951947
134	0xbe1ebdc4	-0.15502077
135	0xbfd548f4	-1.6662889
136	0x3d2b14ab	0.041767757
137	0xbf7714b5	-0.9651597
138	0x3f3441ae	0.7041272
139	0xc00a1c8d	-2.1579926
140	0xc099377a	-4.788022
141	0xc087aa23	-4.2395186
142	0xc08b0529	-4.34438
143	0xc0930931	-4.594872
144	0xc08c44d9	-4.3834043
145	0xbfb73bcf	-1.4315127
146	0xc0832893	-4.098703
147	0xc096dea4	-4.714678
148	0xbfdfecc8	-1.7494135
149	0xbfd5a6fd	-1.6691586
150	0xc08d2e8d	-4.4119325
151	0x3efb1f11	0.4904714
152	0x3e5f919e	0.21832892
153	0x3e4baa3d	0.1988916
154	0xbeb5ec54	-0.35531867
155	0xbff75fba	-1.9326088
156	0xc08c48c2	-4.3838816
157	0xc09148dc	-4.540144
158	0xc0905acb	-4.511083
159	0xc0839dc8	-4.1130104
160	0xc09b093a	-4.8448763
161	0xc0953b83	-4.6635146
162	0xc091df87	-4.558536
163	0xc0856156	-4.168132
164	0xc08c4ac3	-4.384126
165	0xc096113e	-4.6896048
166	0xc0917985	-4.546084
167	0xc09b3dac	-4.8512783
168	0xc0970ab6	-4.7200575
169	0xc0914169	-4.5392346
170	0xc08bed57	-4.372722
171	0xc095c310	-4.6800613
172	0xc086eeee	-4.216666
173	0xc09288af	-4.579185
174	0xbf9bdb0a	-1.217622
175	0xc08d6474	-4.4185123
176	0xc001736b	-2.0226696
177	0xc090eb2b	-4.528707
178	0xc092986b	-4.5811057
179	0xc015d089	-2.340853
180	0xc02bbf25	-2.6835415
181	0xbfdf4de8	-1.744565
182	0xc03bc85e	-2.9341044
183	0xbfcb2d78	-1.5873251
184	0xc0904e43	-4.5095534
185	0xc0918ab5	-4.548182
186	0xc09a17cb	-4.8154044
187	0xc0866f8e	-4.2011175
188	0xc0971ed4	-4.722513
189	0xc094f328	-4.654682
190	0x3f85ee0e	1.0463274
191	0xbe58e26f	-0.21180128
192	0xbf9f421d	-1.2442051
193	0xbfbe86a0	-1.4884834
194	0x3e037151	0.12836196
195	0xbfa21f74	-1.2665849
196	0xbf56e0c2	-0.83936703
197	0xbfab89b7	-1.3401402
198	0xbda00312	-0.078130856
199	0xbf89621d	-1.0733067
200	0xbf10bb55	-0.56535846
201	0xbfa4b328	-1.2867174
202	0xc0395047	-2.8955247
203	0xc0957e03	-4.6716323
204	0xc086f81d	-4.2177873
205	0x3fbf21e6	1.493222
206	0xc096b9a6	-4.710162
207	0xc088eb8d	-4.2787538
208	0xc08e65e7	-4.4499393
209	0xbfa0a3e8	-1.255002
210	0x3eeb34fa	0.45938855
211	0xbf27fd5b	-0.65620965
212	0xbf8c2091	-1.0947438
213	0x3dfa5677	0.12223523
214	0xc08c449b	-4.3833747
215	0xc0936716	-4.6063337
216	0xc08c22ad	-4.379233
217	0xc0986229	-4.7619824
218	0xc096f994	-4.717966
219	0xbfb1cd65	-1.3890806
220	0xbf851abd	-1.0398785
221	0xc084d724	-4.1512623
222	0xc08f2fd2	-4.4745874
223	0xc09406f7	-4.62585
224	0xc097e79b	-4.747022
225	0xbfeb1070	-1.8364391
226	0xc08b5452	-4.354043
227	0xc0891afb	-4.2845435
228	0xc090cd25	-4.525042
229	0xc091415d	-4.539229
230	0xc0161778	-2.3451824
231	0x3fd3241e	1.6495397
232	0xc0025728	-2.0365696
233	0x3ef33ecd	0.4750885
234	0xbf1ad07d	-0.6047438
235	0xbfaa1937	-1.3288945
236	0xc085eee9	-4.185414
237	0x3ea7c657	0.3276851
238	0xbf9c5942	-1.2214739
239	0xc092b78b	-4.584905
240	0xc08a6323	-4.3246017
241	0xc09e082f	-4.938499
242	0xc083676b	-4.1063743
243	0xc0961a66	-4.6907225
244	0xc0972626	-4.723407
245	0xc08c5f19	-4.3866086
246	0xc08dd31b	-4.4320197
247	0xc08ffefb	-4.4998755
248	0xc095b678	-4.678524
249	0xc09c0736	-4.8758802
250	0xbe750df4	-0.23931104
251	0xc090aeef	-4.521354
252	0xc08ffdd3	-4.4997344
253	0xc08ea56d	-4.4576936
254	0xbf46eec8	-0.777081
255	0xc09820c7	-4.754001
