Python/RNN/models/MODELSAIYAN.pt (torch, 753207 bytes, 10 tensors)

fc1.weight f4 [50, 100]
0.060968854 0.06999103 -0.07943195 0.0005959645 -0.09758176 0.09818145 -0.011452891 0.0573655
0.0068683624 -0.02885674 -0.023364887 0.07193183 -0.05117103 0.032393865 0.0708083 0.07134948
0.052444108 -0.0797227 -0.0023777932 0.06729362 0.034661792 0.03247022 0.030318849 0.04462207
0.040407665 -0.007724151 0.021153167 -0.06438264 -0.053753175 0.01524125 -0.08994516 0.08860237
-0.07930581 0.07438422 -0.090598725 -0.09484682 0.06443863 0.03219738 0.035012133 0.025036909
0.09387072 0.05498851 0.050250985 -0.068376556 -0.030747093 0.09306135 -0.07801322 0.015782937
0.064157285 0.028105743 0.07797835 0.085737176 -0.014690474 0.033879437 0.03367483 -0.07185551
0.086399086 0.006481625 -0.05888785 0.028922312 -0.02778063 -0.010568179 0.029364385 0.08657315
0.061768927 -0.028390072 0.019467011 -0.019483767 0.03767111 -0.066893056 0.071556754 -0.084402815
-0.003282711 -0.08836921 -0.006518796 0.088966854 0.063458 0.056261487 -0.093454264 0.046438344
-0.0805162 -0.0749293 0.086136006 0.07498438 0.051471047 0.05304318 0.02433066 -0.002986528
0.028733142 -0.05259484 -0.062616326 -0.048368514 -0.026285842 -0.033593953 -0.08349693 -0.0786082
-0.08569332 0.07685513 -0.079815134 -0.095986 -0.0768858 0.043668546 0.041140877 -0.006770514
0.071923144 0.064059384 0.036389776 -0.094084576 0.03732974 -0.09148344 0.044327743 -0.010104813
-0.0010890365 -0.029942825 -0.05111411 0.044638015 0.08211697 -0.07059896 -0.02088368 0.015561439
0.07493318 0.09926117 -0.018132351 0.08251924 0.033860795 0.02750159 0.006845951 0.011778794
-0.0067780986 -0.030109406 0.0070470423 -0.045294978 -0.09301467 0.09986024 0.042213 0.07541216
-0.050832845 0.05888655 0.059322305 -0.020877168 0.08367767 0.038644023 0.029992022 -0.072932206
0.051153325 -0.042182066 0.07451295 0.0887484 -0.009950027 -0.02547586 -0.07471244 -0.021563567
0.064561315 0.042251475 -0.025981344 -0.09081564 0.076810904 0.034763046 0.061234497 -0.053313244
0.09621779 0.01479353 0.07928122 0.012739018 -0.06317225 0.095229216 0.0630328 -0.028477788
0.04955118 -0.058245447 -0.034993686 0.011835679 -0.017443478 -0.07838571 0.09605468 0.038117357
0.07614014 -0.022018827 0.08385501 -0.055007767 -0.015154839 -0.08949204 0.09920705 0.050284334
-0.026807465 0.026564904 0.05308663 0.010707639 -0.01790794 -0.012030683 0.058909185 0.024967767
0.030483909 -0.00026539713 -0.05433463 -0.033040896 0.061360903 0.04570826 0.09235848 -0.04387554
0.11820302 0.13201448 0.21103556 -0.18833782 -0.01286242 -0.001645924 -0.12694274 0.12737367
0.059054602 0.1669274 -0.0719004 0.08492136 -0.013040473 0.008841417 -0.09911628 0.0075490903
0.030276496 -0.020596104 0.04494565 -0.059548322 -0.11246476 -0.041802313 0.08577213 -0.02940278
0.08052955 -0.03404484 0.11850181 0.07718499 -0.072876975 -0.0062368894 0.0522139 0.08301097
0.15161675 -0.1514164 -0.075617455 -0.13164844 0.21284772 -0.06764755 0.010707572 -0.17657752
0.015066221 0.19583586 0.12129815 0.0016242557 -0.16699532 0.15749858 -0.052890997 0.038162854
-0.18559477 0.06595976 -0.18736552 0.028588802 -0.02040562 0.027479777 0.054331087 0.107341714
00000000: 7aba 793d 7557 8f3d 38ad a2bd 803a 1c3a
00000010: f2d8 c7bd 5b13 c93d e8a4 3bbc 16f8 6a3d
00000020: 0010 e13b f864 ecbc b867 bfbc ff50 933d
00000030: b798 51bd 6eaf 043d f103 913d ad1f 923d
00000040: a2cf 563d a845 a3bd c0d4 1bbb 3dd1 893d
00000050: 86f9 0d3d 7eff 043d 3c5f f83c a2c5 363d
00000060: 8282 253d e01a fdbb 6849 ad3c 0cdb 83bd
00000070: 4a2c 5cbd 70b6 793c 2b35 b8bd 2975 b53d
00000080: 166b a2bd c156 983d d38b b9bd 0d3f c2bd
00000090: 67f8 833d 66e1 033d e268 0f3d 341a cd3c
000000a0: 4b3f c03d a23b 613d fad3 4d3d 0209 8cbd
000000b0: 54e1 fbbc f396 be3d 65c5 9fbd 384b 813c
000000c0: e564 833d 043e e63c 1db3 9f3d f996 af3d
000000d0: 50b0 70bc 2ac5 0a3d 9eee 093d fb28 93bd
000000e0: 01f2 b03d d063 d43b 6334 71bd 7cee ec3c
000000f0: 3494 e3bc 2826 2dbc 948d f03c 434d b13d
00000100: 6a01 7d3d 4c92 e8bc 4879 9f3c 6c9c 9fbc
00000110: 064d 1a3d 3aff 88bd 598c 923d 62db acbd
00000120: c022 57bb ebfa b4bd a09b d5bb 4134 b63d
00000130: 45f6 813d 7272 663d f364 bfbd 2236 3e3d
00000140: ade5 a4bd 8874 99bd 1368 b03d 6991 993d
00000150: 4ed3 523d ce43 593d 1851 c73c a0b9 43bb
00000160: c461 eb3c b06d 57bd fd3c 80bd 101e 46bd
00000170: 6855 d7bc d099 09bd 7000 abbd 56fd a0bd
00000180: fb7f afbd 3966 9d3d 1e76 a3bd 4f94 c4bd
00000190: 4d76 9dbd cadd 323d 5683 283d 30db ddbb
000001a0: 714c 933d 9131 833d 720d 153d 6aaf c0bd
000001b0: 12e7 183d ab5b bbbd 0291 353d a88e 25bc
000001c0: 00be 8eba a84a f5bc 075d 51bd 5ad6 363d
000001d0: f12c a83d 3096 90bd 4014 abbc 68f5 7e3c
000001e0: 9176 993d 7149 cb3d 4c8a 94bc d9ff a83d
000001f0: 9eb1 0a3d 044b e13c 0054 e03b d8fb 403c
00000200: d01a debb 00a8 f6bc e0ea e63b 3a87 39bd
00000210: 7a7e bebd 8783 cc3d 8ae7 2c3d b171 9a3d
00000220: 1a36 50bd 0633 713d f2fb 723d 9806 abbc
00000230: 335f ab3d 3249 1e3d d4b1 f53c 7b5d 95bd
00000240: 2686 513d 1ac7 2cbd 3f9a 983d b9c1 b53d
00000250: 7005 23bc c0b2 d0bc d602 99bd 14a6 b0bc
00000260: b938 843d e20f 2d3d d4d6 d4bc 8dfd b9bd
00000270: 094f 9d3d b263 0e3d 06d1 7a3d fd5e 5abd
00000280: d50d c53d 9060 723c 315e a23d 50b7 503c
00000290: 7460 81bd 8907 c33d 5717 813d 404a e9bc
000002a0: 2ef6 4a3d c792 6ebd 8a55 0fbd 70ea 413c
000002b0: a0e5 8ebc b088 a0bd 51b8 c43d f220 1c3d
000002c0: 5def 9b3d d460 b4bc 2dbc ab3d d34f 61bd
000002d0: 004c 78bc 9a47 b7bd 112d cb3d f2f6 4d3d
000002e0: 549b dbbc a49e d93c 5e71 593d 186f 2f3c
000002f0: acb3 92bc 581c 45bc c24a 713d 3489 cc3c
00000300: 64b9 f93c 0025 8bb9 fd8d 5ebd e455 07bd
00000310: 9255 7b3d 9638 3b3d 7126 bd3d d7b6 33bd
00000320: 6d14 f23d ce2e 073e b519 583e a1db 40be
00000330: e6bc 52bc 0cbc d7ba 47fd 01be 3e6e 023e
00000340: 3de3 713d 04ef 2a3e 8440 93bd 40eb ad3d
00000350: b5a7 55bc 97db 103c 7afd cabd 5c5e f73b
00000360: 6a06 f83c 29b9 a8bc ee18 383d f1e8 73bd
00000370: ed53 e6bd e738 2bbd 4ca9 af3d 19de f0bc
00000380: adec a43d 9a72 0bbd 14b1 f23d 2a13 9e3d
00000390: 8640 95bd d25e ccbb 3ede 553d a801 aa3d
000003a0: 6c41 1b3e e70c 1bbe 53dd 9abd d9ce 06be
000003b0: c1f4 593e cc8a 8abd d06e 2f3c bdd0 34be
000003c0: 50d8 763c 3289 483e 2a6b f83d fae4 d43a
000003d0: d200 2bbe 4f47 213e 3ba4 58bd a750 1c3d
000003e0: 8e0c 3ebe e915 873d bfdc 3fbe 1033 ea3c
000003f0: b029 a7bc 451d e13c 468a 5e3d f9d5 db3d

fc1.bias f4 [50]
-0.08238177 -0.048913624 -0.05952943 -0.07771708 -0.09159551 0.05669015 -0.09020948 -0.11363423
-0.03966197 -0.10734175 -0.06942617 -0.030786037 -0.044713892 -0.04983678 -0.06957318 -0.32733458
-0.043184627 -0.08331169 -0.051908266 -0.05472916 -0.062536106 0.0043106205 -0.09731936 -0.093208216
-0.08017534 -0.29527295 -0.07625554 -0.32814845 -0.20851375 0.087338425 -0.37886453 -0.093200386
-0.059181403 -0.24507101 -0.14997414 -0.043844905 -0.20690316 0.19221772 -0.15249003 0.009070848
-0.079151616 -0.08310338 -0.083104156 -0.059185855 -0.04806141 -0.04739697 -0.089692794 -0.074455954
-0.12629221 -0.06757069
00000000: c6b7 a8bd a759 48bd 22d5 73bd 222a 9fbd
00000010: 6d96 bbbd ee33 683d bfbf b8bd 10b9 e8bd
00000020: 9774 22bd fed5 dbbd 4f2f 8ebd 0033 fcbc
00000030: ea25 37bd a721 4cbd 627c 8ebd 6698 a7be
00000040: 5de2 30bd 529f aabd c39d 54bd af2b 60bd
00000050: ee12 80bd 1b40 8d3b 5f4f c7bd f3e3 bebd
00000060: f832 a4bd 042e 97be dd2b 9cbd 1303 a8be
00000070: a184 55be 7dde b23d 88fa c1be d8df bebd
00000080: 3368 72bd e5f3 7abe d292 19be b796 33bd
00000090: 6cde 53be b9d4 443e 5926 1cbe e59d 143c
000000a0: 3e1a a2bd 1b32 aabd 8332 aabd de6c 72bd
000000b0: 0bdc 44bd 5323 42bd dbb0 b7bd 5d7c 98bd
000000c0: bf52 01be 8062 8abd

attention.weight f4 [50, 1000]
-0.043767225 0.10916922 0.043902177 -0.13628487 -0.25144863 0.08287238 0.06777614 0.08017059
-0.026038496 0.16439573 0.025931058 -0.038375843 -0.0014324142 0.0048092636 -0.0621432 -0.029172216
-0.15571214 0.023213616 0.069595136 -0.16594084 -0.06308217 -0.0395193 0.062400512 0.040818784
-0.09157001 -0.064382695 0.16094068 -0.02007851 0.05316301 -0.16093999 -0.10404452 0.034020916
-0.087043725 0.039136317 -0.045045175 -0.032049175 -0.06266351 -0.07321595 0.034363877 0.016528182
-0.095176876 0.01281165 0.014912787 -0.18511853 -0.11644477 0.17152838 0.16784173 0.097401984
0.051973566 -0.11018942 0.08716402 -0.019540034 -0.08078065 0.27550575 0.09846433 -0.17703606
-0.031068677 -0.0521629 -0.09047527 0.08026004 -0.075339265 -0.1720098 -0.1771986 0.09283851
0.12273067 -0.08795387 -0.1506458 0.06519398 -0.12662472 -0.24060051 0.07133607 -0.033141855
-0.10968104 -0.030761456 -0.13533254 0.030281544 0.09626963 0.03426809 -0.0659648 0.03293078
-0.044466432 0.0035604534 -0.009646681 0.008070892 0.20843217 0.063601606 -0.12096266 0.087419726
-0.16030113 -0.048372906 -0.20374279 0.13235159 -0.14343697 -0.09168186 -0.0949075 -0.074101985
0.06732656 -0.06641352 0.09176771 -0.037901286 0.2015904 -0.13207872 -0.041326873 -0.029991338
-0.005823535 -0.10691456 -0.09093867 0.06748631 -0.06914327 0.019614855 -0.1709593 -0.027741041
-0.1456908 0.1971934 0.13973722 0.14416929 0.14481823 -0.009040311 -0.0541545 -0.026516668
-0.057687715 -0.08801006 -0.027118243 -0.059066445 0.10713954 0.053694542 -0.028476257 -0.1815889
-0.1836789 0.02058419 -0.10327439 0.022619797 0.03724814 -0.043533757 -0.1294677 -0.11491441
0.17332253 -0.16087832 -0.013081505 -0.018157763 0.012128561 -0.06038008 0.15365323 -0.08997972
0.062361624 0.21630187 0.20672278 0.14168973 0.095566474 0.04901327 -0.06808688 0.023151211
-0.08122752 -0.07136274 -0.09485862 -0.14331393 0.016501794 -0.013769909 0.11321997 -0.07781178
-0.04768565 0.21318506 -0.025280466 0.02108677 0.12044517 0.0905072 -0.13799009 -0.21264513
0.11858481 -0.035273865 0.12069025 -0.16451044 -0.122015715 -0.20746057 -0.14107022 -0.22364347
0.03171982 -0.044599008 0.08991756 0.08803643 -0.15362212 -0.10563564 -0.037938707 0.018390307
0.0028467223 -0.062097818 -0.118132986 -0.065466836 -0.06745849 -0.1275171 0.023946581 -0.07668078
-0.01874049 -0.027486464 0.20207496 0.17330317 0.05131148 0.1494704 -0.075498335 -0.10634912
0.016464286 -0.15068865 0.13276444 -0.097613975 -0.15191206 -0.03181499 -0.00064524217 0.16688128
-0.12057186 0.18360575 -0.18288313 0.0015258542 -0.08538126 0.12439149 0.019876225 -0.013694904
0.12800683 0.09364736 -0.05175899 -0.061122183 -0.008975893 -0.0019198109 -0.051982008 -0.15043594
0.01005876 0.14479092 0.07110256 -0.026517252 0.029201353 -0.09361595 0.016773844 0.11940296
-0.13846354 -0.010943231 -0.11866159 -0.007145218 -0.03666363 -0.08110472 -0.056954406 0.012497167
-0.068235405 -0.13757218 0.07082303 -0.122426204 -0.075178556 0.06468952 0.14148784 -0.009287873
0.13818039 -0.1315757 -0.106424436 -0.20252925 -0.15702789 0.09691624 0.085057095 -0.0958414
00000000: 4345 33bd 1d94 df3d c5d2 333d 438e 0bbe
00000010: e0bd 80be ffb8 a93d 38ce 8a3d 7a30 a43d
00000020: af4e d5bc 5b57 283e 5f6d d43c fd2f 1dbd
00000030: d8bf bbba 0797 9d3b de89 7ebd 92fa eebc
00000040: 0173 1fbe 7b2a be3c e587 8e3d 65ec 29be
00000050: 3a31 81bd fdde 21bd ae97 7f3d 9931 273d
00000060: 0f89 bbbd 13db 83bd a2cd 243e b07b a4bc
00000070: 75c1 593d 74cd 24be 4b15 d5bd 8459 0b3d
00000080: fb43 b2bd 674d 203d 4a81 38bd ff45 03bd
00000090: ba55 80bd 3ef2 95bd 23c1 0c3d 1c66 873c
000000a0: 18ec c2bd f4e7 513c c354 743c b68f 3dbe
000000b0: 987a eebd 23a5 2f3e b4de 2b3e b17a c73d
000000c0: 3ce2 543d feaa e1bd 0d83 b23d 6c12 a0bc
000000d0: 5370 a5bd 170f 8d3e aba7 c93d f148 35be
000000e0: bd83 febc c4a8 55bd 194b b9bd 605f a43d
000000f0: 794b 9abd 5623 30be 8d73 35be 1e22 be3d
00000100: 385a fb3d 2921 b4bd e542 1abe 6c84 853d
00000110: e9a9 01be fb5f 76be a518 923d c1bf 07bd
00000120: 74a0 e0bd 73ff fbbc 9d94 0abe 0011 f83c
00000130: 0329 c53d b25c 0c3d 8e18 87bd 6de2 063d
00000140: 6f22 36bd 7f56 693b 1d0d 1ebc c63b 043c
00000150: 3e6f 553e 8f41 823d 45bb f7bd 1d09 b33d
00000160: fb25 24be ab22 46bd f3a1 50be 2d87 073e
00000170: 24e1 12be b3c3 bbbd dd5e c2bd c8c2 97bd
00000180: 82e2 893d d003 88bd b6f0 bb3d 613e 1bbd
00000190: b76d 4e3e a53f 07be 5e46 29bd 65b0 f5bc
000001a0: 5ad3 bebb 05f6 dabd 0e3e babd 4336 8a3d
000001b0: fd9a 8dbd 55af a03c f40f 2fbe 2e41 e3bc
000001c0: f82f 15be 11ed 493e 4617 0f3e 1da1 133e
000001d0: 3b4b 143e d01d 14bc 1cd1 5dbd 7c39 d9bc
000001e0: f449 6cbd 9e3e b4bd 1427 debc a8ef 71bd
000001f0: fa6b db3d cfee 5b3d 0a47 e9bc 71f2 39be
00000200: 5216 3cbe 2da0 a83c 8681 d3bd 274d b93c
00000210: 8191 183d 7450 32bd 2e93 04be 3f58 ebbd
00000220: 767b 313e 49bd 24be cf53 56bc 97bf 94bc
00000230: dfb6 463c 1a51 77bd 4657 1d3e 4a47 b8bd
00000240: e76e 7f3d 3d7e 5d3e 23af 533e 1d17 113e
00000250: 5bb8 c33d 23c2 483d 2271 8bbd 9ca7 bd3c
00000260: 9d5a a6bd a126 92bd 3c45 c2bd e3c0 12be
00000270: c52e 873c 2f9b 61bc dfdf e73d c85b 9fbd
00000280: 0752 43bd 2f4d 5a3e fb18 cfbc 29be ac3c
00000290: f5ab f63d d75b b93d 464d 0dbe a5bf 59be
000002a0: 98dc f23d 547b 10bd 732c f73d 6d75 28be
000002b0: 60e3 f9bd 8b70 54be b674 10be cb02 65be
000002c0: a4ec 013d 73ad 36bd b326 b83d 724c b43d
000002d0: 1e4f 1dbe 8057 d8bd 9e65 1bbd 45a7 963c
000002e0: 1390 3a3b 485a 7ebd b5ef f1bd 7a13 86bd
000002f0: ad27 8abd d893 02be 9f2b c43c d00a 9dbd
00000300: a885 99bc 4b2b e1bc bdec 4e3e 6376 313e
00000310: fd2b 523d c50e 193e df9e 9abd 91cd d9bd
00000320: 1ce0 863c 204e 1abe 67f3 073e d6e9 c7bd
00000330: d68e 1bbe 6f50 02bd 7825 29ba ede2 2a3e
00000340: 61ee f6bd 2503 3c3e b745 3bbe 2cff c73a
00000350: 5fdc aebd f7c0 fe3d 77d3 a23c 9760 60bc
00000360: 3914 033e 30ca bf3d 3c01 54bd 415b 7abd
00000370: a00f 13bc 2aa2 fbba 16eb 54bd e10b 1abe
00000380: 7fcd 243c 1244 143e 389e 913d b53a d9bc
00000390: ad37 ef3c b8b9 bfbd 4d69 893c 8a89 f43d
000003a0: 63c9 0dbe 3d4b 33bc d904 f3bd 6f22 eabb
000003b0: 9a2c 16bd 3b1a a6bd 0649 69bd ebc0 4c3c
000003c0: 01bf 8bbd b9df 0cbe aa0b 913d 97ba fabd
000003d0: 37f7 99bd f07b 843d 30e2 103e 2a2c 18bc
000003e0: 297f 0d3e c8bb 06be 0ef5 d9bd d463 4fbe
000003f0: ebcb 20be 067c c63d 6a32 ae3d 7f48 c4bd

attention.bias f4 [50]
-0.20646998 -0.1604975 -0.07496227 -0.100757785 -0.17882024 -0.15078375 -0.19482522 -0.09274409
-0.079510026 -0.06408743 -0.0648059 -0.02212756 -0.056909107 -0.08161674 -0.13000724 -0.14264171
0.5690607 -0.13541497 -0.14971408 -0.03093245 -0.08291189 -0.27254865 -0.030140672 -0.18333116
-0.07604563 -0.1391823 -0.320712 -0.043549232 -0.063984625 -0.057596784 -0.17281164 -0.030630147
-0.62149173 -0.09274935 -0.09537693 -0.0811129 -0.05681669 -0.11337809 -0.038407847 -0.18330427
-0.031238062 -0.63724494 -0.076565005 -0.19099878 -0.04592758 -0.059565768 -0.029352728 -0.0432235
-0.16671988 -0.36398268
00000000: de6c 53be 7559 24be d285 99bd 195a cebd
00000010: a71c 37be 0e67 1abe 4380 47be 9df0 bdbd
00000020: 27d6 a2bd 4540 83bd f5b8 84bd db44 b5bc
00000030: 8619 69bd ad26 a7bd 9e20 05be ab10 12be
00000040: f6ad 113f 39aa 0abe a64e 19be 0d66 fdbc
00000050: b5cd a9bd 7f8b 8bbe 92e9 f6bc 2abb 3bbe
00000060: d0bd 9bbd ce85 0ebe 5d34 a4be ae60 32bd
00000070: 5f0a 83bd 9bea 6bbd 89f5 30be 13ec fabc
00000080: 151a 1fbf 5ff3 bdbd fb54 c3bd 851e a6bd
00000090: 9eb8 68bd c632 e8bd 8c51 1dbd 1db4 3bbe
000000a0: f7e6 ffbc 7c22 23bf 1dce 9cbd 2f95 43be
000000b0: 8f1e 3cbd 3cfb 73bd 2275 f0bc 200b 31bd
000000c0: 9eb8 2abe f05b babe

attention2.weight f4 [50, 50]
-0.027335444 0.012815181 0.1381077 0.055234354 -0.12237832 0.0691064 0.09503016 -0.022405483
0.10298738 -0.15993002 -0.055670533 -0.13893187 0.1095475 0.11789672 0.08682893 -0.09327152
-0.037304997 0.002857333 0.11566601 0.06566033 -0.0073245317 -0.10414517 0.13783322 -0.17970604
-0.08205329 -0.11785601 0.1360798 0.052773222 0.0809847 -0.010846943 0.068461865 0.053484812
0.054427195 -0.030696888 -0.018695828 0.06987788 0.030305713 -0.07356045 -0.020096377 -0.068012185
-0.0075927675 -0.053274274 -0.119443074 0.05595319 0.07777889 0.038719177 0.032113 0.046439383
-0.009498276 0.05361463 0.04885553 -0.04195772 -0.100575134 0.06619543 0.009159033 0.032053776
-0.12909572 0.12837127 0.105450094 0.022769727 0.021608619 -0.14012727 0.033517685 -0.13567871
0.048584823 -0.06687837 -0.0005051646 -0.093113825 -0.14040883 -0.046222262 0.049435332 -0.009975448
-0.11227608 -0.015854076 -0.021100895 0.056717083 0.11613618 0.035704717 0.017209971 0.1281903
0.27316505 -0.0019673994 -0.11515065 -0.10402241 -0.078136764 -0.06654145 -0.09169049 -0.10887949
-0.0036724634 0.009197548 0.08661991 -0.07902729 -0.045047622 0.017646682 0.16073072 0.016971052
-0.022682123 -0.09394869 -0.09068873 -0.118911184 0.086973816 -0.03293228 0.13151468 -0.052088194
-0.06125182 0.11190738 0.058822826 -0.00910987 0.061466277 -0.13612165 0.022408992 0.026864707
-0.1319472 0.025234327 -0.058943182 0.1384135 0.0035236627 -0.026812002 0.12982883 -0.13960882
-0.04466684 -0.06814601 0.12452878 0.011970341 0.046661362 0.010360524 0.004833922 0.041175663
-0.026816376 -0.013414338 0.10296628 -0.052165464 0.010247216 0.026007533 0.020268723 -0.05699414
-0.09254113 0.022692457 -0.044672325 0.015021324 0.13467698 -0.0954202 -0.09668968 -0.040454112
0.018672511 -0.07061634 -0.028514147 -0.026867084 0.11750032 -0.01898399 -0.04639331 0.21401586
0.055358395 -0.08861561 0.0012586619 0.17279911 0.09052265 0.1168156 0.031151585 -0.04997145
-0.018030658 -0.043652147 0.1284305 0.04969618 0.03392945 0.06483009 0.0029934128 0.0041263183
0.23337458 -0.037685856 -0.08266635 0.022617811 0.07989736 -0.16255613 -0.03773197 -0.10495333
-0.024768164 -0.08537327 -0.07819989 -0.11648626 0.42426905 0.16711059 0.15561579 0.15155737
-0.040603414 0.051094573 0.04048197 -0.09535354 -0.09486313 0.18923675 -0.015902728 0.1692652
0.13178268 0.24842046 0.09737681 -0.014242917 0.024532422 -0.0102285845 -0.046757903 0.05401767
0.081833154 -0.06280604 -0.13586701 0.08908133 -0.08848203 -0.02952334 -0.04122013 -0.12145433
-0.094185814 0.07531273 -0.09892749 -0.024244554 -0.042876534 -0.075026214 -0.07051229 -0.096911505
-0.04507508 0.026321838 -0.05102061 0.08680731 0.055846915 0.087623 -0.020043842 0.048633944
-0.0016014427 0.030753573 0.097076595 -0.028466761 -0.09863742 -0.043682024 0.085264236 -0.095785275
-0.08912124 0.1412142 0.11817658 0.08151263 -0.06279134 0.12167977 -0.09875358 -0.13436991
0.12498002 -0.14692359 0.0981604 0.10835325 -0.04943315 0.1050116 0.14037682 0.086872056
-0.0062115043 -0.119336545 0.07335345 0.08811489 -0.036083706 -0.09121642 -0.06424384 0.022287456
00000000: 95ee dfbc c4f6 513c 1b6c 0d3e 6b3d 623d
00000010: 7ca1 fabd a887 8d3d 2c9f c23d b48b b7bc
00000020: 0ceb d23d b2c4 23be c906 64bd 2844 0ebe
00000030: 715a e03d d673 f13d 5ed3 b13d 2405 bfbd
00000040: 20cd 18bd 1842 3b3b 4de2 ec3d ec78 863d
00000050: a002 f0bb 104a d5bd 2724 0d3e dc04 38be
00000060: 8e0b a8bd 7e5e f1bd 8158 0b3e bc28 583d
00000070: 4edb a53d 60b7 31bc bc35 8c3d e412 5b3d
00000080: 0def 5e3d 0a78 fbbc fe27 99bc 221c 8f3d
00000090: b043 f83c dca6 96bd 28a1 a4bc f949 8bbd
000000a0: c0cc f8bb 2036 5abd 929e f4bd 2c2f 653d
000000b0: 8a4a 9f3d 0098 1e3d ec88 033d 3937 3e3d
000000c0: a89e 1bbc 049b 5b3d bc1c 483d dcdb 2bbd
000000d0: 56fa cdbd 7891 873d c50f 163c d24a 033d
000000e0: ab31 04be c273 033e 38f6 d73d 9487 ba3c
000000f0: 8f04 b13c 867d 0fbe d749 093d 5cef 0abe
00000100: e100 473d 87f7 88bd 066d 04ba 76b2 bebd
00000110: 55c7 0fbe 8e53 3dbd b47c 4a3d 1070 23bc
00000120: 00f1 e5bd 68e0 81bc c9db acbc 2c50 683d
00000130: ced8 ed3d 1c3f 123d edfb 8c3c 5144 033e
00000140: 4adc 8b3e 7cef 00bb 1bd4 ebbd b409 d5bd
00000150: 2b06 a0bd e246 88bd 39c8 bbbd 36fc debd
00000160: b6ad 70bb 50b1 163c c865 b13d 0fd9 a1bd
00000170: db83 38bd c68f 903c 9896 243e e006 8b3c
00000180: dccf b9bc 2c68 c0bd 03bb b9bd b587 f3bd
00000190: 541f b23d 00e4 06bd c9ab 063e 6e5a 55bd
000001a0: 30e3 7abd b22f e53d 34f0 703d 9041 15bc
000001b0: 10c4 7b3d 7963 0bbe 1093 b73c 6013 dc3c
000001c0: 2b1d 07be 38b8 ce3c 686e 71bd 45bc 0d3e
000001d0: 40ed 663b d8a4 dbbc d9f1 043e 9df5 0ebe
000001e0: 94f4 36bd 2390 8bbd f208 ff3d 401f 443c
000001f0: fc1f 3f3d 30bf 293c e065 9e3b d0a7 283d
00000200: 04ae dbbc d0c7 5bbc fcdf d23d 74ab 55bd
00000210: f0e3 273c c00d d53c 980a a63c b072 69bd
00000220: 3486 bdbd 88e5 b93c 54fa 36bd 001c 763c
00000230: c3e8 093e aa6b c3bd 3d05 c6bd 36b3 25bd
00000240: 18f7 983c 4d9f 90bd 8096 e9bc 5c18 dcbc
00000250: 02a4 f03d 5084 9bbc e906 3ebd f926 5b3e
00000260: 7cbf 623d 1a7c b5bd aff9 a43a 40f2 303e
00000270: f063 b93d 043d ef3d 9c31 ff3c ddae 4cbd
00000280: 08b5 93bc 98cc 32bd 4983 033e 398e 4b3d
00000290: 9bf9 0a3d a3c5 843d 222d 443b 1136 873b
000002a0: bff9 6e3e 7c5c 1abd fa4c a9bd fd48 b93c
000002b0: 3aa1 a33d 1d75 26be d78c 1abd c5f1 d6bd
000002c0: 9be6 cabc 2ed8 aebd 4427 a0bd 5990 eebd
000002d0: cb39 d93e 0a1f 2b3e bf59 1f3e db31 1b3e
000002e0: c44f 26bd 8b48 513d 6cd0 253d b748 c3bd
000002f0: 9a47 c2bd 47c7 413e 7046 82bc db53 2d3e
00000300: 0af2 063e ef61 7e3e 7e6d c73d 205b 69bc
00000310: 38f8 c83c cb95 27bc 3785 3fbd a241 5d3d
00000320: 2498 a73d 74a0 80bd b920 0bbe 4670 b63d
00000330: 1136 b5bd eeda f1bc 70d6 28bd 0cbd f8bd
00000340: 7ee4 c0bd 903d 9a3d 7f9a cabd 849c c6bc
00000350: 4e9f 2fbd 58a7 99bd bf68 90bd 8a79 c6bd
00000360: a6a0 38bd e5a0 d73c fdfa 50bd 08c8 b13d
00000370: bcbf 643d b073 b33d fc32 a4bc 6334 473d
00000380: 80e7 d1ba ebee fb3c 18d0 c63d 2033 e9bc
00000390: 6a02 cabd eceb 32bd 049f ae3d 122b c4bd
000003a0: 3285 b6bd 759a 103e 9006 f23d 18f0 a63d
000003b0: bf98 80bd 3e33 f93d 513f cabd 4498 09be
000003c0: 86f5 ff3d 2373 16be 5208 c93d 4fe8 dd3d
000003d0: 6a7a 4abd 5210 d73d f1be 0f3e fae9 b13d
000003e0: e089 cbbb b866 f4bd 553a 963d 9475 b43d
000003f0: 82cc 13bd adcf babd 4692 83bd 2f94 b63c

attention2.bias f4 [50]
-0.09434293 -0.14791991 -0.13281484 -0.05610239 -0.12323722 -0.05639961 -0.1350185 -0.090104856
-0.13310415 -0.097948946 -0.08626025 -0.08299229 -0.1623021 -0.1376018 -0.09748531 -0.16680215
-0.2514792 -0.07814185 -0.07253351 -0.07569971 -0.09890051 -0.06855398 -0.21420181 -0.09402973
-0.037389122 -0.10245198 -0.06876518 -0.18649907 -0.019788899 -0.15771292 -0.06478529 -0.06387247
-0.07342496 -0.10139866 -0.11600747 -0.072981924 -0.03432615 -0.0984534 -0.12154694 -0.24160807
-0.10554257 -0.11973111 -0.08417255 -0.08079282 -0.103485644 -0.16156854 -0.08722549 -0.07077684
-0.060021352 -0.08841367
00000000: de36 c1bd 5178 17be 9d00 08be 9fcb 65bd
00000010: cc63 fcbd 4703 67bd 4a42 0abe e588 b8bd
00000020: 744c 08be 7599 c8bd 37a9 b0bd ddf7 a9bd
00000030: 8632 26be 7ce7 0cbe 61a6 c7bd 2fce 2abe
00000040: e2c1 80be d608 a0bd 738c 94bd 7308 9bbd
00000050: 5a8c cabd 0766 8cbd b857 5bbe a992 c0bd
00000060: 5625 19bd 58d2 d1bd c2d4 8cbd 9df9 3ebe
00000070: 541c a2bc 7f7f 21be 26ae 84bd 92cf 82bd
00000080: d35f 96bd 1aaa cfbd 5395 edbd 8c77 95bd
00000090: 9499 0cbd f0a1 c9bd 9aed f8bd 1b68 77be
000000a0: b426 d8bd 9635 f5bd a862 acbd b576 a5bd
000000b0: 48f0 d3bd 3972 25be 47a3 b2bd 73f3 90bd
000000c0: f3d8 75bd 3a12 b5bd

fc2.weight f4 [50, 50]
0.0690567 -0.08994021 0.044282585 0.13871269 -0.060769197 -0.09594231 -0.06188891 -0.7688515
-0.6793416 -0.06351144 -0.32715663 -0.051450454 0.0084052505 -0.10153534 -0.011431968 0.09558545
-0.045634024 0.038633805 -0.027191333 -0.016977157 -0.046753332 -0.012130627 -0.91305214 -0.0322153
0.039541084 -0.44665262 0.067047566 1.9858893 1.7427624 0.59076566 -0.11811078 -0.039555367
0.07974542 1.1704674 -0.025309617 0.17329974 0.78451735 -0.09204846 0.7353276 -0.079526424
0.03251484 0.27093562 -0.097232655 0.47261795 0.07749281 -0.10849382 -0.103337035 -0.051514603
0.50753653 -0.0032303352 0.091369264 -0.033207577 0.07888807 -0.018117271 0.12976693 0.020287905
-0.14666378 0.1072098 -0.17322014 0.0140673425 -0.15770788 -0.071842715 -0.0899018 -0.07156131
-0.031099489 -0.14970446 -0.02187376 -0.09244223 -0.22109827 -0.03311493 0.062560275 0.02091423
-0.14581734 -0.15961087 -0.12532414 -0.04177113 0.0015476644 -0.006300943 -0.17632955 -0.040031686
-0.01528507 -0.089894146 -0.07202992 0.022958685 -0.054725666 -0.011697839 -0.027023913 -0.28021422
-0.030319674 -0.13268512 0.13495265 -0.026651777 -0.14173394 -0.17255764 0.07231437 0.09296468
-0.06779435 0.009129955 -0.12474186 0.005874008 -0.14308497 0.054905947 0.1192523 -0.10407584
-0.15204647 -0.29526177 0.03227065 0.021262512 -0.14952753 -0.028614338 -0.27071473 -0.07357084
0.046433352 -0.02228049 0.08677545 0.042159896 -0.14262001 0.06408415 -0.079241335 0.06926464
0.021620944 -0.14704107 3.701996e-05 -0.044869933 -0.009452481 0.11246363 -0.06846368 -0.1777222
-0.111871496 0.12992318 0.24666722 0.18217129 0.1125919 -0.07242522 0.13170065 -0.11277328
0.14321715 -0.15798672 -0.084478095 -0.080317214 0.069467574 -0.07245616 -0.10025549 0.042304058
-0.022531027 -0.080751814 0.06821309 0.09503859 0.0141899595 0.08110918 0.035670843 0.068080634
0.0114184525 -0.034342185 0.06393499 0.31039023 0.3304661 -0.5704343 0.06553665 -0.012656408
0.36669984 -0.04362408 -0.029101461 0.107776 -0.012447419 0.061879534 0.03725277 -0.11268187
-0.12663685 0.03601137 0.09872447 -0.0802951 -0.110857226 0.1999225 0.019092387 -0.145493
-0.08961521 0.102902286 0.6704464 0.09069842 -0.01821558 -0.056091495 0.2415152 0.22248793
-0.2259116 -0.06303975 0.71943647 -0.08545987 1.0118934 0.1655737 0.060570255 -0.006188675
0.07339935 -0.044161774 0.11322322 0.12974526 -0.06717935 0.14833035 0.36248106 0.13464849
-0.028305849 -0.0916564 -0.13970594 0.061151117 -0.09792905 -0.1827567 -0.09046699 -0.080184124
0.08865854 0.117929466 -0.16338064 0.03173633 0.07188879 0.084119186 -0.12759325 -0.03978261
-0.11309363 -0.13359496 0.031960905 -0.09686557 -0.06949596 0.08723623 0.012775565 -0.019741416
0.007730201 -0.2000056 0.040188134 0.06035853 -0.043855075 -0.08792952 -0.14239559 -0.012957845
-0.07442385 -0.18744963 -0.047682136 0.13000037 -0.2159756 -0.0840318 -0.15774892 0.060063288
0.028805986 0.06634972 0.13857765 0.060962863 0.04437262 -0.027004078 -0.12064624 -0.104699016
-0.15959835 -0.10580029 0.06462116 -0.0052554603 -0.06482376 0.04499217 0.055518858 -0.3240689
00000000: 996d 8d3d 9332 b8bd a861 353d b30a 0e3e
00000010: 1fe9 78bd 677d c4bd 3a7f 7dbd 74d3 44bf
00000020: 55e9 2dbf 4912 82bd 1381 a7be b6bd 52bd
00000030: 2db6 093c c3f1 cfbd 264d 3bbc 4ec2 c33d
00000040: beea 3abd 7b3e 1e3d 5cc0 debc ae13 8bbc
00000050: 6c80 3fbd 8abf 46bc c9bd 69bf 31f4 03bd
00000060: d5f5 213d a7af e4be 3c50 893d 9f31 fe3f
00000070: d712 df3f 6b3c 173f 11e4 f1bd cf04 22bd
00000080: 9151 a33d e0d1 953f 1d56 cfbc 7d75 313e
00000090: 21d6 483f e783 bcbd 6e3e 3c3f c0de a2bd
000000a0: 482e 053d 13b8 8a3e ea21 c7bd fbfa f13e
000000b0: 8db4 9e3d 0232 debd 5ea2 d3bd fa00 53bd
000000c0: eaed 013f 08b4 53bb cf1f bb3d ab04 08bd
000000d0: 1290 a13d ac6a 94bc 9fe1 043e d232 a63c
000000e0: 082f 16be d090 db3d 9f60 31be b67a 663c
000000f0: 2d7e 21be 4622 93bd 6f1e b8bd bc8e 92bd
00000100: 5bc4 febc 204c 19be 9930 b3bc 5a52 bdbd
00000110: 9667 62be 85a3 07bd 9a1f 803d 5254 ab3c
00000120: 2451 15be 0871 23be f954 00be 3418 2bbd
00000130: 00db ca3a 2478 cebb bc8f 34be 44f8 23bd
00000140: 3b6e 7abc 6c1a b8bd 6c84 93bd da13 bc3c
00000150: 0528 60bd 4ba8 3fbc 4161 ddbc 3d78 8fbe
00000160: f760 f8bc 9cde 07be 0731 0a3e d454 dabc
00000170: b422 11be f3b2 30be 8e19 943d 4464 be3d
00000180: c4d7 8abd cf95 153c a978 ffbd c07a c03b
00000190: de84 12be 0fe5 603d 8d3a f43d b725 d5bd
000001a0: 12b2 1bbe 8d2c 97be 3b2e 043d b82e ae3c
000001b0: bf1d 19be 9e68 eabc 1f9b 8abe 4fac 96bd
000001c0: e630 3e3d 9385 b6bc 54b7 b13d dbaf 2c3d
000001d0: fb0a 12be 8d3e 833d 4849 a2bd 9fda 8d3d
000001e0: 681e b13c ef91 16be e145 1b38 89c9 37bd
000001f0: 94de 1abc 5553 e63d b036 8cbd cffc 35be
00000200: e21c e5bd 950a 053e 5596 7c3e 1c8b 3a3e
00000210: 9596 e63d ac53 94bd 89dc 063e adf5 e6bd
00000220: 84a7 123e 45c7 21be da02 adbd 5a7d a4bd
00000230: 0445 8e3d e563 94bd c052 cdbd 0547 2d3d
00000240: fd92 b8bc 3561 a5bd 4eb3 8b3d 98a3 c23d
00000250: 017d 683c 921c a63d 971b 123d dc6d 8b3d
00000260: 7614 3b3c 64aa 0cbd 59f0 823d 78eb 9e3e
00000270: da32 a93e fb07 12bf 1438 863d d35c 4fbc
00000280: 15c0 bb3e 2aaf 32bd 3066 eebc aab9 dc3d
00000290: 42f0 4bbc 6575 7d3d 5c96 183d c1c5 e6bd
000002a0: 17ad 01be a980 133d 0e30 ca3d c271 a4bd
000002b0: 1d09 e3bd 7cb8 4c3e a367 9c3c 1efc 14be
000002c0: 2e88 b7bd 6fbe d23d 60a2 2b3f 18c0 b93d
000002d0: d738 95bc 32c0 65bd c34f 773e e0d3 633e
000002e0: 5f55 67be fc1a 81bd fd2c 383f 9605 afbd
000002f0: b985 813f 278c 293e 8418 783d 5eca cabb
00000300: 6652 963d fae2 34bd 93e1 e73d f1db 043e
00000310: 5495 89bd e9e3 173e 1e97 b93e 4be1 093e
00000320: abe1 e7bc 5ab6 bbbd 130f 0fbe 9879 7a3d
00000330: 078f c8bd 9324 3bbe c246 b9bd 9337 a4bd
00000340: 9c92 b53d 0185 f13d 414d 27be f4fd 013d
00000350: 6e3a 933d ae46 ac3d cea7 02be 17f3 22bd
00000360: a29d e7bd 1ecd 08be 70e9 023d 7561 c6bd
00000370: e653 8ebd e9a8 b23d 9a50 513c c0b8 a1bc
00000380: a04d fd3b 45ce 4cbe 509c 243d 823a 773d
00000390: 61a1 33bd 6414 b4bd 26d0 11be 244d 54bc
000003a0: 886b 98bd ccf2 3fbe 584e 43bd d11e 053e
000003b0: b528 5dbe dd18 acbd ef88 21be ec04 763d
000003c0: 88fa eb3c 5de2 873d 4de7 0d3e 32b4 793d
000003d0: 10c0 353d a837 ddbc 6015 f7bd 706c d6bd
000003e0: c06d 23be d3ad d8bd 1958 843d ff35 acbb
000003f0: 52c2 84bd b649 383d be67 633d 5cec a5be

fc2.bias f4 [50]
-0.04250506 -0.09081083 -0.30123085 -0.34568954 -0.07907843 -0.09532119 -0.87722075 -0.10321358
0.061749868 -0.12934415 0.54905826 -0.19459423 -0.2712624 -0.07673376 -0.16148736 -0.091854095
-0.73984706 -0.1310201 -0.119690366 -0.12677625 -0.122781254 -0.090336315 -0.18815875 -0.08071271
-0.24987899 -0.08426575 -0.1591882 -0.1592677 -0.3881696 -0.20162559 -0.16054273 -0.041851014
-0.07783449 -0.10911127 -0.12970887 -0.101927035 -0.051500224 -0.16266643 -0.06270028 -0.1058155
-0.14898065 -0.11017239 -1.028295 -0.098646805 -0.21211044 -0.1465721 -0.1393195 -0.100785
-0.5045867 -0.15194257
00000000: c919 2ebd 07fb b9bd ee3a 9abe 38fe b0be
00000010: dff3 a1bd c237 c3bd 8a91 60bf a461 d3bd
00000020: 6eed 7c3d cb72 04be 158f 0c3f b643 47be
00000030: e8e2 8abe 9726 9dbd f15c 25be 001e bcbd
00000040: 9e66 3dbf 222a 06be 3920 f5bd a2d1 01be
00000050: bd74 fbbd 3f02 b9bd b0ac 40be b54c a5bd
00000060: 47e0 7fbe 8693 acbd 3b02 23be 1217 23be
00000070: 2abe c6be f076 4ebe 5065 24be f86b 2bbd
00000080: b067 9fbd bb75 dfbd 67d2 04be 1fbf d0bd
00000090: e6f1 52bd 0792 26be 0169 80bd ccb5 d8bd
000000a0: 628e 18be 10a2 e1bd 2c9f 83bf 5607 cabd
000000b0: 7b33 59be ff16 16be c5a9 0ebe 5e68 cebd
000000c0: 982c 01bf d596 1bbe

fc3.weight f4 [2496, 50]
-82.33997 -0.36024466 -1.1286776 -31.579817 -0.28862658 -34.384064 -78.22705 -0.25881526
-46.021397 -1.2403022 -21.812115 -0.20680904 -45.052864 -0.045138057 -0.23795344 -0.14776404
-15.018599 -0.02982215 -0.3197046 -0.81674856 -0.3689436 -0.34414428 -1.1572665 -0.22081293
-1.2989144 -118.60159 -0.1915377 -0.66661817 -12.388922 -1.6277691 -0.0060823816 -2.6628485
-0.8093271 -0.11296791 -0.27461037 -0.21528998 -0.31550378 -0.2674691 -30.818705 -37.812065
-0.027866282 -0.0007976029 -60.56051 -0.08811091 -60.542027 -1.6843784 -0.69296485 -0.75273687
-32.272945 -0.87866586 -123.41083 -0.84974694 -2.520273 -58.106514 -0.9511847 -94.24107
-66.3312 -0.41462657 -123.51668 -1.8676895 -96.66993 -0.82015413 -75.129684 -0.60674226
-0.81239814 -0.5287015 -14.852186 -0.73704416 -0.76601064 -0.6998631 -0.7083634 -0.62781644
-1.462394 -0.5577411 -1.0694904 -109.851814 -0.55335164 -1.2851838 -15.839538 -1.4174056
-0.8656062 -3.7839172 -0.6307671 -0.6054977 -0.53384423 -0.24087302 -0.63306564 -0.63473564
-27.272171 -49.89429 -0.4245677 -0.14382786 -59.700867 -0.53414226 -106.046135 -1.6185105
-0.62847334 -1.1165227 -21.829668 -0.73666996 -29.509478 -0.42536128 -0.974157 -32.420265
-0.75945514 -40.004246 -30.518635 -0.22952758 -24.23342 -1.1543307 -31.789343 -0.3878734
-29.813166 -0.20179808 -0.07817044 -0.2631824 -25.731245 -0.07366639 -0.2925885 -0.613353
-0.36546078 -0.26304364 -1.3522761 -0.20307277 -0.82716507 -46.390163 -0.14494787 -1.0102742
-8.186553 -0.95350647 -0.36334667 -2.4061248 -1.2241657 -0.21973762 -0.01673248 -0.22043388
-0.077556476 -0.29604295 -31.72349 -43.466473 0.06718192 -0.05886129 -34.931557 -0.14560145
-21.81324 -0.41837826 -1.0016671 -0.46131775 -23.925865 -0.96041584 -19.601553 -0.30273876
-0.68459034 -26.998526 -0.3472714 -30.832005 -12.130995 -0.28050566 -32.020706 -0.68753964
-24.689259 -0.19510849 -45.91844 -0.022078238 -0.1149983 -0.08227873 -31.989752 -0.3219841
-0.37751937 -0.44360906 -0.12593421 -0.14247555 -1.166074 -0.27168587 -0.5075317 -21.735651
0.032947853 -0.85762614 -8.582612 -0.08902665 0.032480918 -1.1763935 -0.87351036 -0.011016169
-0.060548287 0.1746756 -0.11765625 -0.10062504 -11.723221 -26.346716 -0.101591624 -0.028894443
-23.91376 -0.19205736 -21.119102 -0.27441013 -0.49951285 0.043680068 -20.691515 -0.85815567
-127.23298 -0.75827 -3.9296703 -105.62835 -1.0387135 -38.01126 -44.491447 -0.60315156
-90.828766 -1.5787898 -46.72471 -0.8408858 -73.383446 -0.5570119 -0.925893 -0.93940055
-20.340183 -0.66591185 -0.9536062 -1.0866939 -0.79033405 -0.8748018 -1.6192445 -0.55686164
-1.9571263 -112.068 -3.4439116 -3.164454 -17.060726 -9.243017 -4.467147 -3.6963165
-1.4290102 -0.6031361 -0.7267065 -1.4355228 -0.6007628 -0.83086014 -162.2503 -22.95918
-0.6886664 -0.0647374 -57.404865 -0.75211954 -101.97944 -4.6609807 -1.1016254 -3.360301
-21.153906 -2.172751 -53.223156 -0.7935503 -1.4111987 -54.21297 -0.9618777 -49.120255
00000000: 11ae a4c2 fd71 b8be 8278 90bf 77a3 fcc1
00000010: ddc6 93be 4889 09c2 4074 9cc2 6f83 84be
00000020: e915 38c2 39c2 9ebf 367f aec1 c0c5 53be
00000030: 2236 34c2 afe2 38bd 11aa 73be 754f 17be
00000040: 2e4c 70c1 954d f4bc 52b0 a3be 6f16 51bf
00000050: 2de6 bcbe ae33 b0be 4f21 94bf c91c 62be
00000060: d442 a6bf 0434 edc2 7522 44be 7da7 2abf
00000070: 0639 46c1 bd5a d0bf b74e c7bb 1c6c 2ac0
00000080: 1030 4fbf b85b e7bd bb99 8cbe fa74 5cbe
00000090: b689 a1be b6f1 88be b58c f6c1 8e3f 17c2
000000a0: d447 e4bc 3916 51ba f63d 72c2 7e73 b4bd
000000b0: 092b 72c2 b699 d7bf 2566 31bf 5db3 40bf
000000c0: 7f17 01c2 3ff0 60bf 58d2 f6c2 0489 59bf
000000d0: 274c 21c0 126d 68c2 d780 73bf 6e7b bcc2
000000e0: 93a9 84c2 ef49 d4be 8a08 f7c2 7310 efbf
000000f0: 0157 c1c2 9ff5 51bf 6642 96c2 7653 1bbf
00000100: 53f9 4fbf fb58 07bf 8ea2 6dc1 edae 3cbf
00000110: 4619 44bf 3a2a 33bf 4e57 35bf 94b8 20bf
00000120: ba2f bbbf 1fc8 0ebf 10e5 88bf 21b4 dbc2
00000130: 74a8 0dbf e780 a4bf bf6e 7dc1 8c6d b5bf
00000140: 5e98 5dbf b32b 72c0 f479 21bf e601 1bbf
00000150: 04aa 08bf 6ba7 76be 9710 22bf 097e 22bf
00000160: 682d dac1 c193 47c2 f060 d9be 9c47 13be
00000170: b0cd 6ec2 8cbd 08bf 9f17 d4c2 5a2b cfbf
00000180: a1e3 20bf 37ea 8ebf 29a3 aec1 6796 3cbf
00000190: 6913 ecc1 f4c8 d9be 5a62 79bf 5aae 01c2
000001a0: a76b 42bf 5904 20c2 2a26 f4c1 4709 6bbe
000001b0: 0bde c1c1 1cc1 93bf 9350 fec1 5897 c6be
000001c0: 5d81 eec1 28a4 4ebe d317 a0bd d8bf 86be
000001d0: 97d9 cdc1 67de 96bd 29ce 95be b404 1dbf
000001e0: ad1d bbbe a8ad 86be 6217 adbf 4ff2 4fbe
000001f0: 17c1 53bf 878f 39c2 376d 14be aa50 81bf
00000200: 1ffc 02c1 0019 74bf 9308 babe f3fd 19c0
00000210: 76b1 9cbf e602 61be 8e12 89bc 6bb9 61be
00000220: eed5 9ebd f192 97be b5c9 fdc1 abdd 2dc2
00000230: ad96 893d 8918 71bd eab9 0bc2 8c18 15be
00000240: 8481 aec1 ad35 d6be a136 80bf d731 ecbe
00000250: 2c68 bfc1 d0dd 75bf fbcf 9cc1 9300 9bbe
00000260: 5041 2fbf fbfc d7c1 8fcd b1be f2a7 f6c1
00000270: 8e18 42c1 709e 8fbe 3415 00c2 9902 30bf
00000280: 9a83 c5c1 85ca 47be 7cac 37c2 6cdd b4bc
00000290: 3b84 ebbd c081 a8bd 03eb ffc1 1adb a4be
000002a0: 384a c1be ba20 e3be e6f4 00be 1ce5 11be
000002b0: ea41 95bf 691a 8bbe 99ed 01bf 9de2 adc1
000002c0: 54f4 063d 638d 5bbf 6152 09c1 9b53 b6bd
000002d0: b60a 053d 1094 96bf 609e 5fbf 297d 34bc
000002e0: 7b01 78bd 29de 323e c3f5 f0bd 8014 cebd
000002f0: 5092 3bc1 13c6 d2c1 450f d0bd 0ab4 ecbc
00000300: 614f bfc1 afaa 44be ecf3 a8c1 7c7f 8cbe
00000310: 26c0 ffbe dfe9 323d 3988 a5c1 17b0 5bbf
00000320: 4977 fec2 fc1d 42bf b87f 7bc0 b741 d3c2
00000330: 90f4 84bf 880b 18c2 3ef7 31c2 2468 1abf
00000340: 54a8 b5c2 c915 cabf 1ae6 3ac2 4b44 57bf
00000350: 53c4 92c2 5598 0ebf 5307 6dbf 8e7c 70bf
00000360: b2b8 a2c1 3379 2abf 891f 74bf c918 8bbf
00000370: 5553 4abf 03f3 5fbf 6743 cfbf 7c8e 0ebf
00000380: 1d83 fabf d122 e0c2 0c69 5cc0 6a86 4ac0
00000390: 5e7c 88c1 66e3 13c1 def2 8ec0 7390 6cc0
000003a0: cee9 b6bf 2167 1abf 7009 3abf 36bf b7bf
000003b0: 97cb 19bf 40b3 54bf 1440 22c3 67ac b7c1
000003c0: 714c 30bf 0b95 84bd 959e 65c2 e88a 40bf
000003d0: 79f5 cbc2 c126 95c0 1002 8dbf 2c0f 57c0
000003e0: 333b a9c1 5a0e 0bc0 83e4 54c2 1d26 4bbf
000003f0: 29a2 b4bf 15da 58c2 9e3d 76bf 247b 44c2

fc3.bias f4 [2496]
-28.520227 -27.538458 -27.728947 -28.064503 -29.418812 -29.500662 -28.250591 -31.167393
-27.92064 -30.609455 -28.974506 -30.459572 -29.555906 -31.061575 -37.587902 -27.953478
-35.779423 -30.619917 -32.688915 -32.88473 -32.032566 -28.468859 -35.524433 -28.526644
-40.745808 -28.024874 -40.96295 -38.920753 -35.272644 -27.592302 -41.745 -35.49549
-33.158394 -29.750967 -27.403849 -29.583519 -33.215168 -41.19877 -29.54587 -40.823734
-33.51691 -41.33131 -28.74023 -32.662968 -33.25218 -29.487766 -31.045813 -28.241444
-30.85479 -32.17517 -28.073687 -27.33593 -34.81986 -27.857573 -34.52735 -31.189102
-29.126257 -31.410456 -37.630356 -28.485657 -28.74651 -28.63054 -35.300972 -38.459682
-27.925932 -28.089405 -29.39389 -33.593307 -29.538534 -30.58244 -27.880316 -29.028505
-31.161718 -31.756226 -27.70895 -30.000477 -36.828312 -28.267157 -35.222633 -28.785105
-29.015945 -27.416447 -34.136765 -28.124659 -28.47678 -30.362688 -28.484932 -31.509119
-27.566113 -38.46095 -35.75129 -27.56976 -28.206816 -33.668007 -35.416893 -36.199333
-35.90879 -31.617226 -41.771275 -30.637522 -36.287247 -40.691956 -33.82493 -34.395756
-27.862362 -31.101631 -27.397358 -28.126497 -33.95551 -40.709663 -29.05902 -27.91269
-30.497547 -27.824947 -38.74854 -32.984467 -40.3602 -40.48709 -41.0438 -32.02106
-33.20897 -35.611496 -39.94465 -34.77659 -33.14368 -34.883945 -28.394642 -31.98501
-40.685513 -31.177732 -41.147747 -35.633377 -29.053354 -35.797543 -35.836468 -28.553782
-41.172688 -35.80666 -41.330563 -35.67853 -36.791565 -38.483677 -34.405872 -29.780336
-31.58966 -39.706596 -33.82202 -28.257992 -28.693342 -30.66398 -34.034046 -29.534742
-29.134241 -35.984226 -27.934895 -28.89645 -31.245163 -37.603657 -33.814346 -38.22873
-34.73372 -30.518164 -36.91421 -35.55266 -32.731617 -39.03648 -35.548653 -28.06716
-38.93285 -36.66498 -38.37413 -33.28948 -37.351654 -28.200895 -38.420586 -39.28739
-38.850254 -34.45293 -30.732052 -39.107758 -33.352013 -29.267344 -39.136337 -37.245453
-35.831062 -28.60802 -34.54128 -37.63268 -39.390507 -39.249382 -40.221687 -36.811817
-38.75572 -36.896736 -39.726677 -29.963257 -34.987495 -30.198381 -35.10808 -39.88597
-37.31365 -28.103329 -40.24298 -35.084316 -32.864697 -37.3748 -34.2567 -27.950138
-35.867443 -37.387886 -36.34775 -33.19891 -32.80136 -36.34666 -28.331543 -32.501984
-34.80508 -28.03389 -33.738518 -35.637993 -31.666428 -36.98602 -36.15691 -29.985718
-33.006447 -29.306002 -36.148045 -29.939957 -29.347994 -37.585823 -28.59789 -30.55434
-29.306425 -31.08721 -34.513557 -39.25603 -29.948593 -27.69296 -34.549232 -40.05897
-37.993027 -31.997248 -27.465448 -31.430487 -39.136303 -32.553734 -36.102406 -29.997234
-31.467054 -35.428608 -38.888557 -28.77089 -35.76754 -40.745594 -39.84848 -40.801983
00000000: 6d29 e4c1 c34e dcc1 e2d4 ddc1 1a84 e0c1
00000010: ba59 ebc1 5b01 ecc1 3601 e2c1 d256 f9c1
00000020: 795d dfc1 2ae0 f4c1 cacb e7c1 34ad f3c1
00000030: 7f72 ecc1 1b7e f8c1 035a 16c2 b9a0 dfc1
00000040: 211e 0fc2 97f5 f4c1 73c1 02c2 f789 03c2
00000050: 5921 00c2 39c0 e3c1 0519 0ec2 9136 e4c1
00000060: b5fb 22c2 f132 e0c1 10da 23c2 daae 1bc2
00000070: 3017 0dc2 09bd dcc1 e1fa 26c2 62fb 0dc2
00000080: 32a2 04c2 fb01 eec1 153b dbc1 0cab ecc1
00000090: 55dc 04c2 8acb 24c2 f15d ecc1 814b 23c2
000000a0: 5111 06c2 4353 25c2 feeb e5c1 e1a6 02c2
000000b0: 3b02 05c2 f2e6 ebc1 d35d f8c1 7aee e1c1
000000c0: 9cd6 f6c1 60b3 00c2 e996 e0c1 fcaf dac1
000000d0: 8947 0bc2 4fdc dec1 021c 0ac2 4883 f9c1
000000e0: 9302 e9c1 9d48 fbc1 7c85 16c2 a0e2 e3c1
000000f0: daf8 e5c1 590b e5c1 3234 0dc2 b7d6 19c2
00000100: 4f68 dfc1 1ab7 e0c1 b026 ebc1 8c5f 06c2
00000110: eb4e ecc1 d6a8 f4c1 e30a dfc1 613a e8c1
00000120: 334b f9c1 c00c fec1 eeab ddc1 fa00 f0c1
00000130: 3150 13c2 2323 e2c1 fae3 0cc2 e547 e6c1
00000140: a820 e8c1 e254 dbc1 0c8c 08c2 4dff e0c1
00000150: 72d0 e3c1 c9e6 f2c1 24e1 e3c1 ad12 fcc1
00000160: 6687 dcc1 03d8 19c2 5201 0fc2 de8e dcc1
00000170: 8fa7 e1c1 0aac 06c2 e6aa 0dc2 1ecc 10c2
00000180: 9aa2 0fc2 14f0 fcc1 c915 27c2 a519 f5c1
00000190: 2426 11c2 90c4 22c2 ba4c 07c2 4195 09c2
000001a0: 1ee6 dec1 24d0 f8c1 ca2d dbc1 1103 e1c1
000001b0: 71d2 07c2 b2d6 22c2 df78 e8c1 304d dfc1
000001c0: fafa f3c1 7e99 dec1 81fe 1ac2 18f0 03c2
000001d0: d870 21c2 c8f2 21c2 da2c 24c2 9115 00c2
000001e0: fcd5 04c2 2c72 0ec2 52c7 1fc2 3a1b 0bc2
000001f0: 2193 04c2 2989 0bc2 3a28 e3c1 4de1 ffc1
00000200: f7bd 22c2 ff6b f9c1 4b97 24c2 9488 0ec2
00000210: 456d e8c1 af30 0fc2 8b58 0fc2 256e e4c1
00000220: d5b0 24c2 053a 0fc2 7f52 25c2 d1b6 0ec2
00000230: 902a 13c2 49ef 19c2 9d9f 09c2 213e eec1
00000240: a0b7 fcc1 8ed3 1ec2 c049 07c2 5e10 e2c1
00000250: f78b e5c1 d54f f5c1 dd22 08c2 2747 ecc1
00000260: ed12 e9c1 d9ef 0fc2 aa7a dfc1 ee2b e7c1
00000270: 18f6 f9c1 256a 16c2 e441 07c2 38ea 18c2
00000280: 54ef 0ac2 3325 f4c1 27a8 13c2 ed35 0ec2
00000290: 2ded 02c2 5b25 1cc2 d231 0ec2 8b89 e0c1
000002a0: 3dbb 1bc2 f1a8 12c2 1c7f 19c2 6d28 05c2
000002b0: 1868 15c2 6f9b e1c1 aeae 19c2 4a26 1dc2
000002c0: a966 1bc2 cdcf 09c2 3edb f5c1 586e 1cc2
000002d0: 7668 05c2 8523 eac1 9c8b 1cc2 58fb 14c2
000002e0: 0253 0fc2 3add e4c1 452a 0ac2 dd87 16c2
000002f0: e18f 1dc2 5eff 1cc2 02e3 20c2 4d3f 13c2
00000300: db05 1bc2 4296 13c2 1ee8 1ec2 c0b4 efc1
00000310: 32f3 0bc2 4996 f1c1 ad6e 0cc2 3c8b 1fc2
00000320: 2d41 15c2 9ed3 e0c1 d0f8 20c2 5756 0cc2
00000330: 7375 03c2 cc7f 15c2 dc06 09c2 e299 dfc1
00000340: 4378 0fc2 328d 15c2 1964 11c2 afcb 04c2
00000350: 9834 03c2 fb62 11c2 00a7 e2c1 0802 02c2
00000360: 6738 0bc2 6845 e0c1 3ef4 06c2 4e8d 0ec2
00000370: d854 fdc1 aff1 13c2 ada0 10c2 c0e2 efc1
00000380: 9a06 04c2 b172 eac1 9997 10c2 0885 efc1
00000390: b1c8 eac1 e257 16c2 7bc8 e4c1 4a6f f4c1
000003a0: 8f73 eac1 9bb2 f8c1 e20d 0ac2 2d06 1dc2
000003b0: b896 efc1 2f8b ddc1 6a32 0ac2 633c 20c2
000003c0: dcf8 17c2 5dfa ffc1 3db9 dbc1 a371 fbc1
000003d0: 938b 1cc2 0637 02c2 dd68 10c2 56fa efc1
000003e0: 87bc fbc1 e5b6 0dc2 e28d 1bc2 c82a e6c1
000003f0: f611 0fc2 7dfb 22c2 d864 1fc2 3b35 23c2
