Python/RNN/models/modelTESTNOREPEAT.pt (torch, 493439 bytes, 10 tensors)

fc1.weight f4 [50, 100]
00000000: 3d59 98bd b238 463d a86d 4d3c 52e0 0a3d
00000010: 0079 2b3c 76ee 023d 9d4a 943d 9b32 c8bd
00000020: f229 b2bd a0af f5bb 1062 b9bd 3d36 6fbd
00000030: 3dd4 96bd 001a dab9 f04b 58bd a26b 303d
00000040: 21bd c03d b244 84bd bd1c 7ebd 6c76 bbbc
00000050: d945 c33d 896d 9e3d 604e 83bc 380f d7bc
00000060: d82e 103c 77bf 24bd 941b 993c afca 953d
00000070: 339e 1bbd a023 e0bb 30e9 30bd aa31 143d
00000080: 10cb 09bd 5853 203c f155 893d 80d0 c8bd
00000090: 843d d03c 4c7c b03c 26d7 0d3d 5eb1 283d
000000a0: 8065 1d3c e3b3 9fbd 13c5 cabd a3d1 b53d
000000b0: 128d 82bd 00e0 16bd 8a08 97bd e8b4 423c
000000c0: c0fa a2bd e4a1 dc3c 12f3 453d fc0a e33c
000000d0: af3b 8f3d cb04 c23d c0ec a33c 006e c93b
000000e0: 80e9 30ba 0359 b23d 4a59 06bd 8958 8e3d
000000f0: 132c bebd a4b5 d03c 59b3 843d 6099 423b
00000100: 340c b13c 6036 55bd 633e a4bd 7afa 4dbd
00000110: 3d48 ad3d 943d 963c 3d29 8d3d 0aaa 6fbd
00000120: 6dcd 93bd c86b 8b3c 9a78 95bd b29a 223d
00000130: 72f0 573d 4612 043d 50c6 b7bd d658 513d
00000140: 360c 653d d0d6 10bc 1f49 bd3d 6020 08bd
00000150: 3bbd 813d 17af c5bd 32d7 593d 14fd ea3c
00000160: b04c 3e3c 006d 763c 0699 633d a224 673d
00000170: 3015 79bc b3e7 36bd 84ec 8abd 7055 0abc
00000180: 6281 353d 302a 0c3c da62 aebd 0d37 98bd
00000190: 501a ce3b fa23 7e3d e0a1 b63b d977 803d
000001a0: c06c 963a f88a febc e733 67bd e0e7 9dbc
000001b0: 40ec 7ebd 8615 6b3d 9810 543c de49 4b3d
000001c0: 5f04 cbbd 1774 60bd 9200 163d 6a9c ccbd
000001d0: c02c 9abc 4273 4f3d b5a9 cabd 827b 133d
000001e0: 9df0 ba3d 401c bfbd ac4f e1bc 613d 863d
000001f0: ad2d aebd 65d0 8dbd f789 9e3d 58e5 563c
00000200: faf0 533d 7ac4 333d 787d dcbc 2a0b 73bd
00000210: 1647 423d 9223 a0bd 47eb 42bd 52bd 163d
00000220: 0a09 0c3d 38f1 f1bc 811c 953d 0033 a6bd
00000230: 7321 95bd 86a9 373d e6d5 473d d2a4 153d
00000240: 40e6 06bb 53cb 62bd 3023 5e3c 5d5e 42bd
00000250: 1998 c83d 7865 c6bc 6ecf 9abd 2645 aabd
00000260: 81f6 c23d e1a0 9a3d 03d6 67bd 8069 f53b
00000270: 8898 c83c 17a5 2bbd 4033 f3ba 0545 ae3d
00000280: 0c6d 8bbd 095b b63d 8ec9 93bd af13 a73d
00000290: 74a0 18bd 9cd8 82bd 103b 27bd 56d1 1b3d
000002a0: 325b 6d3d 02f4 4f3d f887 c2bd 23de b53d
000002b0: 90f3 cabd 891f b63d 00f7 debb 0a6d 173d
000002c0: 1ade a3bd bb0d 853d 8016 b63b 0038 bd38
000002d0: 00a4 723c c031 59bb aff4 cbbd b28b 2b3d
000002e0: 6058 3fbd 3ddc 2ebd 00c5 373a 0d99 85bd
000002f0: 5d99 b63d d46d eabc 205d b0bd 0054 41ba
00000300: 50fb 84bb e084 e13b 5270 2c3d 686a 85bc
00000310: e52c 82bd a5ce c5bd 0dfc 21bd a745 25bd
00000320: 300e 31bc 8c96 c83c 80ec 17bd f0f4 51bc
00000330: 5879 173c 4d75 63bd 3019 74bc fa63 90bd
00000340: adbc 7cbd 18f1 8dbd 6a8d 33bd 2d8c acbd
00000350: 74f3 0dbd 709e 1abc 8907 be3d 4dba ab3d
00000360: b37e 7abd d721 79bd 402b 683b 814a cb3d
00000370: edff b63d 932b 9f3d e9f0 9b3d 5772 b43d
00000380: 7ad7 c1bd 9fff b4bd 1bb9 9fbd e71f 8d3d
00000390: f5a9 b4bd a0e4 243b b042 b3bb 4ebf 3e3d
000003a0: ba47 533d 294f 803d 171d 77bd d400 f63c
000003b0: aa9b 33bd d729 24bd a230 733d 943c 11bd
000003c0: 4b8c c5bd 3059 bdbb c0d9 093b 9b81 ad3d
000003d0: 4080 44bd 7039 733c 209d aa3c 388c fcbc
000003e0: 3609 023d 3264 143d 0e66 3e3d 2c72 06bd
000003f0: 3053 253c e0c2 cb3b 3185 cc3d 0fd4 b23d
-0.07438896 0.048393913 0.012538351 0.033905335 0.01046586 0.031965695 0.07240794 -0.09775277
-0.08699407 -0.007497743 -0.09051907 -0.058401335 -0.073647 -0.00041599572 -0.052806795 0.043071397
0.094110735 -0.06458415 -0.062039126 -0.022883616 0.09534807 0.07735736 -0.016028583 -0.026252374
0.008800231 -0.040221658 0.018689908 0.073140495 -0.037992667 -0.0068401843 -0.043191135 0.036180176
-0.03364092 0.009785496 0.06705845 -0.09805393 0.025419958 0.021543644 0.03462901 0.041184776
0.009606719 -0.077979825 -0.0990087 0.08877876 -0.06374563 -0.036834717 -0.073746756 0.011883952
-0.07957983 0.026932664 0.048327513 0.027715199 0.069938056 0.094735704 0.020010352 0.006147146
-0.00067486614 0.08708384 -0.032799996 0.069504805 -0.0928575 0.025477238 0.0647952 0.002969347
0.021612264 -0.05205381 -0.08019712 -0.0502877 0.08461044 0.01833991 0.06892631 -0.05851177
-0.07216916 0.017019168 -0.072983935 0.03969831 0.05271954 0.03224399 -0.08973372 0.05111011
0.05591985 -0.008840278 0.09242462 -0.033234 0.06334921 -0.09652536 0.053183742 0.02868513
0.011614963 0.015040636 0.055565856 0.05643142 -0.015202805 -0.04465456 -0.06783393 -0.008443221
0.044312842 0.00855498 -0.08514948 -0.07432375 0.006289758 0.06204603 0.005573496 0.06272859
0.0011476502 -0.031072125 -0.056445982 -0.019275606 -0.062237024 0.057393573 0.012943409 0.049630992
-0.09912943 -0.054798212 0.036621638 -0.09990771 -0.018820167 0.050647028 -0.0989565 0.036006458
0.091279246 -0.0933156 -0.02750381 0.06554676 -0.08504806 -0.06924514 0.077411585 0.013116203
0.051743485 0.043888547 -0.026915297 -0.05933682 0.047431074 -0.078192845 -0.04758766 0.036801644
0.034188308 -0.029533967 0.07280827 -0.08115196 -0.072817706 0.044839405 0.048787974 0.036534138
-0.0020584017 -0.055369686 0.013558194 -0.047453273 0.09794635 -0.024218306 -0.07559095 -0.0831397
0.09519673 0.075502165 -0.05660058 0.007489383 0.024486795 -0.04190549 -0.0018554702 0.08509258
-0.068079084 0.08904082 -0.07216178 0.08158051 -0.037262395 -0.06388971 -0.04082781 0.038041435
0.0579483 0.050769813 -0.0949859 0.0888026 -0.09909737 0.088927336 -0.006804347 0.036969222
-0.08001347 0.064967595 0.0055568814 9.022653e-05 0.014809608 -0.0033141226 -0.09958779 0.04188127
-0.04671514 -0.042690504 0.0007010251 -0.06523333 0.089159705 -0.028616823 -0.08611512 -0.00073748827
-0.004058279 0.006882295 0.042099304 -0.01628609 -0.06356219 -0.09658555 -0.039547015 -0.04034963
-0.010806605 0.024485849 -0.03709078 -0.012814745 0.009245239 -0.05553179 -0.014898583 -0.07050319
-0.061703373 -0.069307506 -0.043836035 -0.08425174 -0.034656003 -0.0094371885 0.09278781 0.083851434
-0.061155986 -0.060823288 0.003542617 0.0992632 0.08935533 0.07771983 0.07614309 0.08810871
-0.09464927 -0.08837818 -0.07798978 0.068908505 -0.08821479 0.0025160685 -0.0054705963 0.04656916
0.051582076 0.062650986 -0.060330477 0.030029692 -0.043849625 -0.040078964 0.05937255 -0.035458162
-0.096458994 -0.0057784542 0.002103433 0.08471986 -0.04797387 0.014845237 0.020826876 -0.03082858
0.031747065 0.036228366 0.046484046 -0.032823727 0.010090634 0.0062182993 0.09986342 0.08731853

fc1.bias f4 [50]
00000000: ca85 7cbd 24a2 11bd 6af8 4dbd adc2 633e
00000010: 11ef 2c3e 37e1 d2bc 2c65 1d3e ea46 77bd
00000020: aae3 85bd 6932 ea3d 061a 03bd f0ea 29bd
00000030: d11e 503e ed66 7cbd e852 babd 9036 6ebd
00000040: 75cd fa3d eadd 3d3d 2c34 0b3e 0a03 8e3e
00000050: 04a2 ffbc 75a8 97bd 4b5e 9cbd c596 abbd
00000060: 2036 cabc ebd6 c0bd a75b 083e ad7a 78bd
00000070: 66f1 b23d 3bd5 273e 4d30 883e 9ad6 e63d
00000080: 34db a73e ed7e 123e 777a 72bd a644 9cbd
00000090: 124e ad3e e44d 17bd d9c8 113e 9391 a63e
000000a0: 53e4 afbd 35e3 07bd 74f6 c03e 18d9 183e
000000b0: a3a4 5dbd 44bc 283e bb5d 91bd 306c 5abd
000000c0: 2d75 303e 2d8b 803e
-0.06165103 -0.03555502 -0.050285734 0.22242232 0.16888072 -0.025742156 0.15370625 -0.060370363
-0.06537564 0.11435396 -0.03200724 -0.04148382 0.20324256 -0.061621595 -0.09097844 -0.058157504
0.12246219 0.046354212 0.1359412 0.27736694 -0.031205185 -0.074051775 -0.076351725 -0.083783664
-0.024684012 -0.09415992 0.13316213 -0.060663868 0.08737449 0.16389935 0.2659935 0.11271401
0.32784426 0.14306231 -0.059198823 -0.07630281 0.33848625 -0.036939517 0.14236774 0.3253294
-0.08588471 -0.033175666 0.3768803 0.14926565 -0.054112088 0.16478068 -0.07097956 -0.053325832
0.17232199 0.25106183

attention.weight f4 [50, 1000]
00000000: a860 a8bc f000 163c a09c c5ba d829 00bb
00000010: a0f7 e4bb 9b40 debc a82f 6a3c dcca edbb
00000020: 2cf6 69bc 04b5 f93c a2bf f43c 14e8 4f3c
00000030: 4afd ad3c acc7 d6bc 0081 243b 38e3 88bc
00000040: 3ced b83c ec9c 88bc 9094 313c 95e5 c1bc
00000050: a8c3 833b b026 da3b 8b76 bcbc aafe d93c
00000060: 303e cc3c 4c85 ac3c 7089 a2bc 78ac fb3b
00000070: 40e4 a43c dc0b 223c 60a5 e93c 188f 46bc
00000080: 9fd8 a2bc e2e2 b43c 6274 17bc 8458 ae3c
00000090: e24c f13c deb5 ac3c 84ad 5e3c be05 46bc
000000a0: 00b7 39bb 3428 0a3c 78fe cf3b 908f 9fbc
000000b0: f176 99bc 7c18 f8bb a197 fabc 3627 a33c
000000c0: e8b4 11bb 2003 52bc 9006 b8bb 305a a1ba
000000d0: dea2 50bc 6ec4 003d 748a cc3c bcf1 e03c
000000e0: 8030 a339 9c82 b3bc e022 aa3b 68b5 b0bc
000000f0: e082 40bc a0e1 54ba 62b0 92bc 0810 36bc
00000100: 4661 c13c 6e10 963c 701e 623c 92a6 83bc
00000110: 8044 84b9 ba0f 6dbc 6a19 a13c 7c68 ecbb
00000120: 4e25 9b3c 1448 a33c 1eac 34bc bd9a edbc
00000130: 5045 a23b a25a acbc a025 f23b c962 e6bc
00000140: 1852 02bb 143f 9fbc fc1e be3c b0d5 023c
00000150: fc16 99bc e80b bf3c 5467 7fbc 80eb 843c
00000160: 38c4 0ebb f8c1 ddbb 58e9 34bc b8be 08bb
00000170: 8e08 9b3c c349 e9bc 2c77 963c d822 80bb
00000180: 3ae6 18bc a4cf 54bc fcba 643c f848 eb3c
00000190: 1431 8fbe 1111 c53e 5c01 45be 3f1b 97be
000001a0: 2fbc 813d c8f7 813d f19e 693c 7381 0d3d
000001b0: 4b21 953e 072b 8d3e 0c83 ef3d ce4a b83e
000001c0: 19e2 593e f6d1 f2be bb5d 8fbe 0783 52be
000001d0: 17d3 e3be ed43 bd3e 58c7 f93d 8095 b13e
000001e0: 4033 ac3e 3c63 f63b b138 2abd 86c1 ecbe
000001f0: 8e91 bb3e e6cc e23d f762 b8be 4528 c73e
00000200: cea2 393e 0e02 e53e 164f 31be ff8c b5be
00000210: d6e7 533c 702f a2bd 7c0a 6a3e 0e5b 823e
00000220: 55b1 8bbf bc41 0ebe 2a78 443e a41a 21bd
00000230: ea4e 9e3b 2e86 81be 7a91 063e 4562 fd3e
00000240: afe3 9c3e 7eec 24bd be67 eb3e 6fc4 0abf
00000250: 77b5 2cbe 672b 5e3e 04c7 56bf 54c6 b7be
00000260: dc9f f43e 8515 253f e310 d73e 7d89 33bd
00000270: 2565 38bf 4270 313d 682f 2fbf 458d d3be
00000280: d044 4bbc 2b64 10bf e825 07bf e7ba edbd
00000290: e889 343e 0792 a4be c549 083f cbba 62bd
000002a0: d7d6 e5be 22f6 093e b208 d8bd 04d8 90be
000002b0: 53fb ebbe 0ca3 0dbe 223d 2c3f 24e8 793f
000002c0: 3716 ad3e 9520 d2be 6652 073f c686 1abe
000002d0: 3b19 a9bd b200 21be b9e2 583e 03f2 303d
000002e0: 5255 bf3e 1745 85be 9b75 893d 3578 c2bd
000002f0: c77d dabe eee1 173f 5af6 f03e 3957 76be
00000300: aaf8 933e 906f 303e 03dd e0be 4e29 3fbe
00000310: cb0b 223f 8aee e4bb 0200 a8be 9ca0 4f3e
00000320: 3a02 6c3e 79c0 9fbe 6f8f 0a3d cefa 203e
00000330: 0afb c93b 4058 3e3e 36ce 383d cac3 8c3e
00000340: 3056 1dbe 674b aabd a59e c3be 0d43 16bc
00000350: ac38 59be 2645 c53e afad e0bd 4cbe 173e
00000360: 76c9 adbe 2539 b53c 3d22 d03e 3910 d63e
00000370: fe52 3b3d 65a7 44be 99be d8bd 68b4 65be
00000380: e6a2 e6bd fed8 a23e 8aab 8f3d d673 c7bd
00000390: c132 193e 29b8 033f a8b1 11bf 7a79 9fbe
000003a0: e515 983d 8b01 62be 3388 ad3e ba5d afbd
000003b0: 46b1 a53d 91ea 1c3e fc72 edbd 86f0 103e
000003c0: 9c1e 9ebe 5f9a d83d 69e3 f0bd bd59 ea3e
000003d0: 7812 593f 5e90 abbe 0b9d b93e 823d b5bd
000003e0: 493a 193e 2a1f cc3c db42 53bd d419 273e
000003f0: 2635 04bf b3d6 43bd d4d4 0f3d c720 13bf
-0.020553902 0.009155497 -0.0015076585 -0.001955619 -0.006987527 -0.027130416 0.014293589 -0.0072568487
-0.014279883 0.030481823 0.029876534 0.012689609 0.021238942 -0.026218258 0.0025101304 -0.016709909
0.02257406 -0.016676389 0.010838643 -0.023669044 0.004021127 0.006657444 -0.023005744 0.026610691
0.024931997 0.021059655 -0.019840926 0.007680472 0.02012837 0.009890523 0.02852124 -0.012119077
-0.019878684 0.022080842 -0.009244056 0.021282442 0.029455606 0.021082815 0.013591174 -0.01208633
-0.0028337836 0.008432437 0.0063474737 -0.019477636 -0.018733473 -0.007571278 -0.03058988 0.019916158
-0.0022233073 -0.012818128 -0.0056160167 -0.0012310203 -0.012734143 0.03143733 0.024968363 0.027459018
0.00031125918 -0.021912865 0.0051921457 -0.021570876 -0.011749953 -0.0008120779 -0.017906372 -0.011112221
0.023605954 0.018318381 0.013801202 -0.016070638 -0.00025228038 -0.014469082 0.019665439 -0.007214604
0.018938687 0.01993183 -0.011027364 -0.029004449 0.0049521104 -0.02103931 0.007389739 -0.028123276
-0.0019885357 -0.019439258 0.023208134 0.007985517 -0.018687718 0.023321107 -0.0155886 0.016225576
-0.0021784436 -0.0067675076 -0.011041962 -0.002086563 0.018924978 -0.028477555 0.018367372 -0.0039104037
-0.009332234 -0.0129889585 0.013960596 0.028721318 -0.2796713 0.38489583 -0.192388 -0.29512975
0.06334721 0.06346089 0.014259086 0.03454728 0.29126963 0.2757189 0.11694917 0.3599457
0.21277656 -0.47425812 -0.28001198 -0.20557795 -0.44496986 0.36965886 0.12196225 0.34684372
0.3363285 0.007519154 -0.04155797 -0.46241397 0.36634487 0.110742375 -0.36013004 0.3889791
0.18128511 0.4472813 -0.17315325 -0.35459134 0.012933692 -0.07919204 0.22855562 0.25460094
-1.0913492 -0.13892263 0.19186464 -0.039332047 0.0048311846 -0.25297683 0.13141432 0.49489036
0.3064246 -0.0402646 0.45977587 -0.54205984 -0.16866098 0.21696244 -0.83897424 -0.358935
0.47778213 0.6448596 0.4200507 -0.04383229 -0.72029334 0.043319948 -0.6843171 -0.41318718
-0.012406543 -0.56402844 -0.52792215 -0.116079144 0.17630732 -0.3214266 0.53237563 -0.05535392
-0.44890472 0.13472798 -0.105485335 -0.28289807 -0.46090183 -0.13831729 0.6728078 0.97619843
0.3380601 -0.41040483 0.52860105 -0.15090474 -0.082567655 -0.15722921 0.21180238 0.04319955
0.37369782 -0.26029274 0.067118846 -0.09495584 -0.42674085 0.59329116 0.4706295 -0.2405671
0.28900653 0.17230058 -0.4391862 -0.186681 0.63299245 -0.006986444 -0.32812506 0.20276111
0.23047724 -0.31201532 0.033828195 0.15720674 0.0061639594 0.18588352 0.045118533 0.27493125
-0.15364909 -0.08315163 -0.38206974 -0.00917126 -0.21213025 0.3852932 -0.109706275 0.14818686
-0.33942765 0.022121975 0.40651122 0.41809252 0.045733444 -0.19204481 -0.105832286 -0.22432101
-0.11261539 0.31806177 0.0701514 -0.09738891 0.14960767 0.5145288 -0.56911707 -0.31147367
0.07426051 -0.22070901 0.33892974 -0.08562799 0.08090453 0.15323855 -0.11594197 0.14154252
-0.30882728 0.10576319 -0.11762125 0.4577159 0.84793806 -0.3350858 0.36252627 -0.08849622
0.1496364 0.024917204 -0.05157743 0.16318446 -0.516436 -0.047812175 0.035115078 -0.5747189

attention.bias f4 [50]
00000000: dc0e 8a3e 4e67 2c3e bfef f3bc 9dfb d33c
00000010: dea6 2f3d 2c8c 323e 91da 373c 560f 0e3e
00000020: 3cd8 883e 4426 cc3b b186 26bd 6dd8 493e
00000030: 3a20 34bd 2348 c23e 51bf d4bc 1a06 193e
00000040: d203 48bd 3020 223e ed84 383d 5bf3 4d3e
00000050: 8d9d 46bd 351b cc3e da61 4abd 8c0b 0d3f
00000060: 8469 ae3e 5a8f 323e 9c15 ebbc 4fad 47bd
00000070: 1a47 7d3e 0454 f3bd c8b0 493e 47a4 65bd
00000080: 6cd6 04bd 3d0b 7b3e e56b 00bd 86d1 49bd
00000090: f4eb ff3c a1e2 a53e fc95 d9bc 9571 c6bc
000000a0: b262 9d3e 5b56 d7bc 3eb8 8f3c ac0a 54bd
000000b0: 717f 8b3e c7de 35bd 7e17 cabd f9aa a63c
000000c0: 3b61 103e 708d 853e
0.26964462 0.16836283 -0.029777406 0.025876814 0.042883746 0.17436284 0.011221544 0.13873038
0.26727474 0.0062301476 -0.040655795 0.19711466 -0.043976046 0.3794566 -0.025970133 0.14943734
-0.04883177 0.15832591 0.045048643 0.20112364 -0.048490096 0.39864507 -0.049409725 0.55095744
0.34064877 0.17437497 -0.028696828 -0.048749264 0.24734154 -0.11881259 0.19696343 -0.05606487
-0.03243105 0.24516006 -0.031352896 -0.049272083 0.03124044 0.32399467 -0.026560776 -0.024224082
0.3073936 -0.026286295 0.017543908 -0.05176799 0.27245668 -0.04440191 -0.09867762 0.020345198
0.1409959 0.2608447

attention2.weight f4 [25, 50]
00000000: 8a54 e03d f1a4 fabd 08e0 d73c 30c8 b93d
00000010: ac57 abbd 52bf 1cbd aa9c 71bd 0004 073d
00000020: 40b7 5dbb 76c2 0cbe c054 b13d b449 5dbd
00000030: 6a1d f43d cb71 9ebd 40ae eebd 433b ce3d
00000040: c0af 1f3d 1abd cbbd 196d 1dbc 7040 393c
00000050: 00f9 20bc 00e5 96bc c0c6 26bb 64a5 e5bd
00000060: 08c0 173d 6470 72bd 58b0 db3d 568a 24bd
00000070: a046 0a3c 0415 01be 30d7 0f3d 3f5f b9bd
00000080: beec d93d 30ce 1dbc 3072 26bd c02c af3d
00000090: d45a 713d c1aa b8bc e4d4 2d3d a038 e13b
000000a0: 20af 743c 88e4 b13c 00a3 f93b fef3 f33d
000000b0: 035c 87bc 90a6 68bd 86c0 57bd c452 373d
000000c0: cc56 eebc a0e6 ff3b 0866 c03c e2d6 96bd
000000d0: 6c30 dd3d f0df 87bd d832 52bd 0864 80bc
000000e0: eeab babd 4c6d b63d 00cf 5d3d 985d fdbc
000000f0: 20db 703d 9de9 07be 3e30 ab3d 30cd bebd
00000100: 825f ec3d a85a f4bc 7863 da3c a532 a4bd
00000110: 3ea3 b0bd 3426 863d 8e5d e23d 4872 7fbd
00000120: 8039 70bd 1885 0dbe 135f 103e 06b1 ce3d
00000130: 3345 acbd 80e0 bfbd 4817 ae3d ec75 d93d
00000140: 0609 aa3d c498 02be 1664 bc3d 58b2 84bc
00000150: 6034 843b 321d a93d 2e05 ccbd 2027 463c
00000160: 1070 1fbd f820 7f3d 3d81 063e 0007 dabd
00000170: 68a1 ad3d 63cf d8bd aeee a9bd d02d 763d
00000180: 5029 efbd 2884 f9bd 5547 08be 1363 96bd
00000190: 0d67 b43d 0af2 023f 8c56 283d 23f9 72be
000001a0: d6e3 283f 0861 823f 9da7 65bf 2e6c 9ebf
000001b0: bc59 49be cd1c b2be b366 5c39 7581 08bf
000001c0: 2471 9bbd 10dc 03bf 893f a2bb 3de5 b23f
000001d0: 8bc4 ff3d 6f12 013f 1fad 0940 5569 37bf
000001e0: 72a2 013e 417c 0e3f a585 3ebc 472c ecbe
000001f0: b87d 68be 0aee 0ebe 7c42 cb3d 0e94 a63c
00000200: c0d1 9d3e 78ad 31bd d79d 07bd db5b a0bc
00000210: 56c9 01bd b274 89bf 635e 99bd a4f5 71bd
00000220: 8293 f33e e20e 783f 1a43 3fbd ddca 803d
00000230: 797a 27be c432 c83d 1043 633f ccfd 843b
00000240: 9668 0e3f c69b 9f3d 8254 0c3e c7dd 963f
00000250: d8ec e5be 6146 52bf acae dbbd 4e14 8c3c
00000260: c40f 96bc d533 8abc 057c 013e 1598 563d
00000270: 145f 03be cb7a 50bd 46c8 08be 9ec4 003d
00000280: b5d3 8c3d 5044 9a3d 70bf a9bd 6b9a c2bd
00000290: 9df2 2dbc 3950 0e3d 327c 40bd 7911 9dbd
000002a0: 4da6 54bd 87f8 91bd 5d3b 8dbd df1b bebd
000002b0: 6cd5 0a3d 3f99 11bd 1867 3ebe fcd8 68bd
000002c0: 8e08 eb3d 388a e33c 71bb 123d 3765 633d
000002d0: 38ac 3dbe d48e 153d f1c5 f3bd 0a9d 3a3d
000002e0: 2411 a93b 9c72 6fbd 3399 16be cfbc 213d
000002f0: dc72 413d 52bb a6bd ba33 ffbd 40ba 83bd
00000300: 82ac e0bd 214b 023e 63cc 32be 9dcf 06be
00000310: fc1b 1b3d e0d1 06be 0893 ccbc e540 96bd
00000320: d8b2 b03e be35 293f c421 263d a264 cd3e
00000330: 0126 be3e 09b8 5d3e abee 3ebe ad55 603f
00000340: 3919 2ebf 3472 8d3e 3a46 133d 8e88 ae3e
00000350: 1459 c2bd 0dcc 01bf 35c1 593d d4c4 3ebf
00000360: 36ac 0dbe d170 0c3f 5246 44bf d205 46be
00000370: a179 013e d4fe b1be 2273 cdbd 802e a13d
00000380: 1805 0abf 6d13 233e 144f d23d f129 083e
00000390: 8c5d 083e 2aac 7abd cff2 f7be de67 883d
000003a0: be41 533d ef29 a5be 9032 8ebd 5413 843d
000003b0: d790 d53d e54c 4ebe 78af a63c 78e3 f13c
000003c0: f7a1 e6be 5040 acbd 130a 1fbf 3a45 9a3d
000003d0: 2a74 5dbe fded fb3d dad0 a73d 5784 f4bd
000003e0: c6c3 81bd 4610 8a3e 761e e93e 01d0 21bf
000003f0: dec8 b53d b400 1d3f 2d97 acbe e87d 3e3e
0.109536245 -0.12238491 0.026351944 0.09071386 -0.083663315 -0.038268395 -0.058987297 0.0329628
-0.003383115 -0.13746056 0.08658743 -0.054025367 0.11919673 -0.07736548 -0.11654329 0.10069897
0.038985968 -0.09948178 -0.00960853 0.011306867 -0.009824991 -0.018419743 -0.0025448054 -0.112131864
0.03704837 -0.059189215 0.10726994 -0.04017099 0.00843969 -0.12605673 0.03511733 -0.0905137
0.10640858 -0.009631678 -0.04063624 0.08553457 0.05892451 -0.02254236 0.042439356 0.0068732053
0.014934331 0.021715418 0.007618308 0.11911772 -0.016523367 -0.05679947 -0.05267384 0.044756666
-0.029094122 0.007809475 0.023486152 -0.073652044 0.10800251 -0.066345096 -0.05131802 -0.015672699
-0.09114824 0.089075655 0.05415249 -0.030928418 0.058802724 -0.1327271 0.08358811 -0.0931648
0.11541654 -0.029828385 0.026658759 -0.08017472 -0.08624886 0.065502554 0.110530004 -0.062364846
-0.058648586 -0.13820302 0.14098768 0.10092358 -0.08411636 -0.09368992 0.08500534 0.10618195
0.08302502 -0.12753588 0.091987774 -0.016198322 0.004034564 0.08257522 -0.099619254 0.012094289
-0.03892523 0.0622873 0.13135238 -0.106458664 0.084780514 -0.10586431 -0.08297478 0.060102284
-0.116778016 -0.1218341 -0.13308461 -0.07343116 0.08808718 0.5115057 0.041098163 -0.2372785
0.6597265 1.0185862 -0.8970888 -1.2376764 -0.19663137 -0.34787598 0.00021019093 -0.53322536
-0.07589939 -0.51507664 -0.0049514216 1.3976208 0.124886595 0.5041875 2.1511915 -0.716451
0.12659624 0.55658346 -0.011628543 -0.4612753 -0.22704208 -0.13957992 0.0992479 0.02033427
0.3082409 -0.043378323 -0.033109512 -0.01957505 -0.03168615 -1.0738738 -0.07488706 -0.05907215
0.47573477 0.9689771 -0.046694852 0.06288693 -0.16355313 0.09775308 0.88774204 0.0040585753
0.55628335 0.07793383 0.13704112 1.1786431 -0.4490726 -0.8213864 -0.107266754 0.017099526
-0.018318065 -0.016870419 0.12644966 0.05239113 -0.12829238 -0.050898355 -0.13357648 0.03143751
0.068763174 0.07532561 -0.08288467 -0.09502109 -0.010616926 0.034744475 -0.046993442 -0.07669348
-0.05191641 -0.07127481 -0.06896088 -0.0928266 0.03389494 -0.035546537 -0.18594015 -0.056847557
0.11476241 0.027775869 0.03582329 0.055516448 -0.18522727 0.036513165 -0.11902989 0.04555992
0.005159514 -0.05845891 -0.14706878 0.039486703 0.04722868 -0.08141197 -0.12461038 -0.06432009
-0.10970403 0.12723972 -0.1746078 -0.13165136 0.037868485 -0.13165998 -0.024972454 -0.073365964
0.34511447 0.6609763 0.040559545 0.4011584 0.3713837 0.21652235 -0.18645732 0.8763073
-0.68007237 0.27626193 0.035955645 0.34088558 -0.094896466 -0.5070198 0.053162772 -0.74519086
-0.13835225 0.54859644 -0.766698 -0.19338158 0.12644054 -0.3476473 -0.100317255 0.07870197
-0.5391402 0.15925379 0.10268989 0.1329725 0.13316935 -0.061199345 -0.48427436 0.06660436
0.05157637 -0.32258555 -0.06943238 0.06448999 0.10428017 -0.2014652 0.020347342 0.02952741
-0.45045444 -0.08410704 -0.6212475 0.07532735 -0.21626344 0.12301252 0.08194132 -0.11939304
-0.06336169 0.2696554 0.45531052 -0.63208014 0.08876203 0.613292 -0.33709088 0.18602717

attention2.bias f4 [25]
00000000: 9e78 4ebe 6d62 fdbd 52f9 a83e 8fc6 dcbc
00000010: ba36 753e 5d04 9f3d f60b d93c 9eb9 8abd
00000020: 6b59 c8bd 585b 2b3d 0956 9f3e e023 fbbd
00000030: 4580 05be a078 ccbd 84b8 983e 2c6f b7bd
00000040: 2a17 013d ea78 e3bd bc0c ec3b 32f3 1a3e
00000050: 214b 47be 9969 2b3e be92 eabd b3e4 f2bd
00000060: 2900 133e
-0.201632 -0.12372289 0.33002716 -0.026950149 0.23946658 0.07764504 0.026494961 -0.06773685
-0.0978268 0.04183516 0.31120327 -0.12262702 -0.13037212 -0.09983945 0.29828274 -0.08956751
0.03151623 -0.11107047 0.0072036665 0.15131834 -0.19462253 0.16739501 -0.1145377 -0.11860027
0.1435553

fc2.weight f4 [25, 50]
00000000: 9648 9e3e 16ae 85be 1013 f7bc cdbf 7cbf
00000010: 3f16 8a3f 3d4b 99bd 58af be3f ab0a fb3e
00000020: 3a57 bbbe caa7 4c3f 3268 9dbd bd97 b83e
00000030: 1a02 873f 5cb2 bdbe c803 ccbd 2b6e 94be
00000040: 7c65 3e40 8aa0 063f 09d0 e93e 8c1f 71bf
00000050: 46c2 923d 23df 07bf 2126 3abc 8c83 183e
00000060: ed61 a6bd 10e4 6cbe 3542 d23e ac68 a2bc
00000070: 09b5 f93f c5be 833f 1473 673f 3496 3240
00000080: f8c2 5ebf a409 6d3f 37ca 0dbd 699d 313e
00000090: 07bb e73d 6041 84be f844 4a40 b7d4 aebe
000000a0: f479 adbe 458a 9abd 57db b1bf 6a21 cebd
000000b0: f79b a1bd b6c7 5b3f 9ba9 0d3e b66f ff3e
000000c0: 66fc af3e a50b 603f b322 88bc 17f7 bdbf
000000d0: 6e26 0bbd a167 e83f 34e4 be3f 5c08 0538
000000e0: 1e4b 37bf c9ff 3b3e 5367 eb3d 7559 4b3f
000000f0: 24dc b13d 5010 0540 97b2 b5be 62ec b63b
00000100: 5269 02bd ff75 82be 4300 67bf 647e c2be
00000110: 76e2 f6be 300d 223f 0bb7 f0bd b852 153e
00000120: f6a5 f7bd dc80 8a3f 2617 de3e 784d 803f
00000130: 6a11 6c3e 7265 4ebd aa62 58bf f82e d23f
00000140: 9b43 a4bd a757 c4bd 7a62 4dbc 4928 02bf
00000150: 19f6 083e 5c85 12be c19a 4a3e a531 a6bb
00000160: 4f79 68bf 702d be3f 2a7f 8a3f a826 1abd
00000170: f10c 72bd 8717 653f 91ac 2f3f e0bb 7d3f
00000180: 4366 8dbd 0697 663e cb6e 8e3e 3710 64bf
00000190: 1aa0 dabd e6a9 0f3f ee52 bd3d 7f0e 8fbe
000001a0: ac58 fb3e 7e24 833f ffde 313e fd75 71bf
000001b0: cd83 0abe de16 9fbe 8b1c eabc 6533 95be
000001c0: a64f adbe db71 eabe 1b76 313d bdae d43f
000001d0: c40e 5e3f 076c 123f a510 e63f c9b7 4fbf
000001e0: eecf 033e ae96 ff3e 5464 ea3d 2f8c 31bf
000001f0: bcf8 b0be 4862 3f3e 3baf 2dbf b86b 483d
00000200: 9ade 8b3f 5bcb b73e 9442 4ebd c8d7 133c
00000210: b8c7 ccbf 9af5 0ebf f24d 47bd 8d4b 863d
00000220: ec48 6b3f d4b1 723f bed6 753f 4ffd 413f
00000230: 2568 4bbe 256a 043e e6bc c2bd d569 0ebf
00000240: 644b fd3e 401f 233f 04db 293e 4e2c 843f
00000250: 3ea1 cebe cfa3 aebe f162 a53d 1718 cb3d
00000260: 576a 97bd cf60 bd3d a4eb ddbc 35ab f8bd
00000270: 4ea9 183d b5d6 a6bd 7eac 83bc 07cf 67bd
00000280: 7d82 fb3d 0863 dc3d df12 c93c 938b f13c
00000290: 0104 e63d 809b f03c 06e2 4abe 6c3a 283c
000002a0: 4185 e0bd 039b d1bd 7c73 0f3d a908 e6bc
000002b0: a08e 373d f06b c5bc 91f0 663d f467 0cbe
000002c0: 73a2 05be beef b43d 27d8 cfbd 5935 1bbd
000002d0: fcf7 883d 67be 8fbd a58e 01be 2fc9 26be
000002e0: c376 d1bc 4c52 e43c e52e fbbd 1e16 26bc
000002f0: 954c 5cbe 5193 dfbd 4b18 ac3c b018 debc
00000300: 01ad 10be 1e36 843d 41b3 debd 5791 cdbd
00000310: a91b 9dbd 130b cebd 317d 8f3d 4810 16be
00000320: 2668 f23d f71b 193d 4563 98bd 16f0 ab3c
00000330: afe0 40bc a162 b4bd 664e 19be 00c4 beb9
00000340: f26b 8c3c bc47 6cbd fdce 81bd c012 bb3b
00000350: d908 ea3d 21c1 d6bd 9142 95bd 6c0d 49bd
00000360: 0a22 00bd 7d09 46bd 72c9 b93d 1b0c 0abd
00000370: 36ca 7fbd f98b fbbd 824c f53d e9bf edbd
00000380: 263f 0bbe 842d 11be 0c60 f23d 427c 823d
00000390: e4d6 c73d 05d4 bfbd a506 773d 1fa1 0fbe
000003a0: eb9d 373d b8b0 f83b aa10 0bbe a888 90bd
000003b0: 9a7d 06bd a716 b8bd 3bea 743d a540 c63d
000003c0: 8ec5 2f3d f633 debd 734f 09be b1c5 4c3d
000003d0: 49ce 1ebe 038c e03c 610b 0dbe f2d2 ed3d
000003e0: da01 74bd 72c2 56bd 1a67 f13e 691d 96be
000003f0: f81e 163d 2767 0640 cbb1 703f 19b2 49be
0.30914754 -0.2610938 -0.030160457 -0.98730165 1.0788039 -0.07485054 1.4897261 0.49031577
-0.36589986 0.79943526 -0.07685889 0.36053267 1.0547516 -0.3705014 -0.09961659 -0.289903
2.974944 0.52588713 0.4566653 -0.9418876 0.07165961 -0.53074855 -0.01136163 0.14893931
-0.081241466 -0.23133874 0.41066137 -0.019825302 1.9508373 1.0292593 0.9040997 2.7904177
-0.8701625 0.92592835 -0.034616675 0.17345203 0.113149695 -0.25831127 3.1604595 -0.34146664
-0.33882105 -0.07545904 -1.3895062 -0.10064967 -0.07891076 0.8585161 0.1383423 0.49889916
0.34372252 0.8751777 -0.016618108 -1.4841031 -0.033972196 1.8156625 1.4913392 3.1717456e-05
-0.71598995 0.18359293 0.11494317 0.79433376 0.086845666 2.0791206 -0.35487816 0.0055823782
-0.031838723 -0.2548065 -0.90234774 -0.37987053 -0.4821965 0.6330137 -0.11753663 0.14582336
-0.120922014 1.0820575 0.43377036 1.0023642 0.23053518 -0.050389715 -0.8452555 1.6420584
-0.08020707 -0.09587031 -0.012535686 -0.5084272 0.13375129 -0.14308685 0.19785596 -0.005071836
-0.908101 1.4857616 1.0820057 -0.03763452 -0.059094373 0.89489025 0.6862269 0.991148
-0.069042705 0.22518548 0.27818903 -0.8908724 -0.10675068 0.5611862 0.09244333 -0.27940747
0.4909109 1.0245512 0.17370223 -0.9432066 -0.1352684 -0.31072134 -0.028578063 -0.29140773
-0.3384983 -0.4578999 0.043325525 1.6615826 0.8674128 0.57196087 1.797383 -0.8113981
0.12872288 0.49919647 0.11444917 -0.6935453 -0.3456477 0.18689835 -0.67845505 0.048930854
1.0927308 0.35897335 -0.050356463 0.009023614 -1.5998449 -0.5584351 -0.04865832 0.06557379
0.91908145 0.94802594 0.96030796 0.75777143 -0.19863947 0.12931116 -0.09508686 -0.55630237
0.4947158 0.6371956 0.16587454 1.0326021 -0.40357393 -0.3410935 0.08075512 0.09916704
-0.073933296 0.092469804 -0.027089901 -0.1214203 0.037270837 -0.08146421 -0.016073462 -0.05659392
0.12280748 0.10761076 0.024545131 0.0294855 0.112312324 0.029371023 -0.19812784 0.010267835
-0.10962916 -0.10234644 0.035022244 -0.028080301 0.044813752 -0.02409932 0.056381766 -0.1371153
-0.1305025 0.0883479 -0.1014865 -0.037892673 0.06687924 -0.07018738 -0.12652071 -0.16287683
-0.025569325 0.027871273 -0.12264804 -0.010137109 -0.21513589 -0.1091677 0.021007678 -0.027111381
-0.14128496 0.064556345 -0.10874034 -0.10037487 -0.076712914 -0.10060706 0.070063 -0.14654648
0.11836271 0.037380185 -0.07440809 0.020988505 -0.011772319 -0.088078745 -0.14971313 -0.00036385655
0.017141316 -0.0576856 -0.06338308 0.0057090223 0.11427469 -0.10486055 -0.07288087 -0.049085066
-0.031282462 -0.048348892 0.09071626 -0.03370295 -0.062448703 -0.12282557 0.11977483 -0.116088696
-0.13598308 -0.14177519 0.11834726 0.063713565 0.09757784 -0.093666114 0.06030907 -0.14026307
0.044828337 0.007589426 -0.13580576 -0.07057315 -0.032834627 -0.089886956 0.059793692 0.09680299
0.042913012 -0.108497545 -0.13409214 0.04999322 -0.15508379 0.027410513 -0.13773872 0.116125
-0.05957208 -0.05243153 0.47148973 -0.29319313 0.036650628 2.100046 0.9402129 -0.19696845

fc2.bias f4 [25]
00000000: d87b 0bbe b9bd 95be 6bce 253e 53ca b63c
00000010: 8d54 e6bc ee00 26be 9e47 273e 6b5a 45be
00000020: 3e19 d73d 248f 57be 488c 78be 28a1 95bc
00000030: f11e 4a3d 0954 023e 46be 6b3e 42c6 5abe
00000040: 0243 b6bd 1fd9 e0be df8b b33b 30ab 9dbe
00000050: 1080 e5bd 774b debd 91cf 32be e181 90bc
00000060: 8c4b 34bd
-0.13621461 -0.2924631 0.16192023 0.022313273 -0.028116489 -0.16211292 0.16335914 -0.19272773
0.105028614 -0.21050698 -0.24272263 -0.018265322 0.049345914 0.1272737 0.23021802 -0.21364692
-0.088994995 -0.4391565 0.0054793204 -0.30794668 -0.112060666 -0.108542375 -0.17461993 -0.017640056
-0.04401736

fc3.weight f4 [2496, 25]
00000000: e23e 24bf 4175 b7bf 81c4 3cbf 1a5d 94be
00000010: d41f 91bf 40ad 59bf 9a44 40bf 1f77 e3bd
00000020: 8c35 9cbf fe36 f5bd 5701 82bf 705f 45bf
00000030: 1a63 26bf a767 67bf e6ff 83be 2c19 46bf
00000040: 9fb8 a1be cfb6 60bc d030 3fbe 2cf3 8ebe
00000050: 7b60 a63b 0d04 81bf 2b5e f3be 3e06 7ebe
00000060: ea7e 40bf 219e a03e a536 f1bf 3b50 b2bf
00000070: 35ca a2be 6e16 52bf cd3e 963e c4fe bbbd
00000080: 1b09 a5bc 77ce c1bf 6a23 313f 8506 9dbf
00000090: 17e8 17bf 5e5b 8dc0 2fb8 63be c7b5 6cbf
000000a0: d5d2 123e eefc a1bf 83a7 76be b07e d5bf
000000b0: d8c1 86be f3fc 57bf 6b70 d9be 077a 9fbf
000000c0: 7397 a6bf 2324 e7be 0579 a9be fc02 dcbf
000000d0: 082c d7be 3caa 37be 24de 7ebf 942d cdbf
000000e0: 0e75 73bf da49 583d 7494 f3be d421 85be
000000f0: a286 f2c0 4388 53be 5c4d 50bf 77d5 2abe
00000100: d9a3 0fbf f20e 2abe d351 f6bf f060 83bf
00000110: cc89 3bbf 91f7 133e f3d4 f4bf 92e4 3bbf
00000120: dd2d ccbe 5783 e4be c288 85bf 504b 08c0
00000130: 433c 14bf c0f8 52bf a988 7cbd 4d0c 83bf
00000140: f328 acbc eef3 03bf c679 6ebe 06f4 c1bf
00000150: 8590 a4bf 2847 9bbf 618b 4fbd 548b d9be
00000160: 97e7 34be 4e70 c7be b2f0 40bc bfa2 7dbf
00000170: 7f8a 1cbf e2a2 1e3e 6695 97be 25ee 20bf
00000180: b277 b1bf eeb7 d4be a305 0bbf fed4 c7bf
00000190: 16f2 80c0 065f 82be de33 9a3d c8d2 88be
000001a0: 0b71 9abf 4fa8 6bc0 9227 7bbf b485 3fbd
000001b0: 0f80 bebd 1845 5cc0 f7eb 80c0 ae30 b5be
000001c0: 37fa 60c0 6c2b 86c0 399d a9bf 6adb 90c0
000001d0: 8511 46c0 0799 d5be c3fb 9bbe 05aa 28c0
000001e0: a3ae 0bc0 a00d 49c0 bb05 8c3b 50f9 4cbe
000001f0: 8ebe efbe c00f e13d f4b3 14bf d2f0 57bf
00000200: 9ba7 c4bd 53fc cabf a2a4 cebe bf7a d3bf
00000210: 4392 89be eb5d 16bf a933 82c0 b46a 96bf
00000220: b803 dcbe fa6d 87bf f22d c8bf 533e cbbe
00000230: 95b8 0ebf c2f1 5fbf d52d 96bb 8cfc 15bf
00000240: 3a40 b7bd 7b97 ffbe 86b3 efbe bd6c 41bf
00000250: ef89 11bf 92d5 5bbe ee48 06bf dc10 0bbf
00000260: ff9d 99bf b9d5 a3be 7d84 78be 25dd 77bf
00000270: 81a5 66bf 08ea c1bd 3935 4bbf ba69 a1be
00000280: fc56 45bf 5e9e a9be 2f47 a9bf 1682 2abf
00000290: edbd 00bf e84c d7be e8d3 36bf b174 4dbd
000002a0: 14c0 dfbf 9425 493e 1688 3ebf f461 21bf
000002b0: ee6f 15bf ecbe 2cbf 5576 53bf d9ba 38c0
000002c0: a614 293d f740 0dbf a14a 893c e618 acbf
000002d0: ae9f 92c0 58f6 80bf e76d c33d 97e5 bfbf
000002e0: 5edd abc0 6045 2abf b037 37bf 45f1 64bf
000002f0: 78e5 6bbe 7034 87c0 9c0c 63be 2f50 91c0
00000300: 9fe1 2dbe 9fbb a6bf f8bc bbbd 45a0 a9bf
00000310: 11ce 88bf d952 86be 8a05 20bf 5142 88be
00000320: ee3e f33d 745e 7fbf dfee aabe 0560 0dbd
00000330: 024b c3bf 1c8a 4cbe 3c34 20bf ca63 83be
00000340: d531 b0bf 3fe5 44be ff5b 88bf 6990 2dbe
00000350: 3cb3 20bf dcdb 48be f66f 34bf d0a5 52be
00000360: beae 96bf b946 3cbf 713f 06bf 847d 86bf
00000370: 3091 1dbf 9fbe b3be 3737 2fbf 8cd2 5cbf
00000380: 5b51 49bf 2896 35c0 8310 d5bd 9e71 ecbe
00000390: 0268 073a 1b43 64bf 38a0 31c0 bbc1 82bf
000003a0: 2df3 3ebd bed2 5abe 7e47 3ec0 bf8e aabe
000003b0: d9f5 d1bd cd52 a9bf 04a9 d2bf a352 19c0
000003c0: 2607 3ac0 0ac2 3cbf b9dd 0dc0 e250 78bf
000003d0: b533 6bbf fe45 803d 7480 b1bf 2188 43bf
000003e0: 911e 30c0 b916 03bf 1fd0 fbbb 7ab3 48bf
000003f0: 8468 49bf be25 4dbe d4ab 35be ef7e 0dc0
-0.6415845 -1.4332658 -0.7373734 -0.2897728 -1.1337838 -0.85029984 -0.7510468 -0.11106705
-1.2203841 -0.119733796 -1.0156659 -0.7709875 -0.64994967 -0.90392536 -0.25781173 -0.7738216
-0.31586167 -0.01371546 -0.18670964 -0.279199 0.0050774193 -1.0079361 -0.47532782 -0.24807069
-0.75193655 0.31370643 -1.8844801 -1.3930734 -0.31794897 -0.82065475 0.29344788 -0.09179452
-0.020145943 -1.5141133 0.6919466 -1.2267615 -0.59338516 -4.417403 -0.22238229 -0.9246487
0.14338239 -1.2655313 -0.24087338 -1.6679287 -0.26319766 -0.84370345 -0.4246858 -1.2459115
-1.3014969 -0.45144758 -0.33100143 -1.7188411 -0.4202578 -0.17936033 -0.9955771 -1.6029534
-0.95100486 0.052804805 -0.47574198 -0.2600237 -7.5789347 -0.20657448 -0.8136804 -0.16682993
-0.56109387 -0.16607264 -1.9243721 -1.0263958 -0.73257136 0.14449908 -1.9127487 -0.73395646
-0.3987874 -0.44631454 -1.043236 -2.1295967 -0.5790445 -0.8241081 -0.061653767 -1.0238129
-0.02101562 -0.5154408 -0.2328864 -1.5152595 -1.2856604 -1.213109 -0.05067003 -0.4248911
-0.1766647 -0.3895287 -0.011776136 -0.99076456 -0.6114883 0.15491822 -0.2960617 -0.6286338
-1.3864653 -0.41546577 -0.54305476 -1.5611875 -4.0295515 -0.25463122 0.07529424 -0.26723313
-1.2065748 -3.6821477 -0.98107255 -0.04675837 -0.09301769 -3.4417171 -4.0288043 -0.35388702
-3.515272 -4.1928005 -1.3251106 -4.526784 -3.0948193 -0.41718313 -0.30465516 -2.6353772
-2.182534 -3.1414566 0.004273144 -0.2001698 -0.4682507 0.10989332 -0.58087087 -0.8435184
-0.09602281 -1.5858253 -0.4035998 -1.6521834 -0.268694 -0.5873706 -4.068806 -1.1751313
-0.42971587 -1.0580437 -1.5639021 -0.39695987 -0.557504 -0.8747827 -0.0045831003 -0.5858848
-0.08947797 -0.49920258 -0.46816653 -0.75556546 -0.56851095 -0.2146819 -0.5245503 -0.543226
-1.2001342 -0.31998995 -0.2426929 -0.96821815 -0.9009629 -0.09468466 -0.79378086 -0.31525975
-0.7708585 -0.33128637 -1.3224849 -0.66604745 -0.50289804 -0.42050862 -0.71417093 -0.050160114
-1.7480493 0.19643241 -0.744264 -0.6304009 -0.58373916 -0.67478824 -0.82602435 -2.8864043
0.041279458 -0.55177253 0.016759219 -1.3445098 -4.581992 -1.0075178 0.095424466 -1.499194
-5.3707724 -0.6651211 -0.7156935 -0.8943065 -0.23036754 -4.225151 -0.22172779 -4.541038
-0.16980599 -1.3026007 -0.09166902 -1.3252035 -1.0687886 -0.26235083 -0.6250845 -0.26613095
0.11877237 -0.997535 -0.3338537 -0.0345154 -1.5257266 -0.1997456 -0.62579703 -0.2566207
-1.3765208 -0.19228075 -1.0653075 -0.1694962 -0.6277349 -0.1961512 -0.7048334 -0.20571065
-1.1772077 -0.73545414 -0.52440554 -1.0507054 -0.61549664 -0.3510637 -0.68443626 -0.8625877
-0.78639764 -2.8372898 -0.1040354 -0.46180433 0.00051653397 -0.89164895 -2.775404 -1.0215372
-0.04661863 -0.21369454 -2.9731135 -0.33312032 -0.1025197 -1.3228394 -1.645783 -2.3956687
-2.9066863 -0.7373358 -2.2166579 -0.9699842 -0.91875774 0.0626335 -1.3867326 -0.7637959
-2.7518656 -0.5120655 -0.007684722 -0.7839886 -0.78675103 -0.20033929 -0.17741328 -2.2108724

fc3.bias f4 [2496]
00000000: 8397 e8be f62d babf de1f 45bf ed51 2fbf
00000010: bd87 81be 4910 4abf 42fb 6bbf bf54 35bf
00000020: af10 68bf bf15 dfbe ef3a 69bf d7bf 16c0
00000030: 9c02 66be 5dae 17c0 1612 703d 7680 20bf
00000040: 210f 4bbf 8881 21bf 8a9c e6be 7220 26bf
00000050: 91f0 bdbe f4d4 9cbc 0b2c 1fc0 044e 81bf
00000060: 5ea1 1dc0 2573 a7bf 05db 11c0 b65b 1ec0
00000070: a922 29c0 8944 19c0 47c7 1cc0 08d4 12c0
00000080: 8d17 bb3d fce4 8c3e 7cb7 99be 2f4d 34bf
00000090: c5b1 38be 58f4 c4bd 8ffc fc3c a04b 17c0
000000a0: 682e 1bc0 72b4 20c0 9fdf 0abe ddef 60bf
000000b0: 296f 09c0 a5a6 45bf d124 4fbe b836 0a3c
000000c0: 9b7f 69be b013 5f3d 72fa a2be 6e0f 9bbf
000000d0: ebc4 79bf e546 8bbe a1b8 0ac0 8b94 1ec0
000000e0: 2d0e 5a3d fea9 d13c 732b 923e 697b 59bf
000000f0: 19d2 e7be 5b8f 8dbf 6f42 91be ddb3 22c0
00000100: 55e1 99be 0b86 903e 9fb1 3abe 771d 1cc0
00000110: ff93 0dc0 a6cd 69be 22bb 1cc0 408f 11c0
00000120: fab6 1cc0 f629 16c0 6425 21c0 5d7f 25c0
00000130: adfa 28c0 68bb 953c 8471 1bc0 0f0e 16c0
00000140: c42f 33bf 7726 debd 25e6 06be 3ab9 f0be
00000150: 08f8 1b3e b0ec f53d 75a2 34bf 50ba 10c0
00000160: e347 52be bab4 0ec0 4dd0 033e e26e 9cbe
00000170: 58cf 2b3f 0405 083d 22f0 3c3c d436 24c0
00000180: faad 1ac0 ec55 15c0 5eb6 18c0 9d8b 16c0
00000190: 1188 1bc0 75f3 18c0 919b 943e c9f5 dcbe
000001a0: 967e 8bbd 61c6 78be 8720 a1be fd12 8ebe
000001b0: 5ddc 95be 487e 0fc0 eb22 0ec0 d079 f03c
000001c0: cd3b 143e f91d 11c0 66f0 13c0 ff30 19c0
000001d0: 6c40 23c0 30f6 27c0 59d0 25c0 ef60 0ec0
000001e0: 8948 13c0 9799 13c0 5ebe 13c0 cc6f 15c0
000001f0: f1db 1dc0 8b87 67be dec3 a7be 27f0 b1be
00000200: ca74 72be c91d 74bf 7d56 12c0 b830 513e
00000210: 7999 10c0 d295 18c0 25d1 10c0 f17b 1ac0
00000220: fa6b 23c0 3f75 10c0 837f 1ac0 2c19 9ebe
00000230: 09a3 b73e 4707 d8bd b5cc 10c0 6541 a9be
00000240: 82c6 06c0 d606 16c0 fbdc 15c0 ed4a 07bf
00000250: 624e f23e af0d babd 022b 12c0 c410 71bf
00000260: 76fe d9be dc64 16bf d179 1ac0 44a0 983d
00000270: 3638 91be a59f 2cbe 457d 72be 4914 e3be
00000280: e60c 15c0 c54f 15c0 c23f 0ec0 f9a6 06c0
00000290: bfe7 98bc e2b6 25c0 714e f7be 960c b3be
000002a0: 3d42 dcbe c76b b4be 1880 55bf 0045 22c0
000002b0: 0c11 0fc0 313c 1dc0 6c29 0ac0 1e17 15c0
000002c0: 8bd4 12c0 c0b9 23bf 4879 9bbe d0d4 b6be
000002d0: 7be8 12c0 41ff 1ac0 9444 20c0 4362 1fc0
000002e0: 03ac 10c0 7eda 24c0 5069 21c0 15f1 19c0
000002f0: 2f9a 16c0 a1d9 12c0 ba93 22c0 267b e9bd
00000300: 143d 26be 30bd 4bbe 3b02 0ec0 837a 1dc0
00000310: dd5d 23c0 d316 0fc0 0e0a 13c0 9c12 1ac0
00000320: 1b1c 1cc0 c9a6 0fc0 b9f7 12c0 69ae 82be
00000330: f90e 9bbd ae03 0bc0 3381 14c0 9c30 ff3e
00000340: eeb2 17c0 7805 12c0 7377 1bc0 2506 12c0
00000350: 224a 27c0 9dbe 0ac0 446c 10c0 5f67 ba3e
00000360: 9160 9fbe 2afd b13e 94c8 aebe 0334 1fc0
00000370: cdf3 25c0 d3c8 16c0 c574 18bf 4f5f 12bf
00000380: 435f 803c 64ab 2bbe e5f5 8c3e fcfc cebe
00000390: 3bde b53e 3dd8 f83d 5094 10be e5ec 12c0
000003a0: 3fd9 10c0 8c0d 15c0 d9ee 11c0 9755 0cc0
000003b0: dd06 1ec0 b941 0bbf 4389 5bbe af41 0d3e
000003c0: c031 d9be 4154 56bf 5754 72bf d4e8 983e
000003d0: 9f9f 17c0 d15f d1be c964 1ec0 6fdb 27c0
000003e0: cad0 d9be 65a8 23c0 bcbd 0ec0 bc77 c93e
000003f0: fad6 18c0 1494 27c0 b5f3 0fc0 9b60 1ac0
-0.45428094 -1.4545276 -0.7700175 -0.68484384 -0.25298873 -0.789311 -0.92180264 -0.7083244
-0.9065046 -0.43571278 -0.9110555 -2.355459 -0.22461933 -2.3700173 0.058610998 -0.62696016
-0.7931996 -0.63088274 -0.45041305 -0.6489326 -0.370976 -0.019144513 -2.4870632 -1.0101933
-2.462974 -1.3082014 -2.278993 -2.4743476 -2.6427405 -2.394808 -2.449663 -2.2941914
0.09135351 0.2751845 -0.300228 -0.7043027 -0.18036564 -0.09616917 0.030882148 -2.3639908
-2.4247074 -2.5110135 -0.13561867 -0.87866 -2.1474097 -0.77207404 -0.20228888 0.0084358975
-0.22802584 0.054462135 -0.318317 -1.2114084 -0.975661 -0.27202526 -2.1675189 -2.4778163
0.053236175 0.025593754 0.28548774 -0.84953934 -0.4527748 -1.1059374 -0.28370997 -2.542228
-0.30054727 0.28227267 -0.1823182 -2.4392984 -2.212158 -0.22832355 -2.4489217 -2.2743683
-2.448668 -2.346311 -2.5179071 -2.5858986 -2.6403 0.018277839 -2.4288034 -2.344608
-0.6999476 -0.1084718 -0.1317373 -0.47016317 0.15231335 0.12008035 -0.7056039 -2.2613716
-0.20535235 -2.2297807 0.12872429 -0.30553347 0.67113256 0.03320791 0.0115318615 -2.5658464
-2.4168687 -2.3333693 -2.3861308 -2.3522713 -2.4301798 -2.3898594 0.29024938 -0.4315627
-0.06811254 -0.24294426 -0.3147013 -0.27748862 -0.29269686 -2.2420826 -2.2208812 0.02935496
0.14475937 -2.2674544 -2.3115478 -2.3936155 -2.550807 -2.624401 -2.5908415 -2.2246664
-2.3013022 -2.3062494 -2.308494 -2.3349485 -2.4665492 -0.226103 -0.32766622 -0.34753534
-0.23677364 -0.9535795 -2.2865288 0.20428741 -2.2593672 -2.3841443 -2.2627652 -2.4138148
-2.5534654 -2.2571561 -2.4140327 -0.3087858 0.35866573 -0.10548263 -2.2624943 -0.33057705
-2.105866 -2.3441672 -2.3416126 -0.528487 0.47325426 -0.09084641 -2.283875 -0.9416621
-0.4257695 -0.5874765 -2.413685 0.07452443 -0.28363198 -0.16857775 -0.23680599 -0.44351414
-2.3289123 -2.3329937 -2.2226415 -2.1039412 -0.018665193 -2.5892873 -0.48302034 -0.3497054
-0.43019286 -0.35238478 -0.8339858 -2.5354614 -2.2354155 -2.4567988 -2.1587782 -2.329536
-2.2942226 -0.63955307 -0.30365968 -0.35709238 -2.2954395 -2.4218295 -2.5041857 -2.4903724
-2.2604988 -2.5758357 -2.5220528 -2.4053395 -2.3531606 -2.294533 -2.5402665 -0.11400442
-0.16234237 -0.19896388 -2.2188861 -2.4606025 -2.552604 -2.235768 -2.2974887 -2.4073858
-2.4392154 -2.2445548 -2.2963698 -0.2552369 -0.07571215 -2.1720996 -2.3203857 0.49841774
-2.370296 -2.2815838 -2.4291656 -2.281625 -2.6138997 -2.167884 -2.256608 0.3640699
-0.31128362 0.3476346 -0.34137404 -2.4875495 -2.5930054 -2.3560073 -0.59553176 -0.5717668
0.015670424 -0.16764599 0.27531353 -0.40427387 0.3552111 0.12150619 -0.14119077 -2.295709
-2.2632596 -2.3289518 -2.280203 -2.192724 -2.469169 -0.5439716 -0.2143908 0.13794588
-0.4242077 -0.8372231 -0.9465994 0.29865134 -2.3691175 -0.40893415 -2.4749014 -2.6227682
-0.42542106 -2.557153 -2.2303305 0.39349163 -2.3881211 -2.618413 -2.2492497 -2.4121463
