Python/RNN/models/MODELSLAYER10.pt (torch, 301199 bytes, 10 tensors)

fc1.weight f4 [20, 100]
000000 b8 2d e0 3d 4e 87 20 bc 9f 8b bf bd 19 a8 ad 3c
       0.1094622 -0.009797884 -0.093528025 0.02119832
000010 04 40 3b 3c 4d 4c 8f 3d d6 92 c2 3d 29 9c 9e 3d
       0.011428837 0.06996975 0.09500663 0.07744629
000020 d3 35 6e bd 53 8e de bc fa 32 ff 3c 38 d3 fc 3c
       -0.0581568 -0.027167475 0.031152237 0.030862436
000030 d9 7e 58 3d 0c 7a 1e bd 90 bd 7b 3d 22 c9 6a 3c
       0.052855346 -0.03869061 0.061460078 0.01433018
000040 12 d2 ad 3d b5 73 a6 bd 50 f5 76 3d e6 9a 99 bd
       0.08487333 -0.08127538 0.060292542 -0.07500248
000050 37 a3 89 bb 8a c0 17 bd 4e 21 1d bd b1 18 19 bd
       -0.004200365 -0.037048854 -0.03836184 -0.037377063
000060 e6 db e8 3d fc 05 39 bd 5d d6 94 bd 0f 7e 00 bc
       0.11370067 -0.045171723 -0.07267449 -0.007842555
000070 88 9c 8f 3a 49 e7 83 3d de 9c 47 bd b4 eb 25 bd
       0.0010956684 0.064405985 -0.048733585 -0.040507987
000080 86 9f 65 bd 55 cf 97 3d 05 75 dc bc 8c 0d fb bb
       -0.056060337 0.07412592 -0.026911268 -0.007661527
000090 6e 2a 88 3c d1 c2 11 bd 91 2b a4 bd 87 4d 8a bd
       0.016621795 -0.035586182 -0.08016122 -0.067530684
0000a0 d2 c7 76 3d db f0 c4 bc e3 1c 4c 3d 52 41 c3 3d
       0.060249157 -0.02404063 0.049832236 0.09533943
0000b0 0a f6 b9 bd 3c 2e e7 bb 13 77 90 3c 94 28 b1 bc
       -0.09080131 -0.007055072 0.017634904 -0.021625794
0000c0 b5 16 82 bd cd 99 64 3d 41 f4 2c bc ec 3d cf 3a
       -0.06351987 0.05581074 -0.010556282 0.0015811301
0000d0 fc 22 f5 3c b2 5a 89 bd 51 85 41 3b 05 60 7e 3c
       0.029923908 -0.06706752 0.0029528926 0.0155258225
0000e0 53 f9 95 bc 81 fe 7f bd 71 98 01 3d 7a 67 ef bc
       -0.018307364 -0.062498573 0.03163952 -0.029224146
0000f0 86 b6 46 3d 7a cf cb 3d fd 74 8f 3d 90 25 6d bc
       0.04851391 0.099516824 0.070047356 -0.014474288
000100 62 e4 01 3d e8 ab ab 3d b2 f9 99 3c 65 eb d2 bb
       0.031711943 0.08382398 0.018795822 -0.0064367526
000110 ee b9 df 3d 39 97 4e bd 55 97 e1 bc 3e 62 07 3d
       0.10924135 -0.050437186 -0.027537981 0.033052675
000120 d3 76 81 bc 9f 3a 93 3d 92 ba 23 bd 79 cf 16 bd
       -0.01580373 0.071889155 -0.03997285 -0.036818955
000130 d5 d4 0b bd 19 09 3e bd 32 f9 9e bd 33 80 fa bc
       -0.03413852 -0.046395395 -0.07762374 -0.030578708
000140 c4 fa a0 3d 07 65 59 3d 70 05 08 bc 42 07 36 bd
       0.0786033 0.053074863 -0.008302078 -0.044440515
000150 a7 d2 97 3d da 75 a6 bd ff 22 9f 3d 5b 10 d4 3d
       0.074132256 -0.08127947 0.07770347 0.10354682
000160 66 a8 df 3d 8c 8b 98 3d 84 05 28 3d 03 bf 19 bd
       0.10920791 0.074484915 0.041020885 -0.03753568
000170 07 e1 0b bd 9a 1f ec 3d dc 72 3e 3c 2b 4d 5a bc
       -0.03415015 0.11529465 0.011624064 -0.013324062
000180 60 96 e7 3d d0 00 81 3d ca ff 7f 3d 70 91 a2 bb
       0.11307979 0.06298983 0.0624998 -0.004961185
000190 1a c7 90 3c dd e0 d4 3d 6b 9d 76 bd 83 49 5a 3d
       0.017673064 0.10394452 -0.06020872 0.053292762
0001a0 69 f4 dc 3d ea ac 86 3c 49 86 18 3c bc 23 80 bd
       0.10788805 0.016439874 0.00930936 -0.06256816
0001b0 75 33 e6 3d c5 43 17 bd 39 86 9f bd 02 b5 fe ba
       0.112402834 -0.036929864 -0.07789273 -0.0019432607
0001c0 91 d4 84 3d d9 8b 18 bd 85 8c 97 3d b1 6d e9 bc
       0.06485856 -0.037242744 0.07399849 -0.028494688
0001d0 07 ef 8c 3d 95 1b 84 3d a1 3b 98 bd 38 68 e5 3d
       0.06881528 0.06450573 -0.07433248 0.11201519
0001e0 9d e5 81 3d c9 7c d0 3d 83 ef 90 3d 0b 49 5d 3b
       0.063426234 0.10180051 0.07076933 0.003376546
0001f0 8c 33 d4 bc 58 b0 83 bd 25 4f ac 3d ec 75 23 bd
       -0.025903486 -0.06430119 0.08413533 -0.03990738
000200 d7 15 28 bd 57 09 87 3d 00 61 8c 3d 19 f0 04 3d
       -0.041036453 0.06593578 0.06854439 0.032455537
000210 30 96 1e 3c ac d5 06 bd 6e 6b 9f bd 8c 06 8e 3d
       0.009679362 -0.032918617 -0.077841625 0.069348425
000220 78 90 0b 3d 10 1c 60 bc 51 76 b9 bc 4d 76 a4 3c
       0.034073323 -0.013678566 -0.022639425 0.020075941
000230 7c 31 90 bd 6c 08 82 bd f1 72 9c ba bc 3b d2 3c
       -0.070406884 -0.063492626 -0.0011936111 0.02566325
000240 45 5c ca 3c d6 66 f6 bc 95 e2 70 bc c4 c4 9b 3d
       0.0247022 -0.030078333 -0.014702459 0.076058894
000250 7e 24 c3 3d 7f ee c7 3d f6 75 30 bd fb cf 86 3c
       0.09528445 0.097622864 -0.043081246 0.016456595
000260 dd 13 fa 3b 24 f6 44 3d b7 7e c7 3d 14 4c ea 3c
       0.0076317624 0.0480863 0.09740966 0.02860073
000270 73 77 b2 3d 00 94 a1 bd 97 10 aa 3d 24 3e f8 3d
       0.087141894 -0.07889557 0.083039455 0.121212274
000280 e1 04 47 bd 43 cc cc 3d 6f e4 97 bc 82 88 85 3d
       -0.048588637 0.09999897 -0.018541543 0.065201774
000290 86 75 4e bd 00 a4 16 3c 9b 58 61 bd ec e7 e1 3b
       -0.050405048 0.009194374 -0.05501614 0.0068941023
0002a0 73 20 3b 3d f8 7e 7f bd 6b 85 53 3d 52 17 1b 3d
       0.045685243 -0.062376946 0.05164091 0.037864037
0002b0 9b 00 e4 3d f1 55 96 bd bf 64 be 3c 9e 7b 15 3d
       0.11132928 -0.07340611 0.023241399 0.036494844
0002c0 46 bf 8b 3c 69 68 bc 3d f9 44 7a 3c 09 3e 98 bd
       0.01705898 0.09199602 0.015275233 -0.07433707
0002d0 1e bc d0 bb 30 93 3b bb 0c e7 ad 3c c3 8a f1 3d
       -0.0063700816 -0.0028621666 0.021228336 0.11794045
0002e0 88 fe fc 3d 72 6d de bc d5 3b 4e bd 62 c9 4b 3d
       0.123532355 -0.027151797 -0.05035003 0.0497526
0002f0 7b 0e 40 bd 8b ab 75 bd 5f 95 24 bc 10 10 37 bc
       -0.04688881 -0.05997805 -0.0100453785 -0.011173263
000300 7d 7a 82 3d b6 eb e5 bc 53 c3 ab 3d 9e aa 69 3d
       0.06371019 -0.028066497 0.083868645 0.05704748
000310 d8 cc 21 bd 23 8b fa 3d 28 c7 ef 3c 4e e2 97 bc
       -0.039501995 0.122335695 0.02926977 -0.018540528
000320 dd 80 1f bd 0e b0 6a 3d 80 97 00 3c 62 ae 16 3d
       -0.038941253 0.057296805 0.00784862 0.0367874
000330 e3 5a be bd 16 2a 70 3d ea 10 67 3d ee 38 28 3d
       -0.09294679 0.058633886 0.056412615 0.041069917
000340 d8 f8 df bc 3f b4 c4 3d e2 ec 5a 3d 9a 13 1a bd
       -0.027340338 0.09604692 0.053448565 -0.03761635
000350 d0 ed 2a bc aa c3 77 3d f7 f7 b4 bd 8d 26 c6 3d
       -0.0104326755 0.060489334 -0.08836358 0.09675322
000360 a2 67 68 3d b0 ac 81 bd 8c 1b e8 bc f4 f5 b2 bc
       0.056739457 -0.06331766 -0.028333448 -0.021845795
000370 d2 5e 40 3d 34 8d e1 3c 5d a5 8f bd d8 77 2f bc
       0.046965428 0.027533151 -0.070139624 -0.010709725
000380 6c 7c d4 bc e8 58 8e bd 20 ba 89 3b b7 3f 8f 3d
       -0.025938235 -0.06950551 0.004203096 0.069945745
000390 79 db c2 3d 8a 80 55 bd 62 ce 69 3d 00 44 d0 ba
       0.09514517 -0.052124538 0.057081588 -0.0015889406
0003a0 c8 44 c8 3c 97 a0 cc bd 06 40 46 3d b4 bf 03 bd
       0.02444686 -0.099915676 0.0484009 -0.032165244
0003b0 e3 80 a4 3d f4 3f 06 bd b7 67 a7 3d c0 52 6d bd
       0.08032396 -0.032775834 0.08174079 -0.057940245
0003c0 b0 c3 0a bc 50 bc 65 3c b0 40 2e 3c 58 50 9e bc
       -0.008469507 0.014021948 0.01063554 -0.01932542
0003d0 8b 01 b1 bd 9a ed b6 bd 94 06 a7 bc 34 93 0d bd
       -0.086428724 -0.08932038 -0.020388879 -0.034564212
0003e0 62 20 40 3d ec fc f2 bc 3f 74 cb 3d ea 35 3f bd
       0.046905883 -0.029661618 0.099342816 -0.046682276
0003f0 d5 2e be bd 29 9c a0 3d 00 43 23 3c ea 64 6d 3d
       -0.09286276 0.07842285 0.0099647045 0.057957567

fc1.bias f4 [20]
000000 83 fb 9a 3d a4 da d4 3d f8 f7 b0 bc 78 73 a0 bd
       0.07567503 0.10393265 -0.021602616 -0.07834524
000010 cb 52 3d 3d 08 e0 90 bc 34 89 ee bc 1d c8 65 bd
       0.046221536 -0.017684951 -0.029118158 -0.056099046
000020 e0 3f 39 3d 98 d5 d7 bc 3a 8f 66 bd 98 db 5d bc
       0.04522693 -0.026346967 -0.056288935 -0.013541125
000030 70 d1 43 bd b2 d1 b8 bd 4a 3f 9e 3d 7d 08 79 3d
       -0.047807157 -0.09024371 0.07726915 0.06079911
000040 00 15 48 bc 09 70 aa 3d 90 14 8f bd 13 f6 90 3d
       -0.012212038 0.0832215 -0.06986344 0.07078185

attention.weight f4 [20, 1000]
000000 00 5d 74 3b 6c c2 90 3c 46 7d 6a bc 94 00 e2 3c
       0.0037286878 0.017670833 -0.014312094 0.027588166
000010 2a 80 cc 3c 8a a5 9d 3c a0 dc 3a bc 0e 0f ad bc
       0.024963457 0.019243974 -0.01140514 -0.021125343
000020 22 68 86 bc 78 74 9e 3c 60 f9 28 bb 38 a3 87 3b
       -0.016407076 0.019342646 -0.0025783405 0.0041393302
000030 c0 da 9e 3b b8 70 18 bb bc 4e 33 3c c8 c9 12 3c
       0.0048478544 -0.0023260545 0.010944065 0.008959241
000040 fa 57 e7 3c fc 27 2c bc 52 60 80 3c 79 7d be bc
       0.028240193 -0.01050758 0.01567093 -0.02325319
000050 f7 31 8e bc c4 ec 6d 3c 68 7f b3 3b 0e bb b4 bc
       -0.01735781 0.014521781 0.0054778345 -0.02206185
000060 f4 6e 65 bc e0 5d 4e 3c d6 fc 43 bc a0 74 5e 3b
       -0.014003504 0.012595624 -0.011962136 0.0033944026
000070 7c e8 4c 3c 20 c4 5f 3c 98 8b 39 3c 5e ee e8 3c
       0.0125066005 0.0136576 0.011324786 0.028433975
000080 10 0d 1b bc d0 19 7e 3c 80 09 0d 3b 78 2a d3 bc
       -0.009463564 0.015509084 0.0021520555 -0.025777087
000090 e4 4d 23 bc f0 d6 4b 3c 74 fb f9 bb 30 88 73 bb
       -0.009967301 0.012441382 -0.0076288525 -0.0037160031
0000a0 00 3e d2 bc 88 58 c8 3c 04 56 18 3c 50 da 0b 3b
       -0.02566433 0.024456277 0.0092978515 0.0021339841
0000b0 14 d7 28 3c 9e 8d 9f 3c 18 6d e1 bb 5e 39 f9 bc
       0.010305185 0.019476708 -0.00687946 -0.030422863
0000c0 e8 8c 0b 3c f0 71 b9 3c 92 a0 ee 3c 32 b7 f4 3c
       0.008517481 0.022637337 0.0291293 0.02987251
0000d0 58 7f c7 3c b3 c3 af bc 10 31 c7 bc d0 cf fb 3b
       0.024352714 -0.021455621 -0.024315387 0.0076846853
0000e0 4c 72 93 3c a0 c0 6c 3c 40 f8 58 3b b2 0b 65 bc
       0.017998837 0.014450222 0.0033106953 -0.013979839
0000f0 40 f5 fd 3c ce 13 89 3c 14 15 97 bc b4 46 6a 3c
       0.031000733 0.016733076 -0.018442668 0.0142990835
000100 88 91 b5 bb b4 2a 27 bc 88 08 d1 bb f8 9a a9 3b
       -0.0055410303 -0.010203052 -0.006379191 0.0051759444
000110 40 23 b5 bb de f8 81 3c 1a 57 e4 3c d4 71 ee bb
       -0.005527884 0.01586574 0.027873565 -0.007276753
000120 ce 45 cd bc d8 12 bf 3b 1e 08 6b bc 72 95 01 bc
       -0.0250577 0.005831104 -0.014345197 -0.007909166
000130 40 17 42 3b 5c c6 28 3c a4 5d 4e 3c c8 d0 ae 3c
       0.002961591 0.010301199 0.012595568 0.021339789
000140 90 a1 22 bc 78 f3 be bb 60 50 f8 3b f4 39 fd 3c
       -0.009926215 -0.0058273636 0.007577941 0.030911423
000150 0c 98 50 3c 58 49 ab 3c 67 5f ea bc 30 42 8b bb
       0.012731563 0.020908996 -0.028609945 -0.0042498335
000160 ac 86 35 3c dc c3 03 bc 4b f0 e9 bc 6c 20 01 bd
       0.011079472 -0.008042302 -0.028556963 -0.03152506
000170 48 43 34 3c de fc b6 3c 0c a7 43 bc 58 6a 07 3c
       0.011002369 0.022337373 -0.011941683 0.0082651
000180 3a 37 20 bc f4 6a eb bc dc 69 5a bc f2 ae c4 3c
       -0.009778792 -0.028737523 -0.013330903 0.024009202
000190 66 87 9a 3c 48 af 58 3c 48 e9 3a 3c 24 74 2f 3c
       0.018863391 0.013225384 0.011408158 0.010708842
0001a0 ac 21 f7 3c 8c cc 88 bb c4 46 80 bb 48 85 3a 3c
       0.030167423 -0.0041747745 -0.003914686 0.011384316
0001b0 98 93 dc bc ca 4e bb bc 2e 23 e8 bc 82 b0 89 3c
       -0.026925847 -0.022864718 -0.028337087 0.016807798
0001c0 00 64 38 3a cc f8 79 bc 38 0e 07 3c e6 8e a6 3c
       0.0007033944 -0.015257072 0.008243136 0.020331811
0001d0 80 5c 9b b9 ba ba ae 3c 92 be c3 bc 8f cf d4 bc
       -0.00029632822 0.021329273 -0.023894582 -0.025977878
0001e0 e0 e3 a5 bb 4b 45 ff bc 58 8f 77 3c 03 2a a0 bc
       -0.005062565 -0.031160971 0.015109859 -0.019551283
0001f0 50 a2 05 3c 00 f2 d6 b8 10 12 fb 3c 2c 14 0d 3c
       0.008156374 -0.00010249391 0.030648261 0.008610766
000200 d8 ac c8 3c d7 94 cf bc 18 18 25 bb 8e f5 fc bc
       0.02449648 -0.025339527 -0.0025191363 -0.030878808
000210 58 e8 b9 3b 22 bd 89 bc 78 ce e0 bc a8 21 58 bc
       0.0056734495 -0.016813818 -0.027442202 -0.013191618
000220 70 68 d3 3c c0 2d d1 b9 67 99 d0 bc 64 8f c4 3c
       0.025806636 -0.00039897673 -0.025463773 0.023994155
000230 3e 2f d7 3c e0 34 b9 3a ea 78 8f 3c 06 b9 8f 3c
       0.026267644 0.0014130138 0.017513711 0.01754428
000240 60 4a 1b 3b 70 ec f0 bc 10 27 c0 bb 60 ae 8e bc
       0.0023695454 -0.029409617 -0.0058640316 -0.017417133
000250 72 90 d3 bc 74 c3 3a 3c e1 fb f2 bc a6 d4 ae bc
       -0.025825713 0.011399139 -0.02966112 -0.021341633
000260 85 f1 e6 bc 00 69 36 b9 58 95 b2 bc 50 78 28 3c
       -0.028191337 -0.00017395988 -0.021799728 0.010282591
000270 30 dd 62 3b a4 76 76 3c 60 dd c7 ba fa 33 c9 bc
       0.0034616701 0.015042935 -0.001524847 -0.024560917
000280 fc b2 86 bc 88 f1 23 3c c4 af 73 bc c0 d3 26 3b
       -0.016442768 0.010006316 -0.014873449 0.0025455803
000290 76 f9 d6 bc 4e 1d 82 3c de e8 b0 bc fd 13 ed bc
       -0.026242 0.015883114 -0.021595415 -0.028940195
0002a0 5a 94 6c bc 24 bd 79 bc 1a c3 b7 bc 1c 85 51 3c
       -0.014439667 -0.015242849 -0.022431899 0.012788083
0002b0 72 55 7e bc 08 4e 95 bc 38 0e b9 3c 30 8e 30 bb
       -0.015523301 -0.018225685 0.022589788 -0.002694022
0002c0 00 4e b6 b9 d4 12 1f 3c 00 25 53 3c 28 43 a4 3b
       -0.0003477186 0.009709079 0.012887239 0.0050128885
0002d0 d4 f1 0b 3c a4 8f 57 3c b0 10 4c bb 38 92 77 3c
       0.008541543 0.013156805 -0.0031137876 0.015110545
0002e0 40 89 79 ba 40 0f 3a ba a0 88 9f 3b e0 9f 96 3c
       -0.0009519048 -0.00070976093 0.004868582 0.018386781
0002f0 94 bf bc bc f8 18 1d bb b0 50 f8 3b 10 54 07 bc
       -0.02304057 -0.0023971181 0.007577978 -0.008259788
000300 78 45 92 bb 62 c3 e9 3c 20 69 97 3c cc ab 26 3c
       -0.0044638477 0.028535549 0.018482745 0.0101727955
000310 06 2e 96 bc ba 45 eb 3c aa ce b0 bc b3 0e cd bc
       -0.018332493 0.028719772 -0.02158292 -0.025031423
000320 68 39 0b bb b8 2c b7 3b d0 b2 2b 3c a0 83 a1 bc
       -0.0021243934 0.0055900477 0.010479644 -0.019716084
000330 c0 9d db b9 c4 e2 a5 bb 20 97 f9 3b c4 3e a3 bb
       -0.00041888468 -0.005062433 0.0076168925 -0.0049818475
000340 fd 8a d9 bc 90 2a a3 bb 9c 02 77 bc 72 9b 9d bc
       -0.026555533 -0.004979439 -0.015076306 -0.019239161
000350 fa 60 96 3c 16 fb 55 bc 74 29 e8 bb b2 45 01 3d
       0.018356789 -0.013060352 -0.0070850197 0.031560607
000360 e1 7e cc bc 2d bf e5 bc c0 d0 ea 3b e8 8a b9 3b
       -0.024962844 -0.028045261 0.007165998 0.005662311
000370 90 ed b9 3c a6 15 83 bc 90 ef ed bb f6 9b 0a bc
       0.022696286 -0.016001534 -0.007261224 -0.008460036
000380 fe 0c 6d bc 28 2b fe 3b 1e 5c 89 bc 30 d7 16 3b
       -0.01446843 0.0077566095 -0.016767558 0.0023016445
000390 80 9a 25 bb 0e 21 de bc 46 1e f2 bc 2d 8a d7 bc
       -0.002526909 -0.027115371 -0.029555451 -0.026311005
0003a0 90 18 7d 3c d0 3e b5 3b f8 4d 2a bc f8 93 b4 3c
       0.015447751 0.0055311695 -0.010394566 0.022043213
0003b0 34 46 99 3c d2 9f de 3c 00 0d f2 3b 3e ff 7f bc
       0.018710233 0.027175818 0.0073868036 -0.015624819
0003c0 74 bc 59 bc 44 ef ba 3c 2c cf a5 bc 3a 5d da 3c
       -0.01328956 0.022819169 -0.020240389 0.026655782
0003d0 50 cc ff 3c 70 cb 83 3c e2 54 c3 3c 92 f5 af bc
       0.031225353 0.016088217 0.023844186 -0.021479402
0003e0 40 1e 0c 3c 1c 03 c6 3c 38 d6 3b bb ea 5c ef bc
       0.008552134 0.024171405 -0.002866162 -0.02921911
0003f0 10 92 23 3b 50 72 fc ba 78 08 9c 3c 7c a0 dd bc
       0.0024958886 -0.0019260142 0.019047007 -0.027054064

attention.bias f4 [20]
000000 58 2a 27 bc d8 2d 92 bc d0 b6 b0 bb 6b 6d 00 b7
       -0.010202967 -0.017844126 -0.0053928867 -7.65487e-06
000010 27 b0 e5 3b d4 66 64 3d 6d 06 11 3d 50 5f 18 3d
       0.0070095244 0.055762127 0.03540652 0.037200272
000020 61 65 a9 b9 7f f0 48 3d 5f f2 3e b8 7a cb 18 bc
       -0.00032309725 0.04905748 -4.5525256e-05 -0.009325856
000030 76 c4 97 bc 16 ad 3c bc 1f cb b2 b7 19 6f 15 3d
       -0.018526297 -0.011515876 -2.131384e-05 0.036482904
000040 88 68 16 3d 72 5c 28 3d 45 1a 18 b9 64 21 00 bd
       0.036720783 0.041103788 -0.00014505636 -0.031281844

attention2.weight f4 [10, 20]
000000 14 9e d0 bd 4a 6a 4f 3e 52 4c 45 3e 35 45 14 3e
       -0.10186401 0.2025539 0.19267395 0.14479525
000010 4f 1b 43 be bc f7 fb 3d 11 0d 5d be f1 bf 19 be
       -0.19053386 0.12303111 -0.21587016 -0.15014626
000020 eb 5c 4b be 93 59 39 3e cd af c8 bd c8 32 09 3d
       -0.19859664 0.18100576 -0.09799156 0.033495694
000030 08 65 2e 3e 2c 91 ce 3d f0 4e 50 3e 9e 45 05 3e
       0.17030728 0.10086283 0.20342612 0.13014838
000040 5d cd 15 be 53 cf 31 bd d2 ae 4c be 28 dd f4 bc
       -0.14629121 -0.04341061 -0.19988564 -0.029890612
000050 08 c4 0f 3d b7 13 f3 bd 22 90 1f 3e a8 7c 59 3e
       0.03509906 -0.11868995 0.15582326 0.21238959
000060 c5 da 58 be ae 2e 43 3e 68 f4 09 bd 8a c5 1d 3e
       -0.21177204 0.19060776 -0.03368035 0.15407386
000070 d4 97 10 be 96 51 12 be cc 13 15 3e 2c a3 d4 3d
       -0.14120418 -0.14288935 0.14558333 0.10382685
000080 08 b0 f1 3d 26 79 16 be 20 74 a0 3b 58 4b 2e 3e
       0.118011534 -0.14694652 0.0048966557 0.17020929
000090 08 18 32 3e b4 d7 69 bd 94 56 9f bd 20 fb 50 bc
       0.1739198 -0.057090476 -0.07780185 -0.012755185
0000a0 d2 e9 59 be 95 1e 54 be ce 82 58 3e 7e 29 b1 bd
       -0.21280602 -0.20714791 0.21143648 -0.08650492
0000b0 1a ed 58 3d 9a 2b c7 bd 17 95 a6 3d dd c0 5b 3e
       0.052960493 -0.09725113 0.081339054 0.2146029
0000c0 f8 43 3c 3e b8 ca ec bc 28 0e c0 bd ac 7b b9 bd
       0.18385303 -0.028905258 -0.093777 -0.09056792
0000d0 00 1c ca 39 40 c4 93 3d b3 9c 7a 3c ee 99 57 be
       0.00038549304 0.07215166 0.015296149 -0.21054813
0000e0 71 f9 f5 3c dc e2 eb bc 2f d5 2a 3e d0 60 30 3e
       0.03002617 -0.028794698 0.16682886 0.17224431
0000f0 91 89 f8 bd b2 8c 06 3e 54 4e b6 3d 27 bf 37 3e
       -0.12135614 0.13139609 0.08901659 0.17944013
000100 dd 9e bc bd 44 27 a1 bd bf 81 9c bd 31 69 a0 3c
       -0.09209988 -0.078688174 -0.076419346 0.01958141
000110 83 06 63 bd 94 a1 50 be 20 17 4a 3e 08 86 28 be
       -0.055426132 -0.20374137 0.19735384 -0.16457379
000120 96 0b 8b bd 32 fc 3f be f2 8a ca 3d f4 5e 5b 3d
       -0.06789319 -0.18748549 0.09889783 0.05355735
000130 59 ff 64 be 96 53 a6 3c fe 62 11 3e a2 27 51 be
       -0.22363032 0.020303529 0.14197919 -0.20425275
000140 60 dd 3b 3e bc 7c 91 3d d2 fb 11 3e 00 4d 2e 3e
       0.18346167 0.07103869 0.14256218 0.1702156
000150 0a 55 2d 3e 38 1d 54 3d 20 cf f9 bb 30 e7 85 3c
       0.16926971 0.051785678 -0.007623568 0.01634559
000160 d0 eb 28 3d 98 83 1e 3d f4 d1 d1 3d 68 7b 30 3e
       0.041240513 0.038699716 0.102451235 0.17234576
000170 e8 65 21 3d 50 b6 b1 bd be 5e 20 3e a0 d6 ab 3c
       0.039403826 -0.086773515 0.15661141 0.020976365
000180 58 f4 67 bd f6 01 01 3e fb ec 28 be 03 1e 2b be
       -0.05662951 0.12598404 -0.16496651 -0.16710667
000190 76 a0 2b 3e 24 db 62 3e 30 46 9a bd e0 77 8e 3c
       0.1676043 0.22153908 -0.075329185 0.017391145
0001a0 20 aa cb bd cd ba 1f be e5 64 6b 3c 63 6c 1c 3e
       -0.09944558 -0.15598603 0.014367317 0.15275721
0001b0 34 66 53 be a7 db e5 bd fd 8f 60 be fa 0f 01 be
       -0.20644456 -0.11223536 -0.21929927 -0.12603751
0001c0 a8 29 d8 bc 41 4f 18 be 72 f7 be 3d c8 88 53 3d
       -0.02638705 -0.14873983 0.0932454 0.051644117
0001d0 92 8b 64 3d 36 8e 7a bd 26 bc 51 3d cc 7f 29 bd
       0.055797167 -0.06117078 0.051204823 -0.041381642
0001e0 00 7a a5 bd 00 e7 6f bd 49 c5 31 be 3a 55 3b 3e
       -0.0807991 -0.05856991 -0.17360415 0.1829423
0001f0 10 35 34 be 4e fb 65 3e f0 65 4a 3e 5f 2d 72 3e
       -0.17598367 0.22459146 0.19765449 0.2365012
000200 e0 9f 2b 3e 38 0d 21 3e 3c f1 d1 bd 74 fd 3f be
       0.16760206 0.15727699 -0.1025109 -0.18749028
000210 2d cd 2e be 38 22 92 3d 9e 61 09 be a7 52 78 3e
       -0.17070456 0.07135433 -0.13416144 0.2425028
000220 a3 99 d1 3c 4f 2b 8d bd be 11 66 bd 68 4d 02 3e
       0.025585955 -0.06893026 -0.056169264 0.1272484
000230 20 91 e2 3c b8 dd fe bc dc 8e 27 3e 73 d3 95 bd
       0.027657092 -0.031111583 0.1636309 -0.07315721
000240 0e b6 1f be 9e 00 8d bd 65 4a 0e 3e 98 da 4b be
       -0.15596792 -0.06884883 0.13895567 -0.19907606
000250 92 85 2f 3e e5 28 71 be 75 e3 45 3d bc ef aa 3d
       0.17140797 -0.23550756 0.048312623 0.08346507
000260 cc f9 21 3e ec a2 0b 3e b1 c4 c6 3d 2a 16 9a 3c
       0.15817946 0.13636369 0.09705485 0.018809397
000270 08 e0 1b be 71 10 38 be 34 58 49 3c b8 95 c2 bc
       -0.1522218 -0.17975022 0.012289096 -0.023753032
000280 08 05 ac 3d 2a 04 12 be 22 ad 1b 3e 35 3d 56 be
       0.08399397 -0.14259401 0.15202764 -0.20921786
000290 81 2d 3e be e2 c0 0d 3e 2c d7 38 bc c6 20 5c 3e
       -0.18572046 0.1384311 -0.01128177 0.21496877
0002a0 f4 9b 61 be ae c6 12 be 8c ea 9e bb 48 3d 50 3e
       -0.22032148 -0.14333603 -0.0048497375 0.20335877
0002b0 0a e1 aa bd 9a 08 58 3e 71 fa 1b 3d 6c ad 9e bd
       -0.08343704 0.21097031 0.038080636 -0.07747921
0002c0 98 83 77 3e b7 e5 39 3e 02 71 0b 3e 40 44 af 3d
       0.24171293 0.18154036 0.13617328 0.085579395
0002d0 a5 c3 13 be 20 d9 8d 3d 00 1e e5 3d 7b bc 17 be
       -0.14430101 0.06926179 0.11187363 -0.14817993
0002e0 6d e0 5c bc 1e 32 e3 3d 52 cb 5b 3d 28 fe 7c be
       -0.013481242 0.110935435 0.0536607 -0.24706328
0002f0 3c 94 d1 bc 72 b7 78 be 13 c4 c6 bc a0 c7 89 bd
       -0.025583379 -0.24288729 -0.024263417 -0.067275286
000300 2b d6 30 be 90 50 98 3d 3f b7 2d 3e 84 43 3b be
       -0.17269199 0.07437241 0.16964434 -0.18287474
000310 d2 17 88 3d f2 ad 08 3e 89 21 1b be 88 1e ff 3d
       0.06645168 0.13347605 -0.15149511 0.12456995

attention2.bias f4 [10]
000000 02 bc 01 bc 68 6c 4a be b6 e6 e6 3d 64 97 2f 3e
       -0.00791836 -0.19767916 0.11274473 0.17147595
000010 b2 68 8d bd 63 25 08 3e 06 31 87 3d 50 d8 f1 3d
       -0.06904735 0.13295512 0.06601147 0.118088365
000020 23 dc 97 3d 4b f6 a7 3d
       0.074150346 0.082012735

fc2.weight f4 [10, 20]
000000 59 18 31 be 50 fa 2e 3e eb 92 30 be 26 99 59 bd
       -0.17294444 0.17087674 -0.17243545 -0.05312457
000010 3f 9e e1 3d 2c c4 30 be 93 14 b4 3d 96 15 39 be
       0.11016511 -0.17262334 0.08792987 -0.1807464
000020 43 05 8f bc f6 a5 ac 3c 6d 87 42 3b 2c 88 9f bd
       -0.017458564 0.02107523 0.002968277 -0.077896446
000030 b5 e7 57 be cc db 84 bd 0b e1 34 be 09 72 82 3d
       -0.21084483 -0.064872354 -0.17663972 0.06369407
000040 68 0f 60 bd 1a ee 36 bd 8c 45 b0 bd e0 84 98 3d
       -0.054702193 -0.044660665 -0.08607015 0.07447219
000050 f9 eb 0a 3e f0 03 5e bd 60 18 69 bc f3 39 2c be
       0.13566579 -0.054202974 -0.014227003 -0.16818981
000060 f8 51 18 be 22 a7 a6 3d ec f7 31 be cf 05 2d 3e
       -0.14875019 0.08137347 -0.17379731 0.16896747
000070 ba b1 41 be d1 c3 a6 bc 53 48 00 bd 12 7a 64 3e
       -0.18915454 -0.020357044 -0.031318974 0.22312191
000080 fc cd f3 3d a2 58 f5 bd 87 63 4e bd 68 78 f5 bd
       0.11904523 -0.11979796 -0.050387885 -0.11985856
000090 78 46 2d 3d 3a a9 0c bd 13 63 b2 3d 1a 64 8c 3d
       0.042303532 -0.034341075 0.08710303 0.0685503
0000a0 f6 81 27 3e eb ed 0e be af c9 2e be c8 a0 52 3e
       0.1635817 -0.13957946 -0.17069124 0.20569146
0000b0 b2 28 81 bd 47 99 54 be 08 9e 13 3d b8 50 ea 3d
       -0.0630659 -0.20761596 0.036039382 0.11441177
0000c0 62 25 91 bd 27 4e ee bd 26 2e 3c be 10 15 5f 3c
       -0.07087208 -0.11636 -0.18376979 0.013615862
0000d0 80 f0 60 bb 7c ad 8b 3d d2 0e 55 3e b8 cb 77 3d
       -0.0034323037 0.06820199 0.20806435 0.060497016
0000e0 f8 f0 d8 3d 64 33 83 bd 16 b4 a0 bd 30 70 a4 bd
       0.10592836 -0.06406286 -0.07846849 -0.080292106
0000f0 e6 92 c3 bd 33 92 4b be 2c da 43 be 02 20 01 be
       -0.09549503 -0.1987999 -0.19126195 -0.12609866
000100 bd 41 94 3d fe d0 47 be cd 8b 34 be 7a e6 e6 3c
       0.07239101 -0.19513318 -0.17631455 0.028186072
000110 49 db 99 3d fb 62 7d bd 55 a4 9c bd 8d 03 fd bd
       0.075125284 -0.061861973 -0.07648531 -0.12354193
000120 90 1f 4c 3d 0a 82 0f 3e 98 4c 10 3e b4 57 2b be
       0.049834788 0.1401445 0.14091718 -0.16732675
000130 2b cd 41 bd 6a 30 5e 3d 3c 71 1e 3e d7 d0 c9 3d
       -0.047314804 0.05424539 0.15472883 0.09854286
000140 48 7b f0 bd 4a e3 00 3e 9a 71 8f bd 47 9c 4d be
       -0.11742264 0.12586704 -0.0700409 -0.20079146
000150 fc 76 19 be f0 2c d6 3c a0 d4 36 be 58 be 1d be
       -0.14986795 0.026144475 -0.17854548 -0.15404642
000160 70 42 08 be c8 c9 1a 3e 78 96 7b bd a8 bd 04 3e
       -0.13306594 0.15116036 -0.061422795 0.12962973
000170 76 26 dd bd a0 94 f3 bd 18 0f 91 bc 2c ef 16 be
       -0.107983515 -0.11893582 -0.017707393 -0.14739674
000180 70 da 5b 3e 60 01 b5 bc 30 a9 ee bc ac f0 49 3e
       0.21470046 -0.022095382 -0.02913341 0.19720715
000190 a9 d6 3f be 2b 1b d5 3d 3e 4b 36 be 0c 52 29 3e
       -0.1873423 0.104055725 -0.1780214 0.16535205
0001a0 ff 82 37 bb 91 72 00 3c 11 5f 05 3e 16 e2 08 3d
       -0.0028001664 0.007839815 0.13024546 0.033418737
0001b0 2e 5f 62 be 18 e2 59 be d1 d4 39 3e 9c 78 33 3e
       -0.2210662 -0.21277654 0.1814759 0.17526478
0001c0 6c 1a ce 3d 88 81 14 be 94 82 44 3d a1 3b 21 be
       0.10063633 -0.14502537 0.04797609 -0.15745403
0001d0 72 36 f0 3d aa 92 1a 3e 10 f8 52 3e bc eb 3c 3d
       0.117291346 0.1509501 0.20602441 0.04612325
0001e0 a8 68 5e be 79 e2 3b be 3c 07 95 3d 01 d7 11 be
       -0.2171961 -0.18348111 0.072767705 -0.14242174
0001f0 10 56 2a 3d 96 18 39 be 48 43 c1 bd 04 17 16 3e
       0.04158598 -0.18075785 -0.09436661 0.14657217
000200 30 ba 6b 3d 8e 9f 37 3e a0 6c 0e 3e 66 53 30 3e
       0.05755061 0.17931959 0.13908625 0.17219314
000210 a0 bb f7 3b b8 42 e7 3d 60 eb b9 bb b3 f1 25 be
       0.0075602084 0.112920225 -0.005673811 -0.16205482
000220 50 8d fd 3d 4d 64 43 be ac fa 4f be 88 05 5f 3e
       0.12380469 -0.1908123 -0.20310467 0.21779454
000230 ef 77 68 be c6 2b 1e 3e fc b2 32 bd de ff 55 3e
       -0.22702001 0.15446386 -0.043627724 0.20898387
000240 7e 9e 16 3e 30 47 5a bc c0 c7 57 3d 88 dc 8d bd
       0.14708897 -0.0133226365 0.05268073 -0.069268286
000250 82 f4 32 3d 47 1e 27 be 22 39 2e be 3e 7a 02 3e
       0.043690212 -0.16320144 -0.17013982 0.12741944
000260 98 ff 9c 3c 38 c7 5d 3d 58 39 48 be 28 94 30 bd
       0.019164845 0.054145068 -0.19553125 -0.043110043
000270 3a 49 72 be 93 5e 3a be 30 6e 83 3d e0 80 3e 3d
       -0.23660746 -0.1820014 0.06417501 0.046509624
000280 be 91 d1 3d f0 56 2a 3e 22 99 39 3e 1b 55 b2 3d
       0.10232876 0.16634727 0.18124822 0.08707639
000290 e7 e7 28 3e ec 48 ad bc 22 63 d9 3d a0 b5 3d bc
       0.16494714 -0.021152936 0.10614611 -0.011578947
0002a0 c3 a4 1d be 5b f5 32 3e c5 62 23 3d 86 6a 51 3e
       -0.15394883 0.17476408 0.039889116 0.20450792
0002b0 40 81 bd 3b e0 1b 44 3e 41 62 f5 3d 51 89 9c bd
       0.00578323 0.19151258 0.11981631 -0.076433785
0002c0 c9 b7 03 3e ff a6 8d 3d a9 e0 44 be 39 e8 86 bb
       0.12863077 0.069166176 -0.19226326 -0.0041170386
0002d0 13 6d 40 3e 32 d2 d0 bd 62 00 1e be 03 5e a2 3d
       0.18791609 -0.101963416 -0.15429834 0.079280876
0002e0 14 29 8b bd 2f 80 49 3c a2 a2 94 3c 9a 79 34 3e
       -0.067949444 0.012298628 0.018143956 0.17624512
0002f0 53 13 b4 3d 29 56 bb bd 33 bb 89 3d e3 30 57 be
       0.08792748 -0.09147293 0.067251585 -0.21014743
000300 a8 a2 8c bc 74 c3 23 bd 1f 80 4c be 9f 9c cb bd
       -0.017167404 -0.03998132 -0.1997075 -0.099419825
000310 90 16 ec bd e1 84 38 bd eb c6 96 3d 24 39 4d bc
       -0.11527741 -0.0450486 0.07362159 -0.01252583

fc2.bias f4 [10]
000000 05 bc c5 3d d3 09 19 3e 62 91 2d be 61 67 c5 3d
       0.096550025 0.14945154 -0.1694999 0.096388586
000010 35 3e 38 be 17 75 ce 3c 72 80 97 bd 42 e1 fe 3d
       -0.1799248 0.025202317 -0.07397546 0.12445308
000020 29 0a 9d ba 56 89 de 3d
       -0.0011981177 0.108660385

fc3.weight f4 [4733, 10]
000000 62 d0 94 be e5 9c 0b 3e bf 07 0b be 72 6c 7b 3e
       -0.29065233 0.1363407 -0.13577174 0.24553087
000010 fc 5e e1 bd c6 a2 a3 be 30 8f 94 3d c0 27 84 bb
       -0.11004445 -0.31960124 0.07253873 -0.004033059
000020 2c 11 26 3e af 55 44 3e db 3b 96 3e 3d 4b d8 bd
       0.16217488 0.1917331 0.2934254 -0.105612256
000030 f2 f6 7e be 27 55 69 be bd fe 42 be ce ca 8b 3e
       -0.2489889 -0.2278639 -0.19042487 0.27303165
000040 2a 9b 97 3e 43 c1 c4 bd 0b fd 1b be f9 e2 19 bd
       0.29610568 -0.09607174 -0.15233247 -0.037569974
000050 48 4a d4 bd 48 1f fd 3d 52 ea 86 be 44 d1 15 3d
       -0.103657305 0.12359482 -0.26350647 0.036576524
000060 91 60 9c 3e 6b 6b 0c 3e a1 34 14 bd 1a 1a 56 be
       0.30542424 0.13712852 -0.036183003 -0.20908394
000070 1c e8 9a bd 42 8f 1e 3e e7 c0 62 be c7 38 82 3e
       -0.075638026 0.15484336 -0.22143899 0.25433943
000080 d3 42 98 3d 56 ff 90 3d f0 a6 57 3d be a4 7d be
       0.07434621 0.070799515 0.05264944 -0.24769875
000090 ba f7 0a be a7 c6 6b be 44 76 f7 3c d5 17 10 be
       -0.13571063 -0.23024999 0.03020776 -0.14071591
0000a0 22 3b 96 3e 73 f9 77 be 8b bc 4c 3e 23 f2 7b 3e
       0.2934199 -0.24216251 0.19993798 0.24604087
0000b0 2a d5 6d 3e e9 b0 90 be 78 53 e8 3d 3b e7 84 be
       0.23225847 -0.28259972 0.113440454 -0.25957665
0000c0 94 23 bd bd e1 74 9a be ee 57 32 bd d1 53 2f 3e
       -0.092353016 -0.30167297 -0.043540888 0.17121817
0000d0 3e 4c 36 3d ff 73 89 be c4 17 21 be 98 bd 93 bd
       0.044506304 -0.2684631 -0.15731722 -0.072138965
0000e0 ec 9a f1 3d e2 0f a6 be 9b 90 38 be 45 50 0e bd
       0.11797127 -0.32433993 -0.18023913 -0.03474452
0000f0 51 fd 02 bd 04 0a 17 be 35 69 0a 3e 01 56 01 be
       -0.031979863 -0.14749914 0.13516696 -0.12630464
000100 40 96 c6 3b 3e 22 a6 bd 96 b5 1e be 2e 0b b3 bd
       0.0060603917 -0.08112 -0.15498957 -0.08742367
000110 51 91 68 be f4 ff 9a 3d b1 00 3c 3e c3 fb cb 3d
       -0.22711684 0.075683504 0.18359639 0.09960129
000120 a4 8f 1b bd ee 4a ee 3d 86 61 70 3e 58 f5 95 bd
       -0.037978783 0.116353855 0.23474702 -0.07322186
000130 3a 3c 55 3e f3 bb 0d be 4b 55 d5 3d 4c 3a bc bd
       0.20823756 -0.13841228 0.10416659 -0.09190807
000140 83 9c de 3d 05 b9 20 3e 4f eb 83 3e fe f7 74 3e
       0.10869696 0.1569558 0.25765464 0.23922727
000150 ca 6c 4a be 22 8b 2a 3e f5 0b 02 b9 9b c8 15 be
       -0.19768062 0.16654637 -0.0001240222 -0.14627306
000160 e3 13 28 3d 4f 90 dd bd e5 f3 dd bd cc 4d c2 3c
       0.04103459 -0.1081854 -0.10837535 0.023718737
000170 9a 80 37 3e 69 7b 87 3e 00 aa 55 ba 4e 48 04 3d
       0.17920151 0.26461342 -0.0008150637 0.032295518
000180 8d db a4 3e a9 70 e5 3c d3 3b b0 3e 04 11 5c bb
       0.32198754 0.028007822 0.34420642 -0.0033579478
000190 27 f0 0a be 15 ea c8 bc 93 0d 8a 3e e2 91 51 3d
       -0.13568173 -0.024525682 0.2696348 0.051164515
0001a0 f2 7d d2 bd 11 3f 67 3d 34 6c cd bd 79 a4 3a 3e
       -0.102779284 0.05645663 -0.10030404 0.18226804
0001b0 bd b5 2d 3d 8f e0 87 bd 2f 1b 4e 3e 22 46 c7 bd
       0.042409647 -0.06634628 0.20127557 -0.09730174
0001c0 b0 73 76 3e 85 1d 5b be d6 12 41 3e 4f 53 08 3c
       0.24067569 -0.2139798 0.18854842 0.008320644
0001d0 0c 4d 28 be 51 80 72 3e 68 96 06 3e f9 a2 fa 3d
       -0.16435641 0.23681761 0.13143313 0.12238116
0001e0 db 48 a1 bd 9b 5c 98 3d f0 03 51 3e 2c c1 a5 be
       -0.07875224 0.07439538 0.20411658 -0.3237394
0001f0 e0 bc 19 3d 22 b0 ba 3d 74 99 74 be fb a7 26 3d
       0.03753364 0.09115626 -0.23886663 0.040687542
000200 60 c5 69 3e 24 1f 95 3d 1c 45 6e be 08 66 0b 3e
       0.22829199 0.0728133 -0.2326855 0.1361314
000210 9e 26 b9 bc db 4e 0a be de 13 19 3e b2 e5 27 be
       -0.022601422 -0.13506643 0.14948985 -0.16396216
000220 9f 8b 35 3e 19 52 4f be 55 b9 7b be 60 cc 46 3e
       0.17729042 -0.20246162 -0.24582417 0.194139
000230 d2 15 a8 be bc ae 41 3e d1 7a 6f bd d1 c0 7c 3d
       -0.32829148 0.18914312 -0.058466736 0.06170732
000240 a3 06 35 be 01 f4 65 3d 04 89 a4 be 8a df 00 3c
       -0.17678313 0.056140903 -0.32135785 0.007865796
000250 c6 4f 51 bd c3 8c 11 be 3b b1 c2 3d 27 16 16 bd
       -0.05110147 -0.14213853 0.0950646 -0.03664222
000260 0e 6c b5 bd 00 97 8b 3e 8e db 9b be 47 c7 8e 3e
       -0.088585004 0.2726364 -0.30440944 0.27886412
000270 ea 1a 9c 3e e5 ef c5 bc e5 83 f7 3d 19 d5 19 3e
       0.30489284 -0.024162242 0.12085704 0.15022697
000280 76 1a df bc 61 12 87 bd 8d 87 3e 3d e1 01 cc bd
       -0.027234297 -0.065953024 0.04651599 -0.09961296
000290 bd c9 86 3e 85 92 a2 3d 36 cd 1e 3e 91 ba 02 3c
       0.2632579 0.07938103 0.1550797 0.007979051
0002a0 1f 49 c3 3d eb 6c 4d be 61 0e 65 be 45 5d e4 bc
       0.09535431 -0.2006108 -0.22368766 -0.027876506
0002b0 3e 5c 5f 3e ef 3a c3 bd 4e 71 66 be 95 12 a0 3d
       0.21812531 -0.09532725 -0.2250416 0.07816044
0002c0 c6 56 c9 3d 84 7d 11 3d f6 18 19 3c 4e 05 8b be
       0.09831004 0.03552009 0.00934433 -0.27152485
0002d0 d9 c1 dd 3c 4d f9 69 3e 60 0b b4 3d 68 88 2c be
       0.027069973 0.22849007 0.08791232 -0.1684891
0002e0 42 fe 70 3e de c8 77 be c7 de c5 bc 95 ad 23 bb
       0.23534492 -0.24197719 -0.02415408 -0.002497529
0002f0 e8 e1 89 3d e4 c4 81 3e 46 3d 43 be ba 27 8a 3d
       0.06732541 0.25345528 -0.19066343 0.067458585
000300 56 99 00 3e dc a7 63 3e 80 12 60 bd 4d 6a 71 be
       0.12558493 0.22232002 -0.054705143 -0.23575707
000310 9a 9a 85 be 84 c5 eb 3d 2a 7c 73 3d a5 13 46 3e
       -0.26094514 0.115122825 0.059444584 0.19343431
000320 d9 ea 2f 3e 31 2c 58 be 61 31 10 39 f2 91 8c be
       0.17179431 -0.21110608 0.00013751305 -0.27455097
000330 00 29 22 3c 1c de c2 bc b7 ec 86 3d 34 dd 7e be
       0.0098974705 -0.02378755 0.065881185 -0.2488907
000340 49 45 b3 3e 19 a9 b5 3d c7 43 0e bd 58 6e 98 bc
       0.35013798 0.088701434 -0.034732606 -0.018607304
000350 a8 8c 32 3e 0a ce 3d 3d 8d d3 9e 3e d4 f1 7b bd
       0.17436469 0.046339072 0.31020775 -0.061509922
000360 81 92 85 be f1 7a 6c be f1 8e e5 3d af 2b 47 3e
       -0.26088336 -0.23093773 0.112089045 0.19450258
000370 97 16 75 be ea a9 00 be 72 14 8c be a0 9a 80 3d
       -0.23934399 -0.12564817 -0.2735935 0.062794924
000380 3d a9 9d 3e fd c0 ab bd 41 26 72 be 4d aa f8 3d
       0.3079318 -0.08386419 -0.23647405 0.12141857
000390 1d 42 55 bc c1 a3 5d 3e b1 ee 57 3e ba 92 90 bd
       -0.013016251 0.21644498 0.21087147 -0.07059236
0003a0 c4 49 4a be 92 1c 9e be 50 b2 e1 3d 7b 02 21 be
       -0.19754702 -0.30881172 0.110203385 -0.15723602
0003b0 54 df 1d be 3e a0 01 be 08 a0 60 3d 59 b8 47 3e
       -0.15417224 -0.12658784 0.054840118 0.19503917
0003c0 a9 ff 1a 3e 9d 59 e5 3d 04 b7 79 3d e5 1c 66 3c
       0.15136589 0.11198733 0.060965553 0.014044975
0003d0 12 cb 16 be 53 c6 41 3e b4 fc 8b 3e 3f ef a6 3e
       -0.14725903 0.18923311 0.27341235 0.32604405
0003e0 8c 1c 37 be de 00 f5 bd d8 ba 1f 3e fc 01 00 3e
       -0.17881984 -0.11963056 0.15598619 0.12500757
0003f0 bc 94 0f bd 03 d1 82 3e 42 e3 42 3e c8 e9 5b bd
       -0.035053954 0.25550088 0.19032004 -0.053689748

fc3.bias f4 [4733]
000000 c9 69 6c 3e 71 b4 4a be 05 49 a1 3c f5 59 84 3d
       0.23087229 -0.19795395 0.019688139 0.064624704
000010 c7 ee 7a 3d 23 c4 88 3e f0 ef 6c bc 11 f0 4b 3e
       0.061262872 0.2671214 -0.014461502 0.19915797
000020 34 4f 28 3d 47 37 54 be ca c6 46 be b6 a5 b3 3d
       0.04109116 -0.20724212 -0.1941177 0.08771841
000030 a5 36 bc 3d b9 68 38 3d e5 06 78 3e e7 ca 87 be
       0.0919011 0.045021746 0.2422138 -0.2652199
000040 13 7f 7a 3e f5 a0 be 3c 81 5c 86 bc 43 da 34 bd
       0.24462537 0.02327011 -0.016401531 -0.044153463
000050 d8 c2 74 be f4 a9 96 3d 9a 92 28 be b8 d3 45 3e
       -0.23902452 0.07356635 -0.16462174 0.19319046
000060 ac cd dd bd 64 b2 8b be a7 55 1c 3e b3 76 fd 3c
       -0.108302444 -0.2728454 0.15267049 0.03094039
000070 aa e6 99 3c 66 3e b3 bd a7 14 b5 3d ee 56 84 3e
       0.018786747 -0.08752136 0.0884183 0.25847572
000080 18 19 3d be 59 3e 45 be 95 71 de 3c b1 36 8c 3d
       -0.18466604 -0.19262065 0.02715377 0.06846369
000090 a8 ef 08 3d 32 30 5d 3e 4f 55 36 3e a8 0b 94 bc
       0.03343168 0.21600416 0.1780598 -0.018071964
0000a0 3b 77 32 3e 21 47 81 be cc e4 00 3d 15 43 03 3d
       0.17428295 -0.2524958 0.031468198 0.032046396
0000b0 42 a2 27 3e 07 8f 8b bb 00 be 13 be d4 be 0b be
       0.1637049 -0.0042589935 -0.14427948 -0.13647014
0000c0 e4 3f df bb 62 0c 6e 3e 4f 63 19 3d e5 33 9d 3c
       -0.0068130363 0.23246911 0.037448224 0.019189784
0000d0 17 53 64 be 06 70 82 3e 8c c7 85 be 76 85 62 3e
       -0.22297321 0.25476092 -0.26128805 0.22121224
0000e0 ce d3 88 3e d8 e0 68 3e 12 9b 6c bd c1 99 86 be
       0.26724094 0.22742021 -0.057765074 -0.2628918
0000f0 45 17 42 be 8f bd 4d 3e 86 a5 86 be b0 3a 15 3b
       -0.18954189 0.20091842 -0.2629816 0.0022770576
000100 fc 11 d6 3c 89 cd 8e bd bb 60 0b be 97 60 e2 bc
       0.026131622 -0.069727965 -0.13611118 -0.027633948
000110 6c 56 88 3e 52 14 0a 3e 3a d8 94 3d b5 16 19 be
       0.26628435 0.13484314 0.072678044 -0.14950068
000120 8a 93 55 3d d1 06 0e 3e 31 1f d3 3d 7f 57 86 be
       0.052142657 0.13869788 0.10308684 -0.2623863
000130 88 ac 6f be aa 59 27 3d 7c 03 1d be c4 a7 68 3e
       -0.23405659 0.040856995 -0.1533336 0.22720248
000140 87 ec 3a be 8a 08 ab 3d c1 83 ef 3d 27 af 6f 3e
       -0.1825429 0.08351238 0.11695052 0.23406659
000150 1b d1 5f 3e 52 e5 44 3e 04 aa 1d 3d fa 06 8d 3e
       0.21857111 0.19228104 0.038492218 0.27544385
000160 8e f6 06 3e 2a f1 64 be ec e4 d0 3d d5 76 7b 3e
       0.1317999 -0.22357622 0.101999134 0.2455705
000170 1c 8f 55 be 60 06 31 3e e1 de b5 bd ea 19 44 be
       -0.20855373 0.17287588 -0.088804014 -0.1915051
000180 b9 6e 58 bd a1 46 ea 3d f2 a2 8c 3d 2d e2 34 3e
       -0.05283997 0.11439253 0.06867017 0.17664404
000190 af 56 c7 bd ee f1 d1 bb 10 71 0f bd 7c 69 25 3e
       -0.097333305 -0.006407014 -0.035019934 0.1615352
0001a0 ec 40 8c 3d 00 cb 48 be 8a f0 5e be 70 9f 11 3d
       0.0684832 -0.19608688 -0.21771446 0.035552442
0001b0 c4 2f be 3c 49 0a 87 be 8e 61 0c be a3 85 9e 3d
       0.023216136 -0.26375034 -0.13709089 0.07740333
0001c0 17 d9 3b be 10 30 2c 3e 50 a6 05 3e 16 56 11 3e
       -0.18344532 0.1681521 0.13051724 0.14192995
0001d0 a0 ff 62 3e 98 db 63 be 14 ce 86 be 0a 07 7e be
       0.22167826 -0.22251737 -0.263291 -0.24807373
0001e0 8b 7b c2 3d 81 19 88 be aa d3 5e 3e 03 c4 13 bc
       0.0949622 -0.26581958 0.21760431 -0.009018901
0001f0 0a f3 2b bd fa f5 31 3d ac 40 6b be 8d 12 01 3d
       -0.041979827 0.043447472 -0.22973889 0.031511832
000200 4f 5c 97 bd 1d 6b eb bd e6 29 08 be 5b 95 72 3d
       -0.07390653 -0.114950396 -0.13297233 0.059224468
000210 cd cd 7a be b8 b0 8c 3c 7f 37 10 bd 7e 31 25 3e
       -0.2449257 0.01717411 -0.035209175 0.16132161
000220 68 51 27 be 1c 10 19 be f8 99 2d 3e 6b e2 98 bc
       -0.16339648 -0.14947551 0.16953266 -0.018662652
000230 b8 08 35 be dc 01 56 bd d5 60 2e be b9 ae 44 be
       -0.17679107 -0.052247867 -0.17029126 -0.19207276
000240 26 98 ad 3d 95 b9 89 3e 8d aa 92 3d 21 64 1a b9
       0.08476286 0.268994 0.07161436 -0.00014723885
000250 41 d9 7f 3e 96 68 f9 bd ff 1f 9f bc 0f 6b df bd
       0.2498522 -0.12178151 -0.019424437 -0.10909092
000260 36 66 15 3e 75 72 04 3c 8a d7 de 3d 74 18 80 be
       0.14589772 0.008083929 0.108809546 -0.25018656
000270 e7 4c 7d 3e 21 2f 85 bd c9 55 89 be a3 42 ea bd
       0.24736367 -0.0650313 -0.2682326 -0.11438491
000280 af 8e 61 be 49 f9 66 3e f0 9d 30 3e 59 9c 9b 3d
       -0.22027086 0.22556032 0.17247748 0.0759818
000290 f4 4e 4c be 67 b7 38 3e e5 cb 6b 3e c7 bb 43 be
       -0.19951993 0.18038712 0.23026998 -0.191146
0002a0 f5 d8 68 3d f3 3f 27 be 1b 36 11 3d 6f 99 da bc
       0.05684753 -0.16332988 0.03545199 -0.026684491
0002b0 b2 7c 3e 3e 41 d8 7b 3e 8e 3d 56 be a6 cc 89 3e
       0.18602255 0.24594213 -0.20921919 0.26913947
0002c0 38 59 a8 bd b3 13 ed 3b 52 65 88 3e 66 93 22 be
       -0.08220142 0.0072350143 0.266398 -0.1587654
0002d0 f7 b5 2e be e3 80 4e 3e b0 ec 84 3e d6 21 f2 bc
       -0.17061602 0.20166354 0.25961828 -0.02955715
0002e0 b1 d6 84 be c9 75 6c bd 95 bd 70 be 66 cb 4b be
       -0.25945047 -0.057729516 -0.2350982 -0.19901809
0002f0 a3 ed 72 bb 69 65 87 3d 6e ad 88 3e cb dc 0e 3d
       -0.0037067912 0.06611139 0.26694816 0.034878533
000300 86 4d 6c 3d 1f 4a 2e 3e 09 cb cc 3d 9c 59 bb bd
       0.05769112 0.17020462 0.099996634 -0.09147951
000310 45 97 6e 3d 10 30 6f 3e f6 ed d2 3c 2e 30 aa 3d
       0.05824973 0.23358178 0.025748234 0.08309971
000320 25 88 58 be 4f 7a 3e 3e 8c 36 25 bb f2 fa 0e 3e
       -0.21145685 0.18601345 -0.0025209514 0.13962916
000330 27 cc ca bd 90 13 7a 3e a0 2c 8b 3d e4 13 c1 3d
       -0.0990222 0.24421525 0.06795621 0.09427622
000340 52 e8 f3 bd a5 99 02 3d 3c d5 73 bd 35 2f b9 bb
       -0.11909546 0.031884808 -0.059529528 -0.0056513795
000350 6f c6 83 3e ca b9 70 3e 4f 07 19 3d 13 b1 ce bd
       0.2573733 0.23508373 0.037360486 -0.10092368
000360 9a cc 03 be 41 1e 09 3e 1c f1 83 bd 5c 32 27 be
       -0.12871018 0.13390447 -0.06442472 -0.16327804
000370 cc 7b 19 3e 61 7b d9 3d ef a7 1a bd ac c7 5d 3e
       0.14988631 0.10619236 -0.03775781 0.216582
000380 77 d5 5f be 00 84 6f be 6a 7a 75 bc 74 e9 08 3e
       -0.21858774 -0.23390198 -0.014982799 0.13370305
000390 da d2 f1 3c 3e 17 6c 3e b3 de 24 3e ee cd a4 3d
       0.029519487 0.23055741 0.16100578 0.080470905
0003a0 7a 56 27 be b9 74 4d 3e 0a 56 8d 3e 1e 25 8c 3c
       -0.16341582 0.20064057 0.27604705 0.017107543
0003b0 80 cb d7 bd ca 5e ca bd 24 38 86 be 80 3b df bd
       -0.105368614 -0.09881361 -0.26214707 -0.109000206
0003c0 7c f5 85 3e 88 8e 16 be c7 2b 73 be 7b 56 81 be
       0.26163852 -0.14702809 -0.23747168 -0.25261292
0003d0 38 99 c7 bd 53 5c bd bd 66 ce 3e 3e 0e 88 46 bd
       -0.09746021 -0.09246125 0.18633422 -0.048469596
0003e0 30 dd 7b be 89 82 76 bd dd b1 89 3e ca d7 3f 3e
       -0.24596095 -0.06018308 0.2689351 0.1873466
0003f0 e1 c5 80 3e cc 2d 86 be b6 6d 54 be eb ec b8 bd
       0.2515097 -0.26206815 -0.20744976 -0.090295635
