Python/RNN/models/MODELSLAYER7.pt (torch, 441987 bytes, 10 tensors)

fc1.weight f4 [30, 100]
0	0x3ca9d688	0.02073218
1	0xbac0ad40	-0.001470007
2	0x3db2b51d	0.08725951
3	0xbc945300	-0.018105984
4	0x3db42e17	0.087978534
5	0xbd2676aa	-0.04064051
6	0x3d852e01	0.06502915
7	0x3d3a4716	0.04547795
8	0xbd22a053	-0.03970368
9	0x3afdd280	0.0019365102
10	0xbd371557	-0.044698086
11	0x3d87a3f7	0.06623071
12	0x3d86ebc9	0.06587941
13	0xbc20be58	-0.0098110065
14	0x3c9d0bf8	0.019170746
15	0xbc31b0e8	-0.0108454
16	0x3cc13868	0.023586467
17	0xbd887ab0	-0.06664026
18	0xbdba13ef	-0.09085833
19	0xbda9d290	-0.08292115
20	0x3caf3d94	0.021391667
21	0xbd8dcd08	-0.06923872
22	0x3d30ccc2	0.043164022
23	0xbd840b70	-0.06447494
24	0xbd8eb3a6	-0.06967859
25	0xbd2f9f43	-0.042876493
26	0x3daccfb9	0.084380575
27	0x3dafcfa1	0.08584524
28	0xbc9c2634	-0.019061185
29	0xbcf7e7d4	-0.030261911
30	0xbdc70665	-0.097180165
31	0xbd6bf547	-0.05760696
32	0xbcac96c0	-0.021067977
33	0x3c39b870	0.011335477
34	0x3d9ae539	0.07563252
35	0xbd3e8733	-0.046515655
36	0x3d309a92	0.04311616
37	0x3d9b0c95	0.07570759
38	0xbc915a8c	-0.017743371
39	0xbd68be6a	-0.056822218
40	0xbd540e4a	-0.05177144
41	0x3db49161	0.08816791
42	0x3da300dd	0.07959149
43	0xbda58db2	-0.08083667
44	0xbd6cda6a	-0.057825483
45	0xbbc96f30	-0.006147288
46	0x3d7f67ea	0.06235496
47	0x3da94101	0.08264352
48	0xba94b880	-0.0011346489
49	0x3db33055	0.08749453
50	0x3d737c02	0.059444435
51	0xbc29ffa8	-0.010375895
52	0xbdc5fbcf	-0.09667169
53	0x3cb338a0	0.021877587
54	0x3d03ff8a	0.032226123
55	0xbdaa510b	-0.08316239
56	0x3d380b56	0.044932686
57	0xbd80026c	-0.06250462
58	0xbdc2ec25	-0.09517697
59	0x3d27268a	0.040808238
60	0x3afcfa00	0.001930058
61	0x3da2f141	0.07956172
62	0x3d006076	0.031341992
63	0x3d1adec6	0.03781011
64	0xbd9ed54e	-0.077555284
65	0x3a70cf00	0.0009186119
66	0x39049c00	0.00012646616
67	0xbd9fcf82	-0.07803251
68	0xbc9f836c	-0.019471847
69	0xbba1d460	-0.004938647
70	0xbd57e2a0	-0.05270636
71	0x3d8e9269	0.06961519
72	0xbd9427e8	-0.07234174
73	0xbd50826d	-0.050905634
74	0xbbc5faa0	-0.0060418397
75	0x3d8a6187	0.06756883
76	0x3c784a28	0.015154399
77	0x3d31b6b2	0.043387122
78	0xbdc667eb	-0.096877895
79	0xbd52bf4d	-0.05145197
80	0xbd5e66c7	-0.054297235
81	0xbd55f930	-0.052239597
82	0x3d92e5b7	0.07172721
83	0x3d30ddc2	0.043180235
84	0x3db727f7	0.089431696
85	0x3d887291	0.06662477
86	0x3cc5ef28	0.02416189
87	0xbc8b9720	-0.017039835
88	0x3dcb6fc7	0.09933429
89	0x3d4659d2	0.048425503
90	0x3d5c461a	0.05377779
91	0x3d9d746f	0.076882236
92	0xbc029968	-0.007971145
93	0xbc6be4a8	-0.014397778
94	0xbda16683	-0.07880881
95	0x3dbd42a3	0.092412256
96	0x3d9bddaf	0.07610642
97	0xbd98f89d	-0.07469294
98	0xbd7b1ecd	-0.06130867
99	0x3ca92d80	0.020651579
100	0xbdf8e980	-0.121539116
101	0xbc9a541b	-0.018838933
102	0xbd91babe	-0.07115696
103	0xbc4a67a4	-0.012353811
104	0xbd0e2fa9	-0.03471342
105	0xbd80e04d	-0.06292782
106	0x3d99dc4c	0.075127214
107	0xbd705a96	-0.05868014
108	0x3d833d77	0.06408208
109	0x3c8f22d0	0.017472655
110	0xbc169d1f	-0.009192734
111	0x3a6d33ab	0.00090485316
112	0x3bc6869a	0.006058526
113	0x3d58f948	0.052972108
114	0xbdb7f416	-0.089821026
115	0xbdfa149b	-0.122109614
116	0x3d3577ee	0.044303827
117	0xbd5172a8	-0.051134735
118	0xbdee71a1	-0.11642767
119	0x3d8578a4	0.06517151
120	0xbd0f75dc	-0.03502451
121	0x3c04c9fb	0.0081047965
122	0xbc39f07d	-0.011348841
123	0xbdf2cf0d	-0.11855898
124	0x3d34a56d	0.044103075
125	0x3d8bf029	0.06832916
126	0xbc74d7ee	-0.01494406
127	0xbe02a910	-0.12759805
128	0xbc23a9df	-0.009989231
129	0xbc9de11f	-0.019272385
130	0x3d31d707	0.043417957
131	0x3d493bdc	0.049129352
132	0x3da5a312	0.08087744
133	0x3a94f23a	0.0011363693
134	0xbd1877c9	-0.03722361
135	0x3cce6ee9	0.02519937
136	0xbddfaec4	-0.10922006
137	0xbc64bc34	-0.013960887
138	0x3d7a42ca	0.06109885
139	0xbdb0ed36	-0.086389944
140	0xbddc4167	-0.10754662
141	0x3c517bc6	0.012785858
142	0xbdb7967f	-0.08964252
143	0xbda8de72	-0.08245553
144	0xbd8ff3c2	-0.07028915
145	0xbcfd066a	-0.030886848
146	0xbdaac41a	-0.08338185
147	0x3c8cbc53	0.017179644
148	0xbd3ccf79	-0.0460963
149	0x3d18125a	0.037126876
150	0xbdaa1f5c	-0.083067626
151	0xbc28dd19	-0.01030662
152	0x3d13136e	0.0359072
153	0xbd8db164	-0.069186
154	0xbd6aeb13	-0.05735309
155	0xbbb352f4	-0.0054725353
156	0xbd8c7d77	-0.06859868
157	0xbcd264b6	-0.025682788
158	0xbd9b8e2b	-0.07595476
159	0xbda7b12a	-0.08188088
160	0xbd65e88b	-0.056129973
161	0xbd06c313	-0.03290088
162	0xbda29b30	-0.07939756
163	0x3c8d4442	0.017244462
164	0xbcae8c4e	-0.021307137
165	0xbd9d768f	-0.07688629
166	0xbdb7fb3b	-0.08983465
167	0xbcea961a	-0.028636027
168	0xbd886e58	-0.066616714
169	0x3d5753d7	0.05257019
170	0xbbb54ecf	-0.0055330764
171	0x3d20e5fb	0.039281826
172	0xbc5a4236	-0.01332145
173	0xbde64662	-0.11243893
174	0xbde3d3bb	-0.11124369
175	0x3d09f2cb	0.03367881
176	0x3d838a6f	0.064228885
177	0x3d117f4a	0.035521783
178	0xbe0300db	-0.12793295
179	0xbde30813	-0.110855244
180	0x3c5daf0b	0.013530503
181	0xbdc23661	-0.09483028
182	0xbd9926cf	-0.07478105
183	0xbd15f19c	-0.03660737
184	0xbdf6c6c3	-0.120496295
185	0xbda0ce7e	-0.07851885
186	0x3ca0b59c	0.019617848
187	0xbde0c489	-0.10974986
188	0x3d266796	0.04062613
189	0xbc7737f2	-0.015089022
190	0xbc42c998	-0.011888884
191	0x3cbb2b9a	0.02284794
192	0xbdcfddf9	-0.1014976
193	0xbe005c53	-0.12535219
194	0x3d8bfc70	0.06835258
195	0x3dbe62fc	0.092962235
196	0xbdce0c85	-0.10060982
197	0xbda2a9f3	-0.079425715
198	0xbcfb624c	-0.03068652
199	0x3d0e2ac3	0.03470875
200	0xbd6b1613	-0.0573941
201	0xbcf4ad1a	-0.029867698
202	0x3c95cb81	0.018285515
203	0x3d368ca8	0.044567734
204	0xbd56eeb8	-0.052473754
205	0xbda12c39	-0.07869763
206	0x3d40f495	0.04710825
207	0x3dcd7e50	0.10033858
208	0xbd9ff736	-0.078108236
209	0x3dd7d60d	0.10538874
210	0x3c7373ce	0.014859153
211	0x3cdc3437	0.026880367
212	0x3b725bb4	0.003698093
213	0xbd510edc	-0.05103956
214	0xbd8ddeb6	-0.06927244
215	0x3d32ff7e	0.043700688
216	0xbd8a9330	-0.06766355
217	0x3c16b90a	0.00919939
218	0x3cd2ff0e	0.025756385
219	0x3d2238f4	0.039605096
220	0xbc8fcfbc	-0.01755511
221	0xbd41f41f	-0.047351953
222	0x3d01bf49	0.031676564
223	0xbd32a7ca	-0.043617047
224	0x3de4f5c2	0.11179687
225	0xbdb610fa	-0.08889957
226	0xbc10a57a	-0.008828515
227	0x3dc62021	0.09674097
228	0x3d398bbc	0.045299277
229	0xbc0986f5	-0.008393993
230	0x3d30b647	0.043142583
231	0x3ddbe268	0.10736543
232	0xbda86c10	-0.08223736
233	0xbd8d63e0	-0.06903815
234	0x3d1477ba	0.036246993
235	0xbd86b200	-0.065769196
236	0x3def4e6e	0.11684881
237	0x3d7b0add	0.061289657
238	0xbda987a6	-0.08277826
239	0x3d497589	0.049184356
240	0xbd5ae8cc	-0.05344467
241	0x3d70a8b9	0.058754656
242	0x3d16ee54	0.03684838
243	0x3daebcbd	0.08532093
244	0xbd0554b3	-0.03255148
245	0xbd9e1b13	-0.07720008
246	0x3cf5f5d5	0.030024448
247	0xbd49da15	-0.049280245
248	0x3d01f1da	0.03172479
249	0xbc8beb61	-0.01708001
250	0x3d9a3920	0.07530427
251	0xbd3c7a90	-0.046015322
252	0x3d2d91e6	0.042375468
253	0x3d907b18	0.07054728
254	0x3cb318fc	0.0218625
255	0x3d9d3273	0.07675638

fc1.bias f4 [30]
0	0xbd15961a	-0.0365201
1	0xbb61b6b9	-0.0034441187
2	0x3d5decfe	0.05418109
3	0xbdb18af7	-0.086690836
4	0xbdb4d52b	-0.08829721
5	0x3e2fdfb8	0.17175186
6	0x3de13c9f	0.10997891
7	0xbca1f0f4	-0.019768216
8	0xbd444bed	-0.04792397
9	0xbd7cef57	-0.06175169
10	0xbdc9e4f2	-0.09858121
11	0x3e01d26c	0.12677926
12	0xbc96b0b8	-0.018394813
13	0xbd89857e	-0.06714915
14	0xbd888008	-0.06665045
15	0xbcd212d8	-0.025643751
16	0x3d0f1ebb	0.034941416
17	0xbd6f2ac0	-0.05839038
18	0xbc18e800	-0.009332657
19	0xbdb95972	-0.090502635
20	0x3e222ee0	0.15838194
21	0xbc3eb818	-0.011640571
22	0xbdad5a3a	-0.08464475
23	0xbd689a73	-0.05678792
24	0x3d744049	0.05963162
25	0xbceb0448	-0.028688565
26	0x3d38be81	0.045103554
27	0xbc1b8139	-0.009491258
28	0xbd609cc3	-0.054837
29	0xbd186fbc	-0.037215933

attention.weight f4 [30, 1000]
0	0x3b8b4f50	0.004251398
1	0x3c202df4	0.009776581
2	0x3bc1e110	0.005916722
3	0x3b0e9530	0.0021756403
4	0x34ea0000	4.3585896e-07
5	0xbba88f3c	-0.005144028
6	0x3c7a0060	0.0152588785
7	0x3c2ee3a4	0.010674391
8	0x3cd7445c	0.026277713
9	0x3aca9d20	0.0015458204
10	0x3c756acc	0.014979076
11	0xbc4aaef8	-0.012370817
12	0xbc8418c2	-0.016125087
13	0x3c4e72f8	0.012600653
14	0x3c8e67bc	0.017383449
15	0xbbae4f28	-0.0053194948
16	0x3cb5f162	0.022209827
17	0x3c6f2630	0.014596507
18	0x3c8951a2	0.016762558
19	0x3ca4a192	0.020096574
20	0x3cd608ba	0.026127208
21	0x3cf0dda6	0.029402565
22	0x3b5ceac0	0.0033709258
23	0x3b8fa7b8	0.0043840073
24	0x3bfbe928	0.0076877065
25	0xbcba942c	-0.022775732
26	0x3b20cfd0	0.0024537928
27	0xbce31f33	-0.027724838
28	0xbbc594b0	-0.006029688
29	0xbadf54f0	-0.0017038863
30	0xbc777e44	-0.015105788
31	0xbc1a2e28	-0.009410419
32	0xbc63c99e	-0.01390305
33	0xbc4b7874	-0.012418855
34	0xbce776bb	-0.028254857
35	0x3c496e8c	0.012294423
36	0x3cbb9342	0.022897366
37	0x3cc97826	0.024593424
38	0xbced23b2	-0.028947685
39	0x3aef4ba0	0.0018256791
40	0xbc880292	-0.016602788
41	0xbbf59968	-0.007495094
42	0xbcf9795b	-0.030453375
43	0xbc9d6057	-0.019210977
44	0x3cd5079e	0.026004609
45	0x3c465c64	0.012106989
46	0xbca4708a	-0.020073194
47	0x3ca86224	0.02055461
48	0xbcd2317f	-0.025658367
49	0xbcc0963f	-0.023509143
50	0x3cfd2440	0.030901074
51	0xbcf68e8c	-0.030097269
52	0x3c87bd7e	0.01656985
53	0x3c62a508	0.013833292
54	0x3cba59fe	0.02274799
55	0x3ccd10fa	0.02503251
56	0x3cba84ce	0.022768404
57	0xbc98d472	-0.01865599
58	0x3bd0f2c8	0.006376598
59	0x3c6203f4	0.013794888
60	0xbc7c8e40	-0.015414774
61	0xbcc79082	-0.024360899
62	0x3cb613d2	0.022226248
63	0x3c2644a8	0.010148205
64	0x3ad76f60	0.001643639
65	0x3c857a90	0.016293794
66	0xbcb045b7	-0.021517618
67	0x3ce1eaa6	0.02757771
68	0xbcd501db	-0.026001861
69	0xbbc9c25c	-0.0061572026
70	0xbc5c305a	-0.013439262
71	0x3c82b764	0.015956588
72	0xbcef0040	-0.029174924
73	0x3cd41c18	0.025892302
74	0xbccb1348	-0.024789467
75	0x3c96051e	0.018312987
76	0x3a879c00	0.0010346174
77	0xbca9bfca	-0.020721335
78	0xbcf4fc23	-0.029905384
79	0x3c994758	0.018710777
80	0x3ce5d4ae	0.028055515
81	0x3c1ff2fc	0.009762522
82	0x3cc1cd8a	0.023657579
83	0xbb2f3918	-0.0026736911
84	0xbc0cd2de	-0.0085951965
85	0xbab42730	-0.0013744589
86	0x3c091e0c	0.00836898
87	0xbc8ae3ab	-0.016954264
88	0x3c5f4dd8	0.013629399
89	0xbcb8f25c	-0.022576503
90	0xbc13342e	-0.008984609
91	0x3c78f8c0	0.015196025
92	0x3c7e4924	0.015520368
93	0xbb857134	-0.0040723328
94	0xbbfd5518	-0.007731091
95	0xbc9c7e28	-0.019103125
96	0xbca676c0	-0.020320296
97	0x3cdb7b5a	0.026792217
98	0xbcdd6184	-0.027024038
99	0x3c8aae6e	0.016928878
100	0xbd113117	-0.035447206
101	0xbbe7c50c	-0.0070730504
102	0xbc82ce38	-0.015967473
103	0xbd0dc2bf	-0.034609552
104	0x3d289043	0.041153204
105	0xbd6d943a	-0.058002688
106	0x3bc4bdde	0.0060040792
107	0x3cfe75eb	0.031062087
108	0x3d2516dd	0.040305007
109	0x3c64f9b6	0.013975551
110	0xbb532d11	-0.0032222907
111	0xbd07edc5	-0.03318574
112	0xbc34da9d	-0.01103845
113	0xbd013f5c	-0.031554565
114	0xbd63a96c	-0.055581495
115	0x3c42e065	0.01189432
116	0x3bc9e90e	0.0061618155
117	0x3b383492	0.0028107506
118	0x3c087236	0.008328011
119	0xbd1b08f9	-0.037850354
120	0x3ab6e3bc	0.0013953368
121	0x3d62f0cf	0.055405434
122	0x3c9761b0	0.018479198
123	0xbcbd4dbe	-0.02310836
124	0x3c8bc254	0.017060436
125	0x3d4ad2af	0.04951733
126	0xbb8f138e	-0.004366345
127	0x3d4c86be	0.049933188
128	0x3bd29d64	0.006427454
129	0x3c18b11e	0.009319572
130	0x3d1a009b	0.037598234
131	0xbc5fbc7a	-0.013655776
132	0xbd10b53c	-0.03532909
133	0xbd4a6562	-0.049413092
134	0x3c87934b	0.016549727
135	0x3c13b07e	0.009014247
136	0x3d4203ef	0.047367033
137	0x3be306ec	0.0069283154
138	0x3c464637	0.012101701
139	0x3d16d390	0.036822855
140	0x3c6a9075	0.014316668
141	0xbb439a6a	-0.0029846677
142	0xbd5a455d	-0.053288806
143	0xbc823d3d	-0.015898341
144	0xbc292bed	-0.010325414
145	0x3c664066	0.01405344
146	0x3bec641a	0.0072140815
147	0x3c8447aa	0.016147453
148	0xbca8603c	-0.0205537
149	0xbc047cf3	-0.008086431
150	0x3bbf98df	0.005847081
151	0x3d197dcf	0.037473496
152	0x3d2200bc	0.03955148
153	0xbc80cac3	-0.015721684
154	0x3d32153d	0.043477286
155	0x3cf39172	0.02973244
156	0x3c28e508	0.010308512
157	0xbc870e4a	-0.016486306
158	0xbb3bfdaa	-0.002868513
159	0x3d6bbd9a	0.057553865
160	0x3d0bbdd4	0.03411658
161	0xbd3a07d5	-0.045417625
162	0x3c596215	0.0132680135
163	0x3c3b3f07	0.011428601
164	0xbd0ac8f5	-0.033883054
165	0x3d4ac038	0.04949972
166	0xbcc1acc0	-0.023641944
167	0x3cea2dee	0.028586354
168	0xbd451c98	-0.048122972
169	0xbc0fa612	-0.008767622
170	0xbc88747b	-0.016657105
171	0x3c4e32ee	0.012585385
172	0x3b1963f2	0.002340552
173	0xbd16f877	-0.03685805
174	0xba0848cc	-0.0005198836
175	0xbc24a257	-0.01004847
176	0xbc87e1a5	-0.016587088
177	0xbc8ecb22	-0.017430846
178	0xbd3252e0	-0.043536067
179	0xbd486b0a	-0.048930205
180	0x3bce1519	0.006289136
181	0xbc9a5e3d	-0.018843764
182	0xbcb3f295	-0.021966258
183	0x3d18d3d7	0.0373114
184	0xbc8d8a12	-0.017277751
185	0xbd1338ee	-0.035942964
186	0x3d39eb98	0.045390695
187	0xbb5a3613	-0.003329639
188	0x3be826a7	0.007084686
189	0xbc28ed8b	-0.010310541
190	0xbd67de7d	-0.056608666
191	0xbcaec3e4	-0.021333642
192	0xbce83e22	-0.02834994
193	0xbd15498d	-0.036447097
194	0xbc50e8a1	-0.012750776
195	0xbc1312e0	-0.008976668
196	0xbcc3f55d	-0.02392071
197	0xbb265b5e	-0.002538405
198	0x3c437930	0.011930749
199	0x3d097046	0.033554338
200	0xbba4a537	-0.005024578
201	0x3c19b3c0	0.009381235
202	0xbc48c829	-0.012254753
203	0x3c847a71	0.016171666
204	0x3cf529d5	0.029927174
205	0xbce1abd8	-0.027547762
206	0x3c12bf95	0.0089568095
207	0x3c98f080	0.018669367
208	0x3d202a7a	0.03910301
209	0x3cc4a57c	0.02400469
210	0x3cb942c6	0.022614848
211	0xbb82bf77	-0.0039901095
212	0xbcff3220	-0.031151831
213	0x3c1f3bf4	0.009718884
214	0xbc746f79	-0.014919155
215	0x3ce6c793	0.028171336
216	0xbb06bd37	-0.0020559558
217	0x3cecac72	0.028890822
218	0x3d12f218	0.03587541
219	0xbcf94a06	-0.030430805
220	0x3ccd06d2	0.025027666
221	0x3cbf334e	0.023339894
222	0xbb86f4ba	-0.004118529
223	0xbd151e79	-0.036406014
224	0xbcb09130	-0.021553606
225	0xbc5d3337	-0.01350098
226	0xbc4bf5d5	-0.012448748
227	0xbb8aa3f8	-0.0042309724
228	0xbc9a980d	-0.018871332
229	0xba806cf1	-0.0009798092
230	0x3ca45088	0.020057932
231	0xbd2dd835	-0.04244252
232	0xbcdc7ff0	-0.026916474
233	0xbc709c3b	-0.014685686
234	0x3cc0a7b6	0.02351747
235	0xbb5f06e1	-0.00340312
236	0x3ceba055	0.028762976
237	0xbb7251e2	-0.0036975075
238	0x3cc7aaf5	0.02437351
239	0x3a5cca2c	0.000842246
240	0x3c7900d7	0.015197954
241	0x3bd9eb82	0.006650389
242	0xbd54651c	-0.051854238
243	0x3c463e19	0.012099766
244	0x3d2f0312	0.042727537
245	0xbb957c3e	-0.00456193
246	0x3ad1f31f	0.001601789
247	0x3c364f1e	0.011127261
248	0xb82a763d	-4.0641276e-05
249	0xbbe15eef	-0.006877772
250	0xbc908d0e	-0.017645385
251	0x3c011da6	0.007880604
252	0x3c487392	0.012234585
253	0xbcac806a	-0.021057326
254	0x3d39a4d0	0.045323193
255	0xbc657462	-0.014004799

attention.bias f4 [30]
0	0x3d75dd39	0.060025427
1	0x3d8179fa	0.06322093
2	0xbc95767c	-0.018244974
3	0x3d999089	0.07498271
4	0x3cbc8efb	0.023017397
5	0x3d934f1e	0.07192825
6	0x3d9aceb6	0.07558958
7	0xbae1bbe4	-0.0017222133
8	0x3db6c570	0.08924377
9	0x3d92d955	0.07170359
10	0xbc83ee18	-0.016104743
11	0xbc9d430a	-0.019197006
12	0xbce41329	-0.027841168
13	0x3d8404a1	0.064461954
14	0xbbd68146	-0.0065461723
15	0xbc9da194	-0.019242086
16	0x3cf75b3e	0.030194875
17	0xbbea192a	-0.007144113
18	0x3d6b71a5	0.057481427
19	0x3ce4bb24	0.027921267
20	0xbcccb3a2	-0.024988
21	0xba88bdf5	-0.0010432588
22	0x3d82456c	0.063608974
23	0xbca7ce2c	-0.020484053
24	0x3d2b9fee	0.041900568
25	0x3c04d8bc	0.008108314
26	0xbc7122f2	-0.014717804
27	0xba6b8356	-0.0008984109
28	0x3cf636c8	0.030055419
29	0xbb9060cc	-0.0044060703

attention2.weight f4 [15, 30]
0	0x3d090064	0.03344764
1	0x3cad8470	0.021181315
2	0xbd6e440c	-0.058170363
3	0x3d42453c	0.04742931
4	0x3d5d09a0	0.053964257
5	0x3d5843d0	0.052799046
6	0xbd124188	-0.035707027
7	0x3d6ec858	0.05829653
8	0x3de92f68	0.11385995
9	0xbdba1377	-0.09085744
10	0x3c7ee980	0.0155586
11	0xbe2d20a3	-0.16906981
12	0x3d0be5b0	0.034154594
13	0xbe16db74	-0.14732152
14	0x3d35fec8	0.04443243
15	0xbdc38003	-0.09545901
16	0x3e0baf2c	0.13641042
17	0x3d99bebc	0.07507083
18	0x3e31da56	0.17368445
19	0x3d3cedf0	0.046125352
20	0x3de1b8d0	0.11021578
21	0x3e133dea	0.14379087
22	0x3df57fcc	0.11987266
23	0xbdb70034	-0.089355856
24	0xbe0cae15	-0.13738282
25	0x3e0eac64	0.1393295
26	0xbe2df94d	-0.16989632
27	0xbd7502d0	-0.059817135
28	0x3e2d24b2	0.1690853
29	0x3da13bcc	0.078727335
30	0x3c73415e	0.014847128
31	0x3dae699d	0.08516238
32	0x3e0097d4	0.12557918
33	0xbd93fd74	-0.07226077
34	0x3d9a2df8	0.07528299
35	0xbdb696cb	-0.0891548
36	0xbddfd8c9	-0.1093002
37	0x3c061e81	0.008185984
38	0xbd5f10da	-0.05445943
39	0x3e3fb979	0.18723096
40	0xbd8e73b6	-0.06955664
41	0x3dfd9c4c	0.12383327
42	0x3d2bbf1c	0.041930303
43	0xbc5d2602	-0.013497831
44	0x3ddfa499	0.109200664
45	0x3d6c9a60	0.05776441
46	0x3d284227	0.041078713
47	0xbda46e17	-0.080288105
48	0x3e47e241	0.19519903
49	0xbbdb471f	-0.006691828
50	0x3d965a48	0.073414385
51	0xbdad661d	-0.08466742
52	0xbe10b5ca	-0.14131847
53	0xbc4f5670	-0.012654886
54	0x3e1459dd	0.14487405
55	0x3e0f0a6e	0.13968822
56	0x3d327314	0.04356678
57	0x3d82857e	0.06373118
58	0xbd267217	-0.04063615
59	0xbcc78ea1	-0.024360003
60	0xbdd7dd9d	-0.10540316
61	0x3b9bb20a	0.0047514485
62	0x3e3a6bc0	0.18205166
63	0x3e028b67	0.1274849
64	0x3d0b96e4	0.034079447
65	0xbd9273ed	-0.07151017
66	0x3c1ecb82	0.009692075
67	0xbe2b0a36	-0.16703114
68	0x3d4e7ed4	0.05041392
69	0x3e61cad2	0.22050026
70	0x3d3ecea8	0.0465838
71	0x3beb2260	0.0071757287
72	0xbd82e9cc	-0.063922495
73	0xbdae9e6b	-0.085263096
74	0x3d7086ab	0.05872218
75	0x3d954370	0.07288253
76	0xbce299b5	-0.027661184
77	0x3e34df7a	0.17663375
78	0x3d0e71a9	0.034776364
79	0xbded7d03	-0.1159611
80	0x3e3573c2	0.1771994
81	0xbdf9756b	-0.12180599
82	0xbda8c4a0	-0.08240628
83	0x3d827c1a	0.06371327
84	0xbd85552d	-0.065103866
85	0x3e2588a8	0.16165411
86	0xbda636d2	-0.08115925
87	0xbd825d0c	-0.063654035
88	0x3e3013d5	0.17195065
89	0x3c9a3981	0.018826248
90	0x3df48b04	0.119405776
91	0x3e84df64	0.25951684
92	0xbd997ca8	-0.074944794
93	0x3e308227	0.17237149
94	0xbe07572f	-0.13216852
95	0x3d39a720	0.0453254
96	0x3e560a8b	0.2090246
97	0xbd8f0cbf	-0.06984853
98	0x3e5e02b4	0.21680719
99	0xbd0a77d7	-0.033805694
100	0x3da317fc	0.07963559
101	0x3df14038	0.11779827
102	0xbd1ff45c	-0.0390514
103	0x3e8653f0	0.26235914
104	0xbe0c9b21	-0.13731052
105	0x3da67fa4	0.08129814
106	0x3e220a05	0.15824135
107	0xbd11a933	-0.03556175
108	0x3d373154	0.044724777
109	0x3df76e1d	0.12081549
110	0xbe0fc84f	-0.14041255
111	0xbdc98c62	-0.09841229
112	0x3e58a244	0.2115565
113	0x3c87e3f8	0.016588196
114	0x3d02bf3f	0.031920668
115	0xbe0412e2	-0.12897828
116	0x3ca8f708	0.020625606
117	0x3dca4b7e	0.0987768
118	0xbdd6fec6	-0.10497813
119	0x3e2b8620	0.16750383
120	0xbe38d876	-0.18051323
121	0xbc04c1f0	-0.008102879
122	0x3e32e0e8	0.17468607
123	0xbd7daff6	-0.061935388
124	0xbd4bcdb4	-0.04975672
125	0xbd879c6a	-0.066216305
126	0x3e0c9dbc	0.13732046
127	0xbd00b4e4	-0.03142251
128	0x3e257fd2	0.16162041
129	0xbe0e78bc	-0.13913244
130	0xbd84a9bb	-0.06477686
131	0xbe0b1061	-0.13580467
132	0x3e35ac30	0.17741466
133	0x3e03c6b2	0.12868765
134	0x3dbd851c	0.09253904
135	0x3dd12584	0.10212234
136	0x3d81fdc0	0.06347227
137	0x3cb40a68	0.021977618
138	0x3db70b94	0.08937755
139	0xbe252e1a	-0.16130868
140	0xbd477400	-0.04869461
141	0xbd5a54fc	-0.053303704
142	0xbbed6fe0	-0.0072460026
143	0xbdc69bb4	-0.09697667
144	0xbe073c06	-0.13206491
145	0x3dd5f400	0.1044693
146	0xbe128f88	-0.14312565
147	0xbe111b22	-0.14170507
148	0x3e256822	0.16153005
149	0x3d0e0f2c	0.034682438
150	0x3e219450	0.15779233
151	0xbd4350e2	-0.047684558
152	0xbd242624	-0.040075436
153	0x3d9ee7b4	0.077590376
154	0x3dea1dc0	0.114314556
155	0x3df0f3b5	0.117652334
156	0xbbeaf66e	-0.00717049
157	0xbcd88ad0	-0.026433378
158	0x3e3a77cb	0.1820976
159	0xbd5991ff	-0.05311775
160	0x3dd521dc	0.10406849
161	0x3dddc734	0.108290106
162	0xbdbb7d6e	-0.09154783
163	0x3dc15a5f	0.09441065
164	0xbc12343f	-0.008923589
165	0xbe15c9e2	-0.14627793
166	0xbc62bba2	-0.01383868
167	0x3d915713	0.07096686
168	0x3e2c8ea2	0.16851285
169	0xbd385272	-0.0450005
170	0xbe1cd326	-0.15314922
171	0xbdb5fedd	-0.08886502
172	0xbccfc6ac	-0.025363289
173	0xbe095bc4	-0.13413912
174	0x3d8ab3e6	0.06772594
175	0x3e0556a6	0.13021335
176	0xbe09c031	-0.13452221
177	0x3e136e5d	0.14397569
178	0x3e23fea1	0.16015102
179	0xbddc1103	-0.10745432
180	0xbd5827b4	-0.05277224
181	0x3e412d8f	0.18865035
182	0x3d5c3ebc	0.053770766
183	0x3dfa6b78	0.12227529
184	0x3e26eadd	0.1630053
185	0x3e3dcf42	0.18536094
186	0xbe04dac1	-0.12974073
187	0x3e0df428	0.1386267
188	0x3d0e6f34	0.03477402
189	0x3e07db8f	0.13267349
190	0xbdb7c77f	-0.08973598
191	0xbbfee4e0	-0.007778749
192	0xbba45a40	-0.0050156415
193	0xbcf7542e	-0.030191507
194	0xba05418b	-0.0005083314
195	0xbe13f432	-0.14448622
196	0xbda05e09	-0.07830436
197	0xbdb3c64a	-0.08778055
198	0x3e11e2e9	0.14246716
199	0x3d1bf3db	0.038074356
200	0xbd9dca29	-0.077045746
201	0xbdb82676	-0.08991711
202	0x3c8a4dea	0.016882855
203	0xbe1924f4	-0.14955503
204	0x3dc4e52b	0.09614023
205	0x3e23847e	0.1596851
206	0xbd003218	-0.031297773
207	0xbcce4951	-0.025181444
208	0xbde714a8	-0.11283237
209	0x3d5dbc70	0.054134786
210	0x3d38ae98	0.04508838
211	0x3d2cb594	0.042165354
212	0xbe0b03af	-0.13575624
213	0xbe1cb60c	-0.1530382
214	0x3da98248	0.08276802
215	0x3d8df39c	0.069312304
216	0xbcc71070	-0.02429983
217	0x3d557bf0	0.05212015
218	0x3cde8218	0.027161643
219	0x3dfb77c4	0.12278703
220	0xbd034b6c	-0.03205435
221	0x3d844138	0.06457752
222	0xbd81a49c	-0.06330225
223	0x3bf18b60	0.007371351
224	0xbd9ff683	-0.0781069
225	0x3e155bba	0.14585772
226	0xbd301f38	-0.042998523
227	0x3bba4480	0.0056844354
228	0x3e2992a2	0.16559842
229	0xbe1240b0	-0.14282489
230	0x3dccc50c	0.09998521
231	0x3dfcb974	0.1234006
232	0xbde5dd24	-0.1122382
233	0x3dc5a484	0.096505195
234	0x3d9a0fa0	0.075225115
235	0x3da43574	0.08018008
236	0x3d05d6fc	0.03267573
237	0x3e0184f0	0.12648368
238	0xbd8bf591	-0.068339474
239	0x3d945dd4	0.07244459
240	0x3dc61c4c	0.09673366
241	0xbe346ff7	-0.17620836
242	0xbddf07cc	-0.10890159
243	0xbe278208	-0.16358197
244	0xbdff121a	-0.124546245
245	0x3e28cc6a	0.16484228
246	0x3df9a5b8	0.121898115
247	0xbe0ffa7c	-0.14060396
248	0xbdb0cb8f	-0.08632576
249	0xbc0be8f0	-0.008539423
250	0xbe25dbf9	-0.16197194
251	0xbe29205b	-0.16516249
252	0x3db277bc	0.08714244
253	0x39a97600	0.0003232211
254	0x3dfb901c	0.12283346
255	0x3cae2558	0.021258041

attention2.bias f4 [15]
0	0xbd928c04	-0.07155612
1	0x3e557697	0.2084602
2	0x3e3d3750	0.18478131
3	0x3dba7f80	0.0910635
4	0xbde2b2f5	-0.110692896
5	0x3e117d7f	0.14208029
6	0x3d87f8e5	0.0663927
7	0xbd88e16e	-0.06683622
8	0xbccecf08	-0.025245205
9	0xbdbc084d	-0.09181271
10	0x3e20581f	0.15658616
11	0xbdb9239b	-0.09039994
12	0xbe308e48	-0.17241776
13	0xbe2c811d	-0.16846128
14	0xbe06ecbc	-0.13176244

fc2.weight f4 [15, 30]
0	0x3e2afde2	0.16698411
1	0x3c6ca36b	0.014443259
2	0x3e094228	0.13404143
3	0x3d0a3940	0.033746004
4	0x3e48ea9b	0.19620745
5	0x3df624d5	0.12018744
6	0x3c065289	0.008198389
7	0xbd982881	-0.074296005
8	0x3dafb960	0.08580279
9	0x3e367a8a	0.17820182
10	0xbe12c5c2	-0.14333251
11	0x3e637301	0.2221184
12	0xbe38153d	-0.17976852
13	0x3da316cc	0.079633325
14	0x3e0a1c64	0.13487393
15	0x3e18d050	0.14923215
16	0x3e42ae0a	0.19011703
17	0xbe17fd0a	-0.1484262
18	0x3bd1d11e	0.0064031025
19	0x3e2d1d31	0.16905667
20	0x3d36863d	0.044561613
21	0x3e037ad1	0.1283982
22	0x3d9925db	0.074779235
23	0xbd0fdd34	-0.035123065
24	0xbc200025	-0.009765659
25	0xbc37d7cf	-0.011220886
26	0x3d1834eb	0.03715984
27	0x3cef0178	0.029175505
28	0x3be8b1e2	0.0071012834
29	0xbdb1b0e2	-0.08676316
30	0x3c0dd6d0	0.008657172
31	0x3d4dac90	0.050213397
32	0xbd96e018	-0.07366961
33	0xbe0ca8d4	-0.13736278
34	0x3df54438	0.11975902
35	0xbe20f913	-0.15720014
36	0x3dd04ae8	0.10170537
37	0xbe273111	-0.16327311
38	0x3d877c2e	0.06615482
39	0xbde3bc98	-0.11119956
40	0x3e03a2c4	0.12855059
41	0xbe0bc489	-0.13649191
42	0x3e32dd5c	0.17467254
43	0xbe1df510	-0.15425515
44	0x3d76e6fc	0.060278878
45	0xbddf084c	-0.108902544
46	0x3e1cff26	0.15331706
47	0x3c965190	0.018349439
48	0xbe0d6b98	-0.13810575
49	0xbd8232fe	-0.06357382
50	0xbd7e5eb6	-0.062102042
51	0x3d09e508	0.033665687
52	0xbd2eb6d0	-0.042654812
53	0xbe32196c	-0.1739251
54	0xbd55d818	-0.052208036
55	0xbdf524ee	-0.119699344
56	0xbe0f0215	-0.13965638
57	0x3dcf72b0	0.10129297
58	0x3dd36084	0.10321143
59	0x3a087100	0.00052048266
60	0xbe204c84	-0.15654188
61	0xbe259ed9	-0.16173877
62	0x3d950270	0.072758555
63	0x3caeebf0	0.021352738
64	0x3e173042	0.14764503
65	0x3dcce930	0.100054145
66	0xbdb70d9d	-0.089381434
67	0x3ca7fbc0	0.020505786
68	0x3d754a68	0.059885412
69	0xbdca79dc	-0.09886524
70	0x3e104906	0.14090356
71	0x3e3829b2	0.17984655
72	0xbdeb5fe8	-0.11492902
73	0xbdd646b0	-0.10462701
74	0xbd8ed604	-0.06974414
75	0xbdfe5e4d	-0.1242033
76	0x3c889b00	0.016675472
77	0xbd87874a	-0.06617601
78	0x3e1b65aa	0.151755
79	0x3d741138	0.059586734
80	0xbd190560	-0.03735864
81	0xbd4e5764	-0.05037631
82	0xbb929ae0	-0.004474029
83	0xbe2273e4	-0.15864521
84	0xbd86bf85	-0.06579498
85	0x3dde71c0	0.1086154
86	0xbdaf50af	-0.08560311
87	0x3c4a86c0	0.0123612285
88	0x3d86ca90	0.065816045
89	0xbe02a871	-0.12759568
90	0xbe0aaca9	-0.13542427
91	0xbc08db28	-0.008353032
92	0x3d288814	0.0411454
93	0xbda712f5	-0.08157913
94	0x3b5593fa	0.0032589422
95	0xbe1abbbc	-0.15110677
96	0xbdc77bd4	-0.09740415
97	0x3e21ec11	0.15812708
98	0x3ddd6822	0.108108774
99	0xbdb9afa9	-0.09066708
100	0xbd80bf8f	-0.06286537
101	0x3c3f76e8	0.011686064
102	0xbdb2c0ff	-0.08728217
103	0x3dafeda1	0.08590246
104	0x3d6c1a0c	0.057642028
105	0x3dba4a30	0.090961814
106	0x3dc32c60	0.09529948
107	0x3e2ae813	0.16690092
108	0x3d6ed8b8	0.058312148
109	0x3dda434d	0.10657368
110	0xbd76d293	-0.060259413
111	0x3c1cc2c6	0.009567922
112	0x3d280fe5	0.041030783
113	0xbd789e22	-0.060697682
114	0xbda9b398	-0.08286208
115	0xbe2a6eae	-0.16643783
116	0xbae6d490	-0.0017610956
117	0x3d20a1a4	0.039216653
118	0x3e0d06b0	0.13772082
119	0x3e01cd6f	0.12676023
120	0xbd6a3093	-0.05717523
121	0x3d90336d	0.07041059
122	0xbd9bcb0d	-0.07607088
123	0x3e5b738f	0.21430801
124	0x3e3990f7	0.18121706
125	0x3e1738dc	0.14767784
126	0x3e45794a	0.1928455
127	0x3d1a4945	0.03766753
128	0x3e49c39b	0.19703524
129	0xbd8879c2	-0.066638485
130	0x3e2d7e2e	0.16942665
131	0xbd9f8aae	-0.07790123
132	0x3e298ef2	0.16558436
133	0xbd0697ce	-0.032859616
134	0xbe00cea5	-0.12578829
135	0xbcae75a8	-0.021296337
136	0xbd90efd3	-0.07076993
137	0x3e1624c5	0.14662464
138	0x3df1fe29	0.11816055
139	0x3e369cb0	0.17833209
140	0x3e1f1d43	0.15538506
141	0xbdfd7b9d	-0.12377093
142	0x3da0f184	0.078585654
143	0xbda1c929	-0.078996964
144	0xbc617bb5	-0.013762404
145	0xbdcfeabe	-0.101521954
146	0x3e49d75d	0.19711061
147	0xbc690731	-0.014222906
148	0xbd17cacd	-0.03705864
149	0x3cc16a77	0.023610337
150	0x3d9c3a10	0.07628262
151	0x3e09947e	0.13435552
152	0x3c740290	0.014893189
153	0x3e17648e	0.14784452
154	0x3b378e80	0.002800852
155	0x3e339d12	0.17540386
156	0xbdbd3979	-0.09239478
157	0xbbcb0420	-0.00619556
158	0x3cfc3948	0.030789033
159	0x3d6a1bec	0.057155535
160	0xbd8eb6c3	-0.06968453
161	0xbdf6c9c4	-0.120502025
162	0xbe2a0904	-0.16605002
163	0xbdab1f7d	-0.08355615
164	0x3e2dea30	0.16983867
165	0x3cc0dbd0	0.023542315
166	0xbde9af9d	-0.11410449
167	0x3d2848e4	0.04108514
168	0xbdeda752	-0.116041794
169	0x3c869478	0.016428217
170	0xbc6f7190	-0.014614478
171	0x3d992e54	0.074795395
172	0x3d211a68	0.039331824
173	0xbbe27b00	-0.0069116354
174	0xbe192aed	-0.14957781
175	0xbde857e8	-0.11344892
176	0x3cee4da0	0.029089749
177	0x3dae4a70	0.085102916
178	0xbd53c424	-0.051700726
179	0x3c9e9920	0.019360125
180	0xbe059907	-0.13046657
181	0x3e3383b4	0.1753071
182	0xbb42a9db	-0.0029703293
183	0xbd680e08	-0.056654006
184	0xbdb7b292	-0.089696065
185	0xbd6ae14b	-0.057343762
186	0xbe1c7229	-0.15277924
187	0xbc88f831	-0.01671991
188	0x3e0f5c01	0.1399994
189	0x3d8eb8cb	0.0696884
190	0x3e298a5e	0.16556689
191	0xbc674e5e	-0.014117805
192	0xbe0590ce	-0.1304352
193	0x3e0771c2	0.13226989
194	0x3ce37c42	0.027769212
195	0xbdb9e982	-0.09077741
196	0x3e409e2a	0.18810335
197	0x3d4beacc	0.049784467
198	0x3e3b1c06	0.18272409
199	0x3d9a91bc	0.07547328
200	0x3d4be7d7	0.049781647
201	0x3d1a5cad	0.03768604
202	0xbc182b85	-0.00928772
203	0xbc9c1b08	-0.019055858
204	0x3dd3e8da	0.10347147
205	0x3d178331	0.03699035
206	0x3dda8780	0.10670376
207	0x3db85b32	0.09001769
208	0xbe054bfd	-0.13017268
209	0x3e31f31a	0.17377892
210	0x3c9ca8f8	0.01912354
211	0xbcb235d9	-0.021754192
212	0x3d9f25c2	0.077708736
213	0xbc8e07b6	-0.017337661
214	0x3e2365e7	0.15956841
215	0x3e80e191	0.25172094
216	0xbc6a93bd	-0.01431745
217	0x3d1cb251	0.038255993
218	0x3e0bebdc	0.13664192
219	0x3e7f5fb5	0.24938853
220	0xbc8001e0	-0.015625894
221	0x3e3f24f8	0.18666446
222	0x3ddd8d24	0.10817936
223	0x3e8142b6	0.2524621
224	0x3ddc89b6	0.10768454
225	0x3d917ddc	0.07104084
226	0xbd9135bc	-0.07090327
227	0x3e1e4089	0.15454306
228	0xbd3f2bde	-0.046672694
229	0x3dac5344	0.08414319
230	0x3de6381d	0.112411715
231	0xbde55ab5	-0.111989416
232	0x3e321574	0.17390996
233	0x3dc9a8b0	0.09846628
234	0x3e151558	0.14558923
235	0xbd8cf22c	-0.06882128
236	0xbc6c301d	-0.014415768
237	0xbe1044cb	-0.14088742
238	0x3e0b6cac	0.13615674
239	0xbe0a16d8	-0.13485277
240	0xbc738320	-0.014862806
241	0x3e1f6a0e	0.155678
242	0xbd2f671c	-0.042822942
243	0x3e1b4836	0.15164265
244	0x3d7f6e04	0.06236078
245	0x3e00a076	0.12561211
246	0x3d935d40	0.071955204
247	0xbd1f0dac	-0.038831398
248	0xbd213138	-0.03935358
249	0x3dad349c	0.084573
250	0x3db58c98	0.08864707
251	0xbd653a08	-0.055963546
252	0xbe34c0be	-0.1765165
253	0x3c8de140	0.017319322
254	0xbe00528e	-0.12531492
255	0xbdcacf8b	-0.09902867

fc2.bias f4 [15]
0	0x3d8fdaa4	0.07024124
1	0xbdb8a6ce	-0.090161905
2	0xbcdc2ff8	-0.026878342
3	0x3cd6b27e	0.026208159
4	0x3dcda75d	0.10041688
5	0xbddbfa99	-0.10741157
6	0x3d9b2bc3	0.07576706
7	0x3dad0129	0.08447487
8	0xbdc52abc	-0.096272916
9	0xbc9c55a0	-0.019083798
10	0x3df0bc62	0.11754681
11	0xbe0853f0	-0.1331327
12	0x3e47828a	0.1948339
13	0x3e14516b	0.14484183
14	0xbd3c180c	-0.04592137

fc3.weight f4 [4733, 15]
0	0x3cec4beb	0.028844794
1	0xbd8ca9c7	-0.0686832
2	0xbd9b3083	-0.07577612
3	0xbd5c495d	-0.053780902
4	0x3cd2097e	0.025639292
5	0xbc7e3190	-0.015514746
6	0x3e0404d9	0.12892474
7	0x3e088011	0.13330103
8	0xbda92be0	-0.082603216
9	0xbe5c85f4	-0.21535474
10	0x3e468844	0.19387919
11	0xbd34d4d4	-0.04414828
12	0x3e8315de	0.2560262
13	0x3d526489	0.05136541
14	0x3e4e2700	0.20132065
15	0xbd9e54f0	-0.07731044
16	0x3d77a02b	0.060455482
17	0x3dc6ff60	0.09716678
18	0x3d8a1bdf	0.06743597
19	0xbc9264cf	-0.017870335
20	0xbdc8d616	-0.09806459
21	0xbe247eef	-0.16064046
22	0x3b9a0844	0.0047006924
23	0xbe5ed41f	-0.21760605
24	0xbd70e88c	-0.058815524
25	0xbe1c4705	-0.15261467
26	0x3df12900	0.11775398
27	0x3e474df1	0.19463326
28	0xbe58e417	-0.2118076
29	0xbe83eaa9	-0.2576497
30	0xbda70044	-0.081543475
31	0x3dae8153	0.085207604
32	0x3e4cc911	0.19998576
33	0x3c98cc0e	0.018651988
34	0xbe31705e	-0.17328021
35	0x3db5b375	0.08872119
36	0xbc303903	-0.01075578
37	0xbdd56aa0	-0.10420728
38	0xbd350640	-0.044195414
39	0xbcd1d4c8	-0.025614157
40	0xbd9ccfdd	-0.07656834
41	0xbb6a4600	-0.003574729
42	0xbe53b21d	-0.20673414
43	0xbe0800c9	-0.1328155
44	0x3cecb010	0.028892547
45	0x3d7e8a6f	0.06214374
46	0xbd0f1d6e	-0.034940176
47	0x3df94e66	0.121731564
48	0xbdc4030c	-0.09570894
49	0x3dce0314	0.10059181
50	0xbe3a61f3	-0.18201427
51	0xbe903b9e	-0.28170484
52	0xbe83e1e1	-0.2575827
53	0xbe366a14	-0.17813903
54	0xbe7f47c5	-0.24929722
55	0xbdac284f	-0.08406126
56	0xbe7b46b8	-0.24538696
57	0xbe87cf09	-0.26525143
58	0xbbc08470	-0.005875163
59	0x3e2a13ee	0.16609165
60	0xbe771370	-0.24128509
61	0x3e59eb47	0.21281157
62	0x3c6f6652	0.014611797
63	0x3e5d6551	0.2162068
64	0x3e0bccea	0.13652387
65	0x3d68fda0	0.0568825
66	0xbe60bc77	-0.21946894
67	0x3e041507	0.12898646
68	0xbdca6ce4	-0.098840505
69	0x3e81eff5	0.25378385
70	0xbc8f9358	-0.017526314
71	0x3d870944	0.06593564
72	0x3e4e30d6	0.20135817
73	0x3be7421e	0.0070574423
74	0x3e5ddd2c	0.21666402
75	0x3cabd031	0.020973297
76	0x3869c4c4	5.573478e-05
77	0xbe4ada0c	-0.19809741
78	0x3d85b574	0.0652875
79	0x3dc5ef15	0.09664742
80	0xbdf28a07	-0.11842733
81	0xbe189b84	-0.14903075
82	0x3d363425	0.044483323
83	0x3db330c4	0.08749536
84	0x3e715130	0.23566127
85	0x3db3cc52	0.087792054
86	0xbe37b235	-0.17939074
87	0xbe4112ce	-0.1885483
88	0xbe2669e5	-0.16251333
89	0xbe1a68af	-0.15078996
90	0x3d989208	0.07449728
91	0x3e41d3c3	0.18928437
92	0xbd30ba5b	-0.043146472
93	0x3e1237cf	0.14279102
94	0xbb38e59d	-0.0028213032
95	0xbd48d912	-0.04903514
96	0x3e663b60	0.22483587
97	0xbded0d91	-0.11574853
98	0xbe45c66e	-0.19313976
99	0x3d87cfb8	0.06631416
100	0x3deccdea	0.115627125
101	0xbe0af236	-0.13568959
102	0xbe057595	-0.13033135
103	0x3e12af21	0.14324619
104	0x3bee3380	0.007269323
105	0xbd892941	-0.06697322
106	0x3e7ded64	0.24797589
107	0x3e4d3df8	0.2004317
108	0xbd87c5ad	-0.066295005
109	0xbd8fbe89	-0.070187636
110	0x3dc29954	0.09501901
111	0x3e7d45e1	0.24733688
112	0x3e43468f	0.19069885
113	0xbd845f02	-0.06463434
114	0x3c419e00	0.011817455
115	0xbd7a474a	-0.061103143
116	0xbe44c800	-0.19216919
117	0xbd83ab53	-0.06429162
118	0xbe404a4b	-0.1877834
119	0x3e019ba2	0.12657025
120	0xbbf66d20	-0.007520333
121	0xbe5d1514	-0.21590072
122	0x3e4a98cb	0.19784848
123	0x3d9b1511	0.075723775
124	0x3e5b9b3c	0.21445936
125	0xbc1f46fc	-0.009721514
126	0xbc3fd96a	-0.01170955
127	0x3cb05a94	0.021527566
128	0x3e054050	0.13012815
129	0xbe0ef539	-0.13960733
130	0xbe4eb27a	-0.20185271
131	0xbd9d63ae	-0.07685028
132	0x3dbc71bc	0.092013806
133	0x3e585aa5	0.21128328
134	0x3e0ae1ce	0.135627
135	0xbe500a22	-0.20316365
136	0xbe58e213	-0.2117999
137	0x3e04cecc	0.12969512
138	0x3def2330	0.11676633
139	0x3cbc3b54	0.022977509
140	0xbe888f7c	-0.2667197
141	0x3d83f68c	0.064435095
142	0x3ce8d64a	0.028422493
143	0xbdf145c2	-0.11780883
144	0x3deebf8c	0.116576284
145	0xbdc493c1	-0.09598494
146	0xbe0608a2	-0.1308923
147	0x3e5ec27b	0.21753876
148	0x3d6f7e96	0.05847033
149	0x3b4bdc00	0.0031106472
150	0x3e19fc00	0.15037537
151	0xbc7d9fdb	-0.015480007
152	0xbe77ac0a	-0.24186721
153	0x3ddec454	0.1087729
154	0x3a9e613f	0.0012083425
155	0xbd1dd334	-0.038531497
156	0x3a5970fa	0.0008294728
157	0xbde1dcce	-0.11028443
158	0xbd7245bc	-0.059148535
159	0x3e38113c	0.17975324
160	0xbe266477	-0.16249262
161	0x3b3eda80	0.0029121935
162	0x3ce29744	0.02766002
163	0xbdbe4f69	-0.0929249
164	0xbe127bce	-0.1430504
165	0x3d9dfabb	0.07713839
166	0xbd9702e7	-0.073736005
167	0x3daf5255	0.085606255
168	0x3e08617b	0.13318436
169	0xbe92bc48	-0.28659272
170	0x3e2115c6	0.15730962
171	0xbe246da2	-0.16057447
172	0xbd510460	-0.051029563
173	0x3c9ef2b0	0.019402832
174	0x3e404876	0.18777642
175	0xbe4425db	-0.19155066
176	0xbe7dcecc	-0.24785918
177	0x3d1e5342	0.03865362
178	0x3d3533e8	0.044238955
179	0xbceabea0	-0.02865535
180	0xbd40374e	-0.046927743
181	0xbe20125c	-0.15632004
182	0xbdade498	-0.084908664
183	0xbcc4c8fb	-0.024021616
184	0xbe5846d9	-0.21120776
185	0x3e4a5be4	0.19761616
186	0x3e2c87b6	0.16848645
187	0xbdd32bd6	-0.103110954
188	0x3e5911e0	0.21198225
189	0x3dd336b4	0.10313168
190	0xbe0d07d5	-0.13772519
191	0x3e2d0306	0.16895685
192	0xbe25fda5	-0.16210039
193	0xbd6e6fa6	-0.058211945
194	0x3e747954	0.23874408
195	0xbcbcba9d	-0.023038203
196	0x3e281db6	0.16417584
197	0xbdfb6cf6	-0.12276642
198	0x3db6dad0	0.08928454
199	0x3d80f73c	0.06297156
200	0xbd54dc6d	-0.051968027
201	0xbb5f6f38	-0.003409339
202	0x3d5324e4	0.051548854
203	0xbd283778	-0.041068524
204	0x3c7d4f80	0.015460849
205	0xbdaadd75	-0.08343021
206	0x3e3049b6	0.17215618
207	0xbe50e126	-0.20398387
208	0xbeb1d6cc	-0.3473419
209	0xbe72ed95	-0.23723443
210	0x3e709bef	0.23496984
211	0xbd9c91a1	-0.07644964
212	0x3e87abd4	0.26498282
213	0x3e3ca907	0.18423854
214	0xbc8e5930	-0.017376512
215	0x3e8a7876	0.2704503
216	0xbde7f90f	-0.11326801
217	0xbe3c23ab	-0.18372981
218	0x3de1ea2c	0.11030993
219	0xbe23daf2	-0.1600149
220	0xbe2a5264	-0.16632992
221	0x3dd261d4	0.102725655
222	0xbd5f210d	-0.05447488
223	0xbc77ef85	-0.0151327895
224	0xbe12fbb0	-0.14353824
225	0x3d5a5f5b	0.053313594
226	0x3e21b8f0	0.15793204
227	0x3e3db5f2	0.18526438
228	0xbe7b8b6a	-0.24564901
229	0xbe6aaab0	-0.22916675
230	0x3ce6bf4b	0.028167387
231	0xbe768325	-0.24073465
232	0x3e26b67e	0.16280553
233	0xbda5c37c	-0.08093926
234	0xbe4014e0	-0.18757963
235	0x3e0c6363	0.13709788
236	0xbe3b0a00	-0.18265533
237	0xbd89ab27	-0.06722098
238	0xbdec4923	-0.11537387
239	0x3e15ddc8	0.14635384
240	0x3e1c0e42	0.15239814
241	0x3d134d85	0.0359626
242	0xbc6cfa3a	-0.014463956
243	0xba1b0cf8	-0.0005914713
244	0x3c879967	0.01655264
245	0x3e295533	0.16536407
246	0x3bb12c50	0.005406894
247	0x3e24b526	0.16084728
248	0x3e4b8700	0.19875717
249	0xbe4a59d6	-0.19760832
250	0x3e2c9857	0.16854988
251	0x3e41d964	0.18930584
252	0xbd3c7813	-0.04601295
253	0xbda72dd2	-0.081630364
254	0xbcf253f8	-0.029581055
255	0xbe36f73e	-0.17867753

fc3.bias f4 [4733]
0	0xbe1a08d8	-0.15042436
1	0x3d8e5c94	0.069512516
2	0x3de49406	0.11161046
3	0x3e5b6ea2	0.21428922
4	0xbdf14980	-0.11781597
5	0x3de25cb6	0.110528395
6	0xbde90776	-0.11378376
7	0xbcb77529	-0.022394734
8	0xbdb99b61	-0.09062839
9	0x3ca25ecd	0.019820595
10	0x3e34348f	0.17598175
11	0x3d7acdc7	0.0612314
12	0x3e24638b	0.16053598
13	0x3df11ce5	0.11773089
14	0xbd3a8205	-0.045534153
15	0x3dd6034a	0.10449846
16	0xbdfc301a	-0.12313862
17	0xbe1e3ada	-0.15452138
18	0xbda0f170	-0.078585505
19	0xbd39fa09	-0.045404468
20	0x3dc2bc9a	0.09508629
21	0x3d3e4b77	0.046458688
22	0xbd104bf8	-0.0352287
23	0x3d9ef7d6	0.07762115
24	0x3df35ae2	0.11882569
25	0x3cd99918	0.026562259
26	0x3dc0a139	0.09405751
27	0x3da9fc8f	0.08300125
28	0x3e588f80	0.21148491
29	0xbe2d33ff	-0.16914366
30	0xbe314179	-0.17310132
31	0xbc78f943	-0.015196147
32	0x3e13e01b	0.14440958
33	0xbd954452	-0.07288422
34	0xbe3f98b5	-0.18710597
35	0x3e383769	0.17989887
36	0x3e3c7c2f	0.18406747
37	0xbdabf405	-0.083961524
38	0xbc9421a9	-0.018082457
39	0x3ddbf806	0.10740666
40	0xbd001c82	-0.031277187
41	0xbd572d90	-0.052533686
42	0x3e16fd98	0.14745176
43	0xbddd769e	-0.1081364
44	0xbc3153f6	-0.0108232405
45	0x3d6eb079	0.058273766
46	0xbe13d238	-0.14435661
47	0xbd808445	-0.062752284
48	0x3dc80fb4	0.0976862
49	0xbbea8b6d	-0.007157734
50	0x3e3805ff	0.17971037
51	0x3e247e1a	0.16063729
52	0xbd01a7a9	-0.031654034
53	0xbcd74747	-0.026279105
54	0x3c813ff4	0.015777566
55	0xbd0b6314	-0.034030035
56	0x3dc0edea	0.094203785
57	0x3df75edb	0.12078639
58	0xbe472e3d	-0.19451232
59	0x3e1766dd	0.14785333
60	0xbd80953a	-0.06278463
61	0x3d6298fc	0.05532168
62	0x3db862b6	0.090032026
63	0xbe1870eb	-0.14886825
64	0xbd3baef5	-0.04582115
65	0xbceafb7a	-0.028684366
66	0x3d4064a1	0.046970967
67	0xbdb4e9d0	-0.08833659
68	0x3dcf8497	0.101327114
69	0xbda07b17	-0.078359775
70	0x3d02fef7	0.031981435
71	0xbcbecbd7	-0.023290558
72	0x3be96f82	0.0071238885
73	0x3e01b21e	0.12665603
74	0x3d729bd0	0.059230626
75	0x3d0aad5e	0.033856742
76	0x3e6bb6bd	0.23018928
77	0xbcc9976c	-0.024608336
78	0x3dd90515	0.105966724
79	0xbe16c31f	-0.1472287
80	0x3c473eda	0.012160981
81	0xbe3fd2ca	-0.18732753
82	0x3de693c6	0.11258654
83	0x3d87b6bd	0.066266514
84	0x3e127e95	0.143061
85	0x3c610f80	0.013736606
86	0x3d590c32	0.052990146
87	0x3cb146fd	0.021640295
88	0x3d915537	0.070963316
89	0xbb63518e	-0.0034686062
90	0x3e2ec2e3	0.17066531
91	0xbdd0a408	-0.101875365
92	0xbe5bd614	-0.21468383
93	0xbdecbda8	-0.115596116
94	0x3dc084b7	0.09400313
95	0xbe00a5bf	-0.12563227
96	0xbcb395c6	-0.021922003
97	0xbd06ad71	-0.03288025
98	0xbdde0961	-0.10841633
99	0xbd964836	-0.07337992
100	0x3e3426f8	0.1759299
101	0xbdd5b83e	-0.10435532
102	0x3b47ffeb	0.003051753
103	0x3e4d6b1c	0.2006039
104	0x3de74d95	0.112940945
105	0x3df271f0	0.11838138
106	0xbd58d0fc	-0.052933678
107	0xbe4a97ef	-0.1978452
108	0x3e1a580d	0.15072651
109	0xbbd95c21	-0.006633297
110	0x3da7aa3f	0.08186769
111	0xbdb59fef	-0.088683955
112	0x3e192373	0.14954929
113	0x3e011ced	0.1260869
114	0x3e027e61	0.12743522
115	0xbd0be54d	-0.034154225
116	0xbd9fabb9	-0.07796425
117	0x3e49be37	0.19701467
118	0x3d9f7dfe	0.07787703
119	0xbc54ab3c	-0.012980279
120	0xbe29bfaa	-0.1657702
121	0x3e0a61ca	0.13513866
122	0x3e84687c	0.25860965
123	0x3dc11c7e	0.094292626
124	0x3e33d665	0.17562254
125	0x3dd133b6	0.10214941
126	0xbe3602c5	-0.17774494
127	0xbdfafeed	-0.122556545
128	0xbd5aa262	-0.053377517
129	0x3dcaaa16	0.098957226
130	0x3e0d07b6	0.13772473
131	0xbe285737	-0.1643952
132	0xbd61daf7	-0.05514046
133	0xbe2b8752	-0.1675084
134	0xbbbd81c5	-0.005783292
135	0xbd83a406	-0.06427769
136	0xbdb0cdb7	-0.08632987
137	0xbd6ba673	-0.057531785
138	0x3c4f7acc	0.012663554
139	0x3e2f675d	0.17129274
140	0x3e3f0fe0	0.186584
141	0xbe0c5dce	-0.13707659
142	0x3decb495	0.11557881
143	0xbd986548	-0.07441193
144	0x3db9b6f7	0.09068101
145	0xbe37dd61	-0.17955543
146	0x3d94f047	0.07272392
147	0xbe005583	-0.1253262
148	0x3e0be32e	0.13660881
149	0x3dfdbcdf	0.1238954
150	0xbcf70272	-0.030152533
151	0x3de9f329	0.11423332
152	0x3da7f0b4	0.08200207
153	0x3dbe78e3	0.09300401
154	0x3dd06304	0.10175136
155	0x3bb91535	0.00564828
156	0x3dad6b21	0.08467699
157	0xbda340c6	-0.07971339
158	0xbe21f084	-0.15814406
159	0xbd8a754c	-0.06760654
160	0xbde0efab	-0.10983213
161	0x3e0ca7e9	0.13735928
162	0xbe200b90	-0.1562941
163	0xbe256075	-0.16150077
164	0x3d78a349	0.060702596
165	0x3deefc8d	0.11669264
166	0xbda46a2f	-0.080280654
167	0xbc827497	-0.015924735
168	0x3e281d59	0.16417445
169	0x3d0775d0	0.03307134
170	0xbe0fa63b	-0.14028256
171	0xbce8bd64	-0.028410621
172	0xbc39de73	-0.01134454
173	0x3dc176a3	0.09446456
174	0x3dc9a9d3	0.098468445
175	0xbde8a266	-0.113591
176	0xbdabafce	-0.083831415
177	0xbd747605	-0.059682865
178	0x3e4b31d2	0.19843224
179	0xbdb9c355	-0.0907046
180	0xbdeaeaeb	-0.11470588
181	0xbe02e42a	-0.1278235
182	0xbdc32404	-0.09528354
183	0x3e3aeccc	0.18254393
184	0xbe07ee40	-0.13274479
185	0x3d918918	0.07106227
186	0x3e0ebd1b	0.13939326
187	0x3d0bf6be	0.03417086
188	0xbdbd5b0d	-0.09245882
189	0x3dcd7b8b	0.100333296
190	0x3bd4c9e8	0.0064937957
191	0x3d8d8c22	0.06911494
192	0x3cc341bf	0.023835061
193	0xbe0ea0e5	-0.13928564
194	0x3e2f9cad	0.17149611
195	0x3e21bb82	0.15794185
196	0xbda4c66a	-0.08045657
197	0xbd7452b8	-0.0596492
198	0x3d3e605d	0.046478618
199	0x3d2ccaea	0.0421857
200	0x3d8b22a3	0.06793716
201	0x3e053a81	0.13010599
202	0x3e320a4b	0.17386739
203	0x3dff9802	0.12480165
204	0x3e3bc0ae	0.1833522
205	0xbe34c4d3	-0.17653207
206	0x3e083ed9	0.13305224
207	0x3e0bb199	0.13641967
208	0xbe212bd8	-0.15739381
209	0xbd9c3f8c	-0.07629308
210	0xbc9f41b5	-0.019440511
211	0x3e2835ef	0.16426824
212	0x3e2a5493	0.16633825
213	0xbe13995b	-0.14413969
214	0xbe0d5584	-0.13802153
215	0xbe1ca42b	-0.15297
216	0x3dd90aae	0.1059774
217	0xbdee4100	-0.116334915
218	0xbe05e79e	-0.13076636
219	0xbe5c61c7	-0.21521674
220	0x3ce44efc	0.027869694
221	0x3d9f8342	0.07788707
222	0x3e2af76a	0.16695943
223	0xbe17e244	-0.14832407
224	0x3e01115c	0.12604278
225	0x3c019ece	0.007911397
226	0xbe13ef36	-0.1444672
227	0x3dcb8c7a	0.09938903
228	0xbe1b0938	-0.15140235
229	0x3d76ea1f	0.06028187
230	0xbda01aa2	-0.0781758
231	0x3df6b7a0	0.120467424
232	0xbde21911	-0.11039937
233	0x3e1acc93	0.15117101
234	0x3e171f05	0.14757927
235	0xbd944306	-0.07239346
236	0x3e021bd8	0.12705934
237	0x3e58e391	0.2118056
238	0x3e0b5ab0	0.13608813
239	0xbda0b1bb	-0.078463994
240	0xbd3af327	-0.045642044
241	0xbda72472	-0.08161248
242	0x3e20470a	0.15652099
243	0xbe0abd3d	-0.13548751
244	0x3df9e7cc	0.12202415
245	0x3e515195	0.20441277
246	0xbe4a67ae	-0.19766113
247	0x3dc4246a	0.09577258
248	0x3dc985fe	0.0984001
249	0x3df3d5b2	0.119059935
250	0xbd9fe74c	-0.07807788
251	0xbd94794f	-0.072497
252	0xbcc98930	-0.024601549
253	0x3df8a90a	0.12141617
254	0x3e2e5d10	0.17027688
255	0x3d3e67ea	0.04648582
