Python/RNN/models/MODELSLAYER.pt (torch, 373879 bytes, 10 tensors)

fc1.weight f4 [15, 100]
000000 6d ff 5a bd 00 9f 59 ba d0 ac 3a bc 23 f6 80 3d
       -0.05346625 -0.0008301586 -0.011393741 0.06296947
000010 ed 04 9b bd aa fd 33 bd 79 00 c3 3d 10 0c a8 bd
       -0.07569299 -0.043943085 0.095215745 -0.08205426
000020 72 b3 56 3d a6 a3 08 3d 91 7d ba 3d d5 29 96 3d
       0.052417226 0.033359192 0.09105981 0.073321976
000030 c2 a2 04 3d 7a 41 07 3d 0d 6a 82 3d 42 7e 57 3d
       0.03238178 0.033021428 0.06367884 0.052610643
000040 6c 31 cc bc 6d b9 c1 bd a2 3a 05 3d 85 0c 95 bd
       -0.02492591 -0.09459195 0.03252662 -0.072777785
000050 22 67 58 3d fe 22 07 3d ba c2 90 bd 77 2f 3c bd
       0.05283273 0.032992356 -0.07068391 -0.045943704
000060 33 c7 3b bd 60 0e 92 3b 5f 5b 9b 3d ac aa 0e bd
       -0.045844268 0.00445728 0.07585787 -0.034830734
000070 20 75 92 bb e2 17 2f 3d 23 12 1c bd f8 b9 b3 3c
       -0.004469529 0.042747386 -0.038103234 0.021939263
000080 70 78 03 bd 5b 07 b8 bd 23 1d a2 3d 1d 47 99 bd
       -0.03209728 -0.08985778 0.07915714 -0.07484267
000090 df c6 80 3d 3d 84 94 bd f7 9b 96 3d 80 3f a4 bb
       0.06287932 -0.07251785 0.07353967 -0.0050124526
0000a0 32 5d 26 3d 88 19 93 3c 01 7c 8b 3d fa 98 99 bd
       0.04061622 0.01795651 0.06810761 -0.07499881
0000b0 98 bb 33 bc bd d3 86 3d a8 b0 ad bc e0 c9 b7 bd
       -0.010970019 0.065833546 -0.0212024 -0.089740515
0000c0 b8 66 bd bd 00 28 2c b8 00 15 bc bc e1 89 b9 3d
       -0.09248108 -4.104525e-05 -0.022959232 0.090595014
0000d0 33 16 b8 bd d8 88 53 bc 1e 06 8f bd 40 84 0f bd
       -0.08988609 -0.012911044 -0.06983589 -0.035038233
0000e0 e9 fb bd 3d 0c 9e 10 bd 01 5f ae 3d 10 c6 bb bd
       0.09276564 -0.035306975 0.08514214 -0.09168637
0000f0 61 79 bd 3d c8 89 c7 bc dd 96 80 bd ec 17 83 bd
       0.09251667 -0.024357691 -0.06278775 -0.06401047
000100 42 96 64 3d 70 ec 0e 3c 1a 77 29 bd 92 59 30 3d
       0.05580736 0.008723363 -0.04137335 0.04305417
000110 ee 59 4c 3d 21 6a ac 3d 44 92 e7 3c dd 8e 7c bd
       0.04989045 0.0841868 0.028267987 -0.061659683
000120 9d 15 77 bd 41 af 83 3d 30 6c d0 3b 50 78 15 3c
       -0.060323346 0.064299114 0.006360553 0.009122923
000130 10 90 62 3c 20 46 10 bd 0e 2e 96 bd cf 7a af 3d
       0.0138282925 -0.035223126 -0.07333003 0.08568346
000140 98 50 83 3c bd 74 32 bd 2d d2 b3 3d 1a 40 72 bd
       0.016029641 -0.04356836 0.08780322 -0.059143163
000150 13 1b 70 bd 20 d1 05 bd 6a b4 1a 3d 90 26 76 bc
       -0.05861957 -0.03267014 0.037769713 -0.015023842
000160 e2 aa 31 3d 80 ed 51 ba 70 68 4e 3c f5 75 a3 bd
       0.043375857 -0.00080081075 0.012598142 -0.07981483
000170 40 ff 49 bd 14 15 82 3c e9 9a aa 3d e3 d8 61 bd
       -0.04931569 0.015879191 0.08330328 -0.05513848
000180 79 1e 84 3d 20 95 52 bd a0 da 98 bd e3 75 9f 3d
       0.06451125 -0.051411748 -0.074635744 0.07786157
000190 2d 6d 5b bd 5b 6c a7 bd 33 c5 24 bd 80 86 e7 bc
       -0.053570915 -0.08174964 -0.040227126 -0.028262377
0001a0 e7 12 94 3d 58 8c 22 3c 21 7e a6 3d 8e 62 9b bd
       0.07230168 0.009921156 0.08129526 -0.07587157
0001b0 c2 89 52 3d 4c 8e cf 3c 83 e9 28 bd 3a e6 0d 3d
       0.051400907 0.025336407 -0.04123832 0.03464339
0001c0 44 6c fe 3c 20 cb 97 3c 8e 87 65 3d c4 96 d1 3c
       0.031057484 0.018529475 0.05603748 0.025584586
0001d0 f3 0a be bd f6 39 73 3d f7 8f 47 bd 83 f0 a2 bd
       -0.09279432 0.059381448 -0.04872128 -0.0795603
0001e0 c0 5a 08 3c 2c 1a bf bc 61 63 ba 3d 49 c1 86 3d
       0.008322418 -0.02332791 0.09100986 0.06579835
0001f0 3a c7 77 3d 20 da c8 3b 66 4b 4e 3d 80 b1 21 3a
       0.06049273 0.006129518 0.050364874 0.0006168112
000200 30 b7 1e bc 14 28 fa bc 51 65 85 3d ae b7 72 3d
       -0.00968723 -0.030536689 0.06513465 0.0592572
000210 62 80 2f 3d 6d 1d 23 bd 67 87 1d bd 25 cf ab bd
       0.042847045 -0.039822984 -0.038459208 -0.08389119
000220 60 bf 81 3b ac 6e cb bc cc 44 e3 3c c0 f1 b9 bd
       0.0039595813 -0.024833046 0.027742766 -0.09079313
000230 c2 3f 6e 3d f4 0b e3 3c 46 73 0f bd 47 50 72 bd
       0.058166273 0.02771566 -0.035022043 -0.05915859
000240 e4 6d e6 3c 98 e9 1c bc 80 ed 99 bc b2 1b 69 3d
       0.028128572 -0.009577177 -0.018790007 0.056911178
000250 47 aa 1b bd e0 ff fc 3b 0d ab a2 bd b0 25 46 bc
       -0.038004186 0.0077209324 -0.079427816 -0.012093946
000260 d3 5d a0 3d b6 1b 2f 3d 0a 17 2f bd ad 1f 80 3d
       0.078303955 0.042751037 -0.04274658 0.06256042
000270 d8 c1 8a bd dd 1a 42 bd 22 55 01 3d 80 90 81 3a
       -0.06775254 -0.0473889 0.03157533 0.0009884983
000280 29 cf cb 3d d4 2c d0 bc b2 7b 59 3d f2 e6 14 3d
       0.09951622 -0.025412 0.05309648 0.03635306
000290 20 4d dd bc 68 c6 21 bc da de 34 3d f1 b8 81 3d
       -0.027014315 -0.009873964 0.04415784 0.06334103
0002a0 5a a0 61 bd cd 54 72 bd 7e 6e 6e 3d fa 4a 63 3d
       -0.055084564 -0.059162904 0.058210842 0.055491425
0002b0 6a 5b 31 3d 82 4a 80 bd 40 45 bf ba de db a3 bd
       0.04330007 -0.06264211 -0.0014592782 -0.08000921
0002c0 e1 90 80 3d b3 e1 6b bd a9 de be 3d 86 97 1d 3d
       0.062776335 -0.05758829 0.09319813 0.038474582
0002d0 36 85 0b 3d 50 ed 98 3b e7 e0 1c bd 00 3d d4 bc
       0.034062587 0.0046669617 -0.03830042 -0.025907993
0002e0 aa af 7f bd 97 b9 a0 3d 2a 3c ae bd 70 71 c4 bd
       -0.062423386 0.078478985 -0.08507569 -0.09591949
0002f0 37 9f 81 3d ea ae 53 3d 73 58 2e bd bd 0e a9 bd
       0.06329196 0.051680483 -0.04256482 -0.08254764
000300 e3 72 2c bd c2 2e 90 bd b0 23 ec 3b 60 79 da bc
       -0.042101752 -0.07040168 0.0072064027 -0.026669204
000310 c0 bf 16 3b 8c 24 8a bc b0 e9 3c bc a0 ce 0f bb
       0.0023002476 -0.01686313 -0.011530325 -0.0021943226
000320 1e dc e6 3d 06 f8 b1 bc 44 69 d7 bb 9b 18 0d be
       0.11272453 -0.021724712 -0.006573828 -0.13778917
000330 d6 e6 62 be 86 b7 b0 3d 6f 17 0e be fe e3 01 bc
       -0.2215837 0.08628754 -0.13876127 -0.007927893
000340 45 9f ce 3c 38 4c 1a 3d 54 a8 52 3b fe 45 34 be
       0.02522243 0.037670344 0.0032143788 -0.17604825
000350 7e ed 0e 3e 6c 68 9e bd 5e 94 8c 3d 8c 85 00 be
       0.13957784 -0.07734761 0.06864236 -0.12550944
000360 a0 f2 9f bd 50 d1 66 bd f2 d2 0e be 94 4e 27 3d
       -0.07809949 -0.05635196 -0.13947657 0.040846422
000370 54 34 26 3e 7b 47 3e bb f8 ab c3 bc 00 4c 81 bd
       0.16230899 -0.0029034305 -0.023885712 -0.06313324
000380 7a 4a 23 be 1f bf 70 3c 9a f7 eb 3d 0e 77 6e 3d
       -0.1594638 0.014694004 0.115218356 0.05821901
000390 e1 f9 9b 3d d3 fd f7 3d c8 5f 01 be a2 de 06 be
       0.0761602 0.1210896 -0.12634194 -0.13170865
0003a0 93 b2 fe 3d 5b b8 d7 bd 49 26 f6 bd 3b 27 71 bd
       0.12436404 -0.1053321 -0.12019021 -0.058875304
0003b0 7d 4b 16 be 07 2b 8b bd 26 a5 95 3d 84 71 4f 3e
       -0.14677234 -0.06795316 0.0730689 0.20258147
0003c0 72 db 1f be 58 6e 6c bd 00 b3 e9 3b 0d 7b a2 bd
       -0.15611055 -0.05772242 0.007131934 -0.07933626
0003d0 9c 7a 34 bc bf 62 87 3d 49 2f a2 3d 3b c1 bd bd
       -0.0110155605 0.06610631 0.07919175 -0.092653714
0003e0 2f 0d 24 be 78 b8 10 3b 62 49 b7 3d c3 d2 be bd
       -0.16020654 0.0022082608 0.089495435 -0.09317543
0003f0 c8 e2 37 3d c8 a9 e1 bd 7b b2 55 be 5a 33 2a 3d
       0.04489401 -0.11018711 -0.20868866 0.04155288

fc1.bias f4 [15]
000000 1a 40 5f bd d8 8a 9a bd b7 65 07 3e 60 9c a5 bc
       -0.05450449 -0.075460136 0.13222395 -0.020216167
000010 1b 91 8d 3e d8 4c 9d bc 64 e7 03 bd a8 76 8f bc
       0.2764977 -0.019201681 -0.032203093 -0.017512634
000020 da c9 07 bd c8 94 5a bc 84 c6 88 bc 27 23 b0 bd
       -0.033151485 -0.013341136 -0.016696222 -0.08600455
000030 00 5d 4f bd 21 3a 9a 3d 94 37 ff bc
       -0.0506258 0.075306185 -0.031154431

attention.weight f4 [15, 1000]
000000 ac 4a d2 bb b0 b4 d0 3b 5a 22 f5 3c 60 7d 99 bc
       -0.006417593 0.006369196 0.029923607 -0.018736541
000010 e1 06 f1 bc 44 b6 9b bc 10 f1 ab bb 40 be 74 3a
       -0.029422225 -0.01900781 -0.0052472427 0.0009336211
000020 e6 f9 e2 3c 16 91 cc bc 80 46 cd bb bd ea df bc
       0.027707051 -0.024971526 -0.006264508 -0.027333612
000030 24 78 60 3c 4c 46 a4 3c 3c 15 1e 3c f0 d5 f3 3b
       0.013700519 0.020053051 0.009648617 0.007441275
000040 56 a6 94 3c 59 34 d9 bc 38 83 f9 3b 20 bf e3 3a
       0.018145721 -0.02651422 0.0076145194 0.0017375685
000050 4e 58 a3 3c 84 2f ee 3c b6 1a 54 bc d0 aa c2 3c
       0.019939568 0.029075392 -0.0129458215 0.02376309
000060 7e 88 a3 bc 48 a8 6b 3c 72 8d 01 bc 60 41 48 3b
       -0.019962545 0.014383383 -0.007907258 0.0030556545
000070 d7 38 9f bc f0 ae a1 3c b8 9e ac bc 40 5b fc 3a
       -0.019436283 0.019736737 -0.021071777 0.0019253269
000080 c4 02 94 bc 6c ff 1d 3c 18 8e 4e 3c 10 30 fa 3c
       -0.018067725 0.009643417 0.01260712 0.030540496
000090 9c 48 18 3c dc e3 95 bb 80 47 94 39 49 35 c8 bc
       0.009294655 -0.004574282 0.0002828203 -0.02443947
0000a0 20 04 b3 3b 18 e4 c1 bb de 35 dd 3c 08 62 20 3c
       0.005463138 -0.0059170835 0.027003225 0.0097889975
0000b0 48 6e c8 3b c6 f9 c0 3c 9a b7 ab bc a6 2b 67 bc
       0.006116662 0.023556601 -0.020961571 -0.014109528
0000c0 3a a4 b3 3c f4 62 3f bc 8a cb 86 3c 21 a9 b7 bc
       0.021928895 -0.011681307 0.016454477 -0.022419514
0000d0 40 d4 e1 bb 6c 9e b3 bc 62 d9 3a bc ce 19 e2 3c
       -0.0068917572 -0.021926127 -0.011404367 0.027600195
0000e0 24 30 e6 bc 2b ff 88 bc b4 b8 f5 bc ce ed 99 bc
       -0.028099127 -0.016723236 -0.0299953 -0.018790152
0000f0 1c 23 6b 3c 8e d9 ad 3c ca 22 91 3c 50 2d 34 bc
       0.014351632 0.021221902 0.017716784 -0.0109971315
000100 e9 63 82 bc f0 08 ea 3b 78 81 78 bc 54 a7 4a 3c
       -0.015916781 0.0071421787 -0.0151675865 0.012368996
000110 ba c6 d8 bc b6 dc 98 3c 04 94 63 bc d4 86 dc 3c
       -0.026461948 0.01865993 -0.01389027 0.02691976
000120 ca 10 e0 3c 20 33 d4 ba ed 66 00 bd c4 ce 43 bc
       0.027351756 -0.0016189553 -0.031348158 -0.011951152
000130 20 f5 f7 ba 80 48 5a 3a 5c 2e 10 bc 80 48 dd 3a
       -0.0018917657 0.00083268434 -0.008800115 0.0016882569
000140 3c 7e f6 bb f4 6b 6a 3c b4 f9 fe 3c 40 5e 91 bb
       -0.0075223725 0.014307965 0.031124927 -0.0044362843
000150 64 a1 03 3c 00 7a d7 3b d6 8a 7b bc 40 34 57 bc
       0.008034084 0.006575823 -0.015352925 -0.013135016
000160 ae 5d fa 3c 68 b7 96 3c 80 e9 95 3a f7 08 00 bd
       0.030562248 0.018398002 0.0011437386 -0.03125855
000170 60 4e 00 bd 6c 2f 01 3d ec 5f ba bc 2d 46 ee bc
       -0.031324744 0.031539366 -0.022750817 -0.029086197
000180 38 d7 a5 bc a4 ee ff 3c 0e 43 9c 3c e4 b3 e7 3c
       -0.020244226 0.031241722 0.019074943 0.02828402
000190 2c f1 41 3c 50 fb aa 3c 0e 50 c0 3c 30 3d cb 3b
       0.011837285 0.020871788 0.023475673 0.0062023625
0001a0 52 6f 88 bc c2 d9 e5 3c 68 bd 98 3c 76 c6 e0 bc
       -0.016654644 0.028057937 0.018645003 -0.027438384
0001b0 2c 8c c5 bc 5f 34 d3 3c 7a e8 89 3c b5 26 8d bc
       -0.02411469 0.025781808 0.016834486 -0.017230371
0001c0 d0 84 1e bb 9d e2 b5 bc 17 8f 0c 3b 05 55 28 bb
       -0.002418805 -0.022202784 0.0021447593 -0.0025685441
0001d0 4c 64 dd bb 6c 9b b6 3c f9 19 d6 ba 7f a6 94 bc
       -0.006756341 0.022290908 -0.0016334645 -0.018145798
0001e0 61 c4 4b 3c ab 7b 89 bc 32 a2 80 3b 8e 29 0e bc
       0.012436957 -0.016782602 0.003925585 -0.0086769
0001f0 90 ab 5a 3c c8 81 95 3c 60 37 aa bb 95 e3 99 bc
       0.013346568 0.018250361 -0.0051945895 -0.018785277
000200 76 1c 02 3d eb 7a df bc 29 86 cd bc 30 4d 08 3d
       0.031765424 -0.027280292 -0.025088387 0.033276737
000210 74 6e 9b 3a 63 d3 41 bc ae e6 05 bc 6e 89 db bc
       0.0011858479 -0.011830184 -0.008172674 -0.02679893
000220 e7 25 d0 3b ac 0a 75 bb f0 da 87 bb e2 e2 20 3c
       0.0063521746 -0.0037390394 -0.0041459724 0.009819718
000230 7a a5 9b 3b 88 3f 86 3c 52 96 e6 3a 2f e9 3e 3c
       0.004749951 0.016387716 0.0017592406 0.011652275
000240 97 75 10 3d 37 8f 81 bc e4 0b aa bb 1c b8 a9 3c
       0.035268392 -0.01581536 -0.0051894058 0.020717673
000250 ae e1 96 3c e5 41 85 3b 5d fb b2 ba 79 77 85 3c
       0.01841816 0.004066693 -0.0013655234 0.01629232
000260 81 c3 af bc 42 d7 09 bd 6c ca 16 3c fa 37 19 3d
       -0.021455528 -0.03365255 0.009203535 0.0374069
000270 f2 3e 22 3c db 57 05 bc 65 e4 c4 bc a0 70 b9 3c
       0.009902703 -0.008138622 -0.024034688 0.022636712
000280 a4 1f 11 bb 1e 7d bb bb a1 a4 c4 bc c0 40 1a bd
       -0.0022144103 -0.0057217022 -0.024004282 -0.037659407
000290 75 d1 37 3c 1f f8 71 bc 93 ad 3e bc 5e df 93 3c
       0.011219372 -0.014768629 -0.011638063 0.018050846
0002a0 21 d1 66 bc 9a e2 01 3d 8c 36 f1 bb 2d c5 41 bb
       -0.014087946 0.031710245 -0.007361239 -0.0029566989
0002b0 49 9f ca bb d5 c7 f9 3c e2 57 9a 3c 50 bd f8 bc
       -0.006183539 0.030490795 0.018840734 -0.030363709
0002c0 a7 88 18 bc c7 39 71 bc c5 56 07 3d 84 38 92 3c
       -0.009309924 -0.014723248 0.033041734 0.017849214
0002d0 a1 0b a5 bb fc 5a 08 3d 1a 4c 0f 3d 75 4c 84 3c
       -0.0050367867 0.033289894 0.034984685 0.016149739
0002e0 61 a7 e7 3a 8a 03 fa bc 1a b3 d1 bc db 84 ea 3a
       0.0017673784 -0.030519266 -0.025598098 0.0017892377
0002f0 4d c8 f9 bc 3a 5c 8c bc 16 cb 1b bc 34 42 35 3c
       -0.030491019 -0.01713382 -0.009508869 0.011063147
000300 22 c3 01 3d 9a 52 cb bc a9 5a be 3b 4a 4d 3c 3c
       0.031680234 -0.024819661 0.0058091474 0.0114930365
000310 1b 67 b6 3b 0f a3 00 bb 17 eb c4 3c a5 ed f8 39
       0.0055664903 -0.001962844 0.02403788 0.00047479305
000320 15 82 5a 3c a1 5f 03 bd fb 65 a9 3c 5b 7f 23 3b
       0.013336678 -0.03207362 0.02067851 0.0024947736
000330 02 24 a1 bc 34 d8 4d 3c 8d 01 4e bb 3d 72 f8 bb
       -0.01967049 0.012563754 -0.003143403 -0.0075819776
000340 c0 79 21 bc 23 62 9f bc ad 82 a8 3b a3 c6 53 bb
       -0.009855688 -0.019455975 0.005142531 -0.0032314442
000350 f3 a1 66 3c 94 03 a3 3c c3 bc 6c 3c f1 63 cd bc
       0.014076698 0.019899167 0.014449301 -0.02507207
000360 87 24 86 bc 6f 21 13 3c 1b 71 40 3c 00 4b 1e 3b
       -0.01637484 0.008980139 0.011745716 0.002415359
000370 c9 a6 44 3c 76 c1 b3 3b 8f 52 88 3a a5 85 c9 bb
       0.012002655 0.005485709 0.0010400581 -0.006149965
000380 ad 15 97 3c 16 d8 6f 3c 2c 34 fb 3b 3d 96 e8 3b
       0.018442953 0.014638921 0.0076661315 0.007097988
000390 3f 7e a2 ba b4 31 fc bc 99 da 08 3c 40 8e 03 3d
       -0.0012397243 -0.030785419 0.008352899 0.032118082
0003a0 6d 01 58 3c e3 ae cc 3c 62 27 de bc c6 46 e4 3b
       0.013183934 0.024985736 -0.027118389 0.0069664447
0003b0 fd 2e be 3c 96 e6 46 ba 47 3d f6 3b 4f 1c 94 3c
       0.023215765 -0.00075874606 0.007514629 0.018079905
0003c0 83 40 9c bb e4 af 01 bd 39 65 cd 3c 24 c4 d5 bc
       -0.0047684326 -0.031661883 0.02507268 -0.026094504
0003d0 cb 8b 82 3c bf ad db bc 6f c4 a0 bc 02 f1 a1 bb
       0.0159358 -0.026816247 -0.019624917 -0.0049420604
0003e0 33 f9 fa 3b 3f d0 c3 3c eb 6b c9 3a 47 b8 6d bb
       0.0076591014 0.02390301 0.0015367245 -0.0036273168
0003f0 55 c3 db 3b 06 aa ff 3b 21 33 91 3c 29 11 60 3b
       0.006706635 0.007802251 0.017724575 0.0034189916

attention.bias f4 [15]
000000 4a 79 dc bb 9b d7 c0 3d 71 fc c3 bc f9 61 e7 bc
       -0.006728326 0.094161235 -0.023924084 -0.02824496
000010 d8 7a 3d bc 8e 3b e2 bc da 12 1e 3e 94 56 8d bc
       -0.011564933 -0.027616289 0.15436879 -0.017253198
000020 80 a8 ea 3d e0 49 86 3d fb 47 5a ba 28 53 1a 3e
       0.1145792 0.06557059 -0.0008326766 0.15070784
000030 9f d1 92 bc 39 27 81 bc a7 20 bc bb
       -0.01792222 -0.015765773 -0.005741197

attention2.weight f4 [15, 15]
000000 fe c5 6b be 0c 88 ef 3d 46 fb 07 3e b6 79 7a 3e
       -0.23024747 0.11695871 0.13279447 0.24460492
000010 44 ff e5 3d e7 b5 83 be b0 8a d8 bd 7a 1e 31 be
       0.11230329 -0.25724718 -0.105733275 -0.17296782
000020 f8 5b f9 3d 5c 8a a9 bd 41 24 7c be 8c 8e 3c be
       0.12175745 -0.08278343 -0.24623205 -0.18413752
000030 da 62 61 3e c8 ac fb 3d 78 f8 1c 3d 3a 0a 4e 3e
       0.22010365 0.12288815 0.038322896 0.20121089
000040 1b 1a f9 3d a9 2d 81 3e 9a 15 71 be 50 d1 d9 3c
       0.12163182 0.25230148 -0.23543397 0.026589066
000050 6c 49 6f be 1d 88 13 3d 42 da 08 3e cb 21 ad 3d
       -0.23367852 0.03601848 0.13364509 0.08453711
000060 c0 e8 61 3e 19 43 3a be 3e 91 7a 3e b8 e8 ac bc
       0.22061443 -0.18189658 0.24469468 -0.021107063
000070 00 58 43 be c9 4a 02 be 46 f0 6b be 1e ff 75 3e
       -0.19076538 -0.12723841 -0.23040876 0.240231
000080 20 ef 14 be 5a 49 45 3e 1a 8a 2c be 70 76 0f 3e
       -0.14544344 0.19266263 -0.16849557 0.14010024
000090 10 8c 36 bd aa 50 88 bd 90 99 d5 3d 04 99 29 3e
       -0.044567168 -0.066560104 0.1042968 0.16562277
0000a0 44 65 d7 3d c8 f6 c2 bd 10 c9 f4 bd cc a4 4b 3e
       0.10517362 -0.09519726 -0.11952412 0.19887084
0000b0 20 7b 46 3d 84 79 52 3e f0 76 ed bc 82 e6 37 3e
       0.048457265 0.20554167 -0.028987378 0.17959026
0000c0 4f f5 58 be 1c 99 55 bd 72 6a 30 be ae fa 4e be
       -0.21187328 -0.05214797 -0.17228106 -0.20212814
0000d0 c8 7e da bc c6 d2 59 3e aa df 02 3e 02 9a 20 3e
       -0.026671782 0.2127181 0.12780634 0.1568375
0000e0 8d e7 28 be 51 e0 83 3e f0 8e 77 bc 20 94 a0 3d
       -0.1649458 0.25757077 -0.015109763 0.078407526
0000f0 c3 48 c9 3c 6c 0f 36 3e b1 71 24 be d4 f8 e8 bd
       0.024570828 0.1777932 -0.16058995 -0.11375585
000100 05 37 e6 bd 04 38 8f 3d 37 62 73 3e 66 44 58 3e
       -0.11240963 0.06993106 0.23767935 0.21119842
000110 bb 3b c8 3c bb 55 4c 3e 3b 5c 42 3e 05 86 11 be
       0.024442544 0.19954579 0.18980496 -0.1421128
000120 4c 57 7c bd 48 1f 00 3e 56 48 e7 bb b6 26 71 be
       -0.06160669 0.12511933 -0.0070581837 -0.23549923
000130 57 ae 80 bd 70 4a 98 bd 28 e1 b6 bd 33 d4 7e 3d
       -0.06283253 -0.07436073 -0.08929664 0.062214088
000140 4a 48 0b 3e 34 f2 c2 3c 95 e9 b4 3d 0d b8 21 3e
       0.13601795 0.023797132 0.08833615 0.15792866
000150 d0 0a 2e 3d 0f 4c 6a be a5 ac 45 3d ae b8 3b be
       0.04249078 -0.22880577 0.04826035 -0.18332168
000160 56 85 2d be 25 3e 5b be 05 b4 d3 3d fc 4f fa 3d
       -0.16945395 -0.21410425 0.103370704 0.12222287
000170 f7 94 6b be f0 4e 09 bd d6 63 20 be 44 b6 39 3e
       -0.23006044 -0.033522546 -0.15663084 0.18135935
000180 ab f2 53 be 33 e0 67 3e 5a a3 30 3e e3 ff 51 3e
       -0.20698039 0.22644119 0.17249814 0.2050777
000190 80 41 ca bd 0f a0 cb 3d e0 00 53 be a0 e2 b6 3d
       -0.098757744 0.09942638 -0.20605803 0.08929944
0001a0 3e ab c3 bc b8 bc 3f 3e 76 bc 9c be 6a 61 81 bd
       -0.023885366 0.18724334 -0.30612534 -0.063174084
0001b0 a6 fe c1 bd d8 d2 c6 3c b2 6a 1a be 88 eb 24 bd
       -0.094723985 0.02427046 -0.15079764 -0.040263683
0001c0 a2 f3 7c 3d ad eb 54 3e fc 87 25 3e 3f cc dd 3b
       0.061755784 0.20793028 0.16165155 0.006768733
0001d0 a2 2b b9 bd 54 04 0b bd d5 0a 19 be 38 1e 29 3d
       -0.090415254 -0.033939674 -0.14945538 0.041288584
0001e0 f6 9f 7b 3e 9a 16 1f 3e 78 9f fe 3d 58 30 be 3d
       0.24572739 0.15535966 0.1243276 0.092865646
0001f0 04 ec 72 3e 46 02 78 3e c4 3b 20 be e3 65 43 be
       0.23722845 0.24219617 -0.15647799 -0.19081835
000200 e8 c1 77 bd 64 e5 8a 3d 00 14 4c bd a0 e6 7b bd
       -0.060487658 0.06782034 -0.04982376 -0.061499238
000210 73 81 71 be dc 83 69 bd 66 e6 6a be db 1c 8b bd
       -0.23584537 -0.057010517 -0.22939453 -0.06792613
000220 86 76 ec 3c 84 cb 3e be 4e 2d 85 bd db 76 cf bd
       0.02886511 -0.18632323 -0.06502782 -0.10130092
000230 b0 9a c2 bc ae 99 14 be 07 6d 69 bd c0 7b 1e be
       -0.023755401 -0.14511749 -0.056988742 -0.15476894
000240 82 2b cd bd 66 8f 18 3d a2 68 a7 3d 80 1d 8e bb
       -0.10018064 0.03724613 0.08174254 -0.004337013
000250 a0 e6 19 be 48 61 5a bd 72 af 21 3e 38 84 64 bd
       -0.15029383 -0.05331543 0.15789583 -0.055790156
000260 40 89 a1 bd e0 a9 40 be 42 eb 5a 3e d8 58 df 3d
       -0.078875065 -0.18814802 0.21378806 0.109056175
000270 2a 69 e9 bd 50 a4 b0 bc a4 ed 8b bd a0 ad f1 3c
       -0.113970116 -0.021562725 -0.06832436 0.029501736
000280 9c ba 39 3e e4 f4 18 bd 54 5b 2b be d6 a1 0b 3e
       0.18137592 -0.03734292 -0.16734058 0.13635954
000290 00 9b 74 3b 70 58 5d be 5d 32 0d be 18 17 64 bd
       0.0037323833 -0.21615767 -0.13788743 -0.055686086
0002a0 d0 e2 4c be cf f2 1e be f8 52 27 bd 5b 2d 47 be
       -0.20008397 -0.15522312 -0.04085061 -0.19450895
0002b0 73 fc 3e be 27 a3 8b 3e b1 fb e2 bd 2d 59 2f 3e
       -0.18650989 0.27272913 -0.110831626 0.17123862
0002c0 3a 66 9f 3d d0 3c cb 3d ac 9f 71 3e 81 7f ff bd
       0.0778317 0.099237084 0.23596066 -0.12475491
0002d0 13 e9 82 3e 20 b3 c6 3d a2 81 56 be 54 5e be bd
       0.25568447 0.09702134 -0.20947888 -0.092953354
0002e0 34 19 46 bd 58 3f ce 3d 72 d8 1a be 30 39 55 3d
       -0.04836388 0.100706756 -0.1512163 0.05205649
0002f0 95 98 81 be c0 80 c9 3d fe f6 78 be 76 9a da bd
       -0.25311723 0.0983901 -0.2431297 -0.10673992
000300 00 c1 84 3c 00 84 26 3d 0b 33 65 be 7e c7 d7 bd
       0.01620531 0.04065323 -0.22382753 -0.10536097
000310 4e 79 b1 3e cb 5e 5a be 0e 8d 47 be b6 de bb bc
       0.3466286 -0.21325223 -0.19487402 -0.022933345
000320 60 ff 76 3c da 3a a9 3e d6 89 a6 bb ab 79 8b 3e
       0.015075535 0.33052713 -0.0050823493 0.27241263
000330 78 74 a8 3e 56 ba 4e be 0c 9b 84 3e 40 90 9c 3c
       0.3290136 -0.20188269 0.2589954 0.019111753
000340 a6 3d 19 be 91 36 83 be 56 4e 47 3e 26 1b 70 be
       -0.14964923 -0.25627568 0.19463477 -0.23447856
000350 8c 30 02 3e fa aa a9 bd 53 47 82 be 26 9f 7f 3e
       0.12713832 -0.08284564 -0.2544504 0.24963054
000360 b8 d3 31 3e df 31 81 be fe 86 67 be 60 47 8a bc
       0.1736592 -0.2523336 -0.22610089 -0.016879737
000370 68 e0 5d be 20 3e 81 bd 41 20 82 3e 08 ce 17 bd
       -0.21667635 -0.063106775 0.25415233 -0.03706172
000380 38 6d 47 3d
       0.048688143

attention2.bias f4 [15]
000000 5e 36 4a be 1b d4 11 be 42 67 0f be 54 e2 c9 bd
       -0.19747302 -0.14241068 -0.14004233 -0.09857622
000010 5c 5f 3a 3e ea 7d 70 3e eb 75 a6 3d 6c 35 ec 3c
       0.18200439 0.23485532 0.0812796 0.028834067
000020 a0 4c b9 bc 9a 22 88 3c 78 29 3e bd d0 f7 62 3e
       -0.022619545 0.016618062 -0.046426266 0.22164845
000030 4e 43 3f be b0 2f 53 3e bc 63 38 be
       -0.18678018 0.2062366 -0.18006796

fc2.weight f4 [15, 15]
000000 ac 82 63 bd 1a 33 70 3e e2 01 48 3e e8 ac 7e 3d
       -0.05554454 0.23456994 0.19531968 0.062176615
000010 a6 ee 53 be b6 fa cc bd b0 94 cf bc b4 df d2 bd
       -0.20696506 -0.10008757 -0.025339454 -0.10296574
000020 1e cd b4 bd 20 0f 1a bc e8 7c b8 3d 60 80 6c bd
       -0.088281855 -0.00940302 0.09008199 -0.057739615
000030 ce 7e 4e 3e 86 56 79 3e 72 9d 95 bd 19 92 0b 3e
       0.2016556 0.24349412 -0.07305421 0.1362995
000040 bb 99 75 be 1a cc c2 3d ac c7 7f be e5 1d 6b be
       -0.23984425 0.095115855 -0.24978513 -0.22960623
000050 8c fd 4f be 54 c4 3a 3e 69 48 88 3e f6 af 26 bd
       -0.20311564 0.18238956 0.26617745 -0.040695153
000060 2e 62 93 3d c0 00 5d be 6a 75 86 3d dc d0 90 3d
       0.07196461 -0.21582317 0.06565364 0.07071087
000070 9d ae c6 bc 85 ce 0d 3d 00 20 9a 3d 0c 4e 7c 3e
       -0.024253184 0.03462078 0.07525635 0.24639148
000080 ec e9 a4 3d 58 0a 00 bd a3 5b 7b bd b8 fb 40 be
       0.080524296 -0.031259865 -0.06136669 -0.18846023
000090 29 d3 b9 3d 58 c1 bc bd 57 e9 6d 3e 02 c5 db bd
       0.09073479 -0.09216565 0.23233543 -0.10730936
0000a0 02 b0 82 3e 3b e2 15 be b0 23 fe 3d d8 4a 82 be
       0.25524908 -0.14637081 0.124091506 -0.25447726
0000b0 76 89 e4 bd 8c 76 02 bd 48 18 82 3d 7f c9 6a be
       -0.11159031 -0.031851336 0.063522875 -0.22928427
0000c0 a0 b2 0f bd 6f 6f 79 be 3b f3 10 be 50 b4 52 3e
       -0.03508246 -0.24358915 -0.14155285 0.20576596
0000d0 80 64 2a bb 14 a2 11 bd ea d5 6f be a0 10 1a be
       -0.0025999844 -0.03555496 -0.23421445 -0.15045404
0000e0 98 86 ee 3d 9c 63 71 bd 8e 31 30 be 70 f3 5a 3e
       0.116467655 -0.058932886 -0.17206404 0.21381927
0000f0 6f 14 d6 bd 44 9b 0d be 7f e8 b2 3d f0 88 35 3d
       -0.10453116 -0.1382876 0.08735751 0.044320047
000100 27 f1 cf 3d 4a 05 47 be 8c 89 22 3e 8d 32 9b bd
       0.10153418 -0.19435611 0.15872782 -0.07578001
000110 77 11 35 be 3c 79 80 3e a4 76 39 be 26 d7 4d 3e
       -0.17682444 0.25092494 -0.18111664 0.20101604
000120 70 61 b2 3d 4a 0a 3a be e6 0d 8f bd 40 df e4 bb
       0.08709991 -0.18167987 -0.06985073 -0.0069846213
000130 e3 fe 4d be 88 2c b0 3b 50 ab 74 3d 64 d2 55 be
       -0.20116763 0.0053764023 0.05973369 -0.20881039
000140 80 8b 04 3c f9 2d 39 3e ee e1 4f be 3b 06 0f 3e
       0.0080899 0.18083943 -0.20301029 0.1396722
000150 7c 44 d5 3c bb 58 bf bd fd af bf bc 1e 27 84 be
       0.026033632 -0.09343096 -0.023399347 -0.25811094
000160 80 26 a3 bd 64 cf f8 bd 86 24 72 3e 83 bf 4a be
       -0.07966328 -0.121489316 0.23646745 -0.19799618
000170 25 19 75 3d e6 32 58 3e fd d2 00 be a4 2f 75 3e
       0.059838433 0.21113166 -0.12580486 0.23943955
000180 85 15 1f 3c ce 88 33 3e a9 c4 94 bd c8 79 b2 3d
       0.0097097205 0.17532656 -0.072640724 0.08714634
000190 3a 32 19 be 87 9f 88 3d 38 85 b9 bd 94 12 c2 3d
       -0.14960566 0.066710524 -0.090586126 0.094762
0001a0 ff d6 78 be be 89 6e 3e 8f f9 05 3d 3b 7d 30 3e
       -0.24300765 0.23294732 0.0327087 0.17235272
0001b0 88 4a 4c 3d c9 9b 49 be 97 c6 39 be 9e 2e 42 be
       0.049875766 -0.19688334 -0.18142162 -0.18963096
0001c0 a4 44 a5 bd e4 58 35 be 51 1e 04 3e 48 10 89 3d
       -0.08069733 -0.1770969 0.1290219 0.066925585
0001d0 eb ef 8a 3d 10 a2 94 bc 7f 8f fb bc 1b 9f 3e 3e
       0.06784042 -0.018143684 -0.030708073 0.18615381
0001e0 22 83 df bd 5a 11 25 3e c6 fc 42 be 60 f9 16 bc
       -0.109136835 0.161199 -0.19041738 -0.009214729
0001f0 70 9b 89 bc 88 15 46 3d c6 96 7e be 52 3c 53 be
       -0.016797751 0.048360378 -0.24862203 -0.20628479
000200 2e 67 61 3e d6 bf 78 3e 70 13 e9 bd d0 e1 fc bc
       0.22012016 0.2429193 -0.113806605 -0.030869395
000210 9a fc 21 3e 04 a8 81 3d 24 50 56 3e ee c3 08 be
       0.15819016 0.063308746 0.20929009 -0.13355991
000220 53 48 2b be d7 e2 24 3d 7a a3 48 3e 4c 11 b4 bd
       -0.16726808 0.040255394 0.19593611 -0.087923616
000230 b0 17 21 3e 98 a3 06 3e 5c 80 02 bd 87 21 76 bd
       0.15731692 0.13148344 -0.031860694 -0.060090568
000240 33 cf 79 bd a5 36 36 3e 8c 3e 6d be 70 63 c3 3c
       -0.060988616 0.17794283 -0.23168391 0.023851126
000250 9f 15 00 be ab d6 79 3d 89 19 af 3d 9d 5f 1f 3e
       -0.12508248 0.06099574 0.08549792 0.15563817
000260 e8 9b 87 3e 4e a0 60 3e 2b 83 08 bd e0 ec 1b 3d
       0.26486135 0.21936151 -0.033328217 0.0380677
000270 bc fb 20 3e 24 fd 65 3e 88 ae cb 3c 00 3e 43 3e
       0.15721029 0.22459847 0.024863496 0.1906662
000280 82 1e 9d bd d7 8e 7a 3e da 59 64 be fe 64 0f 3d
       -0.076718345 0.24468552 -0.222999 0.035008423
000290 89 f3 4e 3e 9c 15 86 3e d4 2c dc bd f4 ff 3c be
       0.20210089 0.26188362 -0.10750738 -0.18457013
0002a0 49 89 06 be e8 17 1e be 8c 3e b1 bd 66 37 7e 3e
       -0.13138308 -0.15438807 -0.08654508 0.2482582
0002b0 a4 c2 48 be 73 f7 67 3d 46 54 fa 3d 92 c5 0a be
       -0.196055 0.05663247 0.12223105 -0.1355193
0002c0 ea 40 90 3e b0 b9 6e 3e ac 63 ac be 83 3c c5 3d
       0.28174525 0.23313022 -0.33669794 0.09630682
0002d0 ce a4 9f bd f8 85 66 bd cc 46 dc 3d ea cf 06 3e
       -0.07795106 -0.056280106 0.10755691 0.1316525
0002e0 c8 5b 50 3d 93 8e 4c be b0 45 62 3d 90 5a 39 be
       0.05086878 -0.19976263 0.05524224 -0.18100953
0002f0 69 03 53 be b4 0b 15 be 0a f8 f0 bd 60 0a 71 3d
       -0.2060677 -0.14555246 -0.1176606 0.058847785
000300 a0 23 b2 3d 80 25 87 bc 46 43 f6 bd 50 95 ea 3d
       0.08698201 -0.016497374 -0.1202455 0.1145426
000310 c4 dd b0 3d ad a1 c2 3e 05 3a 7f be 3e af b9 3e
       0.086360484 0.38013974 -0.24924476 0.36266512
000320 7c 99 c0 3d 34 62 af 3e d3 09 3f 3e ac f4 77 3e
       0.09404275 0.3425461 0.18656091 0.24214429
000330 d3 97 5e bc d6 f9 90 3c 8c ba c4 3e 8a 0a 11 3e
       -0.013586002 0.017697256 0.38423574 0.14164177
000340 cf a0 5c 3e a0 8f 54 be c2 38 15 3e 97 6e 6a 3e
       0.21545719 -0.20757914 0.14572433 0.22893749
000350 39 e4 8b 3e 7e 46 7a 3e eb 28 88 be 70 58 be 3d
       0.27322558 0.24440953 -0.26593718 0.09294212
000360 8c 94 a2 3e 9b cd 1d be b4 72 ac 3d fc f4 49 3c
       0.31753957 -0.15410464 0.084203154 0.012326475
000370 f1 16 50 be 61 10 71 3e 68 e9 6a 3d 4c b4 1f 3e
       -0.20321251 0.23541404 0.0573515 0.15596122
000380 8f 8a 03 be
       -0.12845825

fc2.bias f4 [15]
000000 9f b9 05 be 1e fe b4 3d 47 f2 70 3d 0a a6 ef bd
       -0.1305909 0.088375315 0.058824804 -0.11701591
000010 56 0c 21 3e fb f9 32 3c 11 db f1 3c 8f 31 fb bb
       0.15727362 0.010923858 0.029523404 -0.00766582
000020 48 87 3d bd 7f 81 4d 3d 71 a4 2f 3e 8e ac bf 3c
       -0.046271592 0.050172325 0.17152573 0.02339771
000030 59 d5 60 be a1 29 86 3d 9d 88 49 3e
       -0.21956386 0.06550909 0.1968102

fc3.weight f4 [4733, 15]
000000 86 87 31 be ec 13 58 bf 71 69 65 bf 4e b3 41 3e
       -0.17336854 -0.844054 -0.89614016 0.18916056
000010 4f 22 3b bf 4d cf 44 bf 15 12 21 bf 81 da 01 bf
       -0.73099226 -0.76878816 -0.62918216 -0.50724036
000020 3a 15 23 be 90 1f 61 bf e9 2c 81 bf b1 d7 2b bf
       -0.15926066 -0.87938786 -1.009183 -0.67125994
000030 52 5a 40 be 53 9e 82 bf 69 db 54 bf 98 6a df bc
       -0.18784454 -1.0204567 -0.83147293 -0.027272508
000040 47 61 42 be fe 34 75 be 10 a1 90 3d c0 8d 62 be
       -0.18982421 -0.23945996 0.0706197 -0.22124386
000050 b3 d0 c0 be c2 e5 01 be 8a a6 93 bd c0 e7 11 3c
       -0.37659225 -0.12685302 -0.07209499 0.008905351
000060 36 21 69 be 8a ae a2 be fd 09 56 be 96 23 20 3e
       -0.22766575 -0.31773788 -0.20902248 0.15638575
000070 92 10 55 be 77 4e 28 be 50 b8 ad 3c 07 82 aa bf
       -0.20807102 -0.16436182 0.021206051 -1.3320931
000080 c6 99 b2 bf 91 83 6e be 81 27 7a bf 1c 22 a1 bf
       -1.3953178 -0.23292376 -0.9771653 -1.2588534
000090 0b a3 59 bf 13 b5 20 bf 18 99 43 3e ac 5b 8d bf
       -0.8501441 -0.627763 0.1910137 -1.1043601
0000a0 f0 c4 af bf 3d 07 5e bf 06 03 80 be 85 22 e2 bf
       -1.3731976 -0.86729795 -0.25002307 -1.7666785
0000b0 e9 b6 b2 bf 1c 28 94 3d 4a f8 67 bf 03 2b 93 bf
       -1.396207 0.07234213 -0.90613234 -1.1497501
0000c0 5d 80 1d be fa e2 96 bf 42 b5 95 bf fb c8 52 bf
       -0.15380998 -1.1788018 -1.169594 -0.8233792
0000d0 8d ea 2b bf 1e c9 db bd 0b 2f 8f bf a9 7d 88 bf
       -0.6715477 -0.107317194 -1.1186231 -1.0663348
0000e0 96 63 95 bf ec 91 04 3e 57 7c bd bf cf 4b 86 bf
       -1.1671016 0.1294629 -1.480357 -1.0491885
0000f0 6a 50 7a be 29 df af bf a1 c1 9a bf a2 69 45 be
       -0.24444738 -1.3739978 -1.2090341 -0.19278577
000100 44 2b 90 bf c8 08 bc bf 93 ae 3b bf 93 c8 50 bf
       -1.1263204 -1.469018 -0.73313254 -0.8155605
000110 f0 7a de 3d ff d5 56 bf 6a f9 bc bf 22 19 a3 bf
       0.10863292 -0.8392028 -1.4763615 -1.2742045
000120 9e e3 55 3e 4d 1d d1 bf dd 5a 8e bf b0 51 75 3e
       0.2088761 -1.6337067 -1.1121479 0.23956943
000130 ae 24 f8 bd 28 a3 34 bd 7a 1e 47 3e e6 97 cc be
       -0.12116371 -0.04410091 0.1944522 -0.3995964
000140 e8 2a 9e be 06 b9 3c be 60 47 29 be 40 48 16 be
       -0.3089211 -0.18429956 -0.16531134 -0.14675999
000150 80 97 ca be e8 37 ac bd 8c 1e 33 be 82 c1 c9 bd
       -0.3956871 -0.08409101 -0.17492121 -0.09851362
000160 76 b1 56 be 6c 35 57 bd 48 fe 02 be 57 06 15 bf
       -0.20966133 -0.05254118 -0.12792313 -0.582128
000170 6e df bd be c4 4e 44 3e aa d5 0c bf be 3e 70 be
       -0.37084526 0.19170672 -0.55013525 -0.23461434
000180 d7 d5 22 bf 5d 1f f4 be e0 28 72 3d e9 c5 02 bf
       -0.63607544 -0.47680178 0.059121013 -0.51083237
000190 c1 97 27 bf 95 6d 19 bf 70 09 a0 3c 96 a4 ee be
       -0.65465933 -0.59932834 0.01953575 -0.46609944
0001a0 9a b5 88 be f0 d6 85 bc 28 53 33 3e 58 3a 8b 3e
       -0.2670105 -0.016337842 0.1751219 0.2719295
0001b0 60 94 42 bd b6 83 de 3e bf dd c0 3e e7 5e 87 3e
       -0.047504783 0.43459862 0.3766918 0.26439592
0001c0 49 8c ac 39 49 c8 7d be 76 94 f4 3c e2 c0 6d 3e
       0.00032910917 -0.24783434 0.029855948 0.2321811
0001d0 bf 6f 43 3e 67 3e 44 be 8f e7 a8 3e a9 5f be 3e
       0.19085597 -0.1916443 0.32989165 0.37182358
0001e0 7c 73 49 be b6 8a 06 bf 92 75 23 bf 4e 20 60 be
       -0.1967296 -0.52555406 -0.63851273 -0.21887323
0001f0 96 28 c8 be b8 39 24 bf a4 94 31 bf a7 21 58 bf
       -0.39093465 -0.6415057 -0.6936743 -0.8442635
000200 3c 63 6f 3e cd 36 e9 be cf e7 5b bf f7 fb 10 bf
       0.23377699 -0.45549622 -0.85900587 -0.5663447
000210 74 e0 f8 3d 9d 77 48 bf 26 96 69 bf 98 93 ee bd
       0.12152186 -0.78307515 -0.91244733 -0.11649245
000220 43 c2 06 3e 7b 9d 99 3c 9e 7d 5e 3e 99 06 b0 bc
       0.13160042 0.01875185 0.21727607 -0.021487521
000230 fa 50 0a 3e 9f 37 61 be a1 e6 b4 bd 02 b3 6a 3e
       0.13507453 -0.21993874 -0.088330515 0.22919849
000240 40 c7 ba bd 0d 97 dc 3d 55 dd 39 3e a8 50 13 3e
       -0.09120035 0.10770998 0.18150838 0.14386237
000250 db 76 30 bf 38 1b 82 be 78 4b 4b 3d 87 1f b5 3d
       -0.6893136 -0.2541139 0.04963252 0.08843904
000260 ef af 11 3e d0 dc 55 be 09 89 8c 3e c6 d6 5f 3e
       0.1422727 -0.20885015 0.274483 0.21859273
000270 1c e2 e6 3c ca 15 f6 3d 62 8b 1f be 0c 48 c3 3e
       0.02818399 0.12015875 -0.15580514 0.38140905
000280 68 35 e0 3e ce e6 2c 3e 82 7b 55 3e 0c 78 3a 3e
       0.43790746 0.1688492 0.20847896 0.18209857
000290 79 82 a6 3e a0 1f 14 3d 9a 00 41 bf 7a 9b 24 bf
       0.32521418 0.036162972 -0.7539154 -0.6429974
0002a0 a8 ac e8 bd d9 1a 1d bf 38 93 98 be 20 ce 08 bf
       -0.113610566 -0.6136909 -0.2979982 -0.5343952
0002b0 20 d7 89 be 58 79 93 bd 9f bc 0f bf 22 71 1c bf
       -0.2692194 -0.07200879 -0.5614719 -0.61110127
0002c0 69 4e bb be f4 6d 3f 3e 78 f7 e6 be c4 ba 0e bf
       -0.3658326 0.18694288 -0.4511068 -0.5575373
0002d0 19 f2 45 be b7 89 f1 3d 27 2e 0b bd a8 f7 83 bc
       -0.19330634 0.11793845 -0.03397956 -0.016109303
0002e0 b7 31 b8 3d 28 fa f0 bd 93 59 2b 3e 65 28 2c be
       0.08993857 -0.117664635 0.16733389 -0.16812284
0002f0 0e e6 c1 bd 58 7a 24 be 39 8c dd bd de 2c b3 bd
       -0.094677076 -0.16062295 -0.10817761 -0.08748792
000300 e8 a5 ac bd 7c 71 78 3e 46 a1 4d 3e b0 ad bd 3c
       -0.084300816 0.24262041 0.20081052 0.02315411
000310 35 ae af bf fd 43 82 bf 1e 65 c8 bd 7c 68 a5 bf
       -1.3725039 -1.0176998 -0.097849116 -1.2922511
000320 39 31 ac bf 65 51 45 bf f7 18 26 bf 39 1a 78 be
       -1.3452522 -0.77077323 -0.64881843 -0.24228753
000330 cd 94 5b bf c8 51 94 bf b8 92 78 bf ca 2d 38 3e
       -0.85773927 -1.1587458 -0.97098875 0.17986217
000340 7c 12 e2 bf b2 3c b4 bf 32 42 c4 bd 7e d4 83 bf
       -1.7661891 -1.4081023 -0.09582938 -1.0299222
000350 4f 03 89 bf 20 90 5c 3e 00 b1 69 bf f1 14 7b bf
       -1.0704135 0.21539354 -0.91285706 -0.9807883
000360 c6 6a 32 bf 8f 37 45 bf e0 c9 6d bc 7a ab 2b bf
       -0.69694173 -0.770379 -0.014513463 -0.6705853
000370 05 0f 78 bf ff cc 25 bf 34 2d b9 bd ba a4 80 bf
       -0.9689792 -0.64765924 -0.09041825 -1.005027
000380 f4 89 30 bf e0 89 52 3c 38 fc 56 3e 50 a2 02 3e
       -0.689605 0.012850255 0.20994651 0.1275723
000390 44 35 2c be f2 fc b2 3d a4 e7 71 3e 8f ca 5e 3e
       -0.16817194 0.08739652 0.2362352 0.21756957
0003a0 6b 49 92 bd 9a 73 8c bd a8 d3 c1 bd e2 72 98 3e
       -0.071429096 -0.06857987 -0.09464198 0.2977515
0003b0 a6 47 66 3e 51 c2 21 be 15 67 a9 3d c9 cc b1 bd
       0.22488269 -0.15796782 0.082716145 -0.08681638
0003c0 90 a1 5e be 34 02 83 bf 15 57 b1 bf d4 03 f7 bd
       -0.21741319 -1.0235047 -1.38547 -0.12061277
0003d0 8a 1b b8 bf 62 eb a7 bf 8e 34 4d bf 32 d7 8e bf
       -1.4383404 -1.3118708 -0.8015832 -1.1159422
0003e0 a2 f0 6e 3e 9f 41 40 bf 3c 62 bd bf 7a 12 b0 bf
       0.23333982 -0.7510013 -1.4795604 -1.3755639
0003f0 34 10 26 be 2a 0f df bf 07 2f 89 bf 44 11 82 be
       -0.16217119 -1.7426503 -1.0717477 -0.25403798

fc3.bias f4 [4733]
000000 12 06 41 bf 65 4e 9f bb 0b 31 81 bf fc e1 8a bf
       -0.7539989 -0.0048616403 -1.0093092 -1.0850215
000010 5f c1 7f bf 03 86 3a be 83 93 ae be 08 37 05 3e
       -0.99904436 -0.18215184 -0.34096918 0.13009274
000020 62 f8 06 bf dd 1e 37 3e c5 ff 11 3e da 4a de be
       -0.5272275 0.17882867 0.14257725 -0.43416482
000030 fe 53 3d 3e e5 cf 5c bf cc da 0c bf ab 34 a6 3e
       0.18489072 -0.8625472 -0.5502136 0.32462057
000040 7e 9e a2 bf 90 5e d5 bc 56 e1 8b bf 8c 8c fa 3c
       -1.2704618 -0.026046067 -1.0928142 0.030584596
000050 9a 16 86 bc 3b 78 46 be 81 b8 99 3d d2 fa f3 bd
       -0.0163682 -0.19381802 0.075058945 -0.119130746
000060 da ea 30 3d e7 fd 05 3e ce 7c d1 bb 93 2b 6d be
       0.043192722 0.13085137 -0.0063930517 -0.23161153
000070 9d 41 1f be 1a 41 f8 bc 82 ad a6 be 83 cb 77 3e
       -0.15552373 -0.03030448 -0.3255425 0.24198727
000080 e5 d1 8d be 3e d1 ad be f1 e2 16 be 04 54 94 bd
       -0.276992 -0.33948702 -0.14735009 -0.07242587
000090 1f 0e b2 be 0f a3 8b be 5d a8 d5 3c e6 f0 e9 bd
       -0.347764 -0.2727284 0.026081258 -0.11422901
0000a0 13 7e 99 be 24 6c 99 bc 1d 68 30 bf 33 13 9f be
       -0.29979 -0.018728323 -0.68908864 -0.31069335
0000b0 2e 0b ea bd bc 4e 6a bd 10 3a 63 3d 30 86 9f be
       -0.114279136 -0.057203993 0.055475295 -0.31157064
0000c0 38 37 2a 3e 76 e4 35 bf 29 ce 69 bf 2a 31 29 be
       0.16622627 -0.7105173 -0.913302 -0.16522661
0000d0 1e 4b 05 bf 62 ac e3 bd ce c3 40 bf bb fc 59 be
       -0.52067745 -0.11116864 -0.75298774 -0.21287815
0000e0 44 5d 74 3e 5d 92 0a bf ee 70 96 be ea b3 9c bf
       0.23863703 -0.5412958 -0.29383034 -1.2242405
0000f0 7a 1f 35 be 1b 2a b4 bc 29 e0 b3 bf ba b0 80 bf
       -0.17687789 -0.021992734 -1.4052783 -1.0053933
000100 79 19 9c bf 5b 3c 66 bf 1c 12 b4 be a7 62 f4 bd
       -1.2195274 -0.89935845 -0.35170066 -0.11932879
000110 de 1c ac be 96 64 2c be 0c 69 19 be 87 df 14 bb
       -0.33615774 -0.16835245 -0.14981478 -0.002271624
000120 60 05 fe be c3 ca 4e be 31 ca 8d be 09 f8 16 bf
       -0.49613476 -0.20194535 -0.27693322 -0.5897222
000130 6e 9f f5 bd 7f 6a c5 bd ad a7 c5 bd f1 23 7c bf
       -0.119932994 -0.09639453 -0.09651122 -0.9849234
000140 98 cd 94 be a5 c0 dd be df 7c 51 be bf 4d ae bf
       -0.29063106 -0.4331104 -0.20457791 -1.3617476
000150 20 2f e7 be 80 20 9b be 7c 2c b2 bf 81 da 9c bf
       -0.4515314 -0.30298233 -1.3919826 -1.2254182
000160 d1 9f 93 bf 59 e7 a5 bf 48 41 10 bf 52 71 a6 bf
       -1.1533147 -1.2961227 -0.5634961 -1.3003333
000170 1f 59 b9 bf ab c1 97 bf 62 86 79 bf b1 12 76 bf
       -1.4480323 -1.1855978 -0.97470677 -0.9612227
000180 17 d1 83 bf 8a 5b ff bd c3 f8 00 bf fc 87 85 bf
       -1.0298184 -0.124686316 -0.5037958 -1.0432124
000190 72 92 99 bc c4 36 0e 3e 90 48 5a bf 9d 92 08 bf
       -0.018746588 0.13888079 -0.8526697 -0.53348714
0001a0 5e d1 6e be e8 c1 6d bf f8 5c 71 bf 1d 8a 4d bf
       -0.23322055 -0.92874 -0.94282484 -0.8028887
0001b0 76 c6 37 bf 03 21 f8 be 30 45 42 be ca cf 10 bf
       -0.717872 -0.48462686 -0.18971705 -0.5656706
0001c0 52 d1 e6 be 77 90 da be e4 52 dd be ba 65 0e be
       -0.45081574 -0.42688343 -0.43227303 -0.13905993
0001d0 ae 9d 6f be f7 d0 34 bc 7b 7c 31 bf 24 b3 b6 be
       -0.23399994 -0.011036149 -0.6933057 -0.35683548
0001e0 58 c2 03 bf b1 bc 0c be 54 73 87 be 62 16 02 bf
       -0.5146842 -0.13743855 -0.26455176 -0.50815403
0001f0 df 6c bc 3d 77 7b 8e be 6b ca 2b bf 14 98 cd 3c
       0.09200453 -0.2782857 -0.6710574 0.02509693
000200 54 da 41 be 3e e7 66 be 1c fd e2 be 0a c8 88 be
       -0.18930942 -0.2254915 -0.44333732 -0.26715118
000210 ff 9f d6 be bc 16 bb be be c9 e6 bc 11 93 cd be
       -0.41918942 -0.36540782 -0.02817237 -0.40151265
000220 78 ad 39 be 13 d4 a4 be 38 ed 3d be 08 07 44 3d
       -0.1813258 -0.3219305 -0.18547523 0.047858268
000230 35 bf 01 bf 8a 4b f6 be 3e e0 18 bf 0b fa cf be
       -0.50682384 -0.48104507 -0.59717166 -0.40620455
000240 35 e0 f7 be 6d 03 eb be a0 99 57 bf af 26 33 bf
       -0.48413244 -0.4590105 -0.8421879 -0.699809
000250 14 00 56 bf b0 27 ea be 24 38 97 be ea 26 fb be
       -0.8359387 -0.45733404 -0.2953502 -0.49053127
000260 8c b6 75 be 46 af 11 bf c4 49 88 be 84 6f 8b bd
       -0.23995417 -0.5690807 -0.2661878 -0.06808379
000270 48 51 da be 2e 0d 0d bf 69 b6 22 be 24 72 52 bd
       -0.42640138 -0.55098236 -0.15889896 -0.051378384
000280 58 fb c6 be 53 c3 f9 bd e0 23 25 be 58 bf b9 be
       -0.38863635 -0.12195458 -0.16126966 -0.36278796
000290 82 7e 78 bd 01 52 a3 bd 39 1f 0a bd 70 59 a4 be
       -0.060667522 -0.079746254 -0.033721182 -0.32099485
0002a0 a8 48 01 be 96 22 28 bf 51 b6 b9 be aa 2a a3 be
       -0.12625372 -0.65677774 -0.3627191 -0.31868488
0002b0 fa 70 88 be 49 87 07 bf db 81 fc be c3 f9 53 be
       -0.26648694 -0.52940804 -0.49317822 -0.20700745
0002c0 86 54 9f be c4 57 3e be ee ee e4 be 43 18 1f bf
       -0.31119174 -0.18588167 -0.4471354 -0.62146395
0002d0 11 a9 c0 be b5 0e 05 bf 28 d2 1f bf 39 f0 8a be
       -0.37628987 -0.51975566 -0.6243005 -0.271364
0002e0 b5 bb e4 be 49 9e 28 bf 41 83 15 bf 80 53 33 bf
       -0.4467446 -0.65866524 -0.584034 -0.70049286
0002f0 7c 94 2b be f6 d9 46 bf b4 b1 28 bf 28 51 36 bf
       -0.16755861 -0.7767633 -0.65896153 -0.71217585
000300 4e 03 b7 be 37 5d 0b be 29 f8 a7 be 63 90 4b bf
       -0.3574471 -0.13609777 -0.3280652 -0.7951719
000310 2d d3 be be a1 9d e6 be 8e 95 69 be 2b 11 0c bf
       -0.3727049 -0.45042136 -0.22810957 -0.54713696
000320 fd 13 96 be 39 6d c9 be 51 89 c5 be 2f 32 ea bd
       -0.29312125 -0.39341143 -0.38581327 -0.11435353
000330 cf a1 8a bb 64 8f dd bd e3 cd e0 be fd 6d 47 be
       -0.004230715 -0.10818365 -0.4390708 -0.19475551
000340 8b d8 80 bf 5c b8 1d bf 2f a5 c0 be d6 5f 8e be
       -1.0066084 -0.61609435 -0.37626025 -0.27807492
000350 e6 75 95 bf 3e 53 e1 be 58 72 88 bf e5 58 46 bf
       -1.1676605 -0.4400882 -1.0659895 -0.7747939
000360 46 ec 8b bf 44 10 f6 be 92 73 03 be a3 30 8e bf
       -1.093148 -0.48059285 -0.12837055 -1.1108593
000370 3d 7d 54 bf 12 b9 84 bf da 2f 83 bf 47 05 ec 3d
       -0.830036 -1.0368979 -1.0248978 0.11524444
000380 5c ed 52 bd f3 72 e2 bd c4 c8 9d be 91 9a 66 be
       -0.051495895 -0.11057081 -0.30817235 -0.225199
000390 fb d2 47 bd bb b9 46 bd 0b 3f 7e be a8 9a 91 bd
       -0.04878519 -0.04851697 -0.24828736 -0.071095765
0003a0 62 43 5d bd 3a 93 a4 be 6f 73 83 bf ec 52 12 bf
       -0.05401934 -0.32143575 -1.0269603 -0.5715778
0003b0 30 5f 71 bf 40 03 b6 be 7c 33 36 bf b9 c7 71 bf
       -0.9428587 -0.35549355 -0.7117231 -0.9444538
0003c0 c2 51 2b bf db 27 39 bf c9 99 86 bf 38 e9 89 bf
       -0.6692163 -0.7232644 -1.0515682 -1.0774298
0003d0 38 df 02 bf 0b 33 31 bf 2a b3 32 bf f3 d4 79 bf
       -0.51121855 -0.6921851 -0.6980463 -0.9759056
0003e0 1b 6d 5e bf 66 d1 51 be 60 ff 2e bf 05 ac 68 bf
       -0.8688523 -0.20490035 -0.6835842 -0.9088748
0003f0 40 9f 09 be 28 30 1f bf 9c b1 57 bf dd ee 5d bf
       -0.13439655 -0.62182856 -0.84255385 -0.866926
