Python/RNN/models/MODELSLAYER6.pt (torch, 441987 bytes, 10 tensors)

fc1.weight f4 [30, 100]
00000000: b077 76bc 6b98 9e3d 55de 853d 8045 993c
00000010: 5256 023d 369c 163d 41e9 803d fede 743d
00000020: 13c4 bebd 34c2 df3c 24e8 f63c 543d c63c
00000030: 5fea 953d 4056 5abc 7a64 76bd 6dcf c1bd
00000040: 8ad1 463d c2a7 4b3d 34d3 da3c 2684 00bd
00000050: f4f5 b6bc b65a 0fbd 30c8 a8bd 68f0 a5bc
00000060: 4cdd ea3c 8a55 363d 9804 903c 43a8 c23d
00000070: c0d3 63bb 34b4 933c e65e 343d 5d80 31bd
00000080: af30 983d 721e 4d3d 32da 073d f74e 52bd
00000090: a5a3 b13d f8be b73c cc0c 95bc 000e 2abb
000000a0: 7fdf 9a3d cdb0 63bd c49d df3c a0dd aebd
000000b0: c75a 21bd 6c1b e03c 0d52 c3bd 6817 b73c
000000c0: 38e9 c2bc d41d 9dbc a0dc 68bb 5d37 8fbd
000000d0: 0962 933d c40d 03bd 28b0 00bc 0a42 83bd
000000e0: 3813 efbc 4c41 cfbc 8763 b13d 716a 9f3d
000000f0: 8cf2 92bc 2870 1bbc 57c4 4bbd d8eb 9fbc
00000100: 28b9 06bc 34ee da3c cc8d fa3c 223e 123d
00000110: 609e 4e3b f8fd d8bc e137 a93d 4a7b 0bbd
00000120: c737 aa3d 1806 2cbc 94de 9fbc 1908 a03d
00000130: 50e3 8bbd 00a8 4d38 36b6 82bd 2010 8ebb
00000140: 9360 ba3d 7873 c03c a977 a53d 2974 c03d
00000150: d836 acbd 91aa 8a3d b3c1 31bd 19bb bf3d
00000160: 74d3 e4bc 82e7 543d 2701 43bd 107c 63bd
00000170: a3f3 943d f2e5 8cbd 8caf 843c c337 9abd
00000180: f88b c13c f886 ae3c 6332 2bbd dd07 49bd
00000190: fdfe 953d 4668 483d 00ca a0bc 3060 173c
000001a0: 6d44 5ebd 53ee c23d 633d 1cbd 2fcc b4bd
000001b0: 649a 8abd 8c82 833c 002c 463b 5356 873d
000001c0: e0cd a1bb 1841 853c 001b bcbb a249 5d3d
000001d0: da72 3bbd c30d 96bd c04a db3a efdb b53d
000001e0: 80e4 ad3b 994b 993d d4b7 05bd fb49 a2bd
000001f0: 1c34 e63c 380d 95bc aac3 aabd 9491 13bd
00000200: cbc0 c23d f967 9f3d f572 a53d 732e 96bd
00000210: 231c 933d 8599 c33d c015 00bc a9b8 833d
00000220: b6df a7bd 282d 4f3c 6685 7f3d 8698 273d
00000230: ae2f 8abd c736 1dbd dfad 883d 2375 9dbd
00000240: af17 be3d f3b3 c9bd 9782 af3d 07b1 4abd
00000250: f120 af3d 70a2 383c 2027 eebc 26eb a9bd
00000260: 32d5 5d3d c0c8 233b c04b 313c 2fc8 c73d
00000270: 8535 9ebd 6841 adbc a063 09bd 4296 173d
00000280: ddcb 58bd 1198 913d 2ad5 6e3d 9eb5 a7bd
00000290: f4a1 913c 04ce f63c a402 80bd 7277 3d3d
000002a0: af03 bb3d 2176 a33d 62f4 4d3d 6dc5 bcbd
000002b0: 52a1 1a3d 1b5d a03d 2aee 553d 0dfd 67bd
000002c0: c0fc 553b 918e 863d 2e55 9bbd 5218 1f3d
000002d0: bc14 f23c e1c7 c83d fc40 ed3c 8844 85bd
000002e0: d915 973d e04f 84bb 60b7 8bbd a88d 9bbc
000002f0: 4856 bc3c 7a3e 7cbd d710 1dbd 97ed 5bbd
00000300: 2640 223d d223 5e3d 200b c9bc 844a f63c
00000310: 6972 963d af0e b0bd 3428 8e3c 6abe 79bd
00000320: 545d 233d cc77 ddb9 5e90 a13c 870d 533c
00000330: a6d2 1ebd 38b5 5abd ee18 8dbc 54db a43d
00000340: 8e44 5b3b d94a 813d 8f2c dabc 965c 6bbc
00000350: ca4d 563d 8c44 373d 6f28 49bd bf05 7abb
00000360: fdc0 dd3c 7f75 863d db2a 7dbc 804e e4bd
00000370: 8c44 da3d 323f 09bd fe87 a83c bd44 ac3d
00000380: b9ba 07bc 7537 6ebc 6807 7b3d fd04 b0bd
00000390: 7b74 c13b 4998 4b3d 18b0 8d3d 9371 74bd
000003a0: eb9a 083d 68ab bd3d 4435 913d 4345 023d
000003b0: 082e 543d fd7c d3bd d95b 28bd 64e0 e9bc
000003c0: 3b45 f2ba bbae 56bd 3040 8abc e7a3 1dbc
000003d0: 0f2f 773b e223 bc3b ce04 923d 031a c93b
000003e0: ac8a 1cbc 430c 15bc c2dd 8d3c 5eae d9bd
000003f0: f474 133a d680 8fbc e4fb 483c 5159 6a3d
-0.015043184 0.07743915 0.06536547 0.018709898 0.031820603 0.036770068 0.0629449 0.059782974
-0.09314742 0.027314283 0.03013999 0.024199165 0.07320093 -0.013326228 -0.060154416 -0.094633915
0.048539676 0.049720533 0.026712038 -0.031376027 -0.022334076 -0.034998618 -0.08241308 -0.020256236
0.028669976 0.04451517 0.017580315 0.095047496 -0.0034763664 0.018030263 0.044035815 -0.043335307
0.07431161 0.050077863 0.03316707 -0.051344838 0.08673791 0.022429928 -0.018194579 -0.0025948286
0.0756216 -0.055588532 0.027296908 -0.08538365 -0.039393213 0.027356826 -0.09537134 0.022350028
-0.023792848 -0.019179262 -0.0035531893 -0.069929816 0.07196433 -0.03199555 -0.007854499 -0.0640908
-0.029183969 -0.02529969 0.086615615 0.07783974 -0.017937921 -0.009487189 -0.04974779 -0.019521639
-0.008222856 0.026724912 0.030585192 0.035703786 0.0031527504 -0.02648829 0.08262611 -0.034053124
0.0831142 -0.0104995 -0.019515313 0.078140445 -0.06830466 4.903227e-05 -0.0638241 -0.0043354183
0.09100451 0.02349256 0.08079464 0.09397156 -0.08408898 0.06770814 -0.043397617 0.09361858
-0.02793286 0.051978596 -0.04760852 -0.055538237 0.072730325 -0.06879796 0.016196989 -0.07530167
0.023626313 0.021304592 -0.0417961 -0.049079765 0.07324026 0.048927568 -0.019627571 0.0092392415
-0.054264475 0.09518113 -0.03814448 -0.088280074 -0.06767729 0.01605346 0.0030238628 0.06608262
-0.0049378723 0.01626639 -0.0057405233 0.0540253 -0.045763828 -0.073268436 0.0016730651 0.0887984
0.0053067803 0.07485122 -0.032646015 -0.07924267 0.02810102 -0.01819478 -0.08338101 -0.036027506
0.095094286 0.07783503 0.08078567 -0.07333078 0.07183101 0.09550766 -0.007817686 0.064317055
-0.08196966 0.012645043 0.062383078 0.040916942 -0.067473754 -0.038382318 0.06673788 -0.07688358
0.09281861 -0.09848776 0.0856983 -0.049485233 0.08551205 0.011269197 -0.02907139 -0.08296804
0.054158397 0.0024991482 0.010821283 0.09754979 -0.07725052 -0.021149352 -0.033542275 0.03700853
-0.052928794 0.071090825 0.058308758 -0.081889376 0.01777742 0.030127533 -0.06250504 0.04625649
0.09131562 0.07981516 0.05028189 -0.092173435 0.037751503 0.078302585 0.052229084 -0.056637812
0.0032651871 0.06570161 -0.07584606 0.038841553 0.029550903 0.09803749 0.028961651 -0.06507212
0.07377214 -0.004037842 -0.068220854 -0.018988445 0.02299036 -0.06158302 -0.038346138 -0.05369338
0.039611958 0.05423338 -0.024541438 0.030064829 0.07346041 -0.08596551 0.017353155 -0.06097261
0.039883927 -0.0004224166 0.01972216 0.012881643 -0.03877511 -0.05339548 -0.017223801 0.08049646
0.003345761 0.06313104 -0.026632575 -0.014365336 0.05232028 0.044743106 -0.049110826 -0.0038150398
0.027069563 0.06565379 -0.015452112 -0.11147785 0.106576055 -0.033507533 0.020572659 0.08411548
-0.008284264 -0.014539589 0.06128636 -0.085947014 0.005903778 0.049705777 0.06918353 -0.059678625
0.033350866 0.09261209 0.07090238 0.031804334 0.05180171 -0.10326574 -0.041103218 -0.02854938
-0.0018483767 -0.05241273 -0.01687631 -0.009621597 0.0037717258 0.0057415823 0.07129823 0.006137134
-0.009554546 -0.009097162 0.017317656 -0.10628961 0.00056250324 -0.017517488 0.012267087 0.057214085

fc1.bias f4 [30]
00000000: 05dd aebd 946c 8bbd 1ac7 f43d 1814 1cbc
00000010: 7ae4 abbc f22d a03d 6814 dbbc e664 19bd
00000020: 00ec 5abc e810 b8bc 86cb 773d b9f1 633d
00000030: 249b f73d b8e3 97bd 269e 8cbd 005d 34bc
00000040: b0d1 22bd 795d 76bc 78ab c9bd 8f9b d73d
00000050: 68c7 35bc 765e 9abd db47 97bd 3bbf df3d
00000060: 8c9c fdbc 9ec3 9abd c419 2c3d e029 16bc
00000070: 096a b73c 70c2 adbd
-0.0853825 -0.06807819 0.11952038 -0.009526275 -0.02098297 0.078212634 -0.026743129 -0.03744974
-0.013361931 -0.022468999 0.06049683 0.055650447 0.120901376 -0.07416481 -0.06866102 -0.011008501
-0.039750755 -0.015036934 -0.09847158 0.10527717 -0.011094905 -0.07537548 -0.07386752 0.10925146
-0.030958436 -0.07556842 0.04201676 -0.009165257 0.022389429 -0.08484352

attention.weight f4 [30, 1000]
00000000: fada b5bc b8e4 79bc f4ee bebc a246 f1bc
00000010: 5e8a b7bc 5059 60bc 0667 26bc fc87 33bc
00000020: 167a 95bc 0034 6bb8 b0b6 acbc ef13 e0bc
00000030: 2c9e 5c3c 4c7b 583c f0c4 d53b 40e7 0cba
00000040: 3c30 dc3c 78ad bf3b 9b79 8abc ac13 eebc
00000050: 9278 65bc 00e5 e139 3ce1 633c 988b 5ebc
00000060: f035 863c 864b e23c 78de 2ebc ae1b e33c
00000070: ac79 a33c 80d4 09bb b3cf edbc 828d d53c
00000080: d0ae 52bc b805 a63c 0a5d d1bc fc27 7a3c
00000090: 48ca aabb 3e2f ae3c f26d 9abc e4c2 733c
000000a0: 3a7c eabc e4d3 ae3c 904d f83c 5c9e 443c
000000b0: 221f e63c f47c c3bc 3258 83bc ce65 bcbc
000000c0: 8896 943c 6e19 883c 900e 603b dab8 de3c
000000d0: 6a47 2cbc 8084 473a 8a54 77bc 6c69 e1bc
000000e0: 00f2 a338 0ace d73c 60cc c13a a66c 853c
000000f0: 503b 4fbc bef5 92bc aeda bc3c 2636 0ebc
00000100: b063 8a3b ae26 f13c c017 e13c baf3 8abc
00000110: b01c 763b c8d1 fcbc 001b ab39 d01b 5d3c
00000120: 3068 103c a80c 963b 84bb bf3c 175b 00bd
00000130: 5466 883c b096 fc3c 8cff 073c 9fbf f9bc
00000140: 80ab 60bb c097 ee3b 8a23 bcbc 5aa0 bdbc
00000150: 884f a33c 0851 a93c e047 523b 407e f5bb
00000160: 80d9 aa3a aea4 883c f0e9 143c d038 2fbc
00000170: 0023 9939 fa50 eb3c d020 183b 129e 47bc
00000180: 2c18 fc3c 8c0f 553c 50a8 adbb e07e 333c
00000190: aecd 15bd 18a1 17bd 2bbb 93bc 7000 18bb
000001a0: 9e86 c3bc 433d 2dbc fc0f a7bd eb37 383c
000001b0: 3b4b bf3b 0289 ab3c dd56 59bd 5eb2 f6bc
000001c0: a73c 93bd 7cae 443d d25a e8ba bb53 cebc
000001d0: 30d7 60bc a989 8d3c 86e6 ae3c a8cf c13c
000001e0: 500b cc3b 8eca 20bd 4d85 f63c 1c98 18bc
000001f0: ae8d 433c bc20 67bc 1011 913c b6ac f4b9
00000200: f6d1 17bd 4855 ce3c 7bcc 51bc c088 ecbb
00000210: 92e4 f63b dcc6 253b 3c14 afbb de33 a3bc
00000220: 9714 e6bb e60d 31bd cf67 d33b 2e10 7bbd
00000230: b03d 5c3d 9d80 41bc 0855 6039 2b04 03bb
00000240: ac74 a5bc 324b 8abc 7070 b83b 54a0 183d
00000250: 359d 553d 6148 00bc 34ce 24bd be02 e5bc
00000260: 536b d1bc 3243 3a3c c5df 34bc a63e c7ba
00000270: b5dd 363d 6552 56bc 4267 0d3c 1d8a 0dbd
00000280: 51df a83c 370b a4bb 2c46 433d d0cc 96bc
00000290: dd8e 183b 9df4 493d 4184 323c 9f1e db3b
000002a0: 24b8 01bd bb07 013d a142 4b3d 529c 14bc
000002b0: 9bab 413d 21b5 33bc 56f5 41bc 4698 f5bb
000002c0: c56f a3bc 2bf7 a7bc 63d0 213d e9da 4cbb
000002d0: d82c 9a3b aaf1 4d3c 53a0 d239 dc35 fbbc
000002e0: d60a 243c 49e8 44bc d6ab c4bb 32c6 ab3c
000002f0: 9116 84bc ddbb 4b3d e5c2 343c b49b 05bd
00000300: 7b66 183d 17a0 d33c 08d8 36bd 66a0 abbb
00000310: eeef 5539 d59c 0d3b 8880 60bd 337c 303c
00000320: 7e4b 69bd 0028 493b 0052 7cbc aef2 01bd
00000330: ec9f f8ba 97dd 6dbd 8b8a aebc bb9a 073d
00000340: eaab 083c 50bd 1c3c 0760 653a f313 16bc
00000350: 10cf 3abd bbd5 b83c f54e 28bc f526 40bd
00000360: 3f4f b2bc 640a 523d a6a9 553c 89a0 c73c
00000370: b6ef 27bd 84f1 90bc 36b0 4dbc 7d11 9cbc
00000380: 794e 193d a4a6 263b 5ad0 343d fc70 08bd
00000390: a849 9bbc 86b5 3c3a d276 c23c 8650 0e3d
000003a0: 726d aebc 26ef 8e3c f512 36bd a0cc 59bc
000003b0: 9aae c5bc 8b3c 11bd f003 c1bb 9e88 64bd
000003c0: d576 233d 3444 f63b 28bd 2dbd a6b5 2e3b
000003d0: 39e1 023c ac4d 1abc 5acb c23b 2558 093b
000003e0: 1927 403d 29e9 f03c 8bfd 54bd 4dfe 35bd
000003f0: f048 b6bc 7225 8b3c d60b 123c a8c9 82bc
-0.022199143 -0.015252285 -0.023307301 -0.029452626 -0.022404846 -0.013693169 -0.010156399 -0.010957714
-0.018246692 -5.6076795e-05 -0.021083206 -0.027353255 0.0134654455 0.01321299 0.006523721 -0.0005375035
0.026878469 0.0058495365 -0.01690369 -0.029062115 -0.014005797 0.00043085963 0.0139086805 -0.013583086
0.016383141 0.027623903 -0.010673158 0.02772316 0.019955479 -0.00210312 -0.029029703 0.026068453
-0.012859061 0.020266399 -0.02555706 0.015268322 -0.005212102 0.021262761 -0.018851254 0.0148780085
-0.028623689 0.021341272 0.030310422 0.012000646 0.028091017 -0.023863293 -0.016033266 -0.022997763
0.018138185 0.016613688 0.0034188367 0.027187753 -0.010515073 0.00076109916 -0.015095839 -0.02751609
7.817522e-05 0.026343364 0.001478564 0.01628716 -0.012648419 -0.017939445 0.023053493 -0.008679902
0.0042233095 0.02943739 0.027477145 -0.016961921 0.003755372 -0.03086175 0.00032635778 0.013495401
0.008813903 0.0045791455 0.023404844 -0.03133687 0.016650356 0.030833572 0.008300673 -0.03048688
-0.003428191 0.0072812736 -0.022966165 -0.02314775 0.019935384 0.020668522 0.0032086298 -0.007491857
0.0013034791 0.016680088 0.009088978 -0.0106946975 0.0002920851 0.028725136 0.0023212917 -0.012183683
0.030773245 0.013004195 -0.0052996054 0.010955542 -0.036573105 -0.037018865 -0.018033585 -0.002319362
-0.023867901 -0.010573688 -0.08157346 0.011243801 0.0058378256 0.020939354 -0.053061355 -0.030114349
-0.07189303 0.048017964 -0.0017727262 -0.02518641 -0.01372318 0.017277556 0.021350157 0.023658589
0.0062269345 -0.03925567 0.03009286 -0.009313609 0.011935635 -0.014106926 0.017708331 -0.00046667986
-0.03706547 0.02518715 -0.0128051 -0.0072184503 0.007534572 0.0025295531 -0.0053429883 -0.019922193
-0.0070214975 -0.043226145 0.006451584 -0.061294727 0.053769767 -0.011810449 0.00021393981 -0.0019991498
-0.020197235 -0.016881559 0.005628638 0.037262276 0.052151877 -0.0078297565 -0.040235713 -0.02795541
-0.025563871 0.01136856 -0.011039679 -0.0015201166 0.04464503 -0.013081168 0.008630576 -0.034555543
0.020614298 -0.0050062197 0.047674343 -0.01840821 0.0023278513 0.049305547 0.01089579 0.006687
-0.03166975 0.031501513 0.04962409 -0.009070473 0.047282796 -0.010968477 -0.011838278 -0.007494959
-0.019950757 -0.020503601 0.039505374 -0.003125841 0.004705053 0.012569824 0.00040173772 -0.03066533
0.010012349 -0.012018272 -0.0060019298 0.02096853 -0.016124042 0.049739707 0.011032795 -0.032619193
0.037207108 0.025833173 -0.044639617 -0.005237627 0.00020402644 0.0021608372 -0.054810077 0.010771799
-0.05695676 0.0030694008 -0.01540041 -0.031725578 -0.0018968559 -0.058072653 -0.021306297 0.033106547
0.008341769 0.00956662 0.0008749966 -0.00916003 -0.045607626 0.022562852 -0.010272731 -0.046912152
-0.021766303 0.05127944 0.013040936 0.024368541 -0.04100009 -0.017693289 -0.012554219 -0.019051308
0.037428353 0.0025428915 0.044144012 -0.033310875 -0.01895602 0.000719868 0.023738299 0.034744762
-0.021292422 0.01744802 -0.044451673 -0.013293415 -0.024131108 -0.03545813 -0.005890362 -0.05579435
0.03990825 0.0075154547 -0.04241672 0.0026658564 0.007988268 -0.0094179325 0.0059446516 0.002095708
0.046912286 0.029408054 -0.05199961 -0.044431973 -0.022251576 0.016985629 0.008913955 -0.015965298

attention.bias f4 [30]
00000000: 11de 123d 5a69 78bc 9f45 2b3c c2c3 063d
00000010: cc77 a2bc 6eb6 903d 5045 10b9 d9d2 f2bc
00000020: 6cd1 a1bb 3c1b ddbc a913 0c3d 9681 48bc
00000030: facc 2d3d d5fa e2bc a25e 1bbc dd54 bbbc
00000040: dd1b 573d 400b ffbc 86f7 86bc d20d 55bc
00000050: a664 edbc 9eff a4bb a743 34bb 3b4d 843d
00000060: bc54 a8ba ec54 363d 2f5a 923d 3696 c3bc
00000070: b49c 60bb 7d73 783d
0.03585631 -0.0151618365 0.010453611 0.032901533 -0.019832514 0.07066046 -0.00013758731 -0.029641556
-0.004938295 -0.026990525 0.034198437 -0.012237927 0.04243181 -0.027707497 -0.009483011 -0.022867614
0.052516807 -0.031133294 -0.01647545 -0.013003783 -0.028978657 -0.0050353548 -0.0027506144 0.06460043
-0.0012842636 0.04451458 0.071461074 -0.023875337 -0.003427309 0.060657013

attention2.weight f4 [15, 30]
00000000: 24c6 56bd 165e 1abe 549e 693d 787e 833c
00000010: 3a7d 003e d05e bc3d 0cc2 7cbd 8455 113d
00000020: 2808 ca3d 90d3 cb3d c024 963b 0289 9ebd
00000030: e560 10be 5cdf 323e 10a8 b9bc eb6d cfbd
00000040: e0b6 ed3d af88 15be d4d4 1cbe 0ae7 023e
00000050: c037 96bb a6ef 863d b01b c3bd e064 b23c
00000060: e4e0 0ebe 2a2d 283e 70cc f93d b0b1 15bd
00000070: ec71 62bd 20f7 39bc 24d7 32bd f80f edbc
00000080: c29e 0a3e 0ad1 0a3e 387f 05bd f005 ca3c
00000090: e0d5 7fbd e9ab a7bd e497 23bd 265b 70bd
000000a0: 6c6e f33d 55ac 87bd 140c b43d e112 e0bd
000000b0: a6ff 0ebe 8014 37be b45c 143d 6c7a 233e
000000c0: 0f5b 29be a445 153e 53a6 22be b113 97bd
000000d0: 2ad4 22be 3890 ad3c c9b1 e3bd 00f5 963d
000000e0: a618 7ebd c06b 863c e818 383e 98f7 0e3e
000000f0: 069c 0cbe b629 a0bd a0ba 383c eba8 b4bd
00000100: ecde 633d 8b1a e2bd c460 a6bd 2cd8 cf3d
00000110: 50ed bbbd 6d68 eebd 187c 533d c03f 853d
00000120: 1c72 c63d 5871 f9bc e08b e53b e7a0 90bd
00000130: c0a3 87bc a817 33bd aa10 303e 683c 6d3d
00000140: 7ea5 2c3e 0e1e 093e 98aa 083e 51d9 38be
00000150: b8d5 9c3c 8ece 76bd 8ed7 043e 0064 0d3d
00000160: e21a b3bd e01a 1d3d 54b9 16be b071 c63c
00000170: 6069 77bc 0c40 a03d 0022 3a3b bc37 1bbe
00000180: 8067 733c 9c30 c33d d605 0bbe eeb3 143e
00000190: 2c78 313e 6072 b9bb 3c95 453d 2453 403d
000001a0: 7651 30be 9025 123e 6e6f 083e 1604 11be
000001b0: f662 2dbe 4d3f d9bd e03b d4bc d409 53bd
000001c0: aade e3bd 643e 353e 94ee ce3d 1878 5bbd
000001d0: d022 783d f083 be3d 22c8 363e 5a68 2abe
000001e0: b565 3dbe 9c40 1c3e a945 8d3d ed35 a33d
000001f0: d4d7 f93d 04fc 183e 0bfe e33c 38e9 5d3d
00000200: 20ae 0f3d 3198 8ebd f8da 8c3d 3024 863c
00000210: df94 e33d 586d c53d 20ac f83b a62a 20be
00000220: 35ce fbbd 0489 1f3d 12db 133e ea50 10be
00000230: 68ba 11bd 4a79 d4bd 923c 06be c799 6c3d
00000240: 00cf 70bb 5d93 0abe 8fca e0bd 5b6e b0bd
00000250: be9d 76bd c557 093e 7e2e 70bd 10fd b83c
00000260: 82b2 203e f404 2f3e 1082 a7bc 9ed8 20be
00000270: 4c62 c6bd 387d 1a3d 6a7d 323e a8e7 16be
00000280: 28f0 023d 462c 363e e071 bfbb ec3d 113d
00000290: cc4b 433d 6c98 e63d d8fa b83d bfd6 e7bd
000002a0: 7bba 83bd ec4e 353d 45dc 32be e25d fcbd
000002b0: 5430 973d 4453 2bbd a85c 08bd eccc 7e3d
000002c0: 8fe4 cfbd 901c 66bc b4b4 43bd c0bb 173d
000002d0: efb2 0c3e b931 d2bd a490 eabd 3c63 123d
000002e0: 51fc 12be 4b32 eb3d 1dbf 99bd 90f3 643d
000002f0: b8af 8f3d 3404 923d 31c4 dfbd 4db1 ffbd
00000300: 4d45 8cbd 1e2e 92bd d0de b9bc e7f2 9bbd
00000310: 9086 1cbe 5ca2 1e3d b0f7 c7bc a09b 87bd
00000320: c440 1f3d dec7 043e 638a 48be f648 263e
00000330: 43eb c83d 86cc 363e 7aba eb3d 50ad f6bc
00000340: b9c1 91bb 6849 f6bd 641b fe3d e0ce c4bd
00000350: c449 99bd 3853 013e 70e2 1d3c 14a8 27bd
00000360: fb25 f2bd 106d 1ebe 543e 2a3e 76c3 1a3e
00000370: b126 173e 8c82 f93d a031 16bd 80b6 3c3b
00000380: 1a7d d8bd a48c aabd c51f 183e 7c52 e73d
00000390: 6409 af3d 12f4 153e db7b 33be 166f 74bd
000003a0: 6e9c 3bbe be5a cebd 864c 39be e1be f6bd
000003b0: a57e 8c3c c483 113e 8cd2 6c3d 81f4 2bbd
000003c0: 193b a93d 6099 0cbd 0709 c2bc 2442 29bd
000003d0: 9c8a 61bd 0b82 3e3e 9f21 8c3d d2bb 343e
000003e0: da73 2d3e 7053 cdbd 0637 353e 9da1 14be
000003f0: 9672 b1bc b76b 28be c862 033d f8fb 053e
-0.052435055 -0.15074953 0.05703576 0.016051516 0.1254777 0.091977715 -0.061708495 0.035481945
0.09864837 0.09952462 0.0045820177 -0.07740976 -0.14099462 0.17468017 -0.022663146 -0.10128387
0.11607146 -0.14602922 -0.15315562 0.12783447 -0.0045842826 0.06588678 -0.09526765 0.021776617
-0.13952976 0.16423479 0.121971965 -0.03654641 -0.055284426 -0.011350423 -0.043662205 -0.028938279
0.13537124 0.13556305 -0.03259203 0.024661034 -0.062459826 -0.08187086 -0.039939776 -0.058680676
0.11886296 -0.066246666 0.08791366 -0.10941101 -0.1396471 -0.17878914 0.03622122 0.15964669
-0.16538642 0.14577347 -0.1588376 -0.07376803 -0.15901247 0.021186933 -0.11117894 0.07370949
-0.062035225 0.016408801 0.17978251 0.13961637 -0.13731393 -0.07820456 0.011274964 -0.08821281
0.055632517 -0.11040219 -0.08123925 0.101486534 -0.09176123 -0.116410114 0.051632017 0.065063
0.096897334 -0.030449554 0.0070052 -0.0706194 -0.016557574 -0.043723732 0.17193857 0.057918936
0.16860005 0.13390371 0.13346326 -0.1805165 0.019144878 -0.06025558 0.12972853 0.034519196
-0.08745362 0.038355708 -0.14719135 0.024224132 -0.015100807 0.07824716 0.0028401613 -0.1515798
0.014856219 0.09530756 -0.13576445 0.14521763 0.17330998 -0.0056593865 0.048238024 0.04695429
-0.17218575 0.14272141 0.13323757 -0.14161715 -0.16932282 -0.10607777 -0.025907457 -0.051523045
-0.11126454 0.17699581 0.10104099 -0.053581327 0.060580075 0.09302509 0.17849782 -0.1664137
-0.1849583 0.15259022 0.06898052 0.0796927 0.12199369 0.14939886 0.027831098 0.054177493
0.035078168 -0.06962622 0.068777025 0.016374677 0.11112379 0.09639996 0.0075888783 -0.15641269
-0.1229519 0.038949028 0.14439037 -0.14093366 -0.03557816 -0.103746966 -0.13109043 0.05776384
-0.0036744475 -0.13532777 -0.10976135 -0.08614799 -0.06020903 0.13412388 -0.05863809 0.022581607
0.15693095 0.17091733 -0.02044776 -0.15707633 -0.096867174 0.037717074 0.17430654 -0.14736807
0.031967312 0.17790326 -0.0058424324 0.035459444 0.047679707 0.11259541 0.0903222 -0.113202564
-0.06432053 0.04426472 -0.17466839 -0.12322594 0.07382265 -0.041827455 -0.03329149 0.062207147
-0.10151016 -0.014044896 -0.047779754 0.037044287 0.13740133 -0.1026339 -0.11453369 0.03573917
-0.14354064 0.11484202 -0.07507155 0.05589634 0.070159376 0.07129708 -0.109260924 -0.12484989
-0.068491556 -0.071377024 -0.022689253 -0.07614689 -0.15285707 0.038729057 -0.024410099 -0.0662148
0.038880125 0.12966868 -0.1958404 0.1623877 0.098104976 0.17851457 0.11510177 -0.030111939
-0.0044481424 -0.1202572 0.12407568 -0.09609771 -0.07484773 0.12629402 0.009636506 -0.040931776
-0.118236504 -0.15471292 0.16625339 0.15113625 0.14760853 0.12183103 -0.03666842 0.0028795302
-0.10570736 -0.08327606 0.14855869 0.112950295 0.08546713 0.14643887 -0.17527716 -0.059676252
-0.18321392 -0.100759014 -0.18095598 -0.12048126 0.017150233 0.14210421 0.05781798 -0.041981224
0.08263225 -0.034325957 -0.023685945 -0.041322842 -0.05506383 0.18604295 0.0684235 0.17649773
0.16938725 -0.1002568 0.17696771 -0.14514776 -0.021661084 -0.1644734 0.032076627 0.130844

attention2.bias f4 [15]
00000000: 7099 4ebd 7148 a0bd 302d 4cbd f4e0 34be
00000010: 7da3 e8bc 193a 02be 3c0d 833d 72e2 9c3d
00000020: ab44 de3d 40ff 17be ac3c 073e d899 e23d
00000030: a9e0 e13d 7fbe 0e3e 975c f4bd
-0.0504393 -0.07826317 -0.04984778 -0.17663938 -0.02839827 -0.12717475 0.06399009 0.076603785
0.10852941 -0.14843464 0.13206738 0.110644996 0.11029179 0.13939856 -0.119317226

fc2.weight f4 [15, 30]
00000000: e817 e0bc 86dd 313e d623 a0bd 56d4 03be
00000010: b4be 30bd f65f ddbd 6c10 b63d 4621 2ebe
00000020: 3065 03bd 704a 1dbd 5cac 27bd 129a 06be
00000030: 66ed e7bd 84cd 3a3e c4e4 04bd f6cf 15be
00000040: 18a6 1c3e c3fa 26be a441 b6bd d061 de3d
00000050: 4c5c 4b3d a4d5 2d3e 2890 a43c 6832 bd3d
00000060: 489d f63d 7865 cf3d 9b2b 80bd f63d 873d
00000070: 50c4 fd3d f99b 82bd 598a cbbd 4895 a13d
00000080: 60c1 2b3e 3825 323e 8c7f 05be e57b 68bc
00000090: 8890 a1bb 8073 2bbb 4633 e3bd 94d1 b9bd
000000a0: 3048 cabc e6e3 303e 7ec6 313e b0b5 23be
000000b0: 9148 14be 400f 383e 50be 9d3c 98fb 753e
000000c0: 2473 32bd 0572 803a 6487 6c3d 56dc f93c
000000d0: 93d0 ab3d bc87 83bd 3958 a13b a9cb 34bd
000000e0: e5b2 443e 2329 3f3d 3565 023e b85c a3bd
000000f0: 65d6 d7bd a997 a9bd 5c1a cabd 9cf8 cfbd
00000100: 4ce4 2f3e 15ad c03c f73b 0ebd 0a18 103e
00000110: fc3d 223d 0446 27be 6979 e93b 3b97 573d
00000120: eaa7 0e3c 2efe 2e3e e4d7 10be 002a 38be
00000130: e5cb 013e 1d98 35bd 880d 28bd d4b9 843d
00000140: fb34 9fbd 49b1 2d3c 2767 2abe 1e11 0cbd
00000150: b5e4 46be d5bb 44bd 7b25 dfbd c247 bfbb
00000160: b7b6 703d b0ec 46bd 82d6 01bd 1819 9b3d
00000170: 1a3c 75bd bc1a 31bd 349f f33d 5318 703d
00000180: 0079 9f3b e036 82bd 822b 133e 3019 a23d
00000190: 4f9a e63d 2b66 113e 3c7d 2dbe c695 8fbd
000001a0: 7411 28be 5452 f83d 16d8 8a3d 5677 0c3e
000001b0: c40d 8b3d 1248 be3d 00e8 27bc 7117 37be
000001c0: 9045 ad3d 6e08 fc3c 0c7b 353d f91c a0bd
000001d0: ee84 bb3a 9117 f33d 45ea babd e0fa a33d
000001e0: 5619 283e 3884 c9bd f8b3 383e f867 ce3c
000001f0: 1c8d 4c3d 0ab2 88bd a43a 0d3e 908d 573d
00000200: 005a f93d 54b2 b23d 1018 473c f0ca 34be
00000210: b420 26be bef1 033e 0ce0 353e f829 32bd
00000220: 8d06 c2bd dcea 64bd 0817 12be 2cd9 7bbd
00000230: a38e 29be 8c7e 8dbd 8089 233d 7455 04be
00000240: 0857 253e e4cb 70bd 20fc fdbb ec9f fe3d
00000250: cbad 2ebe 60db 23be 710f 203a 2e4b 843d
00000260: 8d83 263e 0853 a9bc 7bab 9d3c 6967 143e
00000270: 1ca9 e83b c8e1 923c a4f1 593d 6e5e 083e
00000280: eb98 99bd 31e7 c33d 8ca4 6abd 1828 193e
00000290: b473 573d 0a7b 1bbe cc9a b3bd 8f74 82bc
000002a0: fd01 1abe 5b95 79bd 4099 5abd 410e 2dbe
000002b0: 9d8a 08be 6412 cc3d 8887 2fbd d064 05bc
000002c0: ffb2 1c3e 1c8d 263d 91a3 b3bd 543d 0b3e
000002d0: 9053 fd3d 7065 d33d 6121 1cbd 272f 94bd
000002e0: e537 b43d fa0e 34bd 6072 7f3d c083 66bb
000002f0: 8255 2a3e e8b2 9abd 3e16 f2bd c2b6 44bc
00000300: db1d cabc b6cf 2b3e 7ca3 ec3d ae7a 0e3e
00000310: b194 2d3c 4e7f 4c3d 13ab c2bd 2009 2c3e
00000320: 4c00 2f3e 4a63 573d f7a6 11be 0870 0f3e
00000330: c652 733d a836 06be 03f0 f4bd 2142 153d
00000340: f5b9 f9bd e617 243d d5cb d7bd 93f4 2cbe
00000350: 0ab4 123d 9da2 96bd 3c29 0d3d bb6c 793d
00000360: d07e 183e 1243 2c3e e674 323e 04a3 123d
00000370: a6d2 bfbd 0a6a 8e3d d672 5eb9 8016 a2ba
00000380: 0eeb 143e 2060 fdbc ddec 853d df60 0b3e
00000390: 7010 e7bd 96aa 4abb f09a e2bd 9c96 923d
000003a0: 67a7 2fbe 58dd 89bd fbad 18be 67c9 fb3d
000003b0: ca51 5ebd b9e8 a7bd ecb3 8abd 3d3e d1bd
000003c0: 2084 16be 6fa6 16be 54d7 a13d 005d 38be
000003d0: 02a5 9dbd 080a 243e 4029 6e3c 68f9 16bd
000003e0: f6e7 1e3e a8f4 353e 7892 ff3c b0a6 05be
000003f0: ccff 55bd 80d4 c3ba 48d0 8c3c e27c 05be
-0.02735515 0.1736966 -0.07819335 -0.12873968 -0.04315062 -0.10809319 0.08889851 -0.1700488
-0.03207892 -0.038401067 -0.04093586 -0.1314471 -0.11324577 0.1824246 -0.03244473 -0.14630112
0.15297735 -0.16306596 -0.08899239 0.108585 0.049648568 0.16976029 0.02008827 0.0923813
0.12041718 0.101267755 -0.06258317 0.06603615 0.12390959 -0.06377406 -0.09938497 0.07889801
0.16772985 0.1739701 -0.13036937 -0.014189695 -0.0049305595 -0.0026161373 -0.11093764 -0.09073177
-0.024692625 0.17274436 0.17360875 -0.15987277 -0.14480807 0.17974567 0.019255787 0.24021757
-0.043566838 0.0009799605 0.057746306 0.030500572 0.08389392 -0.06422374 0.004923847 -0.044139538
0.19208868 0.04667009 0.1273392 -0.07976669 -0.105389394 -0.0828088 -0.09868309 -0.1015484
0.17176932 0.023520032 -0.034725156 0.1407167 0.039609894 -0.16335303 0.007125069 0.05263446
0.008707026 0.1708915 -0.14144856 -0.17984772 0.12675436 -0.04433452 -0.04102853 0.064807564
-0.07773777 0.01060135 -0.16640912 -0.03419601 -0.19423182 -0.048030693 -0.10895821 -0.0058374116
0.058768 -0.048565567 -0.03169871 0.07573146 -0.05987177 -0.043238387 0.118956 0.058616947
0.0048667192 -0.06358123 0.14372066 0.079149604 0.11259901 0.1419913 -0.16942304 -0.07010989
-0.16412908 0.12125078 0.06779496 0.13717398 0.06789735 0.0929109 -0.010248184 -0.17880036
0.084605336 0.030765738 0.0443068 -0.07818026 0.0014306584 0.11869729 -0.091267146 0.08006835
0.16415915 -0.09839672 0.18037403 0.02519606 0.04993926 -0.06674583 0.13791901 0.05262524
0.12175369 0.0872542 0.012151733 -0.1765554 -0.16223413 0.12885186 0.17761248 -0.043497056
-0.09473906 -0.05588804 -0.14266598 -0.061486408 -0.16558318 -0.069089025 0.039926052 -0.12923223
0.16146481 -0.058788195 -0.007751003 0.124328464 -0.17058484 -0.16001654 0.00061058166 0.06459652
0.1626112 -0.020669475 0.019246807 0.14492573 0.0071002375 0.017929927 0.053208962 0.13317272
-0.0749987 0.09565581 -0.05728583 0.14956701 0.052600577 -0.15183654 -0.087697595 -0.01592472
-0.15039821 -0.060933452 -0.053368807 -0.16899969 -0.13334127 0.09964445 -0.042853862 -0.008141711
0.15302657 0.040661916 -0.08771432 0.13597614 0.12369454 0.10322082 -0.03811777 -0.07235556
0.087997235 -0.043959595 0.062364936 -0.0035173744 0.16634181 -0.07553655 -0.118206486 -0.0120064635
-0.02467244 0.16778454 0.1155462 0.13913986 0.010594533 0.049926095 -0.09505286 0.16800356
0.17089957 0.052584924 -0.14223848 0.1400758 0.05940511 -0.13106787 -0.11959841 0.03644002
-0.121936716 0.040061854 -0.10536925 -0.16890173 0.03581623 -0.07355235 0.034463152 0.06089471
0.14892125 0.1682246 0.17427406 0.035799995 -0.0936635 0.06953819 -0.0002121435 -0.0012366325
0.14542791 -0.030929625 0.06539319 0.13611172 -0.11282432 -0.003092443 -0.11064708 0.07157633
-0.17153703 -0.06731671 -0.14910118 0.12294274 -0.05427722 -0.08198685 -0.067725986 -0.10216949
-0.14698839 -0.14711927 0.07902399 -0.18004227 -0.07697488 0.16019452 0.014536202 -0.036858946
0.15518174 0.1776911 0.031197771 -0.13051867 -0.0522459 -0.0014940649 0.01718916 -0.1303592

fc2.bias f4 [15]
00000000: 20bf 73bc a47d b93d e7b7 083e 0a5c 99bc
00000010: c4b7 12be 4101 0c3e 2a98 8d3d 76ff 773d
00000020: 34de 43bd 0e3b e43c e51d 9abd 95b7 f63d
00000030: 79e8 8b3d 1cd8 f63d 79d2 013e
-0.014877111 0.09057167 0.13351403 -0.018720645 -0.14327914 0.13672353 0.069137886 0.06054636
-0.04781933 0.02786019 -0.07525233 0.12046734 0.0683145 0.12052938 0.12677945

fc3.weight f4 [4733, 15]
00000000: d0f1 e33c ada4 39be 6a03 d6bc 5123 d93d
00000010: 9427 68be 6ec0 22be 3404 13bc 9f80 5d3d
00000020: afd3 94bd 5cfb 21be 8069 42bd b661 903d
00000030: 078b 0e3e d107 1e3d 8389 67be 0225 90bd
00000040: 961b b4bd 95c6 463e 68cd 04be 801f 483e
00000050: ef83 793c 1583 79bd 1976 6d3d 5749 dabd
00000060: 43c6 683e 6a7d dd3d 94ac 34bd d98e 253d
00000070: eaba b9bb 94c3 71bd 0cbf d53d 8977 2d3d
00000080: 02b3 e1bc b4aa 62be e2df 803d cd42 b73d
00000090: 0025 94bd f66c dc3d 5c78 c5bd 19d9 df3c
000000a0: 950a 1cbe 9eb6 143e ebe4 9bbe fb14 bcbd
000000b0: 5052 c0bd 00ac 8dba 2ad7 8b3d 161f 5c3e
000000c0: 086d a63d dc18 0cbe 732d 59bd e0a4 bbbd
000000d0: c814 b4bd 8a18 553e e267 7c3e ab67 0ebe
000000e0: 6577 7d3e dbb1 6d3d 4272 173e c87a cfbd
000000f0: 5aec b1bd 2f0d 27be 99a5 5e3d 770c 05be
00000100: a871 d9bd 88a5 103e 7c82 8c3b 2029 c93c
00000110: 4663 8ebd eb69 323e 16e3 8c3d 2804 58be
00000120: f599 733e 0e90 2bbe 89bb 623e e89a de3d
00000130: 4052 143c 9820 123e e062 42bd 8c7f 413e
00000140: 1485 1c3e 54a7 093c b0be 2f3e 5741 5fbd
00000150: eda7 fdbd 54db 27bc c9a7 3d3e 607a 593e
00000160: 3a70 58be 372f b13c fb55 48be 2792 b63d
00000170: b6cf a4be 5abf 483e 1bc5 babd 6727 d03d
00000180: 0e38 0bbe 1cd2 d0bc 1485 dabd b7e2 8c3d
00000190: 4ea9 96be 22b1 c43d 3015 23bd bc07 143e
000001a0: 5d51 f23d b094 b43d fc74 293c fb24 b73d
000001b0: dde9 56bb 2113 ea3d f869 253d 0d22 7b3d
000001c0: 7108 4f3d a0f2 af3e 6cbf bdbd d98c 14be
000001d0: fd66 a03e 9434 d2bd 1e91 a93e 1e75 b73e
000001e0: 14dc 02bd e53c 66be ab05 39bd d5bb 0d3e
000001f0: 48f6 213e 3856 4e3c 5d29 ed3d b39f e93d
00000200: 21a2 263d 67e0 653e e44e a33d af07 a23d
00000210: 0b4c 4b3e 2b49 8c3d 26c1 5f3c dc77 a43d
00000220: b412 debd 9d1b d6bd 1f8b 0dbd dc02 003e
00000230: b56c 2e3e 6da5 803e 5dfe 9c3c 13c3 4ebe
00000240: c8f8 71bd 999c d23d 68c6 a63d 2252 4f3c
00000250: 25e0 4b3e 9041 1b3e a014 2cbe 60c4 80bd
00000260: 0b70 f23d 0885 853e 5b35 35be 8190 243e
00000270: cc31 ac3d 3051 c3bb bb27 2bbe f31d a23d
00000280: 4f6e b63d 64fc 59be 7071 98be 1113 62bc
00000290: d512 fcbd b6dc 76be 0fa8 883e d701 c0bd
000002a0: 8983 7a3d af30 863e 8967 03be 19f5 423e
000002b0: 0b47 23be e41a 07be a2ae 663e 5062 ae3c
000002c0: b7ca 9e3e 227e 813e a87b 533d bcc4 d9bd
000002d0: 320f edbd a4fb 223e e50d cebc 3661 7c3e
000002e0: 47b2 b2bd c0f6 76be 106d abbd 1f23 933d
000002f0: acdb 11bd 26cf 82be 3dd9 7c3d 83cd 0ebe
00000300: 9a97 8a3d 5e36 9ebc 83c6 e73c b40c 033e
00000310: 6849 423e ac68 15be 8281 8e3d c362 643e
00000320: 77a1 1b3e 107f 90bd ca9a d53d a7be 9f3d
00000330: a645 103e b26f 823e f34b 4fbe 1efd 07bc
00000340: 4cb4 21be e653 283d 0cbf 99bd 7987 0dba
00000350: 1c31 99be abcb 3bbe 798b 833c 5d02 aabe
00000360: f238 55bd 80cb 7bbe 864d 533d e817 0ebe
00000370: 3b6a 303e 9e4d a4bd b50a 9b3b e180 c63d
00000380: ca3a 96bd 550c 43be 6f22 183e 0f97 81bc
00000390: 9681 763e c8fb 54be c073 2dbe 4af9 403e
000003a0: 58c1 973c ff5e 60bd 4196 54be 5ca9 2dbd
000003b0: 96a5 52be a25d 223e 9b6c 1c3e 27ec 663e
000003c0: ff78 59be 2766 323e ae83 fcbc 8fb5 3d3e
000003d0: 26d7 59be e144 6a3e e4ec ccbc 781e 87be
000003e0: f545 78be b872 68be 3356 0e3e a2fb 4cbe
000003f0: 7504 4b3e 49bc 12be 63c1 22be 002b 5c3c
0.027825266 -0.18129225 -0.026124675 0.10602439 -0.22671348 -0.15893719 -0.00897317 0.05407774
-0.07266938 -0.15818542 -0.047463894 0.07049887 0.13920222 0.038581673 -0.2261105 -0.07038309
-0.08794324 0.1941169 -0.12968981 0.19543266 0.015229209 -0.060916025 0.057973955 -0.1065852
0.22731881 0.108149365 -0.044109896 0.040419433 -0.005668034 -0.05902441 0.1043683 0.042350326
-0.027551178 -0.2213543 0.06292702 0.08948288 -0.0723362 0.1076297 -0.09642097 0.0273252
-0.15238412 0.14522788 -0.30448088 -0.09183689 -0.093907 -0.0010808706 0.06828149 0.21496233
0.08126265 -0.13681358 -0.05302186 -0.09162307 -0.08793026 0.20810142 0.24649003 -0.13906734
0.24752577 0.058030944 0.1478968 -0.101308405 -0.086876586 -0.16313623 0.054357145 -0.12993036
-0.10617381 0.14125645 0.004288016 0.024555743 -0.06952529 0.17423217 0.06879251 -0.21095335
0.23789199 -0.16754171 0.22141851 0.1086939 0.009052813 0.14270246 -0.047457576 0.18896312
0.1528514 0.008401711 0.17162585 -0.054505672 -0.12385545 -0.010245163 0.18521036 0.21238089
-0.21136561 0.02162896 -0.19564049 0.08914595 -0.3218972 0.19604245 -0.09119626 0.101637654
-0.13595602 -0.025490813 -0.10669914 0.0687918 -0.29426044 0.09604098 -0.039815128 0.14456075
0.11831925 0.088174224 0.010342833 0.089426 -0.0032793202 0.1142943 0.040384263 0.06131177
0.05054516 0.34364796 -0.092650265 -0.14506854 0.31328574 -0.10263935 0.33118528 0.3583154
-0.031948164 -0.22484167 -0.04517142 0.13841183 0.15816605 0.012593798 0.11580155 0.11407413
0.040681962 0.22448884 0.079740316 0.07911622 0.19853227 0.06849893 0.01365689 0.08030674
-0.10843411 -0.104544856 -0.034556504 0.12501091 0.17033656 0.2512621 0.019164259 -0.20191602
-0.059075147 0.10283775 0.08143312 0.012653859 0.19909723 0.15161729 -0.16804743 -0.062874556
0.11837777 0.26078057 -0.17696135 0.16070749 0.084079355 -0.005960606 -0.16714375 0.079158686
0.089077584 -0.21287686 -0.29774046 -0.013798491 -0.123082794 -0.24107632 0.2669072 -0.09375351
0.061160598 0.26209018 -0.12832464 0.1903881 -0.1594507 -0.13193852 0.22527555 0.021287113
0.31014034 0.25291544 0.0516316 -0.10633227 -0.11575164 0.15916306 -0.02515311 0.24646458
-0.0872541 -0.24117565 -0.083704114 0.07184433 -0.035609886 -0.25548667 0.061730612 -0.13945584
0.06767197 -0.019313034 0.0282929 0.12797815 0.18973315 -0.1459071 0.069582954 0.223033
0.15198313 -0.07055485 0.10429914 0.07800036 0.14089069 0.25475842 -0.20243816 -0.008300094
-0.15791434 0.041095637 -0.075071424 -0.000539891 -0.2992028 -0.18339412 0.016057717 -0.33204928
-0.05205626 -0.24589348 0.051587604 -0.13876307 0.17228024 -0.08022617 0.004731501 0.096925505
-0.07335432 -0.19047673 0.14856885 -0.0158191 0.2407287 -0.20799172 -0.16938686 0.18845096
0.01852481 -0.054778095 -0.20760442 -0.04239784 -0.20570979 0.1585603 0.15275805 0.22551022
-0.21237563 0.1742178 -0.030824509 0.1852629 -0.21273479 0.22877838 -0.025015302 -0.26390433
-0.24245436 -0.22700012 0.1390007 -0.20017865 0.19825919 -0.14329638 -0.15894084 0.013437986

fc3.bias f4 [4733]
00000000: 6021 dd3d d406 00bd 35d7 263d a781 c7bd
00000010: 5588 52bd 4d2e 86bd b619 5d3d a7ad a9bd
00000020: 6fc0 adbd a0ef 8cbd 19c6 d23d 500c b5bd
00000030: 2c23 dd3d c5b5 91bd ee97 133e 5dc4 b23c
00000040: 144b 973d 0b4f 9c3d 1b6a 37be d654 c03d
00000050: df20 adbd 1f97 a33d 8149 82bc 6e7d 403e
00000060: 6215 1c3e 5370 e7bd 2768 a03d 87e5 8b3c
00000070: 1b62 2c3e 4d95 33be e329 48be 5e7a 3f3d
00000080: 045a 9bbd fa4e f8bc ed2b 0a3e 34e3 8ebb
00000090: c7d0 b93d 9a09 d0bd 657f 383e 2fc3 43bd
000000a0: d68c 7c3c d1fc 3a3c 3071 cb3d 1119 133c
000000b0: 7cca ca3c d351 113e 15fb fdbd c3c9 ba3d
000000c0: e51b b2bd 461d 42be 58d1 3b3c d705 803d
000000d0: 8eac d03d c7b7 f3bd ca84 18bc ff9e 48be
000000e0: 6f82 d3bc 700b fcbb e79d ddbd 2036 803d
000000f0: ce05 463d 6f4d d4bd 5de5 48bb 1f7e 1f3e
00000100: 751c 3a3e 13ec 313e 9a94 1dbe 1fff 953d
00000110: e9cd 0bbe 5b51 22be e5ed 16be 4c0f 8abd
00000120: ac35 863d dfc6 aebd 9560 663d 97f4 95bc
00000130: 7dfc 833c b0b1 8fbd 4710 0ebe 82bb 0abe
00000140: ca72 39be 1f88 403e 5679 16be 426d dc3d
00000150: 6855 263e 97ec d7bd 46d2 4a3d 573c 23be
00000160: 71cb 2abd 1b64 54bd aa28 c3bd 1743 37bd
00000170: 87f0 953b a433 f23d 5259 fabd 08c8 0d3e
00000180: 44f1 a6bd 07b1 6fbd 7df1 d63d a47c 8abc
00000190: 441a 0abe bc21 fb3d db07 a1bd 9e35 0e3e
000001a0: 111a 363e b29a 9e3d 9b1a fb3c 5b13 183e
000001b0: 73c8 113d 2ea4 77bd e39e 8cbd 3176 fbbd
000001c0: 82c2 ccbd 2032 953d 4fe5 67bd 83d2 f2bd
000001d0: 1866 8a3d 0b65 d5bd 354a 573d 8c85 dabd
000001e0: 0849 a4bd 225b 2c3d fc1e d8bc 25aa 113e
000001f0: 9ba8 9ebd ebfa f5bd 7163 1dbd a57e f33d
00000200: f601 f0bd aaa5 47bd 704c aabd 35d6 b4bd
00000210: 58d0 6e3d 44c9 37bd a49d 183d 1b31 3ebd
00000220: 32d9 ffbd ec01 8ebd 31a1 1ebe 4275 f7bd
00000230: 8ffb 27be 379b 483d 448b 06be d7ba 04be
00000240: 5eb1 b5bd 78be 42bd 8ac0 e73d 65da dd3c
00000250: 1267 febc d81d e03d bca8 46bd 31b1 c93d
00000260: 3be8 863d 1fcc 273e 3a48 4c3b 9cdf 1bbd
00000270: a5ac 94bc b693 29be a8f1 e7bd b15a 803d
00000280: 0729 1d3e b11e 043d e664 1dbe ee33 1abc
00000290: 6ee6 32bc 6284 f73d e56d afbd f871 b8bc
000002a0: 6ea5 d23c 7820 c63c a47c 9c3c e11a 563e
000002b0: bb81 f1bc c72c bc3c f67d 9e3d 5d5a bdbc
000002c0: 15f3 093e 81c9 213e 6841 403e cd8d d23d
000002d0: c7a8 813d 5116 4cbd 5beb 123e b104 8f3d
000002e0: 53ee 123e af78 073e aa1e 473d 4901 2a3e
000002f0: e138 92bd 176c 303c 3bc3 b2bd 28b0 dfbd
00000300: 6597 8bbd cb60 56bd b009 333e a435 93bc
00000310: 617a 8e3c 682c 7dbd f28d 0e3e 5805 13be
00000320: cd67 2dbe 0b6d cb3c 17e4 1dbe a3c2 0d3d
00000330: 30ec 063e 191a bb3d eece debd 6db8 453e
00000340: 9d8f 1d3e c8c0 473d 5006 fabd ce70 25bd
00000350: 8c16 8fbd c75a 933d cf24 16bd 9557 e23d
00000360: af47 223d aa14 25be 461b 7c3d dbdc c8bd
00000370: 14b8 063d 738b 5f3d 6af1 06be e95a 113e
00000380: e519 31bb 4048 33bd 1b5e 9c3d 7408 51bd
00000390: f37c 0d3e 1bfa c63c 8865 d63c 06f0 073e
000003a0: 7cf6 273c 3403 20be b3a5 a83c 9671 b4bd
000003b0: f5fc 19be a480 8f3d 78f0 0ebe 2425 a3bc
000003c0: a75d aa3d b6c6 1abd 25f6 34bd 49e9 02bd
000003d0: 377a 8a3d ce2f f43d a196 57bc efdf 3e3e
000003e0: 8c7c 833d 9252 063e 4327 863d 4d27 0abd
000003f0: c985 e43d fecd 643d dc71 04bd 38a7 c63d
0.107973814 -0.03125651 0.04073258 -0.09741526 -0.051399548 -0.065518 0.053979598 -0.08285075
-0.084839694 -0.06881642 0.102916904 -0.08840239 0.10797724 -0.07114748 0.14413425 0.021822149
0.07387367 0.07632264 -0.1791157 0.09391181 -0.08453535 0.079878084 -0.01590419 0.18797848
0.15242532 -0.11300721 0.078323655 0.01707722 0.168343 -0.17537422 -0.19547229 0.046747558
-0.075855285 -0.030311096 0.13493319 -0.004360581 0.09073024 -0.10158081 0.18017347 -0.047793563
0.015414437 0.011412815 0.09933698 0.008978144 0.024754755 0.1419137 -0.12401406 0.09120514
-0.08696727 -0.1895648 0.011463486 0.06251114 0.10189162 -0.11900287 -0.009309003 -0.19591902
-0.025819032 -0.007691793 -0.10821133 0.062603235 0.04834538 -0.10366332 -0.003065429 0.15575455
0.18174918 0.17375211 -0.15388718 0.07324051 -0.13652767 -0.15851347 -0.14739187 -0.06741199
0.06553206 -0.085340254 0.05624445 -0.018305106 0.016111607 -0.07016313 -0.13873397 -0.13548091
-0.18110195 0.18801926 -0.14694723 0.10763027 0.16243517 -0.10543173 0.04951694 -0.15940987
-0.041697923 -0.05185328 -0.095292404 -0.044741716 0.0045757922 0.11826256 -0.12224068 0.13845837
-0.081514865 -0.058518436 0.10495279 -0.016905136 -0.13486582 0.12262294 -0.078628264 0.13887641
0.17783381 0.077443495 0.030652335 0.14851134 0.035591554 -0.06045931 -0.06866243 -0.122784026
-0.09998037 0.07284951 -0.05661517 -0.11856558 0.06757754 -0.10419663 0.052561004 -0.10670003
-0.08021742 0.0420791 -0.026381962 0.14225061 -0.07747003 -0.120107494 -0.038424913 0.1188939
-0.11719124 -0.048741974 -0.083153605 -0.08829919 0.05830416 -0.044869676 0.037259713 -0.04643355
-0.124925986 -0.0693396 -0.15491177 -0.12082912 -0.16404556 0.04897615 -0.13139063 -0.12961899
-0.08871721 -0.047544926 0.11316021 0.027081678 -0.031055007 0.10943192 -0.04850076 0.0984825
0.06587263 0.1638646 0.003117098 -0.038055047 -0.01814873 -0.16560254 -0.11325389 0.06267298
0.15347682 0.032255832 -0.15370521 -0.009411795 -0.0109191965 0.12085797 -0.085658826 -0.022515282
0.025713649 0.024185404 0.019102402 0.20908691 -0.029480806 0.02297057 0.07738869 -0.023114378
0.13471635 0.15799524 0.1877495 0.102809526 0.0633102 -0.04982597 0.14347593 0.06983317
0.14348726 0.13229631 0.048613228 0.16602053 -0.07139755 0.010767958 -0.087286435 -0.10922271
-0.068159856 -0.052338403 0.17484164 -0.017969914 0.01739234 -0.061809927 0.13921335 -0.14357507
-0.16934128 0.02483227 -0.1541904 0.03460945 0.13176036 0.09135837 -0.108793125 0.19308634
0.15386815 0.048767835 -0.12208235 -0.040390782 -0.06986722 0.07195049 -0.036656197 0.11051861
0.039619144 -0.16121164 0.061549447 -0.0980775 0.032890394 0.05457635 -0.1317803 0.14194836
-0.002702349 -0.043770075 0.07635137 -0.051033452 0.13817196 0.024289181 0.02617146 0.13275155
0.010251638 -0.15626222 0.020586824 -0.08810727 -0.15037902 0.07006958 -0.13958919 -0.019915171
0.08318644 -0.03778716 -0.044180054 -0.03196076 0.06761592 0.119231805 -0.013158471 0.18640111
0.0642024 0.13117436 0.06550457 -0.033728886 0.1115833 0.055860512 -0.032335147 0.09699863
