Python/RNN/models/modelTESTREPEAT.pt (torch, 493415 bytes, 10 tensors)

fc1.weight f4 [50, 100]
0	0x3c1517e8	0.009099938
1	0x3b7d06c0	0.003860876
2	0x3d7abff6	0.061218224
3	0x3d50061a	0.05078707
4	0xbcea5858	-0.028606579
5	0x3cfc290c	0.030781291
6	0xbd2b483d	-0.04181694
7	0x3cff0804	0.031131752
8	0x3d16def6	0.036833726
9	0x3d539cba	0.051663138
10	0x3cf6ac94	0.030111589
11	0x3c8de3f8	0.017320618
12	0x3da1940b	0.07889565
13	0xbcd00fb8	-0.02539812
14	0x3dcb1ae1	0.09917236
15	0xbcb90a58	-0.02258794
16	0xbd7b9d80	-0.0614295
17	0xbd5c192d	-0.053734947
18	0xbd997593	-0.07493129
19	0xbca3e3cc	-0.020006083
20	0x3dbe873f	0.0930314
21	0x3d3611e6	0.044450663
22	0x3a943c80	0.0011309534
23	0x3c1f7cf0	0.009734377
24	0x3d8b1a15	0.06792084
25	0x3d72de82	0.05929423
26	0xbb16c600	-0.00230062
27	0x3d247a4e	0.0401557
28	0x3d3d0fa2	0.046157487
29	0x3b4fc6c0	0.0031704158
30	0x3d2e97a2	0.042625077
31	0xbd689bb0	-0.0567891
32	0xbda57202	-0.08078386
33	0xbda4151b	-0.08011838
34	0x3b4ac7c0	0.0030941814
35	0x3ce3bfb4	0.027801372
36	0x3d1f05a2	0.03882373
37	0xbd194b86	-0.03742554
38	0xbdb1b843	-0.08677723
39	0x3d48920e	0.048967414
40	0xbd50307a	-0.05082748
41	0xbc9d86a0	-0.019229233
42	0xbda389f3	-0.07985296
43	0x3d5b0c96	0.0534788
44	0xbc879b94	-0.016553678
45	0x3d4d026a	0.05005113
46	0xbd8ee95a	-0.06978102
47	0xbd67025a	-0.056398727
48	0xbdbc403f	-0.091919415
49	0x3db95ca9	0.09050877
50	0x3ce1a7a4	0.027545758
51	0xbb957be0	-0.004561886
52	0xbd7dcff3	-0.061965894
53	0x3d3f62e2	0.04672516
54	0x3cd1a2e4	0.025590368
55	0xbcaf412c	-0.021393381
56	0xbdb68da5	-0.08913735
57	0x3c72eab0	0.014826462
58	0xbda237a2	-0.07920767
59	0x3d1f182a	0.038841404
60	0xbc6f0a00	-0.0145897865
61	0x3d67360a	0.05644802
62	0x3d8069e7	0.06270199
63	0x3c926608	0.017870918
64	0x3d2b1c72	0.041775174
65	0x3dbfae7b	0.093594514
66	0x3ce98cdc	0.02850955
67	0xbc06dd10	-0.008231416
68	0xbbde3560	-0.006781265
69	0xbcf79e18	-0.030226752
70	0x3d9675a9	0.07346661
71	0xbdaf9c42	-0.08574726
72	0x3da8210b	0.082094274
73	0x3d9844f9	0.074350305
74	0x3cdda454	0.027055897
75	0xbdcbcebd	-0.099515416
76	0x3d667fc2	0.056274183
77	0xbd83183c	-0.06401107
78	0x3cb304a0	0.021852791
79	0xbd9a4ea8	-0.07534534
80	0xbd70fbc0	-0.058833838
81	0xbd82c4a6	-0.06385164
82	0xbd80c4d6	-0.062875435
83	0xbc5a6798	-0.013330363
84	0xbd1c0ecd	-0.038100053
85	0x3d811c27	0.06304198
86	0x3d9ee6ed	0.07758889
87	0x3ca9b398	0.02071552
88	0xbdb102d5	-0.08643118
89	0xbc7ca3f0	-0.015419945
90	0x3d603ab6	0.05474349
91	0x3db945ad	0.09046493
92	0x3bf01cd0	0.0073276535
93	0x3c4454d0	0.0119831115
94	0x3db8131d	0.089880206
95	0xbc85ef00	-0.016349316
96	0x3da6cce5	0.08144549
97	0xbd64fc13	-0.05590446
98	0x3cf2bdfc	0.029631607
99	0x3dc2a051	0.09503234
100	0x3de3cc05	0.11122898
101	0x3fc72b82	1.5560153
102	0x3f2465dd	0.6421793
103	0xbd9319ea	-0.07182677
104	0xbcd33e74	-0.025786616
105	0x3f69292b	0.9107844
106	0xbfd747b4	-1.6818757
107	0x3e621395	0.22077782
108	0xbf0a64d3	-0.54060096
109	0xbf5c91c0	-0.86159897
110	0xbf4c70d8	-0.79859686
111	0xbf368ab7	-0.7130541
112	0xbf569f4d	-0.83836824
113	0x3fbf4d1e	1.4945409
114	0x3f9fd035	1.2485415
115	0x3e1f7a42	0.15573981
116	0xbe810e64	-0.25206292
117	0x3e860d50	0.26182032
118	0xbf1b8494	-0.60749173
119	0x3f87cc23	1.0609173
120	0x3c711ec5	0.014716809
121	0xbe8f5d0e	-0.28000683
122	0xbdc59cc2	-0.0964904
123	0x3e1e274c	0.15444678
124	0x3ee214d4	0.44156516
125	0x3f25d7d3	0.64782447
126	0xbe7b8266	-0.24561462
127	0xbf403a8a	-0.75089324
128	0xbf8b5e3e	-1.0888135
129	0x3e213fba	0.15746966
130	0xbff82fda	-1.9389603
131	0x3f831e36	1.0243595
132	0x3ed0b09c	0.40759742
133	0xbdfc38f8	-0.123155534
134	0x3f1052e5	0.56376487
135	0xbeba921c	-0.36439598
136	0x3f82eed2	1.0229132
137	0x3e874c30	0.26425314
138	0x3f124f13	0.5715191
139	0xbecd9584	-0.40153134
140	0x3f361f73	0.7114174
141	0x3dbe47c6	0.092910334
142	0x3f891467	1.0709351
143	0xbf91f53e	-1.1402967
144	0xbf203121	-0.62574965
145	0x3de772e7	0.11301213
146	0x3f3ed49a	0.74543154
147	0xbfbdda4e	-1.4832246
148	0x3ed05a7a	0.40694028
149	0xbeb6de4b	-0.3571647
150	0x3f373bcf	0.71575636
151	0xbf135f62	-0.5756742
152	0xbe95758e	-0.2919125
153	0x3f91fbc9	1.1404964
154	0x3ea778f3	0.32709464
155	0x3fc95094	1.5727715
156	0x3e1fdc1e	0.15611312
157	0xbe646b50	-0.22306561
158	0xbe4c06f1	-0.19924523
159	0x3ed90c2c	0.423921
160	0x3dc2fdc7	0.095210604
161	0xbf3dd5de	-0.7415446
162	0xbd4d5b5c	-0.050135955
163	0xbfc02a89	-1.5012981
164	0xbfc0f52b	-1.5074819
165	0x3fbed32a	1.4908192
166	0xbf8de204	-1.10846
167	0xbdd00148	-0.101564944
168	0xbe5f5179	-0.21808423
169	0x40014d70	2.0203514
170	0xbf0ccf7f	-0.55004114
171	0x3fbef318	1.4917936
172	0x3f8677e4	1.0505338
173	0x3d429bb2	0.047511764
174	0x3fa63392	1.2984488
175	0x3f3f8073	0.7480537
176	0x3f943700	1.1579285
177	0x400688f9	2.1021101
178	0xbede6dd9	-0.43443182
179	0x3e03e421	0.12879993
180	0xbf35f303	-0.7107393
181	0x3f01ab38	0.50651884
182	0x3f668b08	0.90055895
183	0x3f312f95	0.6921323
184	0xbf5570df	-0.8337535
185	0x3fcae5dc	1.5851398
186	0x3f69d5c2	0.91341794
187	0xbdb22389	-0.08698184
188	0xbfa090ef	-1.254423
189	0xbc60a1c8	-0.013710447
190	0xbf8c9298	-1.0982237
191	0x3e9a2975	0.30109754
192	0x3f2269c7	0.63442653
193	0x4010d37c	2.262908
194	0xbf6a1c71	-0.9144965
195	0xbdb2d150	-0.087313294
196	0x3db06ac3	0.08614113
197	0x3f6aa72c	0.91661334
198	0xbf8c4595	-1.0958735
199	0x3fa327d4	1.274653
200	0xbfccc063	-1.5996212
201	0xbe5cd816	-0.21566805
202	0xbe8fe936	-0.28107613
203	0xbe1c0ec2	-0.15240005
204	0xbfd1f591	-1.6403066
205	0xbf1ab442	-0.604313
206	0x3fea14ad	1.828756
207	0xbfd52686	-1.6652381
208	0x3f0c217b	0.5473859
209	0x3fb4e3b0	1.4131985
210	0x3ce89b67	0.028394414
211	0xbffdca24	-1.9827313
212	0xbe3b3373	-0.18281345
213	0xbe728291	-0.2368262
214	0x3c6b9729	0.014379301
215	0x3f86477e	1.0490568
216	0xbf7e9fd9	-0.9946266
217	0xbeef3b43	-0.467249
218	0xbffd4e9d	-1.9789616
219	0xbedbaec0	-0.4290676
220	0x3fd05424	1.6275678
221	0xbdf23b88	-0.11827761
222	0xbfd74622	-1.6818278
223	0xbeb63374	-0.3558613
224	0xbf5cdea8	-0.86277246
225	0xbfdbe13d	-1.7178112
226	0x3ed705dd	0.4199666
227	0x3fb563ac	1.4171042
228	0x3f58ef07	0.84739727
229	0x3f9cbce5	1.2245146
230	0x3fd42d00	1.6576233
231	0x3ee6b55f	0.4506025
232	0xbe23aa20	-0.15982866
233	0x3fa73d29	1.306554
234	0x3fdde92a	1.7336781
235	0x3f0cec99	0.5504852
236	0xbe2726f7	-0.16323458
237	0xbe15fc01	-0.14646913
238	0x3f14d48e	0.5813683
239	0xbf14d258	-0.5813346
240	0x3ef488c1	0.47760585
241	0x3ec71b24	0.38887894
242	0xbde3e7c2	-0.11128189
243	0x3ff4dec4	1.9130483
244	0x3f7ce850	0.9879198
245	0xbe94c031	-0.2905288
246	0xbf0bcc55	-0.5460866
247	0x3fc8c31a	1.568454
248	0xbf1df3bf	-0.6170005
249	0x3ff1e855	1.8899027
250	0xbea001e4	-0.31251442
251	0x3e54fd7f	0.20799826
252	0xbe1db823	-0.15402274
253	0x3dd70121	0.10498262
254	0x3e348d6e	0.17632076
255	0xbfe4b048	-1.7866297

fc1.bias f4 [50]
0	0xbd34be37	-0.044126716
1	0x3de0abcc	0.10970268
2	0x3eb3fbc1	0.3515301
3	0x3cc3bb04	0.023892887
4	0xbd3223e7	-0.04349127
5	0xbd5c9183	-0.05384971
6	0x3e6523e0	0.22376966
7	0xbd2b822a	-0.04187218
8	0x3e419ec4	0.1890822
9	0xbdb334a0	-0.08750272
10	0xbd5fd697	-0.05464801
11	0x3f10539c	0.5637758
12	0x3e8e0fc4	0.27746403
13	0x3e034048	0.1281749
14	0x3d49b3e1	0.04924381
15	0x3ea47912	0.3212362
16	0x3e97b829	0.2963269
17	0x3e5d782a	0.2162787
18	0x3e41945b	0.1890425
19	0xbd059906	-0.032616638
20	0xbd837abe	-0.064198956
21	0xbdc2e340	-0.09516001
22	0x3e2837bd	0.16427512
23	0xbdc994a0	-0.09842801
24	0x3d979d45	0.07403044
25	0xbdb712f7	-0.08939164
26	0x3e97d6ed	0.29656163
27	0xbda9b3b6	-0.0828623
28	0xbd13d7b6	-0.03609439
29	0xbdc5f46d	-0.09665761
30	0x3e670f2e	0.22564384
31	0x3da01b5b	0.07817718
32	0x3e1ea1b3	0.15491371
33	0xbcde9e1a	-0.027174998
34	0x3dfaf7a1	0.12254263
35	0x3ea2644f	0.31717154
36	0xbcc4d1b4	-0.024025775
37	0x3e5fab54	0.218427
38	0xbc049531	-0.008092211
39	0x3d14cede	0.036330096
40	0xbd6cf693	-0.05785234
41	0x3e274ba2	0.16337445
42	0x3e5f3f9f	0.21801613
43	0x3e8061d0	0.25074625
44	0xbd27b62a	-0.04094521
45	0x3dbd1c55	0.092339195
46	0xbd7f043d	-0.0622599
47	0xbda7e498	-0.08197898
48	0x3e400ffd	0.18756099
49	0x3e723975	0.2365473

attention.weight f4 [50, 1000]
0	0x3de1831c	0.11011335
1	0x3d0d3c6d	0.034481455
2	0xbf36b65c	-0.7137201
3	0xbea59e17	-0.32347175
4	0x3f7554ee	0.9583272
5	0x3e79cb7c	0.2439403
6	0xbfa05a70	-1.2527599
7	0x3eea47a2	0.45757776
8	0xbd032f62	-0.03202761
9	0x3fb3e976	1.4055622
10	0xbed70648	-0.4199698
11	0x3e9f27d5	0.31085077
12	0x3f4c46c3	0.79795474
13	0x3e6cbbbd	0.23118491
14	0x3eceeb79	0.40414026
15	0x3f00654a	0.50154555
16	0xbd23bfd9	-0.039977882
17	0xbf2f774b	-0.685414
18	0x3ed599a2	0.41718775
19	0x3f09e4ae	0.5386456
20	0x3e6d61ab	0.23181789
21	0xbe9a2516	-0.3010642
22	0x3f6e363a	0.93051493
23	0xbe4e59ce	-0.20151445
24	0xbf5769d2	-0.84145844
25	0xbf0fab32	-0.561206
26	0x3eee3464	0.46524346
27	0x3ee2e45a	0.44314843
28	0xbf2eba38	-0.682529
29	0xbda6faa4	-0.08153275
30	0x3f013457	0.5047049
31	0x3dda4e03	0.10659411
32	0xbeea6be3	-0.45785436
33	0xbdee645e	-0.11640237
34	0xbe92b12f	-0.28650805
35	0x3e4cd965	0.20004804
36	0xbf3026fe	-0.688095
37	0x3f7dfefb	0.99217194
38	0xbe40e9a1	-0.18839122
39	0x3e1834a6	0.14863834
40	0x3de562ec	0.112005085
41	0xbf279b9c	-0.65471816
42	0xbe902e11	-0.28160146
43	0x3e786230	0.24256206
44	0xbefb8f21	-0.49132636
45	0xbf66ace7	-0.9010758
46	0x3bc8cc7a	0.006127891
47	0xbf11034c	-0.56645656
48	0x3eaf6863	0.34259328
49	0x3ddfddde	0.1093099
50	0xbdcf8652	-0.101330414
51	0xbebedf97	-0.3727996
52	0xbf210111	-0.6289225
53	0xbf01d758	-0.50719213
54	0xbeb00781	-0.34380725
55	0x3f4a0636	0.7891573
56	0x3dd4e538	0.103952825
57	0x3d13aa93	0.036051344
58	0x3d3d9bad	0.046291042
59	0x3e30853c	0.17238325
60	0xbed64fd7	-0.41857788
61	0x3f071909	0.52772576
62	0xbe8480a5	-0.25879398
63	0x3e93aef7	0.28844425
64	0xbe20d0d8	-0.15704668
65	0x3f2b07d3	0.66808814
66	0xbdd17b64	-0.10228613
67	0x3e123373	0.14277439
68	0xbef86d80	-0.48521042
69	0xbef3299d	-0.47492686
70	0x3f04e539	0.51912266
71	0x3f186a9c	0.59537673
72	0x3e63d5ba	0.22249499
73	0xbe87d941	-0.2653294
74	0x3e192bca	0.1495811
75	0xbdf8e7a1	-0.12153555
76	0x3e551cbe	0.20811746
77	0x3e147796	0.14498743
78	0x3dd64b26	0.10463552
79	0x3f10460b	0.5635688
80	0xbf70dfac	-0.94091296
81	0x3e363866	0.17794952
82	0x3eed0a30	0.46296835
83	0xbf0d0c19	-0.55096585
84	0xbf0339a7	-0.51259845
85	0x3e8eee3c	0.27916133
86	0xbef009a3	-0.46882352
87	0xbd084bb5	-0.033275325
88	0xbe67a169	-0.22620167
89	0xbe10ef72	-0.14153841
90	0xbcf11cec	-0.029432736
91	0xbe519cc5	-0.20469959
92	0xbddbe075	-0.10736171
93	0x3ecb24bd	0.39676467
94	0xbed6b3d1	-0.41934064
95	0x3ec28076	0.37988633
96	0x3e6abbae	0.22923157
97	0x3e4637fe	0.19357297
98	0xbeca796d	-0.39545766
99	0xbe9df68b	-0.3085216
100	0x3f68c6d9	0.9092842
101	0x3d1c9888	0.038231403
102	0x3ea22c5d	0.31674471
103	0xbed640e2	-0.41846377
104	0x3f697fa4	0.9121039
105	0x3dfa0234	0.122074515
106	0xbd1da68b	-0.038488906
107	0x3ed37097	0.41296837
108	0xbe721f4b	-0.2364475
109	0x3fae5b86	1.3621681
110	0x3f7d2be7	0.98895115
111	0xbf80d331	-1.006445
112	0x3f088b65	0.533377
113	0x3f079d36	0.5297426
114	0xbeff991d	-0.49921504
115	0xbf16bf4c	-0.58885646
116	0x3fc42370	1.5323315
117	0x3f375cf2	0.716262
118	0x3cd4fc5d	0.025999242
119	0x3f4323d9	0.76226574
120	0xbedad0c0	-0.4273739
121	0xbc4fe0ed	-0.012687904
122	0xbf2b6194	-0.6694577
123	0x3f28964a	0.6585432
124	0x3ec4c212	0.38429314
125	0x3ecad906	0.396187
126	0xbeb48b17	-0.35262367
127	0x3db83733	0.089949034
128	0x3f3b5112	0.7317058
129	0x3f3d7652	0.7400867
130	0xbd6eb1c1	-0.058274988
131	0xbf8538d2	-1.0407965
132	0xbdf8cc7d	-0.12148378
133	0xbf0f2584	-0.5591662
134	0x3f336927	0.70082325
135	0x3f1cb4c8	0.6121335
136	0xbe2a0f1c	-0.16607326
137	0x3c1ca69b	0.009561206
138	0xbeabefac	-0.33581293
139	0xbee27679	-0.44231012
140	0xbf69855d	-0.9121912
141	0x3f5b5ce3	0.8568861
142	0xbbc248e4	-0.0059290994
143	0x3f4a3756	0.78990686
144	0x3f6c9439	0.9241367
145	0x3f3f8656	0.74814355
146	0x3f697758	0.9119773
147	0xbe646930	-0.22305751
148	0x3d35b710	0.044364035
149	0x3f5a8c84	0.8537066
150	0xbe11a6be	-0.14223763
151	0x3e6be5c4	0.23036867
152	0xbe881bb9	-0.2658365
153	0x3f355c46	0.70843923
154	0xbe94eee5	-0.29088512
155	0x3f64cfe4	0.89379716
156	0x3f8c8aff	1.0979918
157	0x3fb4fe3d	1.4140087
158	0x3f3d95dc	0.7405679
159	0x3ee9f317	0.45693275
160	0xbec67825	-0.38763538
161	0x3fda20a2	1.7041209
162	0x3fd7608a	1.6826336
163	0xbf867f27	-1.0507554
164	0xbf76ea89	-0.9645162
165	0x3de9e26c	0.1142014
166	0x3e31a61f	0.17348526
167	0x3f12d500	0.5735626
168	0xbdb87ac5	-0.090077914
169	0xbe88a1b5	-0.26685873
170	0x3ecb6c33	0.39730987
171	0xbf3acb11	-0.72966105
172	0xbe1ebd4c	-0.15501899
173	0x3e69ae6b	0.22820441
174	0x3f0e32ba	0.5554615
175	0x3efe181f	0.49627778
176	0xbd980af2	-0.07423963
177	0xbdf22660	-0.11823726
178	0x3eacdc1a	0.33761674
179	0xbdb10624	-0.08643749
180	0x3f28ca62	0.6593381
181	0xbe1e393e	-0.15451524
182	0x3ea54aa6	0.32283515
183	0xbf9b40b8	-1.2129126
184	0xbf1f0083	-0.62110156
185	0xbdb3100d	-0.08743296
186	0x3e5a56d5	0.21322186
187	0xbf152692	-0.5826198
188	0xbf063bef	-0.524352
189	0x3f717a55	0.9432729
190	0x3f4b32c8	0.7937436
191	0xbd5582b9	-0.05212662
192	0x3f160965	0.58608085
193	0x3f5c8c1b	0.86151284
194	0xbeb80fb9	-0.35949495
195	0x3e814f9b	0.25256047
196	0x3e9a0a9b	0.30086216
197	0xbbc0241e	-0.0058636805
198	0xbe6a91c1	-0.22907163
199	0xbc02915a	-0.007969225
200	0x3d78e0ef	0.06076139
201	0x3e9c651f	0.305459
202	0xbdd062b3	-0.101750754
203	0x3de379dc	0.11107227
204	0x3e80c928	0.2515347
205	0x3e08cc3f	0.13359164
206	0x3f6ecbf4	0.9327996
207	0xbe787f21	-0.24267246
208	0xbd615eb8	-0.05502197
209	0xbe9d4774	-0.30718577
210	0xbec4ffb0	-0.38476324
211	0xbeaf019a	-0.3418091
212	0x3e902d20	0.28159428
213	0xbe8a42c8	-0.27004075
214	0x3ea73fff	0.32666013
215	0x3f200f16	0.6252302
216	0x3c070236	0.008240273
217	0xbc5791c2	-0.01315731
218	0xbe3e12b4	-0.18561822
219	0x3efdbfdd	0.49560443
220	0x3e0399f1	0.12851693
221	0xbdd32fcc	-0.10311851
222	0x3e015f11	0.12633921
223	0x3e8819be	0.2658214
224	0x3ec91021	0.39270118
225	0xbeb13c58	-0.3461635
226	0x3e2a0583	0.16603665
227	0x3e0f4b95	0.13993676
228	0x3d72dc64	0.059292212
229	0xbd8a9e12	-0.06768431
230	0xbe575d81	-0.21031763
231	0x3df98eb5	0.12185422
232	0x3f41d908	0.7572179
233	0x3d8b7688	0.068097174
234	0x3ce0ddad	0.027449453
235	0x3e0fb9c3	0.14035706
236	0xbd389ac8	-0.045069486
237	0xbefbcf9e	-0.49181837
238	0x3e536885	0.2064534
239	0x3ddbd7e3	0.107345365
240	0x3f305674	0.68881917
241	0x3f0480b7	0.51758903
242	0xbf2c7220	-0.6736164
243	0x3d79fcb8	0.061032027
244	0xbe8a2f51	-0.26989225
245	0x3de36a07	0.111042075
246	0x3f3e5ac0	0.74357224
247	0x3e89d1d3	0.26917896
248	0xbe1a0318	-0.15040243
249	0xbe9a9ecf	-0.30199286
250	0xbe5f157c	-0.2178554
251	0xbf5db09f	-0.8659763
252	0x3f56156d	0.83626443
253	0xbd4f33f8	-0.05058667
254	0xbe676f8f	-0.2260115
255	0x3ec6449f	0.3872423

attention.bias f4 [50]
0	0xbab6b7df	-0.0013940296
1	0x3d1c5a28	0.038171917
2	0xbd86fe07	-0.065914206
3	0xbe2a4d29	-0.16630997
4	0x3d5d2cb9	0.05399773
5	0x3ea4f2e0	0.3221655
6	0x3c0e5c75	0.008689036
7	0xbd4c333b	-0.049853545
8	0x3e3f911a	0.18707696
9	0x3e6152d5	0.22004254
10	0xbd6d501d	-0.05793773
11	0xbd68b333	-0.056811523
12	0xbe3f570e	-0.18685552
13	0xbd7bb053	-0.061447453
14	0xbdc4d79d	-0.096114375
15	0x3dc46b0b	0.09590729
16	0x3a60e59b	0.0008579136
17	0x3ea1b181	0.31580737
18	0x3a05b9e8	0.00051012496
19	0x3e3e7265	0.18598326
20	0x3cc7ce98	0.024390504
21	0x3ea5fb6b	0.3241838
22	0x3eca21c9	0.394789
23	0xbd4cec55	-0.05003007
24	0xbe229416	-0.15876803
25	0x3ee851e6	0.45374984
26	0xbdd3ffae	-0.103515014
27	0xbdebc826	-0.11512785
28	0x3e16cfbd	0.14727683
29	0x3edd0aa2	0.43172175
30	0x3e81ff09	0.2538989
31	0xbd7b042f	-0.061283287
32	0xbd3601c5	-0.04443528
33	0x3d5c9631	0.05385417
34	0xbde8cff2	-0.113677874
35	0xbd954f7a	-0.072905496
36	0x3dbcc204	0.09216693
37	0xbc9b33b7	-0.018945558
38	0xbe2721ff	-0.16321562
39	0xbcf4ab63	-0.02986688
40	0x3b122b2e	0.002230357
41	0xbcf473e4	-0.029840417
42	0xbe3c4c81	-0.18388559
43	0x3d603685	0.054739494
44	0xbc4db84e	-0.012556149
45	0xbd7da0d9	-0.061920974
46	0x3cff58d3	0.031170284
47	0xbc92fe72	-0.017943595
48	0x3d1dc926	0.03852191
49	0xbdab3f81	-0.08361722

attention2.weight f4 [25, 50]
0	0x3d99566c	0.07487187
1	0xbdfb2504	-0.122629195
2	0x3e05cb85	0.13065918
3	0x3d8d2ee3	0.068937086
4	0xbea10dfb	-0.3145598
5	0xbe7b0871	-0.24514939
6	0xbcd8a06b	-0.02644368
7	0xbdfcb218	-0.12338656
8	0x3d94257f	0.07233714
9	0x3d743d36	0.059628688
10	0x3dcc947f	0.09989261
11	0x3d51c010	0.051208556
12	0x3d79de3f	0.061002966
13	0x3dffe28c	0.12494382
14	0xbcc852c0	-0.02445352
15	0x3b8897ef	0.0041685025
16	0xbcabbb6f	-0.020963399
17	0x3d1687da	0.036750652
18	0xbde3a30f	-0.11115085
19	0xbe98a7c7	-0.29815504
20	0xbe361bae	-0.17783996
21	0xbc704e82	-0.014667155
22	0xbe41ecb4	-0.18937951
23	0xbd8f67ca	-0.07002218
24	0x3d1c58e2	0.038170703
25	0xbe49e10d	-0.19714756
26	0x3cfcc073	0.030853486
27	0xbdda5371	-0.106604464
28	0xbcde8161	-0.027161302
29	0xbe1c60b6	-0.15271267
30	0xbddd3eca	-0.10802992
31	0xbdfa1646	-0.122112796
32	0xbddcaf48	-0.1077562
33	0x3d51c91e	0.05121719
34	0xbe3409db	-0.17581885
35	0xbde58056	-0.11206119
36	0xbd40ca22	-0.04706777
37	0x3dd57449	0.1042257
38	0xbe2f77a5	-0.17135485
39	0x3df9e63e	0.12202118
40	0xbef96222	-0.48707682
41	0xbd1b122a	-0.03785912
42	0x3de247d6	0.11048858
43	0xbe4e9812	-0.20175198
44	0x3d725f90	0.059173167
45	0x3c4935a0	0.012280852
46	0x3c52b3a1	0.01286021
47	0xbb351184	-0.0027628848
48	0x3e13f06f	0.14447187
49	0xbe3cb94b	-0.18430059
50	0xbe206432	-0.15663221
51	0x3c2bbae2	0.010481568
52	0x3d823f3c	0.06359717
53	0x3dc7a57d	0.09748361
54	0xbc68155b	-0.014165248
55	0xbcce999a	-0.025219727
56	0x3d90e98c	0.070757955
57	0xbb6968ad	-0.003561537
58	0x3d3c44f6	0.045964204
59	0x3ce72123	0.028214043
60	0x3d859049	0.06521661
61	0x3d312198	0.043244928
62	0xbdffffc4	-0.12499955
63	0x3ca4db9d	0.020124251
64	0xbde642f6	-0.112432405
65	0xbe1a506b	-0.1506974
66	0xbdf22245	-0.11822943
67	0xbd0a96ac	-0.0338351
68	0x3de37b8a	0.111075476
69	0x3cfbb4b2	0.03072581
70	0x3c455b09	0.01204563
71	0x3ced5f99	0.028976249
72	0xbd74c4e1	-0.05975807
73	0x3d91fdbd	0.07128475
74	0x3d9e7b70	0.077383876
75	0x3b9886ef	0.004654757
76	0x3d91b686	0.07114892
77	0xbc17e080	-0.009269834
78	0x3c968708	0.018374935
79	0xbe346806	-0.17617807
80	0xbdd285fb	-0.10279461
81	0x3bd68180	0.0065461993
82	0xbae23900	-0.0017259419
83	0xbcebd6f6	-0.028789025
84	0xbc6d1d89	-0.014472374
85	0xbdf17f6e	-0.117918834
86	0xbdcda117	-0.10040491
87	0xba8e5a95	-0.0010860736
88	0xbd2a8705	-0.04163267
89	0xbd88ae06	-0.06673817
90	0xbe4638b5	-0.1935757
91	0x3dfaf5ce	0.12253915
92	0x3b776b40	0.0037753135
93	0xbc931cd7	-0.017958088
94	0x3d4b7198	0.04966888
95	0x3d67006c	0.056396887
96	0xbdcdf3f9	-0.100563
97	0xbcb1482f	-0.021640865
98	0x3ce7682a	0.028247911
99	0x3d3b6eb8	0.045759887
100	0xbd7d1a8e	-0.061792903
101	0x3b8ef060	0.004362151
102	0x3ca8514e	0.020546582
103	0xbc3acc89	-0.011401304
104	0xbde7b528	-0.1131385
105	0xbd9b325c	-0.07577965
106	0x3d754f5d	0.05989014
107	0x3d6eb796	0.05828055
108	0xbe21cdde	-0.15801188
109	0xbe478b96	-0.19486842
110	0xbdd0eb25	-0.102011
111	0xbdfc4a60	-0.123188734
112	0x3e011285	0.12604721
113	0x3dcce964	0.10005453
114	0xbda828ae	-0.08210884
115	0xbcffd326	-0.031228613
116	0x3c03c2a3	0.0080420105
117	0xbdd0bc84	-0.101922065
118	0xbe5bada7	-0.21452962
119	0xbe1a484e	-0.15066645
120	0xbdb54d5b	-0.08852645
121	0x3d0f8daf	0.03504723
122	0x3dd5f8b6	0.104478285
123	0x3de09e75	0.10967723
124	0x3dbe3da1	0.092890985
125	0xbd7af0ba	-0.06126473
126	0xbdf590f8	-0.11990541
127	0x3d9022f6	0.07037918
128	0x3d2a39d5	0.04155906
129	0xbd815c6f	-0.063164584
130	0xbe0bd845	-0.13656719
131	0xbd613e56	-0.05499109
132	0x3e0ee2b3	0.13953666
133	0x3cde684d	0.027149344
134	0x3ca1be3e	0.019744035
135	0xbda01790	-0.07816994
136	0xbd23bd01	-0.03997517
137	0xbe3d0577	-0.18459116
138	0xbcc6aff0	-0.024253815
139	0x3da6f850	0.081528306
140	0xbe6dc9ae	-0.23221466
141	0x3ddbfa2e	0.10741077
142	0xbd930f2c	-0.07180628
143	0x3c87698a	0.016529817
144	0xbd90da1b	-0.0707285
145	0x3dd90842	0.10597278
146	0xbbc683c7	-0.0060581896
147	0x395ba28b	0.0002094602
148	0xbd9df64c	-0.07712993
149	0xbdad2e44	-0.0845609
150	0xbe21e636	-0.15810475
151	0xbdd3c7ba	-0.10340829
152	0xbd5e66c8	-0.05429724
153	0xbc085bf0	-0.008322701
154	0xbe3071f3	-0.17230968
155	0xbd27190b	-0.040795367
156	0x3d129b82	0.035792835
157	0xbdebb52c	-0.11509165
158	0xbe08f7e0	-0.13375807
159	0xbd8e5374	-0.06949511
160	0xbd9ccded	-0.07656465
161	0xbc2b6100	-0.010460138
162	0xbd48cb60	-0.04902208
163	0xbd88585c	-0.06657478
164	0x3bc58760	0.006028101
165	0xbd9de46a	-0.07709582
166	0x3d462199	0.048371885
167	0xbd69dcdb	-0.05709539
168	0xbdefa820	-0.11701989
169	0xbc777eba	-0.015105898
170	0xbc5733ea	-0.013134936
171	0xbddcbb20	-0.10777879
172	0xbd6c39ee	-0.057672434
173	0x3d683b56	0.056697212
174	0x3dc122cc	0.09430465
175	0xbdfa4ef1	-0.12222088
176	0x3e13527e	0.14386937
177	0x3d14e6e0	0.036352992
178	0xbc8918be	-0.01673543
179	0xbe2ee41e	-0.17079207
180	0xbd46a96d	-0.04850142
181	0xbe104e84	-0.14092451
182	0x3d4f7d6c	0.05065672
183	0xbd0344e2	-0.032048114
184	0xbdfb4763	-0.12269475
185	0xbd51c41a	-0.051212408
186	0xbbc70b85	-0.0060743713
187	0xbd20fd42	-0.039304025
188	0x3dba3379	0.09091849
189	0xbdca6a7a	-0.0988359
190	0xbe2b0531	-0.16701199
191	0x3e04816b	0.12939994
192	0xbb187214	-0.0023261355
193	0xbdec7a6b	-0.11546787
194	0x3c9b5f58	0.018966362
195	0x3db4dc86	0.08831124
196	0x3e11d935	0.14243014
197	0x3ceba11b	0.028763345
198	0x3cd00614	0.025393523
199	0x3d0dfb64	0.034663573
200	0x3f06b84a	0.5262495
201	0x3dc8ddaa	0.09807904
202	0xbcedee24	-0.029044218
203	0x3ecc1ae5	0.3986427
204	0x3e08441d	0.13307233
205	0xbde02e3a	-0.10946317
206	0x3ce02b3a	0.027364362
207	0x3d41fcbe	0.047360174
208	0x3f0bb698	0.5457549
209	0x3e72207b	0.23645203
210	0xbe3d4727	-0.18484174
211	0xbdca10de	-0.098664984
212	0xbe3fe8ef	-0.18741201
213	0xbd96a073	-0.07354822
214	0x3dfcd0b2	0.12344493
215	0xbe1c4281	-0.15259744
216	0x3f171142	0.5901071
217	0x3ebe7dd3	0.3720537
218	0x3f73c4e7	0.95222324
219	0xbe7faab1	-0.24967457
220	0x3e3ac33e	0.18238541
221	0xbdcb3516	-0.09922235
222	0x3e1f21e0	0.15540266
223	0xbdada378	-0.08478445
224	0x3f0b004d	0.54297334
225	0x3d90ee53	0.07076707
226	0x3dfd60cc	0.12371978
227	0x3da78b75	0.08180896
228	0xbf4767ed	-0.77892953
229	0xbd9d46c5	-0.07679514
230	0xbd889213	-0.066684864
231	0x3c9e04e8	0.019289449
232	0xbe8299eb	-0.25508055
233	0x3e47acdd	0.19499536
234	0xbd73f76b	-0.059562128
235	0x3da30863	0.07960584
236	0xbf077bf3	-0.52923506
237	0xbe23523b	-0.15949337
238	0xbd15c873	-0.036568116
239	0xbdc60c74	-0.09670344
240	0xbeea7864	-0.45794976
241	0x3ca78e10	0.020453483
242	0xbf0efa5a	-0.55850756
243	0x3e0e62b5	0.13904841
244	0x3e21a6f4	0.15786344
245	0x3decaf56	0.1155688
246	0x3e00c6c4	0.12575823
247	0xbdc7ee94	-0.09762302
248	0xbeb1911c	-0.34681022
249	0xbc402d57	-0.01172956
250	0xbd82dd0d	-0.06389818
251	0x3a812468	0.0009852769
252	0xbda8d9e3	-0.082446836
253	0x3d39784c	0.04528074
254	0xbda050bc	-0.07827899
255	0xbe81041e	-0.25198454

attention2.bias f4 [25]
0	0xbd5df253	-0.054186177
1	0xbe12ac9c	-0.14323658
2	0xbe080b94	-0.13285667
3	0xbd39d46d	-0.0453686
4	0xbe52f2c9	-0.20600428
5	0xbdc31270	-0.09525001
6	0xbe0367d7	-0.1283258
7	0xbe0873c4	-0.13325411
8	0x3dee4e9a	0.11636086
9	0xbe84e23f	-0.25953862
10	0xbddc2e1c	-0.10750982
11	0xbdc54d05	-0.09633831
12	0xbe1f280d	-0.15542622
13	0xbda1dde1	-0.07903648
14	0xbe58cac9	-0.21171106
15	0xbe64695e	-0.2230582
16	0xbd4fdaaa	-0.050745644
17	0x3d921c57	0.07134312
18	0xbd47599d	-0.048669446
19	0xbe02996f	-0.12753843
20	0x3c8ea6d5	0.017413536
21	0xbcf9c4f2	-0.030489419
22	0xbeabc32e	-0.33547348
23	0xbdbccf06	-0.09219174
24	0xbe57dbac	-0.21079892

fc2.weight f4 [25, 50]
0	0xbfbee8fe	-1.4914854
1	0x3e9c9127	0.30579492
2	0xbf24e23b	-0.644077
3	0x3f57516b	0.8410861
4	0xbf88a02a	-1.0673878
5	0xbd11b211	-0.035570208
6	0x3faf7e3c	1.3710399
7	0xbd7e2eb1	-0.062056247
8	0xbe3ae866	-0.18252715
9	0xbec4cee3	-0.38439092
10	0x3e2bad59	0.16765346
11	0xbfc138a6	-1.5095413
12	0x402c6215	2.6934865
13	0x3f01e774	0.50743794
14	0xbf4c5146	-0.79811513
15	0x40274540	2.6136017
16	0x40911fe3	4.5351424
17	0x3fadf8f2	1.3591597
18	0x3e4d5b3e	0.20054337
19	0xbe59caa9	-0.21268715
20	0xbf588efb	-0.8459317
21	0x3efcf59d	0.49406138
22	0x3f753592	0.95784867
23	0xbd129628	-0.03578773
24	0xbcb5d38c	-0.0221956
25	0x3f290edf	0.66038316
26	0x4079640f	3.896732
27	0x3da71143	0.08157589
28	0x3ebbdaa7	0.36690256
29	0xbe2d3d84	-0.16917998
30	0x3f0a84af	0.5410871
31	0xbf1bb048	-0.6081586
32	0x4000e444	2.0139322
33	0xbfaa35b9	-1.3297645
34	0x3e248464	0.16066128
35	0x3f3faa24	0.7486899
36	0xbf8d5f5a	-1.1044724
37	0xbeec761a	-0.46183854
38	0xbdf3a093	-0.118958615
39	0xbd009a07	-0.031396892
40	0x3e79a5a0	0.24379587
41	0x3f72ec46	0.94891775
42	0x401f6053	2.4902542
43	0x40343d75	2.816251
44	0xbda33815	-0.07969681
45	0xbe52792e	-0.20554039
46	0x3dac347f	0.0840845
47	0xbfd15980	-1.6355438
48	0x3fe8546b	1.8150762
49	0x3fee0637	1.8595647
50	0x3d8fc05a	0.0701911
51	0x3f9795ac	1.1842551
52	0x3f145417	0.5794081
53	0xbfb8ab6b	-1.4427313
54	0x3e904d1a	0.28183824
55	0xbfc20000	-1.515625
56	0x3fb21816	1.39136
57	0x3dcdb3a2	0.10044028
58	0x3f238fb5	0.63891155
59	0xbf294778	-0.6612468
60	0xbecd8ab3	-0.40144882
61	0xbf9ec655	-1.2404276
62	0xbeaa1e66	-0.33226317
63	0x4053ae66	3.3075194
64	0x4032fb2a	2.7965798
65	0x3dc290a0	0.09500241
66	0x3f0071cc	0.5017364
67	0xbf47df60	-0.7807522
68	0x3f0b432c	0.5439937
69	0x3f308aa6	0.6896156
70	0x3f052e12	0.5202342
71	0xbf74af96	-0.9558042
72	0x3f21ef7e	0.6325606
73	0xbd10e206	-0.035371803
74	0x40640162	3.5625844
75	0xbf557136	-0.8337587
76	0xbe550c77	-0.20805536
77	0xbe1d5650	-0.15364957
78	0xbe04693d	-0.1293077
79	0xbe06c279	-0.13160123
80	0x3ced4b2a	0.028966505
81	0xbf776b84	-0.9664843
82	0x3f556ea2	0.8337194
83	0x3ec72dfe	0.38902277
84	0x400049ad	2.0044968
85	0xbefe378e	-0.4965176
86	0xbe40a2a8	-0.18812048
87	0xbf913f5a	-1.1347458
88	0x3ff18cc0	1.8871078
89	0x4017557c	2.3645926
90	0x3d422ab9	0.047404025
91	0x3f84ec93	1.0384697
92	0x3fc01893	1.50075
93	0xbd8c69c5	-0.068561114
94	0xbe0042ec	-0.12525529
95	0x3f7577aa	0.9588572
96	0xbf07c3b7	-0.5303301
97	0x3f857d27	1.0428818
98	0xbf60eeac	-0.87864184
99	0x3ea02a56	0.312823
100	0xba8798d8	-0.0010345234
101	0x3cc928a4	0.024555512
102	0xbcbb9fc9	-0.02290334
103	0x3da5dd6e	0.08098875
104	0xbe276355	-0.16346486
105	0xbd37a42f	-0.044834312
106	0xbd3e919c	-0.046525583
107	0xbd3fb222	-0.04680074
108	0xbd82715d	-0.063692786
109	0xbde852b6	-0.11343901
110	0xbd1d3fb0	-0.038390815
111	0x3d5e8f9b	0.05433617
112	0xbb6b8b92	-0.0035941345
113	0xbdd83baa	-0.10558255
114	0xbd1e2664	-0.03861083
115	0xbd821fd2	-0.063537255
116	0x3d280750	0.0410226
117	0xbe0bcaed	-0.13651629
118	0xbe437db7	-0.19090925
119	0xbd711827	-0.058860924
120	0xbb7af02d	-0.0038290129
121	0x3dd0ec51	0.10201324
122	0xbe6cc828	-0.23123229
123	0xbc3097a0	-0.010778338
124	0xbdb8af9c	-0.0901787
125	0x3d4166f4	0.047217324
126	0xbd2a0677	-0.04151007
127	0x3de181d2	0.110110894
128	0xbc9c4c03	-0.019079214
129	0xbde87390	-0.11350167
130	0xbcf15eae	-0.029464092
131	0xbc52a5cc	-0.012856912
132	0xbe1596e4	-0.14608341
133	0x3de9186a	0.1138161
134	0xbe0e4aaf	-0.13895677
135	0x3cd36392	0.025804315
136	0x3dd8baea	0.10582526
137	0xbe09ee96	-0.1346992
138	0xbe400b0a	-0.18754211
139	0xbe13be3f	-0.14428042
140	0xbe69c718	-0.22829854
141	0xbdf2be7d	-0.11852739
142	0x3ce5c3dd	0.028047496
143	0x3d4955d6	0.049154125
144	0x3dbb60aa	0.091492966
145	0x3d2f5fcf	0.04281598
146	0xbc59af04	-0.013286356
147	0x3de5ebda	0.11226626
148	0xbd92403d	-0.07141159
149	0xb990cb50	-0.000276173
150	0xbdf95f57	-0.12176388
151	0xbdcbc38c	-0.09949407
152	0xba9178ef	-0.0011098663
153	0xbbd5f111	-0.0065289815
154	0x3cf49c79	0.029859768
155	0x3d6f0e67	0.058363345
156	0xbd232f8e	-0.039840274
157	0xbdc68144	-0.09692624
158	0x3de99d48	0.11406952
159	0xbe072e6a	-0.132013
160	0x3ddb207c	0.10699555
161	0xbd95b4ed	-0.073098995
162	0xbe5a414e	-0.21313974
163	0x3da4125b	0.080113135
164	0x3d8aaaf3	0.06770887
165	0xbd1b3129	-0.03788868
166	0xbd29d75b	-0.041465145
167	0xbe2b1279	-0.16706266
168	0xbdf23c1c	-0.11827871
169	0x3c8aa503	0.016924387
170	0xbd8910f5	-0.066926874
171	0x3db31a14	0.087452084
172	0xbdf5403b	-0.119751416
173	0x3d94adf4	0.072597414
174	0x3d80bb70	0.06285751
175	0xbddd1237	-0.1079449
176	0xba8d3cda	-0.0010775581
177	0x3db0c44e	0.08631192
178	0xbc312f30	-0.010814473
179	0xbca16051	-0.019699248
180	0xbd90c5cb	-0.07068976
181	0xbd4f34f6	-0.050587617
182	0xbe01f38e	-0.12690565
183	0xbc764f60	-0.015033573
184	0xbe0f4f3d	-0.13995071
185	0x3d4eaa43	0.050455343
186	0x3cfc9048	0.030830517
187	0xbddcd0c5	-0.10782007
188	0x3db424d3	0.08796086
189	0xbd8ce60b	-0.06879815
190	0x3cfafb96	0.030637544
191	0xbd9be7d3	-0.07612576
192	0x3c39cead	0.011340779
193	0xbbf99ceb	-0.007617583
194	0x3d1f394c	0.038873002
195	0xbe2395a5	-0.15975054
196	0x3db21624	0.08695629
197	0xbd77ace8	-0.06046763
198	0xbe46b183	-0.19403653
199	0x3d9cdf8d	0.076598264
200	0x3eb444ff	0.3520889
201	0xbe99da54	-0.30049384
202	0x40057c10	2.0856972
203	0x3f43e5e8	0.76522684
204	0xbf1ef803	-0.62097186
205	0x3c9ad47e	0.018900152
206	0x3f9f7f7b	1.2460779
207	0x3d0be8f0	0.034157693
208	0x3fe3e34b	1.7803739
209	0xbe744b99	-0.23856963
210	0xbdc97121	-0.09836031
211	0xbf50b7aa	-0.8153025
212	0x3ff28e12	1.8949606
213	0xbda70dc3	-0.08156922
214	0xbc8dc7c5	-0.017307172
215	0x3e0ab170	0.1354425
216	0xbe46f173	-0.19428043
217	0xbf9488ad	-1.160421
218	0xbdd35e88	-0.10320765
219	0xbf13d384	-0.5774462
220	0x3f559dd7	0.8344397
221	0xbe89af06	-0.26891345
222	0x3ed74853	0.42047366
223	0x3ca046c8	0.019565001
224	0x3eb60d97	0.35557243
225	0xbf72aa1c	-0.94790816
226	0xbf36636f	-0.71245474
227	0x3e43b112	0.19110516
228	0x3f2035d1	0.6258212
229	0xbf87adee	-1.0599954
230	0x3d740227	0.059572365
231	0x3bd2d4c5	0.0064340555
232	0x3f7e438e	0.9932183
233	0xbeac76d5	-0.33684412
234	0x3ee3034c	0.44338453
235	0x3fc61617	1.5475491
236	0x3ec30004	0.3808595
237	0x3ef3e0ca	0.47632438
238	0xbefa8f73	-0.48937568
239	0x4080e583	4.0280166
240	0x3edf4232	0.4360519
241	0xbf20f9e2	-0.6288129
242	0xbf2eaeb0	-0.682353
243	0xbfaf7714	-1.3708215
244	0xbd37021e	-0.044679753
245	0x404afa97	3.1715448
246	0x3d5ac863	0.05341376
247	0x3f38d82c	0.7220485
248	0x3f6e6c78	0.9313426
249	0xbe2f1ea6	-0.17101535
250	0x3dd43560	0.10361743
251	0x3bb3be9e	0.00548537
252	0x3d96051a	0.07325192
253	0x3ca64f3e	0.020301457
254	0xbe23f7f4	-0.16012555
255	0xbd96fb3a	-0.073721364

fc2.bias f4 [25]
0	0xbe3988a4	-0.1811853
1	0xbe52dd91	-0.20592333
2	0xbdafcaca	-0.08583601
3	0xbe534297	-0.20630871
4	0x3cbb84e0	0.022890508
5	0xbd9c18a6	-0.07621889
6	0x3de7bb23	0.1131499
7	0xbe5b4159	-0.21411647
8	0xbd651dcd	-0.055936623
9	0xbe87010a	-0.2636798
10	0xbe380151	-0.17969252
11	0xbeb2dab4	-0.34932482
12	0x3e84deb4	0.2595116
13	0x3eb84594	0.35990584
14	0xbce80063	-0.028320497
15	0xbeb3b67e	-0.35100168
16	0xbd910808	-0.0708161
17	0xbe3060cb	-0.17224424
18	0xbde886cc	-0.113538355
19	0x3d99e725	0.075147904
20	0x3e307b77	0.17234598
21	0xbeafe576	-0.34354752
22	0xbdf602ff	-0.1201229
23	0xbcf6c4cc	-0.030123137
24	0x3e303371	0.17207123

fc3.weight f4 [2496, 25]
0	0xbfd95fa5	-1.6982313
1	0xbe6a38d3	-0.22873239
2	0xbeebbac8	-0.4604094
3	0xbe567f7e	-0.20947072
4	0xbfb25183	-1.3931125
5	0xbd0b269e	-0.033972375
6	0xbf1149b6	-0.567531
7	0x3e8cc894	0.2749678
8	0xbf7372d7	-0.95097107
9	0xbe63e623	-0.22255759
10	0xbfa9ad49	-1.3256007
11	0xbe2f9be6	-0.17149314
12	0xc070228e	-3.752109
13	0xbf96fdff	-1.1796263
14	0xbf9ee344	-1.2413106
15	0xbfe93d26	-1.8221786
16	0xbfeb4241	-1.8379594
17	0xbf90af87	-1.1303567
18	0xc002bb09	-2.0426657
19	0xbfa82a86	-1.3137977
20	0x3e2dc618	0.16970098
21	0xc0286e37	-2.631727
22	0xbff4246e	-1.9073617
23	0xc095e108	-4.6837196
24	0xbf60f827	-0.8787865
25	0xc0938c2a	-4.61086
26	0xbe3de411	-0.18544032
27	0xbe4c0e4d	-0.1992733
28	0x3d8850d7	0.06656044
29	0xbeb221ca	-0.34791404
30	0xbe159c8a	-0.14610496
31	0xbe6162da	-0.22010365
32	0x3ddbd6db	0.1073434
33	0xbf1aa158	-0.6040244
34	0xbefa3491	-0.4886823
35	0xbf927983	-1.1443332
36	0x3d407fae	0.046996765
37	0xc1045486	-8.270636
38	0xc028c69a	-2.6371217
39	0xbfd6d754	-1.6784463
40	0xbfa41311	-1.2818319
41	0xc025d270	-2.590969
42	0xc01545b7	-2.33238
43	0xc0b5245b	-5.660688
44	0xbf051153	-0.5197956
45	0xc07ee5d9	-3.9827788
46	0x3d243d63	0.040097605
47	0xc0013ffc	-2.0195303
48	0xc0b82154	-5.7540684
49	0xbfa2b5c7	-1.2711724
50	0xbf97bffc	-1.1855464
51	0xbf248c69	-0.6427675
52	0xbf23ba28	-0.63955927
53	0xbeda7d71	-0.4267383
54	0xbfbf8aea	-1.4964268
55	0xbeafe99d	-0.3435792
56	0xbfb471df	-1.4097251
57	0xbf0ad9dd	-0.54238683
58	0xbfc76b04	-1.5579534
59	0xbf72b420	-0.948061
60	0xbf3169ea	-0.6930224
61	0xbe57ad22	-0.21062139
62	0xc043f33d	-3.061721
63	0xbf7cfe1d	-0.98825246
64	0xbfb0d532	-1.3815062
65	0xbf2ea04b	-0.6821334
66	0xc0326e98	-2.788
67	0xbf5d83e5	-0.8652938
68	0xbf4c1062	-0.797125
69	0xbf93983f	-1.1530837
70	0xc052b4ac	-3.2922773
71	0xc0beda66	-5.96416
72	0xbfb6087c	-1.4221339
73	0xc066a018	-3.6035213
74	0xbf8e64eb	-1.1124548
75	0xbf7cdc9f	-0.9877414
76	0xbf6f2d62	-0.93428624
77	0xbf127fb2	-0.572261
78	0x3cbd2cee	0.023092713
79	0xbf91b7c2	-1.1384203
80	0x3d8d273c	0.06892249
81	0xbebe6baf	-0.3719153
82	0xbe1b95ea	-0.15193906
83	0xbfba8bda	-1.4573929
84	0xc012f361	-2.2961047
85	0xbe27487d	-0.16336246
86	0xbfb303c0	-1.398552
87	0xbfa49e7f	-1.2860869
88	0xbff18984	-1.8870091
89	0xbf887594	-1.0660882
90	0xbf6f6201	-0.9350892
91	0xc0014b49	-2.02022
92	0xbfc72adf	-1.5559958
93	0xbf655121	-0.8957692
94	0xbf7d8601	-0.990326
95	0xbfef8be0	-1.8714561
96	0xbfaf5056	-1.3696392
97	0xbf87add3	-1.0599922
98	0xc0076436	-2.1154914
99	0xbf1d83cf	-0.6152925
100	0xc0ca872f	-6.329002
101	0xc0aa46c6	-5.3211393
102	0xbf23f3f2	-0.64044106
103	0xbeb2e3be	-0.34939378
104	0xbee5ff7a	-0.44921476
105	0xbf238790	-0.63878727
106	0xbe65fadc	-0.22458977
107	0xbf729720	-0.9476185
108	0xbf9deb0e	-1.2337358
109	0xc0e8ab9c	-7.2709484
110	0xc11c88dc	-9.783413
111	0xc0c1ee83	-6.060365
112	0xbf8b762f	-1.0895442
113	0xc027bb74	-2.6208162
114	0xbf4c628c	-0.7983787
115	0xbee4c3e5	-0.44680706
116	0xbed1f1ac	-0.41004694
117	0xbfa8b24c	-1.3179412
118	0xc0c8ac7d	-6.2710557
119	0xbffa69b8	-1.9563513
120	0xc0f18996	-7.548045
121	0xbfe0f9eb	-1.7576269
122	0xbf17a2bd	-0.59232694
123	0xc0eacb2f	-7.3373027
124	0xbf727e8d	-0.9472435
125	0xbff5279d	-1.9152714
126	0x3f145b3b	0.57951707
127	0xbef78004	-0.48339856
128	0xbe7b08ee	-0.24515125
129	0xbf55e275	-0.8354867
130	0xbe676257	-0.22596107
131	0xbfd88772	-1.6916335
132	0xbf92094d	-1.1409088
133	0xbee78a51	-0.45222715
134	0xbf2a0fde	-0.6643046
135	0xc098fbff	-4.7807612
136	0xbfc5f163	-1.546429
137	0xc05bd75a	-3.435019
138	0xbf6e16a1	-0.9300328
139	0xbfc91745	-1.5710226
140	0xbe4b2a40	-0.19840336
141	0xbf926237	-1.1436223
142	0xc0436281	-3.0528872
143	0xbf50e585	-0.8160022
144	0xc03141ae	-2.7696338
145	0xc00b1091	-2.1728861
146	0xbef17c69	-0.4716523
147	0xc018a122	-2.3848348
148	0xbe24af69	-0.16082539
149	0xbf7f42b6	-0.9971117
150	0xc024288f	-2.5649755
151	0x3e9a33de	0.30117697
152	0xbdf4a3fa	-0.119453385
153	0xbe367b5d	-0.17820497
154	0xbf4258cc	-0.75916743
155	0xbd4b7567	-0.04967251
156	0xbfa0e411	-1.25696
157	0xbfc4a770	-1.5363598
158	0xbe60a502	-0.21937945
159	0xbf1a88cc	-0.60364985
160	0xc0150237	-2.3282602
161	0xbf153601	-0.5828553
162	0xbfbfa2ab	-1.4971517
163	0xbf6d0417	-0.92584366
164	0xbff4d257	-1.9126691
165	0xbf841dcd	-1.0321594
166	0xbf72f219	-0.9490066
167	0xc00b7a93	-2.1793563
168	0xc099339f	-4.7875514
169	0xbfb960ac	-1.4482627
170	0xc0149880	-2.3218079
171	0xbf176df1	-0.5915213
172	0xc0020c5d	-2.0320046
173	0xc08b0530	-4.3443832
174	0xbf70593f	-0.9388618
175	0xbfbbd2e7	-1.4673737
176	0xc0cd67c7	-6.418918
177	0xbf27f7b3	-0.65612334
178	0xbe43a82e	-0.19107124
179	0xbf1d62d5	-0.6147893
180	0xbe5d1a8c	-0.21592158
181	0xbff76b6b	-1.9329656
182	0xc07e1a0c	-3.9703398
183	0xc04a9689	-3.165438
184	0xbf94924f	-1.160715
185	0xc0b6f377	-5.71722
186	0xbf2a40dd	-0.66505224
187	0xc10ec42e	-8.922895
188	0xbf62ce1d	-0.88595754
189	0xbfd95383	-1.6978611
190	0xbfba4334	-1.4551759
191	0xbfe5c98f	-1.7952136
192	0xc1279c0e	-10.475599
193	0xbf57fd0b	-0.8437049
194	0xbe5e2827	-0.21695004
195	0xbf2a4fcc	-0.6652801
196	0xc009d734	-2.15376
197	0xbfa21a8a	-1.2664349
198	0xbf0d649c	-0.5523164
199	0xbf5c6ab8	-0.8610034
200	0xbf97d319	-1.1861297
201	0xbf7a8873	-0.97864455
202	0xbec94813	-0.393128
203	0xbd7625b5	-0.060094554
204	0xbffd488b	-1.9787763
205	0xbd841ac7	-0.0645042
206	0xbf5736ae	-0.8406781
207	0xbff809d3	-1.9377998
208	0xbf8a9c83	-1.0829014
209	0xbfb88e19	-1.4418365
210	0xbf85c77a	-1.04515
211	0xbe907798	-0.28216243
212	0xbf1d1bdd	-0.6137064
213	0xbfe2cef3	-1.7719406
214	0xbf18e248	-0.5972028
215	0xbfd507a1	-1.6642953
216	0xbfd177a6	-1.6364639
217	0xc01578df	-2.3355024
218	0xbec80593	-0.39066753
219	0xc03c5481	-2.9426577
220	0xbe85e595	-0.2615172
221	0x3ea08126	0.31348532
222	0xbfa7b3f7	-1.3101796
223	0xbf40d4aa	-0.753245
224	0xbf98a86f	-1.1926402
225	0xc107449e	-8.454252
226	0xc0571cca	-3.3611321
227	0xbf071236	-0.5276216
228	0xbddf83ac	-0.10913786
229	0xbe84b7e5	-0.2592155
230	0xbec64cf4	-0.38730586
231	0xbf015d18	-0.50532675
232	0xc035a84c	-2.838397
233	0xbf8b7dea	-1.0897801
234	0xc05de567	-3.4671266
235	0xc0af7687	-5.4832187
236	0xbf53a9c7	-0.82680935
237	0xc0d51159	-6.6583676
238	0xbf9e36f7	-1.2360524
239	0xbfa99e55	-1.3251444
240	0xc0cb85ed	-6.3600984
241	0x3ee41541	0.44547465
242	0xbfc80854	-1.5627542
243	0xbfe6f8bf	-1.8044661
244	0xbe989a43	-0.29805192
245	0xc07d4972	-3.9576077
246	0xbf95b284	-1.1695104
247	0x3ea11d16	0.31467503
248	0xc0944be6	-4.634265
249	0xc09ddb2e	-4.9330053
250	0xbf759f92	-0.9594661
251	0xc0ac8d42	-5.3922434
252	0xbf164ff7	-0.58715767
253	0xbe94b1b7	-0.29041836
254	0xbfcbb0f6	-1.5913379
255	0xbe706883	-0.23477368

fc3.bias f4 [2496]
0	0xbf8a5a00	-1.0808716
1	0xc0242553	-2.564778
2	0xbfadb2de	-1.3570211
3	0xc03a0367	-2.9064577
4	0xbf1325a3	-0.57479304
5	0xbf8e71a1	-1.1128427
6	0xbf8b05a2	-1.0861094
7	0xbfa8b25a	-1.3179429
8	0xc0004f01	-2.004822
9	0xbe437764	-0.19088513
10	0xbf9dbc6e	-1.2323129
11	0xbf907964	-1.1287045
12	0xbf999a9e	-1.200031
13	0xbf80a959	-1.0051681
14	0xbcc2546d	-0.023721898
15	0xbf13be10	-0.5771189
16	0xbf482181	-0.7817612
17	0xbf02c6cc	-0.5108459
18	0xbf036df4	-0.5133965
19	0xbf65db89	-0.8978811
20	0xbf97eade	-1.1868551
21	0xbfc6ef79	-1.5541831
22	0xbf1c919e	-0.61159694
23	0xbfd3696e	-1.651655
24	0x3f045664	0.5169432
25	0xc00ec638	-2.2308483
26	0x3cba96e3	0.022777027
27	0xbfac1311	-1.3443319
28	0xbecc57bf	-0.39910695
29	0xbf83b629	-1.0289966
30	0xbd87ee61	-0.06637264
31	0xbe9ffde0	-0.3124838
32	0xbf5baccc	-0.8581054
33	0x3db18aae	0.08669029
34	0xbfaf449d	-1.3692814
35	0xbf93214e	-1.1494539
36	0xbfdfd79b	-1.7487673
37	0xbf84e741	-1.0383073
38	0xbf0c7994	-0.54873013
39	0x3e61f9cd	0.22067948
40	0xbd87006b	-0.065918766
41	0xbf3461bf	-0.7046165
42	0xbf3e68bd	-0.7437857
43	0xc01fc1ac	-2.4961958
44	0xbf19fcf2	-0.6015159
45	0xbecdaaf2	-0.40169483
46	0xbf7d8575	-0.99031764
47	0xbf4614bb	-0.7737538
48	0xbe3a0cad	-0.18168898
49	0xbfa80ed6	-1.3129528
50	0xbf17cb96	-0.5929502
51	0xbfc88b5e	-1.5667531
52	0xbf9c211f	-1.2197608
53	0xbf7bffb3	-0.9843704
54	0xbc024402	-0.007950785
55	0xbfa34b6d	-1.2757393
56	0xbec17062	-0.37781054
57	0xbff496b7	-1.9108495
58	0xbebe2009	-0.37133816
59	0xbf679a2e	-0.90469635
60	0xbf75eaf3	-0.9606163
61	0xc00fe877	-2.2485635
62	0xbf07e067	-0.53076786
63	0xbe7698b9	-0.24081697
64	0xbf7c2771	-0.9849768
65	0xbfee6739	-1.8625251
66	0xbf1c90d1	-0.6115847
67	0xbe3db3d2	-0.18525627
68	0xbefd5fb8	-0.4948709
69	0xbf512087	-0.8169026
70	0xc012eff3	-2.2958953
71	0xbf8e233b	-1.1104501
72	0xbf6d00ca	-0.9257933
73	0xbea7ec1d	-0.32797328
74	0xbfcb8fcd	-1.590326
75	0xbfb062c2	-1.3780138
76	0xbed80426	-0.42190665
77	0xbfb41b2a	-1.407079
78	0xbf0bd329	-0.5461908
79	0xbf5cfea6	-0.8632606
80	0xbf7df17e	-0.9919661
81	0xbf1e15a8	-0.61751795
82	0xbeaed085	-0.34143463
83	0xbf392d0e	-0.72334373
84	0xbef33b4b	-0.47506174
85	0x3db3f2d0	0.08786547
86	0xbff0ec06	-1.8822029
87	0xbfda2d8a	-1.7045147
88	0xbf2b0103	-0.6679842
89	0xbe333e5a	-0.17504254
90	0xbf0cbed4	-0.5497868
91	0xbf9f6c0c	-1.2454848
92	0xbfb53b45	-1.4158713
93	0x3d581efa	0.052763917
94	0xbe6e0621	-0.23244525
95	0xbf451c50	-0.76996326
96	0xbf99500d	-1.1977555
97	0xbf23c0f1	-0.6396628
98	0xbf312185	-0.6919177
99	0xbe974c1c	-0.29550254
100	0xbf6a93f7	-0.91632026
101	0xbdee4cd4	-0.116357476
102	0x3dfb55ca	0.12272222
103	0xc00ea6ca	-2.22893
104	0xbf971ba5	-1.1805311
105	0xbf613b5c	-0.879812
106	0xbf7b593c	-0.98183036
107	0xbe88fce5	-0.26755443
108	0xbed62315	-0.4182364
109	0xbddd3146	-0.10800414
110	0xbfa3bfdf	-1.279293
111	0xbfd34d62	-1.650799
112	0xbf058a7d	-0.5216444
113	0xbf82e820	-1.0227089
114	0xbfaf851f	-1.37125
115	0xbecde5bb	-0.40214333
116	0xbfa85abc	-1.315269
117	0xbf36bac3	-0.71378726
118	0xbec2e837	-0.3806779
119	0xbf04fd4f	-0.5194902
120	0xbf7490ab	-0.95533246
121	0xbec482d2	-0.38381058
122	0xbfbe8ab8	-1.4886084
123	0xbfb9602a	-1.4482472
124	0xbd1a5015	-0.03767403
125	0xbef97a69	-0.48726204
126	0xc01eb280	-2.4796448
127	0xbe2bf9c5	-0.16794498
128	0xbe82296b	-0.25422224
129	0xbf229995	-0.635156
130	0xbf57eb6c	-0.843436
131	0xbecade03	-0.39622506
132	0xbeaed458	-0.3414638
133	0xbf59474a	-0.84874403
134	0xbd43f167	-0.04783764
135	0xbd1d9838	-0.038475245
136	0xbf9a50b8	-1.2055883
137	0xbf2ebbc7	-0.68255275
138	0xbf5c353e	-0.8601874
139	0xbeb7ee93	-0.35924205
140	0xbf06cc57	-0.5265555
141	0xbefb63a9	-0.49099472
142	0x3e816363	0.2527114
143	0xbf100cf8	-0.5626979
144	0xbec4fef7	-0.38475773
145	0x3eb0ed0e	0.34555858
146	0xbf25c640	-0.6475563
147	0xbf75a40b	-0.95953435
148	0xbf90f38f	-1.1324328
149	0x3e86ea64	0.263507
150	0xbc92f355	-0.017938295
151	0xbfb79b5c	-1.4344287
152	0xbfb62d23	-1.4232525
153	0xbec86757	-0.39141342
154	0xbf94faec	-1.1639075
155	0xbc2ca11e	-0.01053646
156	0xbc750686	-0.014955169
157	0xbf50e260	-0.8159542
158	0xbf071c0e	-0.52777183
159	0x3d88bd05	0.066766776
160	0xbf8ebb75	-1.1150957
161	0xbe936818	-0.28790355
162	0xbf7928d1	-0.97327906
163	0xbf8d1b3b	-1.1023935
164	0xbe12a97e	-0.14322469
165	0xbf8f07a5	-1.1174208
166	0xbde220fe	-0.11041449
167	0xbf17c99d	-0.5929201
168	0xbf655d86	-0.8959583
169	0xbf3253eb	-0.696593
170	0xbf26f927	-0.65223926
171	0xbf02c62f	-0.51083654
172	0xbde00d38	-0.10940021
173	0xbf3ccd2c	-0.7375057
174	0xbc508bed	-0.012728673
175	0xbf5730f5	-0.8405908
176	0xbe3dc6f5	-0.18532927
177	0xbf844e4b	-1.0336393
178	0xbf00aa96	-0.50260293
179	0xbecb32a0	-0.3968706
180	0xbe29346c	-0.16523904
181	0xbf43a468	-0.7642274
182	0x3db63707	0.088972144
183	0x3e17c562	0.1482139
184	0xbf516b3f	-0.8180427
185	0xbec75596	-0.38932484
186	0xbfa3642e	-1.2764947
187	0xbe14c71e	-0.14529082
188	0xbe4e82fd	-0.20167156
189	0xbf30362d	-0.68832666
190	0xbfcc16be	-1.594444
191	0xbf9480c2	-1.1601794
192	0xbf8503a5	-1.0391737
193	0xbf9dd2f6	-1.2330005
194	0xbecf59ad	-0.40498105
195	0xbfac2441	-1.3448564
196	0xc00c3b4e	-2.1911197
197	0xbe6b1435	-0.22956927
198	0xbfcd1549	-1.6022121
199	0xbea96bbe	-0.33090013
200	0xbf559054	-0.8342335
201	0xbf5dd3cd	-0.8665131
202	0xbee0c51a	-0.43900377
203	0xbf3b51c8	-0.73171663
204	0xbf2e5997	-0.68105453
205	0xbf290209	-0.6601873
206	0xbf6d6234	-0.9272797
207	0xbf3e5f80	-0.7436447
208	0xbf897733	-1.0739502
209	0xbecf5326	-0.40493125
210	0xbf758f38	-0.9592166
211	0xbfa398b6	-1.2780979
212	0xbdf30d1d	-0.118677355
213	0xbe8410c2	-0.25794035
214	0xc016702f	-2.3505971
215	0xbe9da957	-0.3079326
216	0xbe32834a	-0.17432895
217	0xbf159d3d	-0.5844305
218	0xbf8c53dd	-1.0963093
219	0xbecd3a0f	-0.40083358
220	0xbf4fb260	-0.81131554
221	0xbf56ae7b	-0.83859986
222	0xbf56f0b3	-0.8396103
223	0xbe6fb7b1	-0.23409916
224	0xbf43f1d4	-0.76540875
225	0xbf174b45	-0.5909923
226	0xbe8c4a90	-0.27400637
227	0xbf1f8e15	-0.62326175
228	0xbedfd554	-0.43717444
229	0x3cc414e5	0.023935745
230	0xbf8d1eb4	-1.1024995
231	0xbfa44fc3	-1.2836841
232	0xbf10abda	-0.56512225
233	0xc015c7e0	-2.3403244
234	0xbf13d91b	-0.5775315
235	0xbf839ef0	-1.0282879
236	0xbebb5210	-0.36586046
237	0xbfb20f2a	-1.3910878
238	0xbfac0125	-1.3437849
239	0xbf57addc	-0.84249663
240	0xbf91bc08	-1.1385508
241	0xbfeac877	-1.8342427
242	0xbf6d61b4	-0.9272721
243	0xbf598225	-0.8496421
244	0xbea5957e	-0.32340616
245	0xbffcb2bf	-1.9742049
246	0xbf5a90cb	-0.85377187
247	0x3deb3b15	0.114858784
248	0xbe826c2a	-0.25473148
249	0xbcbbeab7	-0.02293907
250	0x3dc83cc0	0.09777212
251	0x3ad719f1	0.0016410929
252	0x3d05544f	0.032551106
253	0xbdcb7a07	-0.09935384
254	0x3ca0c5fb	0.019625654
255	0xbe555264	-0.20832211
