Python/RNN/models/MODELSLAYER2.pt (torch, 374147 bytes, 10 tensors)

fc1.weight f4 [15, 100]
0	0x3d6d7352	0.057971306
1	0x3cfb009c	0.030639939
2	0x3d7b4cca	0.06135253
3	0xbd0cd506	-0.034382842
4	0x3dba3025	0.09091214
5	0xbc8b00c8	-0.016968146
6	0xbd9daa1b	-0.07698461
7	0x38b4e800	8.626282e-05
8	0xbd920f8b	-0.07131871
9	0x3d312bb6	0.043254577
10	0xbdcb4e47	-0.099270396
11	0x3d877a21	0.06615091
12	0xbda43b50	-0.080191255
13	0xbd056464	-0.032566443
14	0x3d897e29	0.06713516
15	0xbda763c5	-0.081733264
16	0xbcbf66d8	-0.02336447
17	0xbd2f2807	-0.042762782
18	0x3d112932	0.035439678
19	0xbdca5f43	-0.09881451
20	0x3dcbd929	0.099535294
21	0xbd097d34	-0.03356667
22	0x3d6e466a	0.05817262
23	0x3d7150ea	0.058915056
24	0x3c91d9a8	0.017803982
25	0xbd382597	-0.044957723
26	0x3d5048d2	0.050850697
27	0xbd981235	-0.07425348
28	0xbd1578b6	-0.036492072
29	0xbc3fca00	-0.011705875
30	0xbc99fda8	-0.01879771
31	0xbdc36075	-0.09539882
32	0xbc3d1780	-0.011541247
33	0x3b8a5100	0.0042210817
34	0x3ce5f824	0.028072424
35	0xbd9dfb8e	-0.07713996
36	0x3c2300c0	0.009948909
37	0x3d4a1ca6	0.049343728
38	0xbd47c567	-0.048772242
39	0xbdbfb8ca	-0.093614176
40	0x3c368250	0.011139467
41	0xbdb51b48	-0.08843094
42	0x3d85ce83	0.065335296
43	0xbb3b4840	-0.0028577
44	0x3d99ab69	0.07503397
45	0xbd3cfcf3	-0.04613967
46	0x3da91df9	0.0825767
47	0x3c8ea78c	0.017413877
48	0xbda3f81d	-0.08006308
49	0xbd2f9c8a	-0.042873897
50	0xbd984c30	-0.074364066
51	0x3db66bab	0.08907255
52	0x3cb9be6c	0.022673808
53	0xbc1037b0	-0.008802339
54	0x3c8d6acc	0.017262839
55	0xbcf869a8	-0.030323818
56	0xbda72e03	-0.08163073
57	0x3d8c232f	0.06842648
58	0x3dbfbc2f	0.09362065
59	0xbda7dece	-0.081967935
60	0xbd45eb63	-0.048320185
61	0x3d18985e	0.037254684
62	0x3cf1b9ec	0.0295076
63	0x3c2abe50	0.010421351
64	0xbdc951f5	-0.09830085
65	0xbd4a468a	-0.049383678
66	0xbdbd623a	-0.09247251
67	0xbc43f2d8	-0.011959754
68	0x3d8f0583	0.06983473
69	0xbdafe52d	-0.08588634
70	0x3da85275	0.082188524
71	0xbd7a21ed	-0.06106751
72	0x3d44dc42	0.048061617
73	0xbbdc3d30	-0.0067211613
74	0xbda8c533	-0.08240738
75	0xbdcbe5d0	-0.09955943
76	0xbdabd1e3	-0.08389642
77	0x3d3756b6	0.04476043
78	0xbd50801d	-0.05090343
79	0x3d2d069a	0.042242624
80	0xbd40a667	-0.047033694
81	0xbd0256f6	-0.031821214
82	0x3c8bf1cc	0.017083071
83	0xbcf5c22c	-0.029999815
84	0x3c098700	0.008394003
85	0xbc326668	-0.010888673
86	0x3d6937f6	0.056938134
87	0xbd06a706	-0.03287413
88	0xbd1c774a	-0.0381997
89	0xbcbdeda8	-0.023184612
90	0x3d4e29e2	0.05033291
91	0xbd4c5d4d	-0.049893666
92	0x3dbae3d3	0.09125485
93	0xbda3a52d	-0.07990489
94	0x3bca44b0	0.006172739
95	0x3d0c793a	0.0342953
96	0xbda30f1d	-0.07961867
97	0xbdb54ee7	-0.0885294
98	0x3d7a4756	0.061103188
99	0x3bce6fa0	0.006299928
100	0x405bd512	3.4348798
101	0x406a11d6	3.6573386
102	0xbea13bbd	-0.3149089
103	0x408c29e3	4.380113
104	0x3fcc8600	1.5978394
105	0x3f2ec35b	0.6826684
106	0x3f4ebc55	0.8075612
107	0x4067c2e0	3.6212692
108	0x402bfda1	2.6873553
109	0xbdf5cafc	-0.12001607
110	0x4075da97	3.8414667
111	0x40366848	2.8501148
112	0xc0082ff7	-2.1279275
113	0x40138989	2.3052695
114	0xc02b85aa	-2.6800332
115	0x40020af8	2.0319195
116	0x3ff43366	1.9078186
117	0x3e9321d5	0.2873675
118	0x3fc7f431	1.5621396
119	0x3f30e6f4	0.69102407
120	0x400dfac7	2.2184312
121	0xbeb22f56	-0.3480174
122	0x40262fdb	2.5966709
123	0x3feb82ab	1.8399252
124	0x4062c139	3.5430434
125	0x40b70117	5.718883
126	0x4053363e	3.3001857
127	0x40972f8c	4.724554
128	0x3ff2987e	1.8952787
129	0xbf0e8417	-0.55670303
130	0x3f29468a	0.6612326
131	0x3fc67d76	1.5507038
132	0x3fb82f8f	1.4389514
133	0xc0098b7c	-2.1491385
134	0x3f2349e9	0.6378465
135	0x4008fdd4	2.1404924
136	0xbf91e534	-1.1398072
137	0x3fc966cc	1.5734496
138	0xc07b0790	-3.9223366
139	0xbfa40746	-1.281472
140	0x3fde4652	1.736521
141	0x3ff7d912	1.936312
142	0x3f51a258	0.8188834
143	0x40423cba	3.0349565
144	0xc0257c7c	-2.585723
145	0x3e1be36c	0.15223473
146	0x401c6855	2.443868
147	0x401b6c52	2.4284863
148	0xbca6c10f	-0.02035573
149	0x4073601a	3.8027406
150	0x3c8b497c	0.017002814
151	0x3f8bb304	1.0914006
152	0x40a428a0	5.129959
153	0x4053bfe4	3.308587
154	0xbf39e522	-0.72615254
155	0x3ff3e6e0	1.9054832
156	0x3fc990ec	1.5747352
157	0x404b0920	3.172432
158	0x3f8846e3	1.0646633
159	0x402c87eb	2.6957958
160	0x3fe54be9	1.7913791
161	0xbf64e328	-0.8940911
162	0xc04ec36d	-3.2306778
163	0x3fd0aafd	1.6302181
164	0x40af291b	5.4737678
165	0xbf8b469f	-1.0880927
166	0x40257ba0	2.5856705
167	0xbec4452e	-0.3833403
168	0xc037660d	-2.8656037
169	0x3f80bc52	1.0057471
170	0xc07ca0dc	-3.947318
171	0x40594a22	3.3951497
172	0x400af75c	2.1713476
173	0x40050b50	2.0788155
174	0x3f924d36	1.1429813
175	0x40148623	2.320687
176	0xbf887652	-1.0661108
177	0x3f927e1c	1.1444736
178	0xbf804add	-1.0022846
179	0xbf8db054	-1.1069436
180	0x3f5aab46	0.8541759
181	0xbe77aa1f	-0.2418599
182	0x4009da23	2.153939
183	0x3ecb58e6	0.39716262
184	0xbc06726b	-0.00820599
185	0x3ff2060b	1.8908094
186	0xbf11c39e	-0.56939113
187	0x3fb98156	1.4492595
188	0x3f87fd78	1.0624228
189	0x3f6e2e20	0.9303913
190	0x403b9d62	2.931481
191	0xc02fe029	-2.7480567
192	0x402c05e2	2.687859
193	0xbf713a12	-0.94229233
194	0x3ff107c2	1.8830492
195	0xbfae6d1a	-1.3627045
196	0x3e42aab7	0.19010435
197	0x4007d850	2.1225777
198	0x3f7c99d3	0.9867222
199	0x405967d0	3.3969612
200	0x405b2566	3.4241576
201	0x3fa95e43	1.3231891
202	0xbfe10a62	-1.7581294
203	0xbef46e0a	-0.47740203
204	0xbfb19eab	-1.3876547
205	0x407c0357	3.9377038
206	0x3f11398d	0.5672844
207	0x3e2639b5	0.16232951
208	0x3f4534ef	0.77033895
209	0xbf342d30	-0.7038145
210	0x4002792d	2.038646
211	0xbf017e58	-0.5058341
212	0xbfd6c201	-1.6777955
213	0x3eeae099	0.4587448
214	0xbd69d17d	-0.05708455
215	0x3f792475	0.97321254
216	0xbfa7d82f	-1.3112849
217	0x3fd148aa	1.63503
218	0xbfce12db	-1.6099504
219	0x4091138a	4.533635
220	0x3fd1afce	1.6381776
221	0x3fa68e44	1.3012166
222	0xbe7cf641	-0.24703313
223	0xbf095973	-0.53652114
224	0x3fecdf68	1.8505678
225	0x3fc7ea0a	1.5618298
226	0x406adf07	3.6698625
227	0x3efd46c9	0.49468067
228	0x3f10c5b7	0.5655169
229	0x3fd5b25e	1.6695058
230	0xbda97336	-0.08273928
231	0x3edc09d6	0.42976254
232	0x3f3813cd	0.71905214
233	0xc004a648	-2.072649
234	0xbf338016	-0.7011732
235	0x3f05cadc	0.52262664
236	0xbfeacc65	-1.8343626
237	0xbf0069c4	-0.50161386
238	0xbf836382	-1.0264742
239	0x3e36559b	0.17806093
240	0x3f1d81c0	0.6152611
241	0x403137ce	2.769031
242	0x3fd5d9ae	1.6707056
243	0x3e365527	0.1780592
244	0xbf716e25	-0.9430869
245	0xbe601526	-0.21883067
246	0x3f9ab958	1.2087812
247	0xbf66ee32	-0.9020721
248	0xbf6c2ae8	-0.9225297
249	0x3fb73ad0	1.4314823
250	0xbf0a3a97	-0.5399565
251	0xbdc55fa8	-0.096373856
252	0x3e539b87	0.20664798
253	0xc0123750	-2.284626
254	0xbf1b521e	-0.60672176
255	0x3fd14b4c	1.6351104

fc1.bias f4 [15]
0	0xbcacd314	-0.021096744
1	0x3d0f5717	0.034995165
2	0x3c94c485	0.018160114
3	0xbda5ae6d	-0.0808991
4	0x3e722615	0.2364734
5	0xbc8187a0	-0.015811741
6	0x3e59d3aa	0.2127215
7	0xbd257099	-0.040390585
8	0xbc93fa68	-0.018063739
9	0xbc913bcc	-0.017728709
10	0xbcdbf5a0	-0.026850522
11	0x3dfefe76	0.12450878
12	0xbca62721	-0.02028233
13	0xbd6a37da	-0.05718217
14	0xbda2bd10	-0.07946217

attention.weight f4 [15, 1000]
0	0x3c588f6c	0.013217788
1	0xbcffc4f9	-0.031221854
2	0x3c8f8c6e	0.017523017
3	0xbc9dcfee	-0.019264188
4	0xbc0cfd0c	-0.008605253
5	0x3c41e6d4	0.011834819
6	0x3ce062b0	0.027390808
7	0xbc9b3570	-0.01894638
8	0x3c858622	0.016299311
9	0x3c9c49d2	0.019078169
10	0xbca74b60	-0.020421684
11	0xbca364e6	-0.019945573
12	0xbcb79bba	-0.022413123
13	0x3d003e90	0.031309664
14	0xb9f03c00	-0.0004582107
15	0xbc8caaff	-0.017171381
16	0xbb1c8330	-0.0023881905
17	0xbc162d26	-0.009166038
18	0x3cbd3a9c	0.023099236
19	0x3c222b24	0.009897981
20	0x3cdc3530	0.02688083
21	0x3c87340a	0.016504306
22	0x3bd8a428	0.006611366
23	0xbce0fb21	-0.027463498
24	0xbc8b8b8c	-0.017034315
25	0x3d002618	0.03128633
26	0x3ce2d8b8	0.02769123
27	0x3c509154	0.012729961
28	0x3a01a780	0.0004945919
29	0xbcd949b2	-0.026524398
30	0xbc6462e8	-0.013939597
31	0x3abc0ac0	0.0014346465
32	0xbaf89510	-0.0018965323
33	0xbb36dbb0	-0.002790194
34	0x3b7fb770	0.003901925
35	0x3b7099a0	0.0036712661
36	0xbcdba09d	-0.026809985
37	0xbc85bc70	-0.016325206
38	0xbcfdc658	-0.030978367
39	0x3c7a477c	0.015275832
40	0xbbbcd740	-0.0057629645
41	0xbc170b38	-0.009218983
42	0x3c3c0928	0.011476792
43	0xbaa89bb0	-0.0012863781
44	0x3c274684	0.010209683
45	0x3afed080	0.00194408
46	0x3cc10bb2	0.023565147
47	0xbc6daca8	-0.0145064965
48	0x3c613064	0.013744447
49	0x3c87b8b4	0.016567566
50	0x3c2f97c8	0.01071734
51	0xbc27285a	-0.010202492
52	0xbc7c3994	-0.015394587
53	0xbcc47ab2	-0.023984287
54	0x3bc42780	0.005986154
55	0xbca8ef44	-0.020621903
56	0xbc9c2bbe	-0.019063827
57	0xbc7b47f8	-0.015336983
58	0x3c7505b8	0.014954977
59	0x3ca4904a	0.020088334
60	0xbcf8d793	-0.030376231
61	0x3bb9bfd0	0.005668618
62	0x3b00e5a0	0.0019668117
63	0xbce38bae	-0.027776565
64	0x3c9526f2	0.018207047
65	0x3cc6e51c	0.02427917
66	0x3ca1001a	0.019653369
67	0xbcc24d2e	-0.023718443
68	0xbcd7702b	-0.026298603
69	0xbc52c704	-0.012864832
70	0xbc221d3a	-0.0098946635
71	0x3c879300	0.016549587
72	0x3cd3fa66	0.025876235
73	0xbcd0fbd2	-0.025510702
74	0xbcd13e2a	-0.025542337
75	0x3c32fe9c	0.010924961
76	0xbc1d1050	-0.009586409
77	0xbcc64536	-0.024202924
78	0xbc6647f4	-0.014055241
79	0x3c8bd6e6	0.017070245
80	0x3c84a108	0.016190067
81	0xbc962e81	-0.018332722
82	0xbbc6fc88	-0.0060725845
83	0xbb9e2994	-0.004826734
84	0xba7705c0	-0.0009423159
85	0xbca1bc53	-0.01974312
86	0x3b81d128	0.003961701
87	0xbc86dbac	-0.01646217
88	0x3cfa6a38	0.030568227
89	0xbc80e316	-0.015733283
90	0xbb6c0580	-0.003601402
91	0x3bf85a98	0.007579159
92	0xbbee8cb4	-0.0072799567
93	0x3ceca1c2	0.028885726
94	0xbc06f39c	-0.008236792
95	0x3b1d0ef0	0.0023965202
96	0x3cd035b2	0.025416229
97	0x3b9cc548	0.00478426
98	0x3cc215a8	0.023691967
99	0x3ca04192	0.019562516
100	0x3cd88624	0.02643115
101	0x3ca99558	0.020701095
102	0x3cfa1276	0.030526381
103	0xbc8a2a64	-0.016865917
104	0x3c95e780	0.018298864
105	0xbc6046de	-0.013688771
106	0x3c3bf17c	0.011471149
107	0x3c463d94	0.012099642
108	0xbc06b1de	-0.008221118
109	0xbb0086b0	-0.001961153
110	0x3cc8632c	0.024461351
111	0x3c194428	0.009354629
112	0xbc35924e	-0.011082245
113	0x3bd99388	0.0066399015
114	0xbb9427e0	-0.004521355
115	0x3cd41ec2	0.025893573
116	0xbceb9cbe	-0.028761264
117	0x3c935e1c	0.01798921
118	0x3c6576ec	0.014005404
119	0x3cf32d3c	0.029684655
120	0x3cb6debe	0.022323009
121	0x3ce6c3e0	0.028169572
122	0x3cf54d74	0.02994416
123	0xbc349a5c	-0.01102313
124	0xbbdfb7c0	-0.0068273246
125	0x3c84723a	0.016167749
126	0xbca70a30	-0.0203906
127	0x3c5ee6e0	0.01360485
128	0x3cc9031e	0.02453762
129	0x3cee0ce0	0.029058874
130	0x3c15b730	0.009137914
131	0x3cbf2c60	0.02333659
132	0x3cc3d2f2	0.023904298
133	0xbc822088	-0.015884653
134	0xbcc15edc	-0.023604803
135	0x3ca64d28	0.020300463
136	0xbc89d5bc	-0.01682555
137	0x3ccc3c08	0.024930969
138	0xbcd7c6f3	-0.026339984
139	0x3cb34260	0.021882236
140	0x3afeee20	0.0019449629
141	0x3cb14eb2	0.02164397
142	0xbbe8fd0c	-0.0071102437
143	0xbcc6919c	-0.024239354
144	0x3ce6f834	0.028194524
145	0x3cbbb5f4	0.02291391
146	0xbcd110da	-0.02552073
147	0xbc0e7d0c	-0.008696806
148	0x3c19fa1c	0.00939801
149	0x3b889d20	0.0041691214
150	0x3ba8f6b8	0.0051563643
151	0xbb55fac0	-0.003265068
152	0x3c415ea4	0.011802349
153	0xbcbe8488	-0.023256555
154	0x3bfa60a0	0.007640913
155	0xbcf20005	-0.029541025
156	0x3c0e1f74	0.008674491
157	0x3aedaca0	0.0018133111
158	0x3b2dd370	0.0026523732
159	0x3c2f59a4	0.010702524
160	0x3ccebfb4	0.025237896
161	0x3ce030a8	0.027366951
162	0xbc4a0da4	-0.012332354
163	0xbc3245b4	-0.010880876
164	0xb9fcb6c0	-0.00048201345
165	0x3be26ec0	0.006910175
166	0xbcd09302	-0.025460724
167	0xbc27af7a	-0.010234708
168	0x3ce42478	0.02784942
169	0xbc8c4a7c	-0.01712536
170	0xbd016cfa	-0.03159807
171	0xbaa863d0	-0.0012847129
172	0xbcf8a5b6	-0.030352455
173	0x3caa8652	0.020816002
174	0xbc084a94	-0.008318562
175	0x3cc86cc4	0.024465926
176	0xbadfda70	-0.0017078649
177	0xbc5b5fc6	-0.013389533
178	0xbc869fa6	-0.016433548
179	0xbbd53aec	-0.006507268
180	0x3c8fb108	0.01754047
181	0xbb95d178	-0.0045720898
182	0xbc9ca55d	-0.01912182
183	0x3bbba918	0.0057269447
184	0x3ce13f36	0.027495962
185	0x3c9a6010	0.018844634
186	0xbc0f73cc	-0.0087556355
187	0x3d00a6a4	0.03140892
188	0xbcd9539c	-0.026529126
189	0xbcb88c56	-0.022527855
190	0x3cb9b4c0	0.022669196
191	0xbb8e2a80	-0.0043385625
192	0x3be96058	0.007122081
193	0xbcb048dc	-0.021519117
194	0xbc943a35	-0.018094162
195	0xbc421602	-0.011846067
196	0xbbcdd7d0	-0.0062818304
197	0x3b50de00	0.0031870604
198	0xbbd449ac	-0.006478509
199	0x3c5c7630	0.0134559125
200	0x3bfa6400	0.0076413155
201	0x3cd07dca	0.025450606
202	0x3cbede26	0.023299288
203	0xbbd072b4	-0.00636133
204	0x3c1c02e4	0.009522174
205	0xbb0d0460	-0.00215175
206	0xbca9cc31	-0.020727249
207	0x3cd89942	0.026440267
208	0xbc163024	-0.009166751
209	0xbcab463e	-0.020907518
210	0x3c2a48bc	0.010393318
211	0xbc2eeeb4	-0.010677028
212	0x3c1d9450	0.00961788
213	0xbbc0c9a4	-0.0058834124
214	0x3a9c44c0	0.0011922345
215	0x39cc4800	0.00038963556
216	0x3c09d1a0	0.008411795
217	0x3cdf10de	0.027229723
218	0xbc6928c4	-0.014230911
219	0x3addb380	0.0016914457
220	0x3cd0cd72	0.025488589
221	0xbc547590	-0.012967482
222	0xbc41793c	-0.01180869
223	0xbc08d4f2	-0.008351551
224	0x3cc44344	0.023957856
225	0xbc295bfa	-0.01033687
226	0x3ca47894	0.020077027
227	0x3c38f764	0.011289451
228	0x3884f400	6.339699e-05
229	0x3b4df9c0	0.003142938
230	0xbc8ce6ec	-0.017199956
231	0xbbb9a4bc	-0.00566539
232	0xbbd5a3f8	-0.0065197907
233	0x3c871f86	0.016494524
234	0xbcc96cfa	-0.024588097
235	0xbc243c54	-0.010024149
236	0x3ca0d662	0.019633476
237	0xbc026658	-0.007958971
238	0xbc490a72	-0.012270557
239	0xbc31a892	-0.010843413
240	0xbcf74f14	-0.030189075
241	0x3cec8868	0.028873637
242	0xbc929b45	-0.017896304
243	0x3cc3f2fa	0.023919571
244	0xbb84de88	-0.004054848
245	0xbcd3fb58	-0.025876686
246	0x3bb5b648	0.0055454113
247	0x3c926754	0.017871536
248	0x3c387b14	0.011259813
249	0xbccc4388	-0.024934545
250	0x3cb449ee	0.022007909
251	0xbc3d219a	-0.011543656
252	0xbceeb01a	-0.029136706
253	0xbbe13248	-0.006872449
254	0x3c7a589c	0.015279915
255	0x3c2f41c8	0.010696836

attention.bias f4 [15]
0	0xbc8be86a	-0.017078597
1	0xbc897f6a	-0.016784389
2	0xbdd92c4a	-0.106041506
3	0xbc669af6	-0.0140750315
4	0xbe06a3f8	-0.13148487
5	0xbc7e93d6	-0.0155381765
6	0xbd38862f	-0.045049842
7	0xbe002092	-0.12512425
8	0x3c4ee56b	0.01262794
9	0xbcd6f0e3	-0.02623791
10	0xbcda84ea	-0.026674706
11	0xbc8ff4e2	-0.017572824
12	0xbcdb23e7	-0.026750518
13	0x3db66d76	0.08907597
14	0xbc9e92b4	-0.019357063

attention2.weight f4 [15, 15]
0	0x3d3f48b8	0.04670021
1	0x3cfc93dc	0.030832224
2	0xbdadadff	-0.08480453
3	0x3e7c7b5a	0.2465643
4	0x3ddc1bcd	0.1074749
5	0xbc1fc01f	-0.009750395
6	0x3e504cfd	0.20341869
7	0x3ca4cc8a	0.020117063
8	0x3dce22c0	0.10065222
9	0xbe22e2d6	-0.15906844
10	0xbdee1f20	-0.116270304
11	0x3e621f90	0.22082353
12	0xbe2d56a2	-0.16927579
13	0xbd425e20	-0.047453046
14	0x3cdc48a0	0.026890099
15	0x3cacd9a0	0.021099865
16	0xbd42766a	-0.04747621
17	0xbe5b4a4c	-0.21415061
18	0xbe6db738	-0.23214424
19	0xbe6b3f90	-0.22973466
20	0x3d3bec0b	0.045879405
21	0x3d96d3f7	0.07364648
22	0xbdb77f38	-0.08959812
23	0xbe330125	-0.17480905
24	0xbe1089f3	-0.14115123
25	0xbdce9404	-0.100868255
26	0xbe519274	-0.20466024
27	0xbdd0deb6	-0.10198729
28	0xbdbed1d2	-0.09317364
29	0xbe4e66b7	-0.2015637
30	0xbe813f98	-0.2524383
31	0xbe37e5d2	-0.17958763
32	0x3db25c94	0.08709064
33	0x3dfd8d08	0.12380415
34	0x3d854c34	0.06508675
35	0x3db1d054	0.086823136
36	0x3e1a3910	0.1506083
37	0x3ca614f0	0.020273656
38	0x3cf5fad0	0.030026823
39	0x3e062256	0.13099036
40	0xbe03e3f5	-0.12879927
41	0xbdc42280	-0.09576893
42	0x3df58d18	0.11989802
43	0x3cbc3c50	0.022977978
44	0xbd7c1900	-0.06154728
45	0x3e1a7a18	0.15085638
46	0x3dc15200	0.094394684
47	0xbe7d2809	-0.24722303
48	0x3de9192c	0.11381754
49	0x3d6c1818	0.057640165
50	0xbe8f943d	-0.28042784
51	0xbe5f9698	-0.2183479
52	0xbdb2afec	-0.08724961
53	0x3e1139f3	0.14182262
54	0xbe040987	-0.1289426
55	0xbe0d7488	-0.13813984
56	0x3d6fddc8	0.058561116
57	0xbe57d136	-0.21075901
58	0xbe42b7c0	-0.19015408
59	0xbe7d93cf	-0.24763416
60	0x3e0d1e16	0.13781008
61	0xc02ad434	-2.6692019
62	0xbe19acc8	-0.15007317
63	0x3e6f06fc	0.23342508
64	0x3f8b3b70	1.0877514
65	0xc00fcd16	-2.2468925
66	0x3e0ba314	0.13636428
67	0xbe2b26eb	-0.16714065
68	0xbf67dc96	-0.9057096
69	0x3ddcc824	0.10780361
70	0x3d254a90	0.04035431
71	0x3e533f72	0.20629671
72	0x3e70d21a	0.23517647
73	0xbf1f2ed2	-0.6218082
74	0xbc4c35b0	-0.012463972
75	0xbdc75b14	-0.09734169
76	0xbe822c3d	-0.25424376
77	0x3e67d242	0.226388
78	0x3e52cd64	0.20586163
79	0x3d026818	0.031837553
80	0xbe98615a	-0.29761773
81	0x3dba615c	0.09100601
82	0x3e67343a	0.22578517
83	0x3e567177	0.20941721
84	0x3da79b68	0.08183938
85	0x3cd6f9c0	0.026242137
86	0xbd851154	-0.06497446
87	0xbe450cfe	-0.19243237
88	0x3e02ca9b	0.127726
89	0xbe141d1a	-0.14464226
90	0xbc81fb10	-0.015866786
91	0x3e07b10c	0.13251132
92	0x3cc492e5	0.023995826
93	0xbe37ed2e	-0.1796157
94	0x3e99e06b	0.3005403
95	0x3f5c5f01	0.86082464
96	0x3e2e1da3	0.17003493
97	0xbe46fb08	-0.19431698
98	0x3e60020e	0.21875784
99	0x3e753afa	0.23948279
100	0xbe611edb	-0.21984427
101	0x3d4af1b8	0.049546927
102	0xbe1fc174	-0.1560114
103	0xbfac0173	-1.3437942
104	0x3ddb92fc	0.107213944
105	0xbe6e5c42	-0.23277381
106	0x3fd00806	1.6252449
107	0xbe4e9f9e	-0.20178077
108	0xbdb2629e	-0.08710216
109	0x40172da0	2.3621597
110	0x3f4697ec	0.77575564
111	0x3db2a220	0.08722329
112	0x3e915fc5	0.2839338
113	0xbf4053c9	-0.75127846
114	0x3c175320	0.009236127
115	0x3e0adc4c	0.13560599
116	0x3ca16910	0.019703418
117	0x3e231d50	0.1592915
118	0x3fe769e3	1.8079189
119	0xbdab4154	-0.0836207
120	0xbe2825a0	-0.16420603
121	0xbe50f80d	-0.20407124
122	0xbd7dcc4d	-0.061962415
123	0x3d524fc8	0.051345617
124	0xbe15a49a	-0.14613572
125	0x3b52fbe1	0.0032193589
126	0xbd824500	-0.06360817
127	0xbe639f28	-0.22228682
128	0x3e26e83a	0.16299525
129	0xbdab7ff2	-0.08374013
130	0xbd576a48	-0.052591592
131	0x3c569380	0.01309669
132	0xbe483270	-0.1955049
133	0x3d3614f5	0.04445358
134	0x3e4d7984	0.20065886
135	0x3d2b31e8	0.04179564
136	0xbe3ae665	-0.18251951
137	0xbef89366	-0.48549956
138	0x3e00b298	0.12568128
139	0xbe80152e	-0.2501616
140	0xbd12067d	-0.03565072
141	0x3e4be602	0.1991196
142	0xbd8bac6c	-0.06819996
143	0xbef85b06	-0.48506945
144	0xbd89d934	-0.06730881
145	0xbd1c1321	-0.03810418
146	0x3d178ee8	0.03700152
147	0x3c2ee120	0.010673791
148	0x3e131ce7	0.14366494
149	0x3e804e4f	0.25059745
150	0x3d073740	0.033011675
151	0xbd007c42	-0.0313685
152	0xbe01f8f1	-0.1269262
153	0xbda39ad8	-0.079885185
154	0x3d34dd5f	0.04415643
155	0x3d164cdd	0.036694396
156	0x3e0a5c26	0.13511714
157	0xbe14eb3c	-0.1454286
158	0xbe04c7f1	-0.12966897
159	0xbdbb3650	-0.09141219
160	0x3d95f255	0.07321612
161	0xbd523c3c	-0.051326975
162	0x3cba12a0	0.02271396
163	0x3d37b1c8	0.04484728
164	0x3d5b2330	0.053500354
165	0xbe6c0ee0	-0.2305255
166	0xbe1fd249	-0.15607561
167	0xbda71b58	-0.08159512
168	0xbbdb4b40	-0.00669232
169	0xbe7d732b	-0.24750964
170	0x3d4729e0	0.04862392
171	0xbdd00b64	-0.101584226
172	0xbd7d49b8	-0.06183788
173	0xbe07f7fe	-0.13278195
174	0xbd0a7908	-0.03380683
175	0xbde63856	-0.11241214
176	0x3d9d4c88	0.07680613
177	0xbce5bd90	-0.028044492
178	0xbe23db02	-0.16001514
179	0xbda85c06	-0.08220677
180	0x3e8430fb	0.2581862
181	0xbe2f1c00	-0.17100525
182	0xbe53da44	-0.2068873
183	0xbe562548	-0.20912659
184	0xbe338462	-0.17530969
185	0x3cf5b820	0.029995024
186	0x3e64463a	0.22292414
187	0xbe4dd822	-0.2010198
188	0xbe48d40e	-0.19612142
189	0xbdabe4ac	-0.08393225
190	0xbe0faa89	-0.14029898
191	0xbe70330b	-0.23456971
192	0xbacac000	-0.0015468597
193	0xbe0b6320	-0.13612032
194	0xbd9f80d0	-0.07788241
195	0xbe471c78	-0.19444454
196	0xbd759f3c	-0.05996631
197	0xbe7d71dd	-0.24750467
198	0xbc9242a8	-0.01785405
199	0x3e323608	0.17403424
200	0x3c3481e0	0.011017293
201	0x3e17464a	0.14772907
202	0x3e39affe	0.18133542
203	0x3e3e121c	0.18561596
204	0xbda295a0	-0.07938695
205	0x3caccaf0	0.021092862
206	0x3e503260	0.20331717
207	0xbde88faa	-0.11355527
208	0x3ddbf614	0.10740295
209	0xbd9b4138	-0.07580799
210	0x3d076e98	0.033064455
211	0xbeb0e2b8	-0.34547973
212	0xbe1c9509	-0.15291227
213	0xbe7792ef	-0.24177144
214	0xbe6a61a4	-0.2288881
215	0xbd1659c1	-0.03670669
216	0x3e49b6d4	0.1969865
217	0x3da960cb	0.08270415
218	0x3c685ed7	0.014182768
219	0x3d7f6ec8	0.06236151
220	0xbe844bed	-0.25839177
221	0xbe0cec66	-0.13762054
222	0xbdff8bce	-0.124778375
223	0xbe79d462	-0.24397424
224	0x3e1eef0c	0.15520877

attention2.bias f4 [15]
0	0xbe25c253	-0.1618741
1	0xbd7bfe26	-0.06152167
2	0xbdee0d82	-0.1162367
3	0xbe1ecd2d	-0.15507956
4	0x3eef9857	0.46795914
5	0xbe6789b3	-0.22611122
6	0xbe68a94c	-0.22720832
7	0xbf3194df	-0.69367784
8	0xbe488d53	-0.19585161
9	0xbdbc9de4	-0.09209803
10	0xbd7769a8	-0.060403496
11	0xbde2371c	-0.110456675
12	0xbda55498	-0.080727756
13	0xbe81af48	-0.2532904
14	0xbd096ba4	-0.03354992

fc2.weight f4 [15, 15]
0	0xbc8ac720	-0.016940653
1	0xbded56dd	-0.115888335
2	0x3dfa30d6	0.12216346
3	0x3ca08430	0.019594282
4	0xbe07a74a	-0.1324741
5	0x3e230983	0.15921597
6	0xbd0c55bf	-0.03426146
7	0xbe1832b0	-0.14863086
8	0xbdb539ee	-0.0884894
9	0xbe5a001a	-0.21289101
10	0x3dbe3ea4	0.092892915
11	0x3d30d01f	0.04316723
12	0xbc843060	-0.016136348
13	0x3d62310e	0.055222563
14	0xbe6c23be	-0.2306051
15	0xbe7a9992	-0.24472645
16	0xbe457128	-0.19281447
17	0x3c3051f3	0.010761726
18	0x3e2ba12a	0.16760698
19	0xbe382eab	-0.17986552
20	0xbe9b11b0	-0.30286932
21	0xbe68af03	-0.22723012
22	0xbec6a172	-0.38795048
23	0xbd8d3608	-0.06895071
24	0x3b37d080	0.002804786
25	0xbca3ba78	-0.019986376
26	0xbdadd7f8	-0.084884584
27	0x3e541f51	0.20715071
28	0xbec77031	-0.38952783
29	0xbe17ba7d	-0.14817233
30	0x3d044010	0.032287657
31	0x401dc90a	2.4653955
32	0x40312169	2.7676642
33	0x3e27d3f4	0.16389447
34	0xbe7906d9	-0.24319018
35	0xc0260c04	-2.5944834
36	0xbf56e7bf	-0.83947366
37	0x3f445466	0.7669128
38	0x3f2e2f53	0.6804096
39	0xbe2fc352	-0.17164353
40	0xbe619248	-0.22028458
41	0xbe1906e3	-0.14944033
42	0xbe3e307c	-0.18573183
43	0x3f00850c	0.50203013
44	0xbd863e8c	-0.065548986
45	0xbdc31d82	-0.095271125
46	0x3e2f1595	0.17098077
47	0x4090b70a	4.5223436
48	0xbca6d7e8	-0.020366624
49	0x3fb47655	1.4098612
50	0x3f2c94ae	0.6741437
51	0x3f545297	0.8293852
52	0x409b0b92	4.8451624
53	0x3eee94d1	0.46597913
54	0x3df46b30	0.11934507
55	0xbdffc89f	-0.12489437
56	0x3f5df165	0.86696464
57	0xbdc2988c	-0.09501752
58	0xbde193b5	-0.11014501
59	0xbde93350	-0.1138674
60	0x3d23f4e8	0.040028483
61	0xbe353901	-0.17697527
62	0x3d9b1814	0.07572952
63	0xbe432a72	-0.1905916
64	0xbd508669	-0.050909434
65	0xbd570f61	-0.0525049
66	0x3de75a0e	0.112964734
67	0xbe9a49dc	-0.30134475
68	0xbe4ce70f	-0.20010017
69	0xbe5fb39e	-0.21845862
70	0xbd934463	-0.07190778
71	0x3e0365e5	0.12831838
72	0xbe0a2aad	-0.13492842
73	0xbde69b5b	-0.112601005
74	0x3e1176a0	0.14205408
75	0xbdb30e4e	-0.08742963
76	0xc08743c2	-4.227021
77	0x3ff30af9	1.8987724
78	0x3dd5bac4	0.10436013
79	0xbf0bbf0e	-0.545884
80	0x3eadf885	0.33978668
81	0x3f8bc0bb	1.0918192
82	0xbebd451d	-0.36966792
83	0x3ee66503	0.4499894
84	0xbb096580	-0.002096504
85	0xbe6d09c0	-0.2314825
86	0x4067bb12	3.6207929
87	0x3e14bf59	0.14526118
88	0xbf7bbad5	-0.9833196
89	0xbe70076e	-0.23440334
90	0x3cd9df00	0.026595592
91	0x3f853950	1.0408115
92	0x3ffb1583	1.961594
93	0xbd8cc70c	-0.06873903
94	0xc035ec49	-2.8425467
95	0xbc11102d	-0.008853954
96	0x3ffd556d	1.9791695
97	0xc0855090	-4.1660843
98	0x3f4533fa	0.77032435
99	0x3e6302ca	0.22169033
100	0xbdc94584	-0.09827712
101	0x4060654a	3.5061822
102	0x3e0c20bd	0.13684364
103	0xc02dd971	-2.7163966
104	0xbd956ec0	-0.072965145
105	0x3be17080	0.006879866
106	0x3f8eb39f	1.1148566
107	0xc016939a	-2.352759
108	0x3e7d94f6	0.24763855
109	0xbf525b43	-0.82170504
110	0x3f337b86	0.70110357
111	0xbface041	-1.3505937
112	0xbf8d68cb	-1.1047605
113	0x3ec4af01	0.38414767
114	0x3e27bce2	0.16380647
115	0x3e78e463	0.24305873
116	0x3e2b88d8	0.1675142
117	0xbe0b4b86	-0.13603029
118	0x3fcb9232	1.590399
119	0x3e4bfeaa	0.19921365
120	0xbe81aa9f	-0.25325486
121	0x3fc69263	1.5513424
122	0x3f652a87	0.89518017
123	0x3e532690	0.20620179
124	0xc0945321	-4.6351476
125	0x3d9bc147	0.07605224
126	0xc09cb3ab	-4.896932
127	0x3fd850e3	1.6899685
128	0x3f72b78a	0.9481131
129	0x3e754fc2	0.23956206
130	0xbd85b28b	-0.06528195
131	0xc080c01c	-4.023451
132	0x3d9d2a9c	0.07674143
133	0x3faf4918	1.3694181
134	0x3e81ebd1	0.25375226
135	0xbdc17a68	-0.09447175
136	0x3f934295	1.1504694
137	0x3ed58843	0.41705522
138	0x3e40ccea	0.18828169
139	0xbe486244	-0.19568735
140	0xbec6b910	-0.38813066
141	0x3fcd9967	1.606244
142	0x40451919	3.0796568
143	0xbfc7de70	-1.5614758
144	0x3e3e5dbc	0.18590444
145	0xbe1c399b	-0.1525635
146	0x400c055c	2.187827
147	0xbd989b27	-0.07451468
148	0xbf28c4aa	-0.65925086
149	0x3d7f27e8	0.062293917
150	0x3e26a4be	0.16273782
151	0xbecff385	-0.40615478
152	0xbf368ee6	-0.71311796
153	0x3d3a7320	0.045519948
154	0x3e10dc7a	0.14146605
155	0xbda9ae38	-0.08285183
156	0x41229357	10.160972
157	0xbe9b8938	-0.30378127
158	0x3dc8eb66	0.09810524
159	0xbcdb3a20	-0.026761115
160	0xbdcf6798	-0.10127181
161	0x4019e1dc	2.4044104
162	0xbd7dc4cf	-0.06195527
163	0x3ea9ee77	0.33189747
164	0x3dc57898	0.09642142
165	0xbe04debe	-0.12975594
166	0xbe2c5d64	-0.168325
167	0x401482cc	2.3204832
168	0x3e24d546	0.16096982
169	0x402b097d	2.672454
170	0xbf07dd17	-0.5307173
171	0xbdc57d8b	-0.09643086
172	0x3f5d0899	0.86341244
173	0x3d9a1bbd	0.07524822
174	0xbe3ef86b	-0.18649451
175	0xbe511f55	-0.20422108
176	0x4134ea21	11.30716
177	0xbdbf0320	-0.09326768
178	0x3edd3dbf	0.4321117
179	0xbda09db0	-0.078425765
180	0x3e681d28	0.22667372
181	0x3da9d3e4	0.08292368
182	0xbdce28c6	-0.10066371
183	0xbdddccc2	-0.1083007
184	0xbd7581c4	-0.059938207
185	0xbd730d40	-0.059338808
186	0x3e4a1204	0.19733435
187	0x3bd96540	0.0066343844
188	0xbe4ea93a	-0.20181742
189	0x3de33f98	0.11096114
190	0xbe3ea9b5	-0.18619426
191	0xbe457cb0	-0.19285846
192	0x3e6c9dd4	0.23107082
193	0x3dcf155c	0.10111496
194	0x3cd3cc20	0.02585417
195	0x3dbbc6f0	0.09168804
196	0xbcfe53a7	-0.031045748
197	0x3d8ff40a	0.07028969
198	0xbd1e5f34	-0.03866501
199	0x3e872fd0	0.26403666
200	0xbdba2b34	-0.090902716
201	0xbe6c5ff7	-0.23083483
202	0xbe7b7e0e	-0.24559805
203	0xbe23c408	-0.15992749
204	0x3e30e0c8	0.17273247
205	0xbe56f3ae	-0.20991394
206	0xbe92ea1b	-0.28694233
207	0xbe1e1216	-0.15436587
208	0xbe35e79a	-0.1776413
209	0xbdcf8caa	-0.101342514
210	0xbc95ac88	-0.018270746
211	0xbe34308b	-0.17596643
212	0x3dfb2a73	0.12263956
213	0xbc5104c0	-0.01275748
214	0xbe6bac4f	-0.2301495
215	0x3e0395bd	0.1285009
216	0x3bc7829f	0.0060885693
217	0x3dbc9f17	0.092100315
218	0xbd234ccb	-0.039868157
219	0xbe5300c8	-0.20605767
220	0xbdf270b0	-0.118379
221	0x3e0486ee	0.12942097
222	0x3e807ec5	0.25096717
223	0x3e025112	0.12726238
224	0xbb575a80	-0.0032860339

fc2.bias f4 [15]
0	0xbe6fd0d7	-0.2341951
1	0x3a23d750	0.00062500406
2	0xbf26672f	-0.65001196
3	0xbf679e67	-0.9047608
4	0xbd9517b3	-0.07279911
5	0x3f34f2de	0.70683086
6	0x3c8a99b0	0.016918987
7	0xbe634cf8	-0.2219733
8	0xbf1d5821	-0.614626
9	0xbe9a993d	-0.30195037
10	0x3e26af7c	0.1627788
11	0xbef02df5	-0.46910062
12	0xbe222ca8	-0.15837348
13	0xbde74adf	-0.112935774
14	0xbe64ce74	-0.2234438

fc3.weight f4 [4733, 15]
0	0xbf8a3ae0	-1.0799217
1	0xbeedeb48	-0.46468568
2	0xc0d089cb	-6.5168204
3	0xc1d1f3e8	-26.244095
4	0xc0c68a62	-6.2043924
5	0xc11d304b	-9.82429
6	0xc0136a11	-2.3033488
7	0xc1c1aa37	-24.208113
8	0xc233a76a	-44.91349
9	0xc11afdb1	-9.686936
10	0xc11e096b	-9.877299
11	0xc08c97b2	-4.3935175
12	0xbd7cfe28	-0.06176582
13	0xbd668280	-0.0562768
14	0xbe74cb72	-0.23905733
15	0xbe398225	-0.18116052
16	0xbda54601	-0.08069993
17	0xc0c926d3	-6.2859893
18	0xc0cac459	-6.336468
19	0xc0d7ee8f	-6.747871
20	0xc22c0579	-43.005344
21	0xc0b60521	-5.688126
22	0xc0935f44	-4.605379
23	0xc1013b99	-8.07705
24	0xc085d425	-4.1821465
25	0xc0abab5e	-5.364669
26	0xc11281e2	-9.15671
27	0xbd07ac98	-0.033123583
28	0xbe3eb23f	-0.18622683
29	0xbcb445d0	-0.022005945
30	0xbf9101a3	-1.1328624
31	0xbfa320c8	-1.2744379
32	0xc083f052	-4.123086
33	0xc2546510	-53.098694
34	0xc1f3ec32	-30.49033
35	0xc1f695d1	-30.823153
36	0xc1e64c45	-28.787241
37	0xc0d3fc41	-6.6245427
38	0xc1f48b3f	-30.567991
39	0xc0528843	-3.2895668
40	0xc097f7a0	-4.7489777
41	0xc0ba6cda	-5.8257875
42	0xbbead040	-0.0071659386
43	0xbe6c1f39	-0.23058785
44	0xbf5f8102	-0.87306225
45	0xbfa38af1	-1.2776777
46	0xbf893dd4	-1.0721993
47	0xc05c3a12	-3.4410443
48	0xc10611fa	-8.379389
49	0xc24ef0f5	-51.73531
50	0xc1ab047f	-21.377195
51	0xc27557df	-61.33581
52	0xc08925ea	-4.285878
53	0xc13e5764	-11.896336
54	0xc1d70aef	-26.880339
55	0xc15b513b	-13.707332
56	0xc0d9816f	-6.79705
57	0xbe07d473	-0.13264637
58	0x3b8b0300	0.004242301
59	0xbf59a13c	-0.8501165
60	0xbf9a6c30	-1.2064266
61	0xbf8d48d2	-1.1037848
62	0xc0b511d0	-5.6584244
63	0xc0975076	-4.728572
64	0xc22e89ef	-43.6347
65	0xc0aa88cd	-5.3291993
66	0xc24bb5d7	-50.927578
67	0xc0961477	-4.689998
68	0xc0f85e97	-7.7615466
69	0xc0abcde1	-5.3688817
70	0xc2321163	-44.51698
71	0xc0cd3af6	-6.4134474
72	0xbd67cad0	-0.0565899
73	0x3bfd3e6b	0.007728388
74	0xbf60f702	-0.87876904
75	0xbf6dee7e	-0.92942035
76	0xbfa10cac	-1.2581992
77	0xc0e567be	-7.168914
78	0xc0e017c3	-7.0029006
79	0xc0ba869c	-5.828932
80	0xc22bdfb4	-42.96846
81	0xc0b6a6b9	-5.707852
82	0xc0d1493b	-6.5401893
83	0xc0657d2e	-3.5857654
84	0xc1c2d332	-24.353123
85	0xc1004446	-8.016668
86	0xc0593dfe	-3.3944087
87	0x3e64ccbc	0.22343725
88	0xbd1b21c1	-0.037873987
89	0xbf3f232d	-0.7466305
90	0xbf787d8d	-0.97066575
91	0xbf90dc65	-1.1317259
92	0xc0e0a8d9	-7.0206113
93	0xc093d1ba	-4.6193514
94	0xc1bfb399	-23.962694
95	0xc055b658	-3.3392544
96	0xc1020b1f	-8.127715
97	0xc09eef7b	-4.9667335
98	0xc1f60974	-30.754616
99	0xc2211d39	-40.278538
100	0xc09e81be	-4.9533377
101	0xc08b1fd7	-4.3476367
102	0x3d953c00	0.07286835
103	0xbdaa446e	-0.08313833
104	0xbf055c34	-0.52093816
105	0x3f2c27d2	0.6724826
106	0x3e5da195	0.2164367
107	0xc0bdad3c	-5.927397
108	0xc083bf91	-4.1171346
109	0xc0c1902f	-6.0488505
110	0xc0a43256	-5.1311445
111	0xc0a3e36d	-5.121512
112	0xc0a875f6	-5.2643995
113	0xc0dc17a6	-6.877887
114	0xc0cf8f6b	-6.486257
115	0xc08fa230	-4.4885483
116	0xc09e1a8b	-4.94074
117	0x3e54183a	0.20712367
118	0x3dec1990	0.11528313
119	0xbdafcd13	-0.08584037
120	0xbed8fede	-0.42381948
121	0xbf00675e	-0.50157726
122	0xc0c9446d	-6.2896028
123	0xc190ab1d	-18.083551
124	0xc1d2198d	-26.262476
125	0xc14a7c7c	-12.655392
126	0xc1ec7cf0	-29.561005
127	0xc09f00ec	-4.9688625
128	0xc0d32aa3	-6.5989547
129	0xc1bb4329	-23.407793
130	0xc0e44185	-7.132998
131	0xc2553550	-53.302063
132	0x3d0bc648	0.034124643
133	0x3e3b0ed4	0.18267375
134	0xbf29f4a3	-0.6638891
135	0xbf01cbcb	-0.5070159
136	0xbea0c8d8	-0.31403232
137	0xc1051ebc	-8.3200035
138	0xc12e917d	-10.91052
139	0xc167834d	-14.469556
140	0xc153120e	-13.191908
141	0xc0049588	-2.0716267
142	0xc0a74c43	-5.2280593
143	0xc0a33ac8	-5.1009254
144	0xc0839160	-4.111496
145	0xc0a0a61e	-5.020278
146	0xc038a28c	-2.884921
147	0x3de9cf20	0.11416459
148	0x3e116cb4	0.14201623
149	0xbd741150	-0.059586823
150	0x3eb556a5	0.35417667
151	0x3e6a1f2b	0.22863452
152	0xc0b9f23a	-5.8108187
153	0xc08f068f	-4.4695506
154	0xc1293245	-10.574773
155	0xc0a1c354	-5.055094
156	0xc0cd4f18	-6.415905
157	0xc0c3840e	-6.10987
158	0xc0ba603d	-5.824248
159	0xc0d7da0c	-6.745367
160	0xc0871d48	-4.2223244
161	0xc09560da	-4.6680727
162	0xbe0c1fd6	-0.1368402
163	0xbe93460e	-0.28764385
164	0xbdf62b19	-0.12019939
165	0xbf92df8a	-1.1474469
166	0xbe9e94b9	-0.3097284
167	0xc09ccfbd	-4.9003587
168	0xc0d8a9e9	-6.770741
169	0xc0a30f42	-5.0956125
170	0xc11057f0	-9.021469
171	0xc0c43c26	-6.1323423
172	0xc15610f4	-13.379139
173	0xc0a0fa77	-5.0305743
174	0xc110fcd8	-9.061729
175	0xc28674dd	-67.22825
176	0xc26fc01a	-59.9376
177	0xbca04cb8	-0.019567832
178	0xbe4a5a44	-0.19760996
179	0xbec61e50	-0.38695002
180	0x3d8b763a	0.06809659
181	0x3d5bf903	0.053704273
182	0xc0bf1e14	-5.9724216
183	0xc081d280	-4.056946
184	0xc0927581	-4.5768437
185	0xc0a77162	-5.2325907
186	0xc0ca916a	-6.3302507
187	0xc0af558d	-5.479193
188	0xc0ec34bd	-7.381438
189	0xc11d1dc3	-9.819766
190	0xc0998653	-4.797647
191	0xc0893e51	-4.288857
192	0x3dc54cf0	0.09633815
193	0x3e1caab2	0.1529949
194	0xbe3e864e	-0.1860592
195	0xbf947c6b	-1.1600469
196	0xbf409d69	-0.7524019
197	0xc08ada69	-4.3391614
198	0xc12b05ae	-10.688887
199	0xc1789660	-15.536713
200	0xc1222dd6	-10.13619
201	0xc0a98088	-5.29694
202	0xc0ea8610	-7.328865
203	0xc0cd51fb	-6.4162574
204	0xc22c93ac	-43.14421
205	0xc2785f16	-62.092857
206	0xc25a365c	-54.553085
207	0x3de7ba24	0.113148004
208	0xbe319950	-0.1734364
209	0xbf35079c	-0.70714736
210	0xbf69abd5	-0.9127782
211	0xbf54f335	-0.83183604
212	0xc0aa3f1d	-5.3202043
213	0xc0ba38ec	-5.8194485
214	0xc1501d19	-13.007104
215	0xc18911ec	-17.13375
216	0xc18ad644	-17.354622
217	0xc0fc50ee	-7.884879
218	0xc24c8316	-51.128014
219	0xc195f73d	-18.745722
220	0xc0561e4c	-3.3455992
221	0xc08723d7	-4.223125
222	0xbdf718d2	-0.12065281
223	0x3d49eb63	0.049296748
224	0xbf01bc9c	-0.5067842
225	0xbd72ce5d	-0.059278835
226	0x3d7023a1	0.05862773
227	0xc0e05256	-7.010051
228	0xc0a05aff	-5.011108
229	0xc0db6aa1	-6.856766
230	0xc09314b6	-4.596278
231	0xc0ad632d	-5.4183564
232	0xc0ab418a	-5.3517504
233	0xc0afdca7	-5.495685
234	0xc0ad6aff	-5.419311
235	0xc08f8176	-4.4845533
236	0xc0980bc9	-4.7514386
237	0xbdbdeda0	-0.09273839
238	0xbe0a541c	-0.13508648
239	0x3e15d872	0.14633349
240	0xbf909ea8	-1.1298418
241	0xbf3bf9e7	-0.73428196
242	0xc083250b	-4.098272
243	0xc0be4fe1	-5.947251
244	0xc21fa670	-39.912537
245	0xc1ee051a	-29.752491
246	0xc0bc4d7f	-5.88446
247	0xc1d26ff9	-26.304674
248	0xc224f91f	-41.243282
249	0xc2370997	-45.759365
250	0xc1599bbd	-13.600522
251	0xc0c9aa32	-6.302026
252	0xbe12e66b	-0.1434571
253	0xbdc4ea02	-0.09614946
254	0xbf2af8b9	-0.6678577
255	0xbf597733	-0.8494751

fc3.bias f4 [4733]
0	0xc050b3f6	-3.260984
1	0xc08382ae	-4.109702
2	0xc0805c82	-4.0112925
3	0xc06eb746	-3.7299361
4	0xc0c3b176	-6.1154127
5	0xc093ad5e	-4.614913
6	0xc0c05720	-6.0106354
7	0xc0964183	-4.695497
8	0xbf8fdf5e	-1.1240041
9	0xc1006b29	-8.026162
10	0xc08d010c	-4.406378
11	0xc0b8070a	-5.7508593
12	0xc0ad6fb2	-5.4198847
13	0xc0952bb8	-4.6615868
14	0xc0adf196	-5.4357405
15	0xc0a9517a	-5.291196
16	0xc08ad66f	-4.338676
17	0xc09ed9c6	-4.9640837
18	0xc0a58678	-5.1726646
19	0xc05fa7f7	-3.4946268
20	0xc0d614f8	-6.6900597
21	0xc0916bc2	-4.544404
22	0xc0cafbb1	-6.343224
23	0xc0c6eb4e	-6.2162237
24	0xc0b6b3a7	-5.70943
25	0xc077e5ab	-3.8733928
26	0xc02f3af8	-2.7379742
27	0xc0a4a833	-5.145532
28	0xc0eb4315	-7.3519387
29	0xc0b681f9	-5.703366
30	0xc107cbf0	-8.487289
31	0xc0fc9b90	-7.8939896
32	0xc082cee3	-4.0877547
33	0xc102c2c9	-8.172555
34	0xc0c4df67	-6.152271
35	0xc0d34d0f	-6.6031566
36	0xc0e1bd0b	-7.0543265
37	0xc0854c14	-4.165537
38	0xc0c52927	-6.1612735
39	0xc097227c	-4.7229595
40	0xc0660c9d	-3.5945199
41	0xc0cbd8a6	-6.3701963
42	0xc0accd1b	-5.4000373
43	0xc0e84c1b	-7.25929
44	0xc06696a2	-3.602944
45	0xc0cabd9d	-6.335646
46	0xc0b7e96a	-5.747243
47	0xc07c82e4	-3.945489
48	0xc091d416	-4.5571394
49	0xc08bbe39	-4.3669705
50	0xc103a6e2	-8.228243
51	0xc080b5a7	-4.0221744
52	0xc0afdb56	-5.4955244
53	0xc0c616c7	-6.1902804
54	0xc093fedd	-4.6248612
55	0xc02f571c	-2.7396917
56	0xc0537fc6	-3.3046737
57	0xc0a21f8f	-5.0663524
58	0xc06734b8	-3.6125927
59	0xc0c46c22	-6.1382
60	0xc0d0a132	-6.519677
61	0xc04c51ea	-3.1924996
62	0xc06dedee	-3.717647
63	0xc0a0a507	-5.020145
64	0xc04b9575	-3.1809971
65	0xc0c4be7e	-6.1482534
66	0xc082da7a	-4.0891695
67	0xc0a42d6c	-5.1305447
68	0xc0b2cada	-5.587262
69	0xc02ca726	-2.697702
70	0xbff783a2	-1.9337046
71	0xc061c11d	-3.5274117
72	0xc09c7069	-4.888722
73	0xc071dbd2	-3.7790418
74	0xc079e560	-3.904625
75	0xbfcaabde	-1.58337
76	0xc0bb4fb9	-5.853482
77	0xc07eea38	-3.9830456
78	0xc068ddf2	-3.6385465
79	0xc0b9c9d3	-5.8058867
80	0xc11fd1e5	-9.988744
81	0xc0ca3a33	-6.3196044
82	0xc0eaf0f4	-7.341913
83	0xc0e2be33	-7.0857177
84	0xc05c9d20	-3.4470901
85	0xc0d03030	-6.5058823
86	0xc0b98d3d	-5.798491
87	0xc0881c5e	-4.253463
88	0xc086a614	-4.207773
89	0xc095e961	-4.6847386
90	0xc0206e81	-2.5067446
91	0xc0f5d498	-7.6822014
92	0xc09677e8	-4.702137
93	0xc08afb44	-4.343172
94	0xc0970958	-4.7198906
95	0xc07a85f5	-3.914426
96	0xc0aa5f2a	-5.3241167
97	0xc0917bf0	-4.546379
98	0xc0270b8d	-2.61008
99	0xc0a44f4e	-5.1346807
100	0xc09c3f72	-4.882745
101	0xc0a9f9e9	-5.3117566
102	0xc065b400	-3.5891113
103	0xc0840607	-4.1257358
104	0xc0379f3d	-2.8690941
105	0xc059c61c	-3.4027166
106	0xc06b6183	-3.6778266
107	0xc0b104bc	-5.531828
108	0xc069bbf4	-3.6520967
109	0xc013374f	-2.3002508
110	0xc0a1fb4a	-5.061925
111	0xc04fc893	-3.246617
112	0xc0b1353e	-5.5377493
113	0xc0878656	-4.2351484
114	0xc05d3c6e	-3.4568133
115	0xc02f471e	-2.7387156
116	0xc06de59a	-3.7171388
117	0xc082ddad	-4.08956
118	0xc0852f4d	-4.162024
119	0xc006329f	-2.0968397
120	0xc09b992c	-4.8624477
121	0xbfff5b7a	-1.9949791
122	0xbfe4d36b	-1.787702
123	0xc08e7608	-4.451908
124	0xc0e142ff	-7.039428
125	0xc082c044	-4.08597
126	0xc0837a83	-4.108705
127	0xc09db991	-4.928902
128	0xc0bc978f	-5.893501
129	0xc06c62f9	-3.6935408
130	0xc0a66633	-5.1999755
131	0xc07c4f61	-3.942345
132	0xc04b6e28	-3.1785984
133	0xc0b6930e	-5.705451
134	0xc0e5686f	-7.1689982
135	0xc09f96aa	-4.9871416
136	0xc05c9515	-3.4465992
137	0xc0936eb8	-4.6072655
138	0xc0b3cfc5	-5.6191125
139	0xc0a4559a	-5.1354494
140	0xc0811b95	-4.034617
141	0xc0e9b954	-7.303873
142	0xc0a0d6f0	-5.0262375
143	0xc0960d61	-4.689133
144	0xc0905957	-4.5109057
145	0xc0454835	-3.0825322
146	0xc0b8eca4	-5.778887
147	0xc0a0b3c4	-5.021944
148	0xc0400f89	-3.0009482
149	0xc06d835b	-3.7111423
150	0xc0ae7f9c	-5.4530773
151	0xc099e796	-4.80952
152	0xc0a914d7	-5.283794
153	0xc02d6d7e	-2.7098079
154	0xc080fc98	-4.030834
155	0xc07bcdd8	-3.9344387
156	0xc0704127	-3.7539766
157	0xc082a922	-4.083146
158	0xc09608a3	-4.6885543
159	0xc068dffe	-3.6386714
160	0xc0a0bfcb	-5.023412
161	0xc06cba48	-3.6988697
162	0xc08f7df7	-4.4841266
163	0xc095753d	-4.6705613
164	0xc08c3e98	-4.382641
165	0xc0738724	-3.8051233
166	0xc0b129a7	-5.5363345
167	0xc0af4f4a	-5.478429
168	0xc05448b1	-3.3169367
169	0xbfdca022	-1.7236369
170	0xc1142d8d	-9.261121
171	0xc09ac04e	-4.8359747
172	0xbfd1542f	-1.6353816
173	0xc05df99a	-3.4683595
174	0xc0ec7fad	-7.3905854
175	0xc02f94ca	-2.7434564
176	0xc0041726	-2.0639129
177	0xc09099ec	-4.5187893
178	0xc0a5e3c2	-5.1840525
179	0xc08a1d9f	-4.316116
180	0xc09781b4	-4.734583
181	0xc0a41089	-5.1270185
182	0xc018bcd6	-2.3865256
183	0xc043648c	-3.053012
184	0xc0abadce	-5.3649664
185	0xc077530d	-3.864444
186	0xbfcc6049	-1.5966884
187	0xbffaf3df	-1.9605674
188	0xc0ad6a21	-5.419205
189	0xc087165b	-4.221479
190	0xc08f22b9	-4.4729886
191	0xc06a5dbc	-3.661971
192	0xc0377c8c	-2.8669767
193	0xc071482b	-3.7700298
194	0xc0845a39	-4.1360135
195	0xc0a64a2b	-5.1965537
196	0xc054acf7	-3.323057
197	0xc0b47508	-5.639286
198	0xc0b0c3aa	-5.523885
199	0xc05a4707	-3.4105852
200	0xc10504db	-8.313685
201	0xc0b74e6c	-5.728323
202	0xc0ae1310	-5.439827
203	0xc09bb07f	-4.865295
204	0xc06faa7b	-3.7447803
205	0xc08f60f3	-4.4805846
206	0xc022a2d1	-2.5411875
207	0xc0dc0028	-6.875019
208	0xbff0a8bf	-1.8801497
209	0xc0749328	-3.8214817
210	0xc0947416	-4.6391706
211	0xbfa7b290	-1.3101368
212	0xc0d9e1b4	-6.8088017
213	0xc0b705ad	-5.719443
214	0xc08b337d	-4.350035
215	0xc0c04675	-6.0086007
216	0xc03051dd	-2.7549965
217	0xc0b1eaa4	-5.5598927
218	0xc082d911	-4.0889974
219	0xc06f4d1b	-3.7390811
220	0xc0a42db3	-5.1305785
221	0xc05a89a2	-3.4146504
222	0xc0d9c7db	-6.8056464
223	0xc0a3d36c	-5.1195583
224	0xc0c12bc7	-6.036594
225	0xc0ace226	-5.402606
226	0xc09dcf02	-4.9315195
227	0xc093c434	-4.6177006
228	0xc08f6f4e	-4.482337
229	0xc0d1240a	-6.5356493
230	0xc08a8a31	-4.329369
231	0xc0d5fad0	-6.6868668
232	0xc0547af1	-3.3200037
233	0xc0b58edb	-5.6736884
234	0xc0811b9c	-4.0346203
235	0xc0aef8b8	-5.467861
236	0xc0cd8149	-6.422032
237	0xc05c80f8	-3.4453716
238	0xc0786ef4	-3.881772
239	0xc0bbcd3a	-5.868802
240	0xc080a844	-4.02054
241	0xc0c2d7fc	-6.0888653
242	0xc0a29c27	-5.0815616
243	0xc042e08d	-3.0449555
244	0xc07fac58	-3.994894
245	0xc0f2b4fd	-7.5845933
246	0xc0ba5cef	-5.8238444
247	0xc0a63efd	-5.195189
248	0xc036cc2c	-2.8562117
249	0xc0a9fa5d	-5.311812
250	0xc044e399	-3.0763915
251	0xc086cd1f	-4.212539
252	0xc0850300	-4.156616
253	0xc097efe8	-4.7480354
254	0xc05fbae9	-3.495783
255	0xc0a58805	-5.172854
